2. Convolutional Autoencoders/models/autoencoder.pth (torch, 203433 bytes, 19 tensors)

encoder_conv.0.weight f4 [8, 1, 3, 3]
000000 35 af 83 3d 3c 29 b1 bc a0 4c 82 be 4c 92 3e bd
       0.064299025 -0.021626107 -0.25449085 -0.04652624
000010 b5 9d 52 3e e3 ff 91 3d 70 53 8a 3c 57 ac 3c be
       0.20567973 0.07128885 0.01688549 -0.18425117
000020 16 13 85 bd 90 19 6d be b1 ba e9 bd 3b 43 3d 3e
       -0.06497781 -0.23154283 -0.11412562 0.18482678
000030 d5 bb 94 be 79 76 ea 3b 3d 27 9a be 8d 46 1e 3d
       -0.29049554 0.0071552363 -0.3010806 0.0386415
000040 6b 88 85 3e 0d 18 58 3b ea 33 24 3e 47 e0 94 bd
       0.2608064 0.003297332 0.16035429 -0.0726934
000050 c9 8c 85 3c ff aa 13 3e f6 ec f3 bd 0b 46 24 3d
       0.016302483 0.14420699 -0.11910431 0.04010586
000060 47 6d 0e 3e 8b 9d cf 3d 74 ad 72 be a7 bc 96 3e
       0.13908873 0.10137471 -0.2369898 0.29440805
000070 18 c2 9b 3e 90 ef d3 3b 0b f8 d1 3d 42 04 a0 bd
       0.3042152 0.006467767 0.102523886 -0.07813312
000080 54 08 ae 3e aa 92 ee 3d 7e 0b 15 be fa 61 55 3e
       0.3399073 0.11649068 -0.14555165 0.20838156
000090 35 3b 24 37 a1 4f 64 a9 4d 95 6a 2c e7 d9 99 bd
       9.788947e-06 -5.0695237e-14 3.3336279e-12 -0.07512265
0000a0 96 67 4c b4 6d 00 cf bd 79 66 8a bb e0 ee 4c bd
       -1.9036665e-07 -0.10107503 -0.0042236415 -0.050032496
0000b0 a8 8c 05 bd 19 a7 11 3e 73 67 ca bc ee 0d b5 3e
       -0.032604843 0.14223899 -0.024707532 0.3536219
0000c0 05 ae 2d be c2 b7 f2 bd 24 02 1a bd ce 07 7a 3e
       -0.16960914 -0.11851455 -0.037599698 0.2441704
0000d0 ed 09 ae bd fd d4 20 3e 85 ae 68 be dc 44 81 3e
       -0.08497987 0.15706249 -0.22722824 0.25247848
0000e0 14 d2 64 be c1 6f 85 bd e1 5e 4a bd c0 91 c3 3d
       -0.22345763 -0.06515456 -0.04940689 0.09549284
0000f0 fb d5 93 3e fc 87 7a 3e 8a 78 8c bd c5 38 6e 3d
       0.28874192 0.24465936 -0.068589285 0.05815961
000100 d6 cb 8b 3d e5 2c 09 3d 40 66 49 3d 98 03 b8 3e
       0.06825988 0.03349008 0.04916978 0.35940242
000110 d6 e1 93 3e 1e f5 a9 3c 63 3d 38 bd ea db 30 be
       0.28883237 0.020746764 -0.044980418 -0.1727139

encoder_conv.0.bias f4 [8]
000000 43 31 4e 3e 54 39 a6 3e de 97 b7 3d ef 1f 00 be
       0.2013598 0.32465613 0.08964513 -0.12512182
000010 d1 88 e8 bd c0 31 19 bd 4c fc ea 38 ac 55 04 be
       -0.11354221 -0.03740096 0.000112049835 -0.12923306

encoder_conv.2.weight f4 [16, 8, 3, 3]
000000 f3 ff 7c b7 51 b7 71 b8 a7 be 22 a8 59 61 24 28
       -1.5079963e-05 -5.7629604e-05 -9.034148e-15 9.124938e-15
000010 30 dc 31 ba 24 ab 9f 25 4d 05 26 ae 31 29 47 38
       -0.00067848247 2.7698073e-16 -3.7748738e-11 4.748366e-05
000020 9b c0 e2 b9 d9 40 fe 37 fd 36 78 29 9b 95 2e 2b
       -0.0004324958 3.0309357e-05 5.5114757e-14 6.202484e-13
000030 8f 7a 81 b9 26 2e c2 a7 e3 b1 a2 a8 37 ff 72 a8
       -0.0002469611 -5.389585e-15 -1.8062759e-14 -1.34890395e-14
000040 6b 58 23 a8 b5 d0 8a 28 3e d8 80 2f 20 d8 16 b9
       -9.06749e-15 1.541159e-14 2.3436714e-10 -0.00014385628
000050 3f 7e 21 ad 77 ba e0 a8 8f 8e 31 b8 ea b2 29 ba
       -9.179823e-12 -2.4949862e-14 -4.2332857e-05 -0.00064734987
000060 29 f7 21 b7 c1 ac f7 ab e8 6b 7f aa 01 5a 3b aa
       -9.653894e-06 -1.7598354e-12 -2.2685987e-13 -1.6640163e-13
000070 fc d2 3e 3a 7e fd 7d 29 e4 6d c3 b9 ec 63 30 af
       0.0007279364 5.6397154e-14 -0.00037275173 -1.6042606e-10
000080 5f a6 56 ba 26 d1 33 26 71 5f 7c 31 0a ee 29 ac
       -0.00081882434 6.238655e-16 3.6725079e-09 -2.4148483e-12
000090 b0 25 fb 29 58 4d 02 3b c2 d9 30 ad 00 b7 c1 2b
       1.1153177e-13 0.0019882526 -1.0052794e-11 1.3764268e-12
0000a0 17 89 27 aa 5a 8d 2b ab 4f ef 97 a7 3c 8b b5 ad
       -1.4880142e-13 -6.094757e-13 -4.217038e-15 -2.063915e-11
0000b0 f1 be 74 b7 13 43 12 30 d2 4e ba ae a1 60 ac b7
       -1.458799e-05 5.320981e-10 -8.472302e-11 -2.0548994e-05
0000c0 e7 09 87 a9 e8 58 9e 2b ac db a6 3a 8b 01 69 b8
       -5.996922e-14 1.1251252e-12 0.0012730262 -5.5552966e-05
0000d0 1f 89 87 3a 45 f3 8f ba 38 b0 a5 b7 01 84 f8 35
       0.0010340548 -0.0010982534 -1.9751591e-05 1.8515858e-06
0000e0 76 c6 14 bb 78 f4 63 b4 42 55 70 b7 76 24 19 36
       -0.00227013 -2.122996e-07 -1.4324965e-05 2.282e-06
0000f0 97 af ba 34 0d dc 03 b6 54 d4 65 aa 3c 2c cc 37
       3.4772958e-07 -1.9648608e-06 -2.0412952e-13 2.4339293e-05
000100 d0 d4 0f bb d4 b6 30 27 29 a5 b2 25 fb b4 54 ba
       -0.0021946914 2.4524018e-15 3.0989995e-16 -0.00081141264
000110 4d 7b 48 ac e3 c4 a5 38 d4 8a f1 a8 2c 59 3d af
       -2.8490155e-12 7.904486e-05 -2.6816582e-14 -1.722113e-10
000120 56 4b d5 3d 0c ba d1 3d b9 e2 16 3d e5 22 1b 3e
       0.1041476 0.10240564 0.036837313 0.1515003
000130 11 36 95 3d 35 52 18 3e 59 38 e5 3d f3 57 74 3d
       0.07285703 0.1487511 0.11192388 0.059654187
000140 19 4a 37 3d ad 77 9f 3d 1c fa 6a 3d c4 f7 f8 3d
       0.0447484 0.07786498 0.05736743 0.121566325
000150 ed 83 ab 3d e2 49 e3 3d d4 68 e6 3d 94 71 a4 3d
       0.08374772 0.110980764 0.11250463 0.08029476
000160 7a dd ba 3d 96 f4 22 3e fb ca f8 bc 09 ec b8 3d
       0.091242746 0.15913615 -0.030370226 0.09029395
000170 42 c7 3b 3d 37 c3 98 3d a3 49 43 3c 35 28 24 bd
       0.045844324 0.07459109 0.011919412 -0.040077407
000180 c2 93 58 bd ba 53 80 3c 76 d9 b0 3d 9d af 9b bd
       -0.052875288 0.015664924 0.086352274 -0.07601855
000190 db dc 3e bc c8 58 b8 bd 2b a2 0c bc 7e 9f 9f bd
       -0.011649336 -0.09001309 -0.008583586 -0.077940926
0001a0 4e 30 2e 3d 4f 44 58 3d 23 ab 54 bd 81 81 76 bc
       0.042526536 0.05279952 -0.05192102 -0.015045525
0001b0 5f fe a4 a9 5e 2f f4 39 c9 b5 ae a9 94 ab 4c a9
       -7.3271894e-14 0.00046574598 -7.758687e-14 -4.544592e-14
0001c0 92 45 33 2b 32 49 82 29 0f 34 6f 3a 23 79 18 29
       6.3690123e-13 5.785857e-14 0.0009124884 3.385585e-14
0001d0 d2 7b d8 30 9c e0 c9 3d 39 d8 f3 3c fd 32 c3 3c
       1.575126e-09 0.09857294 0.029766189 0.023828024
0001e0 6b a0 83 3d 9f 64 70 3c 70 d1 5e 3b 73 9e a3 3c
       0.06427082 0.014672427 0.0033999346 0.019973015
0001f0 09 75 3d bd 45 a9 01 3c 55 57 08 bd db a0 d8 bd
       -0.04625419 0.007913892 -0.03328641 -0.10577556
000200 c7 e2 8d 3a 26 2b a5 bd 24 1a 1d bd 39 bb 90 bc
       0.0010825031 -0.080648705 -0.038355008 -0.0176674
000210 30 20 6b bd 1c e0 20 bd c9 00 b2 3c d1 88 db 3d
       -0.057403743 -0.039276227 0.02172889 0.10719455
000220 4a f8 c6 3a ce 48 ec 3d ae 9f b4 bd bf 40 02 be
       0.0015180197 0.11537324 -0.08819519 -0.12720011
000230 52 33 cf bc 2c fd 4e 3c 9e e2 85 bc 93 b6 34 3d
       -0.025293026 0.012633603 -0.016343411 0.04411943
000240 43 52 0d 3e 43 e4 b0 3d 93 a9 11 3c f0 db da 3d
       0.13800912 0.086372875 0.008890527 0.10686481
000250 4c ea 97 3d e5 1e 1a 3d eb aa 39 3e ef f8 c7 3d
       0.074177355 0.03762712 0.18131606 0.09764277
000260 ef c6 10 3e 2e e9 13 3e 4b b8 2a 3d ba c8 e9 3d
       0.14138387 0.1444442 0.04167966 0.11415239
000270 1d 68 4b 3a 3e 02 30 3e 16 a8 14 3e a2 ec 98 bc
       0.00077593495 0.17188355 0.14517245 -0.018667523
000280 8e cb 10 3e a2 3d ea 3d 02 36 aa 3d 61 c0 79 bc
       0.1414015 0.11437537 0.083110824 -0.015243621
000290 58 39 73 bd ed 6d 2c 3c 5e 29 99 3c bb 3a db bb
       -0.05938086 0.010524255 0.018696483 -0.006690351
0002a0 1f f5 1b 3d cf 25 ba 3c 34 ce bc 3c 8c 2c 2a 3d
       0.038075563 0.022723107 0.023047544 0.04154639
0002b0 df ef 65 bd b6 53 99 bc aa ba 4f bd c8 ae 73 bd
       -0.056136962 -0.018716674 -0.050715126 -0.059492856
0002c0 00 4c 95 3d 37 c6 aa 3d 7a 51 bc bd 1d 74 9c 3c
       0.072898865 0.08338588 -0.09195228 0.019098336
0002d0 fd 76 07 aa 1c 14 e2 ad c6 4d 95 b0 59 58 ff 27
       -1.2031691e-13 -2.5702156e-11 -1.0863281e-09 7.0872505e-15
0002e0 23 9c 59 31 ee e5 02 3b ad d2 2b b9 a8 25 97 b8
       3.166641e-09 0.0019973475 -0.00016386314 -7.207255e-05
0002f0 a4 f6 ab a8 f9 fb 55 3c a9 76 bd 3c 75 88 a3 3d
       -1.9091777e-14 0.013060563 0.02312787 0.079850115
000300 19 24 2e 3d 7f 1c b0 3c 6b 53 b8 3d d5 51 9b bd
       0.042514894 0.021497963 0.09000286 -0.075839676
000310 ef 5d 2f bc c2 9e 47 3d a4 39 fa bb 4f 58 09 be
       -0.010703548 0.048735388 -0.007636266 -0.13412593
000320 7c f3 f7 bd af 14 2c 3d 55 21 49 bd a6 dc 6f bd
       -0.12106988 0.042011913 -0.049104054 -0.058560036
000330 bd 20 79 3c 3c d0 ca bd af 95 8a 3c 32 3a be 3d
       0.015205559 -0.09902999 0.016917078 0.092884436
000340 b6 e0 73 3c a5 ab df 3b ef 11 ab bd 22 a4 0f be
       0.014885118 0.0068258815 -0.0835303 -0.14027455
000350 72 0e e4 bc 66 62 04 3d d7 e0 f1 bc 4e fa b7 3c
       -0.02783892 0.032320403 -0.029526157 0.022458222
000360 4a 9f cf 3d 13 7b bd 3d 35 76 a7 3d 82 6c a7 3c
       0.10137804 0.0925199 0.08176843 0.020437483
000370 4a 20 0b 3e e8 3c ec 3d 5c 8b d0 3d 4f b6 e9 3d
       0.13586536 0.115350544 0.10182831 0.11411726
000380 38 02 9b 3d cf 59 1f 3e c6 e7 39 3d 66 6b 4b 3c
       0.075687826 0.15561603 0.045387052 0.0124157425
000390 d6 10 1b 3d d2 a3 09 3e 73 b7 7c b9 da 71 9c 3d
       0.037857853 0.13441399 -0.00024100933 0.07638903
0003a0 03 13 42 3d a8 15 a5 3d 3f 81 5f 3d a7 52 09 3d
       0.047381412 0.08060771 0.054566618 0.03352609
0003b0 a7 ac 16 3d 9e 0d 1f 3d 69 18 ac 3d 14 08 2d 3d
       0.036785748 0.038831346 0.08403093 0.042244032
0003c0 26 0e 22 3d 57 f9 7f 3d 12 5a 4e 3d 1a 10 06 3d
       0.039564274 0.06249365 0.050378866 0.0327302
0003d0 a0 fa 7a bd c6 0e 36 3c d6 5a 50 3c 3e a8 bf bc
       -0.06127417 0.011111921 0.0127169695 -0.023395654
0003e0 16 ea 1c bd 6f a3 15 3d a0 75 04 be 38 06 16 3b
       -0.03830918 0.036532816 -0.12935495 0.002289189
0003f0 37 bb 91 ba eb 19 17 b9 60 1c a3 29 1f 53 0b bb
       -0.0011118416 -0.00014410137 7.2435764e-14 -0.002125926

encoder_conv.2.bias f4 [16]
000000 92 ab 05 bb 3b 23 14 3e ce a0 9f 3d 06 72 02 3e
       -0.0020396453 0.14466564 0.07794343 0.12738809
000010 9c 58 b1 3d 91 1d 73 3d 32 15 a8 3d ee 45 81 3d
       0.08659479 0.05935437 0.08207168 0.06312166
000020 47 ff 43 3d 67 e4 ad 3d a4 9f 15 3c 58 65 47 3d
       0.047850873 0.0849083 0.0091323 0.048680633
000030 8c 92 75 3d c3 62 81 3d 74 08 71 3d f7 91 f7 3d
       0.05995421 0.063176654 0.058845952 0.120883875

encoder_conv.4.weight f4 [32, 16, 3, 3]
000000 88 be ad b5 b8 52 c5 2a 7d d9 a1 ad 09 eb 6c af
       -1.2944956e-06 3.5051627e-13 -1.8400165e-11 -2.1547576e-10
000010 8a 79 54 2a 32 ba 0c ab 23 34 4a b1 15 ea 79 b6
       1.887155e-13 -4.999639e-13 -2.9424505e-09 -3.7240145e-06
000020 49 87 7f a9 6c 48 3a 3d b4 3a 92 3c 29 30 84 3d
       -5.6738715e-14 0.045479223 0.017850257 0.06454498
000030 fe d9 84 3d c2 b1 51 3d 2c de 87 3d 91 5b f9 3c
       0.06486891 0.051194914 0.06634173 0.03043917
000040 91 13 28 3a 9d f6 8f 3d 4a ac 0b 3d 03 d9 93 3d
       0.0006411607 0.070294596 0.034099855 0.07219126
000050 88 64 69 3c 98 b9 59 3d d2 19 a8 3d 2f 41 89 3d
       0.01424516 0.05315551 0.0820805 0.06701886
000060 f7 8b eb 3b 17 d6 03 3d 31 19 8b 3d f3 f6 16 3d
       0.007188316 0.032186594 0.06791914 0.036856603
000070 79 79 53 3d d7 8c f4 3c 0c c9 9d 3d ed 6f 4b 3d
       0.051629517 0.029852314 0.07704362 0.049667288
000080 a7 01 31 bb d3 34 17 3d 23 98 83 3c 30 68 06 3c
       -0.0027009042 0.03691561 0.016063755 0.008203551
000090 dd b2 19 3d 6d 92 50 3d 60 e5 22 3d d4 ca c8 3d
       0.037524093 0.050920893 0.03976953 0.098043114
0000a0 da ef 93 3d b4 ea 7c 3d 00 28 4e 3d ea 21 8a 3d
       0.072234824 0.061747268 0.050331116 0.0674475
0000b0 7f a5 7a 3d bb fb c2 3c 82 2e fa 3d e5 5e 01 3d
       0.061192986 0.023801675 0.12215902 0.03158464
0000c0 a9 3a ab 3d 50 94 dd 3d 41 ea d9 3d 19 e0 4c 3d
       0.08360798 0.10819304 0.106403835 0.050018404
0000d0 b1 21 51 3d 84 d1 96 3d a4 0f bf 3c 23 b5 cc 3d
       0.05105752 0.07364181 0.023322888 0.099954866
0000e0 63 c7 33 3d 46 64 99 3d 08 41 d2 3d ee 0c 90 3c
       0.043891322 0.07489829 0.1026631 0.01758429
0000f0 0f 59 16 3d cc df 3a 3d 6b a4 57 3d 4e c4 1e 3d
       0.036706027 0.045623586 0.052647036 0.03876143
000100 17 ae 6f 3d 01 b1 b0 3d d3 88 6f 3d 28 3e d7 3d
       0.058515634 0.08627511 0.058480095 0.10509902
000110 27 77 73 3d eb aa 38 3d 18 53 8d 3d e0 26 5b 3d
       0.059439804 0.045084875 0.069006145 0.05350387
000120 05 f9 c4 bb c7 69 6e 3d 9a 3a 61 3d 74 e0 5a 3d
       -0.0060111308 0.058206346 0.054987527 0.05343671
000130 59 5e b3 3c ef c7 c3 3d ac ad 2e 3d ff 9e 53 3c
       0.021895574 0.09559619 0.042646095 0.012916326
000140 e8 47 b8 bb 59 3d e9 3c 71 17 c2 3d 5a 9a 85 3c
       -0.0056238063 0.028471636 0.09477127 0.016308952
000150 e1 be ae 3c 4a 18 44 3d e8 23 83 3d 1f 85 12 3d
       0.021331253 0.047874726 0.06403333 0.035771485
000160 70 3a b9 3d 84 95 4b 3d 4a 5d e8 3b 29 3f 93 3d
       0.09044349 0.049703136 0.007091199 0.07189781
000170 aa 1b 18 3d 37 85 2b 3d 42 f7 01 3e 20 5f bb 3d
       0.037135758 0.04187509 0.12691978 0.09149003
000180 b6 67 9c 3b 79 88 9b 3d 22 9b b2 3b 10 35 e3 3c
       0.0047731055 0.075943895 0.005450622 0.027735263
000190 8c 36 9c 3d e7 ed 8f 3c 41 67 82 3d d4 2b 8d 3d
       0.076275915 0.017569495 0.0636735 0.06893125
0001a0 5e aa 81 3d a5 53 3b 3d 0f 6f e1 3d 29 d7 ab 3d
       0.06331323 0.045734067 0.11007511 0.08390648
0001b0 8d e0 a4 3c 87 c6 f9 bc 10 9c 31 bd 44 44 e0 bc
       0.020126605 -0.030490173 -0.043361723 -0.027376302
0001c0 67 a8 7d bd ce 25 93 bd 4a 84 31 3d 76 b7 84 bd
       -0.06192818 -0.07184945 0.04333905 -0.06480305
0001d0 7c e9 da bc 67 e7 97 3d 04 40 82 bc 2d 4c 4a 3c
       -0.026722662 0.07417183 -0.015899666 0.012347263
0001e0 4c 1f 2d 3d f7 01 0d bd 28 c3 a7 bc 11 61 a7 3d
       0.042266175 -0.034425702 -0.0204788 0.08172811
0001f0 13 90 8b bc 23 a0 e4 3b 86 53 26 3d 5a 1b be 3d
       -0.017036473 0.0069770976 0.040606998 0.09282561
000200 08 fe bf 3d e7 24 94 3c ad 88 09 3d 49 59 a8 3d
       0.093746245 0.018084003 0.03357761 0.08220155
000210 60 ae 46 bc 53 35 d9 3d 41 48 bc 3d b0 9b 91 3d
       -0.012126535 0.10605874 0.09193469 0.07109773
000220 dd c1 16 3d 2f 8f 36 3c 61 a4 80 3d 4e e0 6b 3d
       0.036805976 0.011142536 0.06281353 0.05758696
000230 0a 79 bd 3d fd 55 53 3d 8f 07 0f 3d 25 66 ad 3a
       0.09251602 0.051595677 0.034919318 0.0013229294
000240 f8 83 1d 38 b6 30 b2 b3 f4 c7 b9 a8 ea 85 01 36
       3.7554622e-05 -8.2976314e-08 -2.0625842e-14 1.9300446e-06
000250 b5 d3 03 b7 8e e2 0b 2f db a0 c2 29 72 e5 6a 34
       -7.8575e-06 1.2722465e-10 8.6432346e-14 2.187642e-07
000260 e9 17 db a7 e2 47 90 bd 4b ad 1c be 0e 5e f7 bc
       -6.0810634e-15 -0.070449606 -0.15300481 -0.030196216
000270 93 55 9c bd 32 bf 76 be c4 4a b7 bd 9c 5a d7 bd
       -0.076335095 -0.24096373 -0.08949807 -0.10515329
000280 8e 26 85 be 7c 36 1d be 62 7e ba bd 53 d1 17 be
       -0.26005977 -0.15352815 -0.09106137 -0.14825945
000290 c6 b1 bc bd b5 fd 71 bd f0 d0 64 be 1f e4 3e be
       -0.09213595 -0.059079845 -0.22345328 -0.18641709
0002a0 42 bc 90 bd c4 ee 7f be 06 4c 6d be 30 38 09 be
       -0.07067157 -0.24993426 -0.23173532 -0.1340034
0002b0 96 a9 25 be 8e c0 95 bd 74 c3 04 be 98 69 7f be
       -0.16177973 -0.073121175 -0.12965184 -0.24942625
0002c0 9a d0 f5 bd 2e b9 12 be f3 20 83 be 90 ff 40 be
       -0.12002678 -0.14328453 -0.25611076 -0.1884749
0002d0 dd 4a 06 be 44 5c 23 be 96 ef f9 bd 8c 70 5f bd
       -0.13114496 -0.15953165 -0.122039005 -0.054550692
0002e0 63 b5 5c be 14 8b 33 be 8c 78 ca bd 8f 19 78 be
       -0.21553569 -0.17533523 -0.09886274 -0.242285
0002f0 b0 fc 7b be 00 b3 97 bd 4c 79 07 be af fc c9 bd
       -0.24608111 -0.074071884 -0.13229865 -0.09862649
000300 55 7a e6 b9 91 15 68 be 2c 71 33 be 5f c1 45 bd
       -0.00043960163 -0.22664477 -0.1752364 -0.048280116
000310 d3 c0 75 be 87 3f 86 be 3e af a7 bd e3 29 2d 3b
       -0.23999338 -0.26220343 -0.08187722 0.0026422672
000320 01 32 7e bd cb ac b2 bd 92 e4 ed 3a 26 b5 fa bd
       -0.062059406 -0.08724364 0.0018149784 -0.122415826
000330 9a 82 a8 bd e7 c4 80 bd 64 47 65 be 70 42 0a be
       -0.08228035 -0.06287556 -0.22390515 -0.13501906
000340 2b 68 25 be bb 80 1a bd 52 d6 fc bd 49 ca 51 be
       -0.16153018 -0.037720423 -0.12345566 -0.20487322
000350 29 ee a1 bd d2 0e 0f be 3c ca 5c be 3e 7d 30 be
       -0.079067536 -0.13970497 -0.21561521 -0.17235276
000360 c7 fc d2 bd 2c de 03 be cb 1e be bd 36 f1 93 bd
       -0.1030212 -0.1287772 -0.09283217 -0.07223742
000370 50 97 4a be b1 6a 28 be 9a 47 bf bd 84 00 77 be
       -0.19784284 -0.1644695 -0.09339829 -0.2412129
000380 dd 57 84 be 91 68 b0 bd b2 64 e5 bc 92 58 c8 bd
       -0.25848284 -0.086136945 -0.028002117 -0.097825184
000390 3b 2e 3d bd b8 07 03 3c 0d e3 01 be 96 47 a7 bc
       -0.046186667 0.007997446 -0.12684269 -0.020419877
0003a0 74 c3 fa bc dd 31 53 be 8f e8 c2 bd 78 ae ae 3c
       -0.030610777 -0.2062449 -0.09517013 0.021323428
0003b0 e0 c6 99 bd 12 08 56 bd a1 db c6 3a c2 10 ed bd
       -0.075086355 -0.05225379 0.0015171656 -0.11575462
0003c0 1b b0 75 bc 72 46 b1 bc e6 35 48 be 5b ec 7b bd
       -0.0149956 -0.021640036 -0.1955181 -0.061504703
0003d0 ab 71 c7 3b 37 e2 da bd 0a 84 9a bc dc 2b af ba
       0.0060865483 -0.10687678 -0.01886179 -0.0013364512
0003e0 9b 27 07 be 1c 8c 6f 3c b4 69 77 bc b1 b8 3b be
       -0.13198702 0.014620807 -0.015100885 -0.18332173
0003f0 dc a8 92 3d 2a 57 1e 3e 7d 1a f3 3d e0 43 d8 3d
       0.071611136 0.15462938 0.118702866 0.10559821

encoder_conv.4.bias f4 [32]
000000 12 dd c4 3d ff ff 48 3c 5b 85 a9 3d 00 f5 af 3c
       0.09612478 0.0122680655 0.08277389 0.02147913
000010 8a a0 df 3d 9d b4 a0 3c ab 36 c3 3d c9 db a0 3d
       0.10919292 0.019617373 0.095319115 0.07854421
000020 33 81 8a 3d f7 47 da 3d 22 6c d8 3b b3 e3 a3 3d
       0.06762924 0.106582575 0.0066046873 0.080024146
000030 ec 7a d8 3d bd 45 be 3d 40 49 ad 3d d0 c6 fb 3d
       0.105703205 0.09290645 0.08461237 0.1229378
000040 c6 0b e0 3d 03 63 91 3d 7c a8 87 3d 21 a5 30 3d
       0.109397456 0.07098963 0.06623933 0.04312623
000050 ee 40 48 3d 8b 37 07 3e 6c 3d 36 3d 49 ce cd 3c
       0.048890047 0.13204782 0.04449217 0.025122778
000060 53 68 95 3c 4b fc 18 3d ce 2d 27 bb ea d7 c8 3d
       0.018238222 0.03734998 -0.002550948 0.09806807
000070 50 16 0b 3d 60 c2 e7 bb 7b 42 ce 3c 86 a1 51 3d
       0.033956826 -0.007072732 0.025178185 0.05117943

encoder_lin.0.weight f4 [64, 288]
000000 99 c1 02 3d a2 e6 51 bd 6b 0d 3d 3d 01 ce 6b 3d
       0.03192291 -0.05124534 0.046155374 0.057569508
000010 0c 69 26 3d 44 11 35 3d 3a 11 60 3d 99 6d b4 3c
       0.040627524 0.04420592 0.05470393 0.022024916
000020 ba 03 10 3d 26 aa 03 3d ce d0 28 3e 4d 81 0c bc
       0.035159804 0.032144688 0.16485903 -0.00857575
000030 dd d4 e9 bd 6a 60 e9 3d db f7 b3 bd c8 9f b2 bd
       -0.114175536 0.11395343 -0.08787509 -0.08721882
000040 81 8f 1f 3e 1a 68 54 bc 4b 1b cd 3c bc ca 57 bc
       0.15582086 -0.012964273 0.025037428 -0.013170894
000050 2a d1 86 3c da 86 7f 3d d5 b0 5a 3d 76 f7 19 3d
       0.01645716 0.062384464 0.053391296 0.037589513
000060 d9 8d 42 3d 6b 9d 9e 3c 43 59 47 3d fb 08 30 bc
       0.047498558 0.019362172 0.04866911 -0.010744329
000070 12 b4 1d bd f9 c2 90 3c 86 e9 39 3d b5 52 14 3c
       -0.038501807 0.017671095 0.04538872 0.009052922
000080 11 0b c2 3d ff 7a 9d 3d aa 1d 3d 3d 8d df 3e 3d
       0.09474767 0.07689475 0.046170868 0.046599913
000090 d9 8c 97 3c 30 0d e1 b9 0b ef 26 3d 49 d3 80 3d
       0.018499779 -0.0004292517 0.040755313 0.062902994
0000a0 10 de 6a 3c b6 92 6c 3d 73 d3 2c 3d 63 bf 09 3d
       0.01433517 0.057757102 0.04219384 0.033629786
0000b0 4b b6 fe 3c af ce 90 bc d8 f8 35 bd 13 17 98 3c
       0.031092783 -0.01767668 -0.04442677 0.01856569
0000c0 dd ec 3e 3d 84 16 4a 3d f8 e1 e7 3d 8a ea 3c 3d
       0.04661261 0.04933788 0.11322397 0.04612211
0000d0 57 bb 49 3d 5a e1 5b 3d 5a 4c c9 bc 03 b5 a3 bc
       0.049250927 0.05368171 -0.02457254 -0.019983774
0000e0 38 41 f8 3a e0 1c 79 3c c8 f3 52 3d 6a fc 95 3d
       0.0018940335 0.015204638 0.05150202 0.07323535
0000f0 d6 d5 41 3d 51 a7 05 bc 77 53 3a 3d ad af a2 bd
       0.04732307 -0.008157567 0.045489755 -0.07943664
000100 af 04 a8 3c 48 66 d5 bd 81 6a 96 bd ba aa 6c bd
       0.020510046 -0.10419899 -0.07344533 -0.057780005
000110 9e 7d 9c bd 95 72 be bd 83 47 ce 3c f8 48 5b 3d
       -0.07641147 -0.092991985 0.025180584 0.053536385
000120 02 0b 07 3d a8 aa 78 3d 27 2f c4 bd da 49 b0 3b
       0.032969482 0.060709625 -0.09579306 0.0053798975
000130 ae 16 ac bc 07 9e 31 be 53 d0 f1 3c 10 2f df 3d
       -0.021006908 -0.17345439 0.029518282 0.10897648
000140 b5 35 39 be 43 14 20 bd a2 0b 80 bc 56 45 0b be
       -0.18086894 -0.039081823 -0.015630547 -0.13600668
000150 c6 60 8c bd ec 1a 92 bd d1 5a e8 bd 18 40 89 bd
       -0.068543956 -0.07134041 -0.11345447 -0.06701678
000160 6c 93 aa 3d 71 4a 6e bd 55 6e a0 bc 4e 8f a6 bd
       0.083289 -0.05817646 -0.01958386 -0.08132802
000170 bc da fd 3b d6 f3 2e 3d f4 2a 45 3d a9 61 88 3d
       0.0077470224 0.04271301 0.048136666 0.06659252
000180 ae 5c 8f 3d aa 12 aa 3c 54 ee 28 3d 12 ac 93 bb
       0.07000099 0.020760853 0.041242912 -0.0045065964
000190 f6 e8 b3 bb 16 f3 8f 3b 67 58 5e 3d 71 b8 58 3d
       -0.0054904176 0.004392992 0.054283526 0.052910272
0001a0 6f e2 af 3d a2 ff 8d 3d c9 1a 01 3d 50 1d 51 3d
       0.08588111 0.06933524 0.031519685 0.051053345
0001b0 16 de 4a bd ab 5f f6 bc 62 31 17 be ff 81 80 bd
       -0.049528204 -0.030074915 -0.14764932 -0.06274795
0001c0 4d 90 8a bd 4f 1b cd bd fd b3 4e bd 2c 91 e5 3d
       -0.067658044 -0.10014974 -0.05046462 0.1120933
0001d0 dc 09 a8 bc 8d 7a 8f bd 25 61 a2 bd c6 a2 09 be
       -0.020512514 -0.070057966 -0.07928685 -0.13441
0001e0 98 e1 ca bc f7 da 9a bd f4 8a 5f ba ea 8c 6e bd
       -0.024765775 -0.075612955 -0.00085274805 -0.058239855
0001f0 3c a2 96 3d 34 96 b5 3d 91 42 2d bc cf 09 ae bc
       0.073551625 0.088665396 -0.010574953 -0.021244911
000200 ca ea 04 3d b8 be 63 3d 32 8d 7a 3d 52 36 a2 3d
       0.032450475 0.055601805 0.06116981 0.07920517
000210 ae 56 f0 3c 0d 07 53 3d 45 f6 4b 3d 0c 95 a8 3c
       0.029338207 0.051520396 0.049795408 0.020578884
000220 95 2d af bb d2 22 12 3d 4a 87 38 3d 89 c5 18 3d
       -0.00534601 0.03567774 0.045050897 0.03729776
000230 bf 80 af 3d 42 a7 98 3d 59 7f 8b 3b 00 ab 8d 3d
       0.08569478 0.07453777 0.0042571244 0.06917381
000240 6c 98 f2 bc a3 36 30 3c c2 a1 0b be ef e9 43 bd
       -0.029613696 0.010755214 -0.13635924 -0.04783052
000250 a3 ec 3d bd 0d a4 bb bd e7 20 3d bd dd e0 02 3e
       -0.046368252 -0.091621496 -0.046173956 0.12781091
000260 fd 4e 8b bc dc ce 13 bd 22 5d 38 3e 7c bb 6b bd
       -0.017005438 -0.03608595 0.18004277 -0.057551846
000270 2e 3e 69 bd d5 b9 a9 3d 1e 42 20 be d5 2c 45 3d
       -0.056944065 0.08287398 -0.15650222 0.04813846
000280 68 92 10 3e f9 f3 b2 bd 98 18 b8 3b 68 16 e3 bc
       0.1411835 -0.0873794 0.005618166 -0.027720645
000290 5a fa 53 3b 40 55 5c 3d 0c 59 2f 3d 53 14 aa 3d
       0.0032345266 0.05379224 0.04280953 0.08304658
0002a0 95 5c 85 3d 4c ab 4a 3c c4 78 ca 3c 4b 04 19 bb
       0.06511799 0.012369942 0.024715789 -0.0023348506
0002b0 a0 a7 da bb b5 d5 05 3d f4 b3 9f 3d 25 b9 74 3d
       -0.0066728145 0.03267451 0.07797995 0.05974688
0002c0 a8 ff a3 3d 0e d1 f9 3c c0 84 05 3d c9 5e 84 3c
       0.08007747 0.030495193 0.032597303 0.016158478
0002d0 a6 74 05 3d 86 a5 7a bc 4f 2d a6 3b 4b fa e9 3c
       0.032581948 -0.015298253 0.005071319 0.028561732
0002e0 52 ca 7f 3d 78 51 92 3d 86 59 c9 3c 05 24 1b 3d
       0.062448807 0.07144445 0.02457882 0.037876148
0002f0 e7 81 47 3d 74 d4 e2 bd 77 20 04 be 6f ea 97 3d
       0.04870787 -0.110756785 -0.1290301 0.074177615
000300 06 de 6b bd df c5 74 bd 48 6d e7 3d 1d 66 14 3c
       -0.057584785 -0.059759017 0.113001406 0.009057549
000310 f1 ff 4d be 32 04 1f 3d af a6 7f bd bb 01 29 3e
       -0.20117165 0.03882236 -0.06241482 0.16504566
000320 a9 af 54 bd fe 37 c1 bd 2f de b0 3d 18 89 31 be
       -0.051925335 -0.09434508 0.08636128 -0.17337453
000330 20 44 01 3d 17 b0 11 3e 46 12 df bd cc 39 ab 3c
       0.03155911 0.14227329 -0.10892157 0.020901583
000340 b4 94 bc bc 3e d2 09 3d 1f 53 77 3d aa bf 89 3d
       -0.023020126 0.03364777 0.060382005 0.0672601
000350 bf dd b2 3d e6 46 6a 3d 98 a3 58 3c 4d 36 61 3d
       0.08733701 0.05719652 0.013222598 0.054983426
000360 eb 56 f8 bc 6a 6e 72 bd c6 6a a9 3c 35 ad 10 3d
       -0.030314883 -0.05918733 0.020680796 0.035321433
000370 89 59 57 3d 74 17 e1 3d 04 56 c0 3d 92 7f bc 3c
       0.05257562 0.109908015 0.09391406 0.023010049
000380 50 94 1a 3d c7 fa 41 bd cf 80 75 3b a8 80 35 bd
       0.037739098 -0.0473583 0.003746081 -0.04431215
000390 33 a3 31 bd 03 25 fd bc c5 d2 8f bc 66 81 8e bd
       -0.04336853 -0.030901438 -0.017556557 -0.069582745
0003a0 36 c7 31 3d a8 15 d4 3d 6c ac af 3c 1a c2 75 3d
       0.043402873 0.10355693 0.021444522 0.059999563
0003b0 a8 f5 67 3c 66 5d b2 bd 01 ce 9a 3c a4 aa 04 bd
       0.01415769 -0.087092206 0.018897058 -0.032389298
0003c0 e4 2f e8 bd df e8 c0 3d 74 8d 0d 3e a7 43 5b 3c
       -0.113372594 0.09419417 0.13823491 0.013382829
0003d0 a8 9d af bc c0 d2 a4 3c 0b 8a 47 3d f1 8d 6d 3d
       -0.021437481 0.020120025 0.048715632 0.057996694
0003e0 52 87 67 3d 71 07 7a 3d ec 53 b1 3c 22 6e bc 3c
       0.056525536 0.061042253 0.021646462 0.023001734
0003f0 68 dc 32 bc 34 dc d7 bc 11 32 2b 3c 89 87 24 3d
       -0.010916807 -0.026350118 0.0104489485 0.04016832

encoder_lin.0.bias f4 [64]
000000 9c 55 53 3d f4 58 e9 30 cf cc 7e 3d 3b fe 1d 3d
       0.051595315 1.6978263e-09 0.06220704 0.03857253
000010 5a 1e 91 3d c5 3a d4 3c 19 ed 9f 3d ed 6c aa 3d
       0.07085867 0.02590693 0.07808895 0.08321557
000020 6e 53 58 3d 1a 05 63 3d e3 27 23 3d 8a 9f 5b 3c
       0.05281394 0.055424787 0.03983296 0.013404736
000030 72 c9 e5 bc a2 d8 ea 3b 6d 1a c6 3b e6 00 21 32
       -0.028050158 0.007166938 0.0060456307 9.371638e-09
000040 77 d0 a0 3d cf ee a9 3c 53 47 ff 3c 94 77 b0 ba
       0.078522615 0.020743756 0.03116194 -0.0013463371
000050 28 62 8a 3c 60 03 a1 3d 7d 1e 08 3d 89 04 75 3d
       0.016892508 0.07861972 0.0332322 0.05981878
000060 95 3b 98 3d da 90 0a bd 2e 15 3d 3b a7 da 61 3d
       0.07433239 -0.033829547 0.0028851735 0.055140164
000070 33 0a b4 af d3 21 1a bd 14 6e 9a 3c 86 48 5a 3d
       -3.2749056e-10 -0.037629914 0.018851317 0.05329182
000080 e2 e0 7f 3d b0 66 d1 3d 52 69 5a 3d 30 7b 75 3d
       0.062470324 0.10224664 0.053323098 0.059931934
000090 fa 21 7b 3d 10 43 ec bc 35 23 35 b9 e7 25 80 3d
       0.0613117 -0.028840572 -0.00017274621 0.06257229
0000a0 d4 d5 04 bb 94 5f 4a ba 4e 7b 2e 3d c5 e7 0c bc
       -0.0020269053 -0.0007719931 0.04259806 -0.00860018
0000b0 1f 60 10 3d 92 ff 3a bd 95 84 92 b5 29 a5 7e 3d
       0.03524792 -0.045653887 -1.0916434e-06 0.062169228
0000c0 df ac d0 b8 8e 3c 12 3d a8 27 58 3d 50 b5 ae 3b
       -9.950413e-05 0.03570228 0.052772194 0.0053316727
0000d0 7c 50 75 bc 34 18 6f 3d a0 5c 2b b8 5b d0 49 bd
       -0.014972802 0.05837269 -4.085584e-05 -0.04927097
0000e0 c6 ee c2 3d 82 07 77 bd d8 96 d5 3d 6c 7f e4 bc
       0.09518199 -0.060309894 0.10429162 -0.02789279
0000f0 e2 eb 29 3d 6b b3 bb 3d f7 4c e1 3a 27 5f 35 bc
       0.04148472 0.09165081 0.0017189075 -0.011070049

encoder_lin.2.weight f4 [2, 64]
000000 d0 cd 3e be 65 07 71 3a 22 20 bf bd 58 71 61 3e
       -0.18633199 0.0009194522 -0.09332301 0.22015893
000010 67 03 0a be 1d e6 3f bc ba da 1d be 32 83 f0 bd
       -0.1347786 -0.011712578 -0.15415469 -0.117437735
000020 7f 68 3e bc ba b7 1b be 25 bb 40 3c 0e 46 55 be
       -0.0116215935 -0.15206805 0.011763369 -0.20827505
000030 95 f8 f6 bd 1c 06 43 bd a3 b0 c3 bd 0f 9d 29 b8
       -0.12059132 -0.04761325 -0.09555175 -4.0439012e-05
000040 d6 cb 65 bd a2 d6 87 3b 9a e9 32 be 07 a5 31 bb
       -0.056102596 0.0041454593 -0.17471924 -0.002710642
000050 e8 4f 10 bd 03 a3 91 bd b0 1f c8 bd 61 b3 dc bd
       -0.035232455 -0.0711117 -0.09771669 -0.10776401
000060 89 a6 e9 bd c1 93 0c 3e 50 54 51 be b3 2b fa bb
       -0.11408717 0.13728239 -0.20442319 -0.007634604
000070 07 ea 59 2f fc e3 8f be a6 ea 28 bd a1 0f 41 3e
       1.9819178e-10 -0.28103626 -0.041239403 0.18853618
000080 4f b7 2d 3d f2 90 3c be 35 61 22 3d 68 4f 99 3d
       0.042411145 -0.18414667 0.039643485 0.07485849
000090 bc 2f 39 3c 68 f2 08 be 87 18 20 ad b1 71 46 3e
       0.011302885 -0.1337372 -9.100393e-12 0.19379307
0000a0 62 b0 42 be 8e 81 f7 30 53 c2 eb bd f4 a1 c7 2c
       -0.19012597 1.8008437e-09 -0.11511674 5.6739006e-12
0000b0 d0 7d 18 3c a6 83 68 be 07 3a 6a af 74 2b 77 3e
       0.00930734 -0.2270647 -2.1302791e-10 0.2413767
0000c0 cc 22 b0 3a ea f5 9a bb b4 38 71 3e 30 b0 34 be
       0.0013438105 -0.0047290223 0.23556787 -0.17645335
0000d0 e7 3f 85 3c 2a a5 ac bd 2c ab 1d 3c a2 b3 bb bd
       0.016265823 -0.0842994 0.00962333 -0.091651216
0000e0 da de 0d be fd ba 42 be 54 73 fb bd 5a fe 1f 3e
       -0.13854542 -0.19016643 -0.122778565 0.15624371
0000f0 43 d8 25 be 80 e0 9d bd 4a b7 2f be 05 6a 5f be
       -0.16195779 -0.077088356 -0.17159763 -0.21817787
000100 1e 12 58 bc 20 3f 8d 2f 58 ed b9 bd f9 a5 8e 3d
       -0.013187913 2.5692604e-10 -0.09078473 0.069652505
000110 8d db 2f bd 1b d9 3d 3e 56 2c 47 bd 54 b9 8b bd
       -0.04293399 0.1853985 -0.048626266 -0.06822458
000120 ba 7a e4 bd 7e 44 10 be 46 b7 07 be ca ca 5e 3d
       -0.11156221 -0.14088628 -0.13253507 0.054392613
000130 96 c9 9c 3d 17 09 67 3e 39 f1 1b be 02 0c 4b 36
       0.07655637 0.22562061 -0.15228738 3.0256347e-06
000140 92 91 e4 bd 93 74 4b 3e 19 fd 2f bd ea bb 29 be
       -0.11160578 0.19868688 -0.042965982 -0.1657559
000150 8c 06 36 3e 06 8c 27 be 6d a5 26 3e b7 b1 40 bd
       0.17775935 -0.16362008 0.16274042 -0.047044482
000160 b8 47 33 be df b2 10 3e 00 a2 82 bc 5a a7 69 3e
       -0.17507827 0.14130734 -0.015946388 0.22817746
000170 4c 5d a3 3a b8 ff e1 bd f4 c9 9e bd d9 21 df 3c
       0.0012463718 -0.110351026 -0.07753363 0.02723782
000180 7b 78 5b 3e ea 31 91 bd 41 44 35 be 40 8f 51 be
       0.21432678 -0.070895985 -0.17701818 -0.20464802
000190 e2 b0 34 be c1 ae 0c 3e 52 82 5d 3b a7 29 2b bd
       -0.176456 0.13738538 0.00337996 -0.04178777
0001a0 1c 0f f2 3d 78 db c2 3a 4d 73 25 3e a7 39 60 3a
       0.11819288 0.0014866432 0.16157265 0.0008553513
0001b0 d8 0f 42 3e 7e df 1b 3d e3 db f7 ba 1a a1 b6 bb
       0.18951356 0.038054936 -0.0018910136 -0.005573404
0001c0 a0 08 44 af c8 94 33 3e 07 c2 41 3d d8 4f 86 3b
       -1.782916e-10 0.17537224 0.04730418 0.0040988736
0001d0 c7 93 bb bb 48 1f 0a be 15 08 94 3a 74 cf f6 bd
       -0.0057244035 -0.13488495 0.0011293913 -0.12051287
0001e0 22 5f c3 bd b0 4c e1 bd 34 ed 3a be 21 38 23 3e
       -0.095396295 -0.11000955 -0.18254548 0.1593938
0001f0 f3 97 4c bd 5f 11 ff bd ca 9c 29 bb cb a5 4a 3d
       -0.049949598 -0.12454485 -0.0025880807 0.04947452

encoder_lin.2.bias f4 [2]
000000 24 58 29 be c3 a4 3e bd
       -0.16537529 -0.046543848

decoder_lin.0.weight f4 [64, 2]
000000 9a 2c fa 3e 8a 75 5a bc 36 2f a4 3d f7 3b e4 be
       0.48862153 -0.013333688 0.08016817 -0.44577
000010 f2 f3 2a bf 02 ff 03 3b ed 05 36 3c 0b d3 f2 3e
       -0.6677848 0.002014101 0.011109811 0.47426638
000020 24 7d d2 bd ac db b7 3d 5e ce 56 bb ad 72 1e 3c
       -0.10277775 0.08977446 -0.0032776813 0.0096708955
000030 c9 c8 09 bf 42 8e 52 3e d5 00 f3 be 39 fe 27 bf
       -0.53822 0.2056208 -0.47461572 -0.6562229
000040 73 4a 1a be d7 7a 51 3e c9 7f 22 be 23 93 d9 be
       -0.15067463 0.20457016 -0.15869059 -0.4249507
000050 3b 9f eb 3e 23 f1 55 bd 3e 0d 2f 3f 5d ca 0d 3e
       0.4601992 -0.05223192 0.6837958 0.13846727
000060 61 76 0b 3f 4a 35 f3 be c8 6f bb be 6a a6 00 3f
       0.54477507 -0.47501594 -0.3660872 0.5025393
000070 da dc 0c 3f c2 8b 04 bf 90 78 3f 3e 60 0c a7 be
       0.5502449 -0.51775753 0.18698335 -0.3262663
000080 9b 6c 45 bc 93 4d 0e bf 60 1a 30 bf e0 a6 8f 3e
       -0.012049819 -0.5558712 -0.68790245 0.28057003
000090 9e 3e 3b bf 0e bf 2b bd 29 bc 2b 3f b6 c0 a3 bc
       -0.7314242 -0.04193025 0.67083985 -0.019989353
0000a0 fb 8a f0 3e d2 92 ce be 53 bf 18 bf b4 81 af be
       0.46981034 -0.4034639 -0.5966694 -0.34278643
0000b0 5b fc 8f 3e 67 8c 93 bc b6 c8 c7 3d 9f 24 29 3f
       0.2812222 -0.018011285 0.097550794 0.66071504
0000c0 58 0a 83 be 81 65 37 bf 55 66 b7 3d 6b 96 0b bf
       -0.2559383 -0.7163926 0.08955065 -0.54526395
0000d0 76 af d2 3d a4 88 33 bf 1e ae 40 3e 16 d4 d5 3e
       0.10287373 -0.7013037 0.1881642 0.4176337
0000e0 ea 56 1b 3f bb f0 b6 bd fe 0f 1e bf 4d 29 57 3e
       0.60679495 -0.089326344 -0.6174315 0.21011849
0000f0 7e f1 81 3d 25 13 ff 3e b0 d8 86 be 1a 6b 23 be
       0.06344889 0.49819294 -0.26337194 -0.15958825
000100 20 9d 26 bf 07 42 45 be b7 6f 35 be 47 d2 a3 be
       -0.65083504 -0.19263469 -0.17718397 -0.31996366
000110 4b 2e 16 bf dc 8b dd 3e 34 2c 34 bf e2 68 0c 3f
       -0.5866439 0.43270767 -0.7037995 0.5484754
000120 80 5a a1 be 09 fc 2f bf 81 dd c0 bd 7c c5 5d 3e
       -0.3151436 -0.6874395 -0.094172485 0.21657366
000130 15 5a b1 3e 05 b1 f2 3d 27 81 24 3f 3a f5 c0 be
       0.3463904 0.1185017 0.6425957 -0.37687093
000140 ca a3 46 bd 82 00 05 bf b9 f1 e1 be d8 28 2a bf
       -0.048496045 -0.519539 -0.44129732 -0.6646857
000150 33 dd 30 bd d0 44 17 3f f0 0e b0 be 44 c4 0b bf
       -0.043179702 0.59089375 -0.34386396 -0.5459635
000160 e3 a1 3c 3f 66 0c 2e bc ad e7 2c 3d 54 7b 31 3f
       0.7368452 -0.010623073 0.04221313 0.6932881
000170 0c 1e 20 bf 5e c5 84 3d e3 56 93 3a 6c 64 98 34
       -0.6254585 0.06482957 0.0011241104 2.8385273e-07
000180 2c 03 ad 3e b2 90 98 be 39 13 12 3f d3 1b 50 3d
       0.33791482 -0.29797894 0.5706058 0.050807785
000190 38 7d b8 3e ae 23 64 bd a7 91 bc be 8f 6f 4d 3e
       0.36033034 -0.05569809 -0.36829874 0.20062087
0001a0 2a 8e 2d be 9a 24 08 3e 21 31 8d be 52 1c ff be
       -0.16948763 0.13295212 -0.27576545 -0.49826294
0001b0 19 06 3b 3f 7c 0c c3 3e 87 bd 22 3f 9a 6d c1 3c
       0.7305618 0.38095462 0.63570446 0.023611832
0001c0 32 1f 37 bf da ba 00 bf 3b 69 38 bf ca 94 ec bd
       -0.71531975 -0.5028511 -0.7203557 -0.11551817
0001d0 68 d2 5c 3e a9 7f 0e 3e 26 90 8f ba 02 fb a4 3e
       0.21564639 0.13915886 -0.0010952994 0.32222754
0001e0 c0 bd b7 be ec d3 a6 3e 99 b6 4a be b5 8d b1 be
       -0.35886955 0.3258356 -0.19796218 -0.34678426
0001f0 54 e6 a4 3e 17 d8 ec 3e ed f6 29 bf 18 ce ab be
       0.32206976 0.46258613 -0.66392404 -0.33555675

decoder_lin.0.bias f4 [64]
000000 71 bd 4f 3e d5 20 d4 3e f8 a9 fc be fc 2d ee be
       0.2028711 0.414313 -0.49348426 -0.46519458
000010 fe 0f 36 be 34 f0 e8 3e 91 ef 88 be 93 77 1f be
       -0.17779538 0.4549576 -0.26745275 -0.15572958
000020 17 7a f5 be 65 ee 0b 3f ec 04 f3 3e 73 c6 d2 3d
       -0.4794471 0.54660636 0.47464693 0.102917574
000030 89 7b 24 3e 1c 6d ef be c6 2f 6c bc 9e c7 82 3e
       0.1606275 -0.4676293 -0.014415687 0.2554292
000040 78 dd b6 be 35 78 77 3e 31 5d 49 bc fb 36 ce be
       -0.35715842 0.24166949 -0.012290285 -0.40276322
000050 31 94 62 be 6c 28 87 be ea 2c a9 be c0 b4 a2 3c
       -0.22126843 -0.26398027 -0.3304208 0.019861579
000060 92 44 75 be 49 49 90 3d 83 90 5d be fa 94 72 be
       -0.23951939 0.07045228 -0.21637158 -0.23689643
000070 c5 81 00 bf 84 d5 ca 3d 5e 63 07 3f 84 ef 27 3f
       -0.5019801 0.09904006 0.52886 0.65599847
000080 5c ee 9a be 22 32 4a 3e b0 07 33 3f b9 d8 17 bf
       -0.3025998 0.19745687 0.69933605 -0.5931507
000090 98 c2 07 3e c4 57 1e 3e c7 ca 20 3f 9e 02 e5 be
       0.13257825 0.15463167 0.62809414 -0.4472856
0000a0 dd c3 2a be a0 e0 38 3f 40 65 8b be 84 ff 4d 3e
       -0.16676278 0.7221775 -0.27225685 0.20117003
0000b0 70 e0 ad 3e db 79 63 3e 85 a0 69 be a4 3e 42 be
       0.33960295 0.22214453 -0.2281514 -0.18969208
0000c0 78 c6 b4 bd 86 05 2e 3f 3f f5 97 3d 14 4e 7a bd
       -0.088269174 0.6797718 0.07419824 -0.061109617
0000d0 11 e1 34 3f 3b b9 3b 3f d5 18 08 3f f7 19 bf be
       0.70655924 0.73329514 0.5316289 -0.37324497
0000e0 be 19 c5 3e b4 8b 29 3f b1 ce d8 3e 6c f6 c1 be
       0.38496202 0.66228795 0.42345193 -0.37883317
0000f0 c5 2f ab be 30 9c bb 3e 8e 14 8b 3e 20 13 3f be
       -0.33434883 0.366426 0.2716412 -0.1865964

decoder_lin.2.weight f4 [288, 64]
000000 33 84 ce bd 9f a8 d8 3a 6d 82 1d 3d 9f 02 e4 3c
       -0.10083809 0.0016529745 0.03845446 0.027833281
000010 3d 75 93 3d 02 53 3d bd f4 27 20 3d b3 b8 77 3d
       0.07200096 -0.04622174 0.039100602 0.060478877
000020 fb bf c5 3d 9c 6b a6 bd d0 f9 9a bd 6b 06 cf bd
       0.09655758 -0.081259936 -0.07567179 -0.10108646
000030 7f 68 b1 ba c2 b8 93 3d 6a 5e 64 3c 6c f7 d6 bb
       -0.0013535171 0.07212974 0.013938526 -0.0065602567
000040 f0 f6 2f 3d c1 84 cd bc 7a 40 63 3d e0 ce b9 bd
       0.042960107 -0.025087716 0.05548141 -0.090726614
000050 c5 fd 17 bc 18 1e 94 3c 37 56 36 bd 38 90 67 bc
       -0.009276812 0.018080756 -0.044515815 -0.0141335055
000060 1a a6 7b 3d 1b 77 f7 3c e5 e6 4c 3d 10 f9 20 3d
       0.061437704 0.030208161 0.050024886 0.039300025
000070 12 8a 9a bd 30 a7 75 3d af 22 77 bd f0 f8 b5 bb
       -0.07545866 0.059973896 -0.06033581 -0.0055533573
000080 83 cf 84 bd 7d f5 b0 3d 73 f0 97 bd 27 c2 60 3d
       -0.06484892 0.08640573 -0.07418909 0.054872658
000090 d8 84 87 3d ae 9e be 3d ad b8 8d bd b2 e0 65 ba
       0.06617135 0.093076095 -0.0691999 -0.0008769139
0000a0 4e 10 21 3d 64 2c 22 3c 7b ac 94 3c c9 be db 3d
       0.03932219 0.009898279 0.018148651 0.10729749
0000b0 34 55 00 be 22 47 a3 bc f3 90 e1 3d 9d b2 fe 34
       -0.12532502 -0.01993138 0.11013975 4.7441145e-07
0000c0 8e 09 b4 3c 93 5a ff bd 36 f1 93 bd 52 17 5a 3d
       0.021977212 -0.124684475 -0.07223742 0.053244896
0000d0 8b d9 7f bb 8b 35 44 bb 88 6b 18 be 8a 53 b6 bd
       -0.0039039578 -0.002993914 -0.1488477 -0.089026526
0000e0 1e bb 01 3d 9c f0 a4 3d af bf 99 bd 18 3f 8b 3d
       0.03167259 0.08053705 -0.07507264 0.067991436
0000f0 7f 60 cc 3d 89 d0 41 3c fe b2 da 3c d4 e6 67 bd
       0.09979343 0.011829504 0.026696678 -0.05661662
000100 64 98 ac 3c 8f 59 3a bc 53 b0 ef bc 4d 02 58 3d
       0.02106876 -0.0113738915 -0.029258883 0.05273657
000110 15 9e cd bb db b3 3d bd 2b 75 86 bc 44 79 fe 3b
       -0.0062749484 -0.0463141 -0.016413292 0.007765921
000120 b7 1f 06 3c ef 8d b8 bc 48 0c ae 3b a1 3d 2c 3d
       0.008186272 -0.022528617 0.0053115226 0.04205096
000130 43 01 e8 ba c8 06 a7 3b b6 01 4f 39 17 b4 a7 bc
       -0.0017700571 0.005097244 0.00019741696 -0.020471616
000140 13 46 02 3c 71 33 9a bc c6 84 40 bd 24 88 1c 3d
       0.007951277 -0.018823357 -0.047001623 0.03821577
000150 69 74 81 3b 22 e6 52 bd 09 44 12 3d 7a 8d 77 3d
       0.0039506448 -0.051489003 0.035709415 0.060437657
000160 3a a7 f0 3b 59 d4 91 ba 50 ce dc 3b cc 76 9c 3d
       0.0073441537 -0.0011125907 0.0067384616 0.07639846
000170 58 87 f6 3c 84 db a7 bc 56 cb 69 3d ec 6b 92 bd
       0.030093834 -0.020490415 0.057078682 -0.07149491
000180 1c 26 73 bd 41 4e 0b bc 48 5e 5a bc db b6 3e bc
       -0.059362516 -0.008502544 -0.013328142 -0.011640276
000190 4d 4d 59 bb 0d 6e cb 3c 47 ff 2b 3c 96 57 3b 3c
       -0.0033157647 0.02483275 0.010497875 0.011434456
0001a0 0f db f6 3b 4e 43 2e bc 52 95 5b 3d 28 89 87 bc
       0.007533438 -0.010636164 0.0536092 -0.016544893
0001b0 81 d0 f6 3c 7e 78 6e 3d 3b bf f3 bc dc 31 67 3b
       0.03012872 0.05822038 -0.029754272 0.0035277521
0001c0 bf 56 19 3c 9e 10 18 3c b0 e6 96 3c 08 42 6d bc
       0.009359061 0.009281306 0.018420547 -0.014481075
0001d0 a3 c0 25 bc 6e bd b6 bc 84 a2 77 3d 24 55 2a 3d
       -0.010116729 -0.022307124 0.06045772 0.041585103
0001e0 d6 8d 43 bd e3 75 4e bd 6a 06 5f 3d 66 00 54 3d
       -0.047742687 -0.050405394 0.054449476 0.051758192
0001f0 b0 15 bf bb 80 64 8a bc 1b c5 85 3d c1 af 76 bd
       -0.005831443 -0.016893625 0.065317355 -0.060226206
000200 c7 78 9e b4 73 85 2f bb a1 bf b1 bb 3d c0 bb 34
       -2.951767e-07 -0.0026782423 -0.0054244553 3.4971336e-07
000210 c5 28 68 bb b5 50 4c bb 18 b3 14 3b 5d 77 9f 3c
       -0.003542469 -0.0031176035 0.0022689756 0.019466097
000220 2d ca 03 b7 b5 40 03 bd f0 77 01 36 b9 63 b8 3a
       -7.855281e-06 -0.03204413 1.929231e-06 0.0014067806
000230 cc ad 62 35 2b 3c 36 b8 8a be 9e b5 a4 30 6c bb
       8.444447e-07 -4.3448217e-05 -1.1827372e-06 -0.0036039734
000240 31 73 91 bb b2 4f cb bc 21 b6 25 3d f0 01 6d ba
       -0.0044387807 -0.024818275 0.040456895 -0.0009041121
000250 88 4e 5e bb 9e ec ad bc 48 c0 dc b4 9f 86 e6 b4
       -0.003392132 -0.021230992 -4.1118096e-07 -4.2938788e-07
000260 d3 ef cd 3c b6 c1 ed bc 3e ad 43 bd b5 58 0b 35
       0.025138771 -0.029023033 -0.04777264 5.191062e-07
000270 9e b5 28 37 86 c6 f9 ba fc 56 94 ba 47 1d 4a bb
       1.0055866e-05 -0.0019056357 -0.0011317427 -0.0030840205
000280 b6 00 a9 3c 3f b0 b5 bb 46 3e 16 bd 28 08 20 ac
       0.020630222 -0.005544692 -0.036680482 -2.2741895e-12
000290 e3 9d 17 bd 08 4b 94 ba 3c 2d 1e b7 6d ed 3e 3b
       -0.037015807 -0.0011313865 -9.428066e-06 0.0029133216
0002a0 47 bc 41 3c c3 d2 33 bc a7 11 31 35 08 92 63 3d
       0.011824674 -0.0109755425 6.5963326e-07 0.055559188
0002b0 ff 70 11 36 47 a9 4c 35 e9 f2 7b 3b a3 a1 10 37
       2.1672456e-06 7.6242253e-07 0.0038444346 8.620703e-06
0002c0 b2 f6 b0 b5 8b 48 01 b6 81 68 b5 b4 87 86 4b bb
       -1.318482e-06 -1.9264724e-06 -3.3789914e-07 -0.0031055526
0002d0 55 59 3e bd ff 6c 64 bd 2e 61 3f b8 c1 07 29 b6
       -0.046471912 -0.05576801 -4.5628454e-05 -2.5187476e-06
0002e0 ef 1b 34 bc 13 62 41 3d 9b 7c 69 35 65 75 96 b4
       -0.010992988 0.04721267 8.698059e-07 -2.8025093e-07
0002f0 83 38 0e 31 dc d7 9b bc 13 4d c0 35 1c b8 7e bc
       2.0695843e-09 -0.019023828 1.4327546e-06 -0.015546825
000300 98 8f a3 33 b2 e9 9e 3a a1 27 e5 3a c0 54 21 3b
       7.6163985e-08 0.001212409 0.0017483124 0.0024617165
000310 27 de 22 b4 90 de 26 b5 37 21 86 b8 92 d9 da 3b
       -1.5168244e-07 -6.216369e-07 -6.395805e-05 0.0066787684
000320 55 68 69 b8 ce 24 bb b6 1a f9 92 34 5d 46 24 b6
       -5.5648696e-05 -5.577319e-06 2.7375864e-07 -2.4478861e-06
000330 19 7a 83 35 c1 2d f6 37 d9 e7 6d 27 fe 42 3e bb
       9.795796e-07 2.9346791e-05 3.3016042e-15 -0.002903163
000340 14 d5 10 3b 82 29 1c ba 77 b7 45 bb 24 1a 0f 3a
       0.002209966 -0.0005957113 -0.0030169168 0.00054589123
000350 05 f6 1c ba 01 d0 96 39 0c a6 a7 35 d6 b6 be 37
       -0.00059875875 0.00028765204 1.2490796e-06 2.2734905e-05
000360 47 7d dc b9 e1 eb 28 3b 5f ad c5 b5 4f d2 2d b7
       -0.0004205501 0.002577536 -1.4728101e-06 -1.036057e-05
000370 e1 d0 16 39 96 a7 5b b9 f1 59 20 b7 15 1f b8 b8
       0.00014382928 -0.00020947898 -9.557684e-06 -8.779593e-05
000380 ac 3b b5 ba 1d 83 25 b5 70 50 ec b9 87 b0 b9 b9
       -0.0013826988 -6.1658085e-07 -0.00045073358 -0.00035417473
000390 44 08 86 bb 65 b3 80 ba ed df 70 36 8d e8 8b 35
       -0.004090341 -0.0009819089 3.5893129e-06 1.0423988e-06
0003a0 e3 89 22 b5 9b ab 01 bc 13 d3 ad 37 5c 67 97 3a
       -6.0550354e-07 -0.007914449 2.0721496e-05 0.0011551189
0003b0 2c c3 eb 34 42 44 ae b9 e2 86 fd b9 87 d4 b3 ba
       4.3914167e-07 -0.00033238722 -0.00048356416 -0.0013719954
0003c0 c2 f3 6b 33 26 1e 26 bb 43 22 db ba fe f2 93 37
       5.4936898e-08 -0.002534756 -0.0016718585 1.7636918e-05
0003d0 53 da 90 b8 78 c3 21 37 5f 22 16 b7 c6 1e ce b9
       -6.907121e-05 9.641859e-06 -8.948699e-06 -0.0003931431
0003e0 2d f0 a5 b9 c3 a2 c3 b9 f6 4b 91 38 0f 35 c2 b8
       -0.00031650197 -0.00037314565 6.9282876e-05 -9.260524e-05
0003f0 2c cf f6 b4 46 87 26 38 7f 59 af b8 7d 7e 15 b9
       -4.5971808e-07 3.9703467e-05 -8.36132e-05 -0.00014256868

decoder_lin.2.bias f4 [288]
000000 6a cd 24 3b bb 27 a9 bd 0f e4 dc bb 80 95 b6 ba
       0.002514685 -0.08259531 -0.006741054 -0.0013930053
000010 f4 7d c8 3d bd 6c 32 bd 08 dc aa 3d a3 f8 e0 3d
       0.09789649 -0.043560732 0.08342749 0.10984924
000020 fc 28 07 3e 1d fb 41 3e a5 a8 a0 3d 4c ec 35 3e
       0.13199228 0.18943448 0.078446664 0.17765921
000030 ee ff 27 b6 b8 b9 59 b1 0b 30 d3 3d 4d a0 f4 bc
       -2.503391e-06 -3.1683225e-09 0.10311898 -0.029861594
000040 bf ab 81 bb 3f 4a 75 3e d7 9d 23 3e bd 27 22 3e
       -0.0039572413 0.23954104 0.1597818 0.15835471
000050 f6 b8 65 3d 90 89 ed bc 7c 26 ce bd 0c 73 b4 3d
       0.056084596 -0.028996259 -0.10065934 0.08811006
000060 55 2c de 3d db 77 a8 ba af b5 fe bc ae 0f 31 3e
       0.108482994 -0.0012853103 -0.031092493 0.17291138
000070 ff bf e4 3d da cd fb 3d 8c df 32 be c3 ca 4b 3b
       0.11169433 0.122951224 -0.17468089 0.0031096197
000080 df 69 82 bc 7f 4c 81 be 8f 25 da bd 8c 5f 1b b1
       -0.015919624 -0.25253674 -0.10651695 -2.260978e-09
000090 4d d7 8f 38 bb ba b9 3d 73 04 46 3e 3f a2 0b bc
       6.858874e-05 0.09068819 0.19337635 -0.008522569
0000a0 27 27 f2 bd 14 3a 0f bd 23 e2 0b 3e f2 43 ff b3
       -0.11823874 -0.034967497 0.13660483 -1.1886722e-07
0000b0 e4 7d d4 bd 5a 76 86 3d ae ca 5a bb 8d d9 f9 3d
       -0.10375574 0.065655425 -0.0033384967 0.12199698
0000c0 a7 ce 3f bd e6 ec be 3d 11 c8 88 bc 0f 45 9e 3c
       -0.04682794 0.093225285 -0.016696962 0.01932004
0000d0 93 eb 88 bd 78 b2 a6 3d a7 b3 8f 3c 19 e2 11 3e
       -0.06685557 0.08139509 0.01754172 0.14246406
0000e0 e4 57 94 3d e3 34 ed b7 9f 03 c3 bc 15 54 f0 3c
       0.07243326 -2.8277229e-05 -0.023805438 0.029336968
0000f0 4a 93 e1 bd 59 bd 3b 3d d1 49 3f 3e 49 7d 39 3e
       -0.11014421 0.045834873 0.18680502 0.18114199
000100 1c d8 75 3d 05 6e 25 b9 2a d1 cd 3c 3f 61 1d 3b
       0.06002055 -0.00015776612 0.025124151 0.0024014262
000110 21 e7 4c 3d af cb c4 3c 74 e4 5b 32 81 c6 e4 3b
       0.05002511 0.024022905 1.2799422e-08 0.0069816713
000120 88 2d 3a 3e 24 16 db 3d cb b8 86 3d 13 5e 82 ba
       0.18181431 0.10697582 0.06578215 -0.0009946249
000130 be 10 2e bb be 82 ab 3c 7d af 0f 3d 7b 25 51 bd
       -0.0026560272 0.020936366 0.035079468 -0.051061135
000140 cc 77 07 3d ee f0 8f 3d 07 1a b8 b6 da 89 3b 3e
       0.03307323 0.070283756 -5.4866573e-06 0.18314305
000150 08 80 3e b9 89 c7 91 bd 45 68 06 3e 6f e7 cb bd
       -0.00018167507 -0.071181364 0.13125713 -0.09956252
000160 e4 3f 15 b3 92 df 55 ba 66 d9 cc 3a a3 47 18 be
       -3.4749874e-08 -0.000815862 0.0015628755 -0.14871077
000170 55 2c 2e be da 37 bf 3d 5b 39 0b be e7 0c 1a bc
       -0.17009099 0.09336825 -0.13596098 -0.00940249
000180 37 b0 ea 3d 4d 75 11 3b fe df 8e 3a 18 33 f8 3d
       0.114593916 0.002219516 0.0010900495 0.1211912
000190 22 55 a3 bd bd 2e 48 bd 4a a1 28 3e 2a e2 2f be
       -0.07975222 -0.048872698 0.16467777 -0.17176118
0001a0 29 ff 87 3d b7 6a 37 3e bb 35 6f 3c 58 26 14 3e
       0.06640465 0.17911802 0.014600213 0.14467752
0001b0 2d 8e 54 3c 2c a8 a4 bb ea c0 43 39 c3 b6 c8 39
       0.0129733505 -0.0050249305 0.00018668515 0.0003828314
0001c0 88 5c b2 bd 64 2f 93 3d df 05 df 3b ed 02 d7 3a
       -0.08709055 0.071867734 0.00680612 0.001640407
0001d0 d9 de a3 3d 2b 0a 83 b9 ae d1 8c ba 8a 25 b1 b7
       0.08001489 -0.00024993843 -0.0010743642 -2.1117525e-05
0001e0 dd 6c 72 bd f0 bc 00 be 4b 1f 94 bd 49 a5 04 3d
       -0.05918585 -0.12572074 -0.07232531 0.03238419
0001f0 c9 ba ca bd 66 e7 bb 3c 98 2b 3d bd 90 26 21 bd
       -0.09898908 0.022937488 -0.046184152 -0.039343417
000200 39 99 82 b9 cb fd 8f 3d de c8 44 bd 27 7c 3e 3e
       -0.00024909692 0.07030829 -0.048043124 0.18602048
000210 ae 62 b6 3d 6f d4 de bc f9 0a e5 3d 92 61 60 3e
       0.089055404 -0.027200906 0.111837335 0.2191222
000220 0a da 60 bd 3e a6 e5 37 db 57 d1 bd 09 73 54 bc
       -0.05489544 2.737634e-05 -0.10221835 -0.01296688
000230 01 fc bf bd 8b 60 a1 bd 23 f9 76 2f 7b c8 dc bc
       -0.09374238 -0.07879742 2.2462081e-10 -0.026951065
000240 e0 29 12 bd 5b 81 fd 3d 8a 26 a3 3c ad 21 0e be
       -0.035684466 0.12378188 0.019915838 -0.13880034
000250 4a 6d bf 3d 53 57 2d bd 1b e2 85 a9 34 0a b9 bb
       0.09347017 -0.042319607 -5.9456095e-14 -0.0056469683
000260 8e 09 ab bc b7 b9 33 3e a6 db 18 bd ef fc ce 3c
       -0.02087858 0.17551313 -0.037318848 0.025267093
000270 32 80 c0 3d 88 20 4d bc 7c 7f 18 3b 9d dd e8 3d
       0.09399451 -0.012519963 0.0023269346 0.113703944
000280 59 c1 3e 3d f8 89 8f 3d 44 80 0a 3e 28 7d f5 bc
       0.04657111 0.07008737 0.13525492 -0.029966906
000290 52 22 db 3d 34 5e 1b 3e 6b 7c 4d bd 31 23 56 bd
       0.106999055 0.15172654 -0.050167482 -0.052279655
0002a0 78 e8 8f 3d 3a 6e cf 3d 1a a0 49 3d a4 64 b6 bd
       0.07026762 0.10128446 0.04922495 -0.089059144
0002b0 34 77 8c bd 4c d0 fb 3d aa f3 f1 b9 c7 b6 ab 3c
       -0.06858674 0.12295589 -0.00046148646 0.020961178
0002c0 7e 3b 34 38 c5 88 1f be 2c 25 64 3c ad 23 fd bd
       4.297075e-05 -0.15579517 0.013924878 -0.1236032
0002d0 4e 03 95 ba d7 1d f0 3d f5 1d 6f 3e fe a9 8f 26
       -0.0011368783 0.117244415 0.23351271 9.968695e-16
0002e0 04 30 30 bd 45 de 27 bd 4f c0 e7 bd dc 80 89 bd
       -0.04301454 -0.040983457 -0.11315977 -0.06714031
0002f0 93 46 70 bd f5 94 74 bc 80 71 6e bd 40 f6 cb b7
       -0.058661055 -0.014928092 -0.05821371 -2.4314155e-05
000300 05 fc 8c bd f6 6c 01 3d 75 77 18 3e 92 3a 07 be
       -0.068840064 0.031598054 0.14889319 -0.13205937
000310 52 63 7e 3d aa 4e 68 3d b6 f3 83 b9 df 82 73 3d
       0.062106438 0.056715645 -0.00025167846 0.05945098
000320 76 d7 15 3e 26 43 08 3c 01 03 c0 bc 6d 24 de 3d
       0.14632973 0.008316791 -0.023438932 0.108467914
000330 02 7a 3b bd 65 88 3e bd 68 ae db 3d df 1c b0 3d
       -0.045770653 -0.046516795 0.10726625 0.08599257
000340 8f dc da 3c 63 e4 f1 3c aa 7e 8f bb 6d 18 34 bb
       0.026716499 0.029527849 -0.004379113 -0.002748038
000350 d7 f0 86 ba 5d e5 af bd 8e 5e 2a be cf 07 0a bd
       -0.0010295165 -0.085886694 -0.16637632 -0.033698853
000360 e4 6c 27 bd 79 83 2e bd 8b b0 b0 b9 a9 76 fc 3d
       -0.04087533 -0.04260585 -0.0003370087 0.1232732
000370 fa 72 f5 3d 33 87 b3 bd 6e ec 06 3e e8 3a e3 3d
       0.11984821 -0.087660216 0.13176128 0.1109522
000380 7a 68 bb bc 47 3d ed 3d 52 9f 47 bd 97 e8 de bb
       -0.022876967 0.11583953 -0.048735924 -0.006802629
000390 9c 3c b2 3d 4b 24 3d be 51 52 6b 38 29 1e 4d bd
       0.087029666 -0.18470876 5.610503e-05 -0.05007759
0003a0 b8 ca 15 be 66 91 be b9 60 59 6f bb 8e fb ff bd
       -0.14628112 -0.00036347954 -0.0036521778 -0.12499152
0003b0 73 30 64 ba fe 44 fc 3d 7e 17 88 3d ef 32 5e bb
       -0.0008704729 0.12317847 0.06645106 -0.003390487
0003c0 45 b0 88 3d 1d 02 16 bd a0 0d 9f bb bb 5f cd bd
       0.06674246 -0.03662311 -0.004853919 -0.10028025
0003d0 a8 41 1e bd 3c 45 d7 3d fc 1b e2 3b fb 46 68 33
       -0.038636833 0.10511252 0.0069003087 5.4081266e-08
0003e0 5c 52 e9 3d 25 ed 75 3c 5e b7 a8 bd 7a 58 1c 3e
       0.11392662 0.015010153 -0.082380995 0.15268126
0003f0 f2 6d 81 38 a7 a4 02 bd 42 fd 98 3d 5c 6e 59 3b
       6.171678e-05 -0.031895306 0.0747018 0.0033177352
