2. Convolutional Autoencoders/models/autoencoder3d.pth (torch, 203945 bytes, 19 tensors)

encoder_conv.0.weight f4 [8, 1, 3, 3]
00000000: 9f74 673e 7028 dfbc 5b5f e9ba 9496 74bd
00000010: b283 0ebe 593b a33e 54df 833e fa3c b4bb
00000020: 7577 973e 065c dcbd 2d64 28be d808 dfbd
00000030: e336 5abe af45 333e 3684 bebd 6bf5 bcbe
00000040: dbb1 1a3d 9b66 a3be 3785 f228 ed8e 7c2c
00000050: ad50 c72a a0f8 902c 446b 462c 6dd3 9eaa
00000060: 77d8 5cac 08c7 63ac a207 15ac 5af7 73bd
00000070: 56c6 4c3e 9edc 6fbc a6a7 b7bd 229f 9f3e
00000080: f7ad 953e 26dc 003d 4f4c 24be e166 f8bd
00000090: 7516 8f3b 057d 57be f10e ef3d 0856 413e
000000a0: 9aca 77be 1fdf 18be b1f9 17be 4d64 1a3e
000000b0: 5e3f 6cbd e37c 96bd 8570 debc b0b9 b2bc
000000c0: 5324 43bc 77c8 a6bc 240f 14bd c57e ec3b
000000d0: b299 b63c f95a f1bc d6c3 473d 2c5f 743e
000000e0: 4e75 153b 733a db3d a6d4 ad3e ec63 243e
000000f0: 5fed e53d 0415 a43e ef43 ec3d 11e7 7fa8
00000100: 796b 442b c230 1aab 1cf7 57ab 463b ee2a
00000110: 2afd bc2a 1ba2 fca8 b77f 472b 5545 83ab
0.22603081 -0.027240962 -0.0017804907 -0.059713915 -0.13917425 0.31881216 0.25756323 -0.005500433
0.29583326 -0.107597396 -0.16444464 -0.10890359 -0.2131 0.17507051 -0.09302561 -0.3690599
0.037767272 -0.3191422 2.692517e-14 3.5890694e-12 3.540548e-13 4.120329e-12 2.8197037e-12 -2.8213144e-13
-3.1384043e-12 -3.2369125e-12 -2.117841e-12 -0.059562065 0.19997534 -0.014640002 -0.08967523 0.31176096
0.29234287 0.03145995 -0.16044734 -0.121289976 0.0043666908 -0.21043785 0.11672772 0.18880475
-0.2419838 -0.14928864 -0.14841343 0.15077324 -0.05767762 -0.07348039 -0.027153263 -0.021817058
-0.011910516 -0.020359261 -0.03614725 0.0072172605 0.022290085 -0.029462324 0.048770748 0.2386443
0.0022805515 0.10704508 0.339513 0.16053742 0.112269156 0.32047284 0.11536395 -1.4205448e-14
6.9782336e-13 -5.4779456e-13 -7.6726277e-13 4.2318422e-13 3.3571176e-13 -2.8047922e-14 7.087624e-13 -9.327353e-13

encoder_conv.0.bias f4 [8]
00000000: e494 97be 589f 833e 2c7f 15bc dcbd c8bd
00000010: 92b5 a03e 5634 aabd 505a 82bd a293 92ba
-0.29605782 0.25707507 -0.009124558 -0.09801838 0.31388527 -0.083107635 -0.06364882 -0.0011182914

encoder_conv.2.weight f4 [16, 8, 3, 3]
00000000: 5a32 213c b64b 89bd 6c34 0c3d 29ca ecbb
00000010: b2f2 63bd 05ea 5a3d 00bb 3a3d 2ab9 e2bd
00000020: 5f23 c53d 6f07 95bc d97b 5b3e 2feb 973d
00000030: 236f 9c3c 9e35 8e3e 5098 1a3e e361 f6bc
00000040: 4149 853e 51fb 703d 8d2c fa2b d9b8 10ac
00000050: 2b0c bd2b 9545 ff2b c786 b7ab 1627 8f2b
00000060: f7d8 112c 4876 972a 4eae dc2b 0ea5 07bd
00000070: 5ef6 80bd 44cd ea3d b690 9cbd 0801 f6bd
00000080: 459a 6a3d 12ed 60bd 08d5 aabd c427 393d
00000090: 7286 323e c233 883e d94c 8c3d 7e94 363e
000000a0: ad63 a83e d5e3 153e 9139 703e dcc6 8b3e
000000b0: 5bfc a83d fcf9 f0b1 ed4c 202d feb8 972c
000000c0: 387f 93b1 ccc6 fc2c 0e06 27ad b601 39af
000000d0: 11ba 42ac 1bb2 112d 556f c73d 5395 8cbd
000000e0: cddd 213d ade4 3e3d a929 1ebe 85ea 49bc
000000f0: b1fd 833d d8fa 29be 3bd5 b43c 5f0f 582a
00000100: b0de 5f2b 271f 1f2b 1b2a 5faa 941b 80ab
00000110: fa92 462b 1a82 35aa e3b6 892b ad18 f12a
00000120: 4efd 32bd 6e10 efbd f8ab a1bc 8c44 02bd
00000130: 4ca8 53bd 1fab 01bd 333b 40bd 292d dbbd
00000140: 73c9 80bd d5fe 203d d97d 8d3d bcf5 9abc
00000150: 5ec1 78bc 3059 283d 2ddc 82ba 4589 9a3b
00000160: 3a08 be3d b722 ac3c 5ba9 41ab 2e97 daab
00000170: 079e 4e2a 0e64 d429 bf7e ce2b f3bf d5ab
00000180: 8e1b 0f2c af08 0bac 1d57 c3ab b6d2 61bd
00000190: cefa 79bd e74e 8fbd 4a61 b3bd b394 a7bd
000001a0: 3424 13be a13d e1bd d0c7 6fbd 2b8e 37bd
000001b0: ab26 4f3e e42c 183e 3023 103e 0fad 1b3e
000001c0: e436 513e 9658 4b3e d7f1 543e e364 273e
000001d0: 8be5 173e e79a 5230 173b 09ac d1ed a02c
000001e0: 554a 69b1 7f14 972a a6d0 f5ac fa28 2b30
000001f0: 6eaa e32c 3f39 b2ac ebf9 f83d 289b 2f3d
00000200: b654 2bbc 5a5b db3d a1fc b73b d786 b6bd
00000210: dc32 dd3d fad0 e23a 03df d9bd cfed 892a
00000220: 2539 a6a8 09f0 5e2a 3d6a f829 82d6 f42a
00000230: fea6 d0aa ce50 daaa c3ef 1e2a 19c5 4c2a
00000240: 311b 64bc d04c 1bbc 3c35 a6bc 1934 d0bd
00000250: f921 0abe aca5 63bc 9c2a acbc f772 90bd
00000260: bc2f f4bc 8a63 6cbc 6a70 f63c 844b 17bc
00000270: b3c3 923c 7b9b 343d c0f3 063e dc17 103d
00000280: d19f a13d 3119 7c3d 0027 1dab 16a5 b42a
00000290: 70a3 a62b 54bf 05aa bcb1 d52a a064 6f2a
000002a0: 6da5 baab c8f4 ef2a ab2b e629 3880 8e3a
000002b0: a685 32bd a772 2ebd bd87 88bd b71a 48bd
000002c0: ea78 31bd db2b 6fbd 830a 01be 64db 33bc
000002d0: a5fe 103e 4763 ea3c 311c ad3d e46d 273e
000002e0: 685d ed3d 71b2 023d 2207 273e c950 223e
000002f0: a838 533c c1ab 972e 1bfd 42ac 0974 b5ab
00000300: b371 23af 9e4b ffab ad59 fd2b 93c2 76ae
00000310: d7d2 352c 1998 982c 1a6c 093e 5312 703d
00000320: 903d de3c 9c35 733d dbae d5bd c6fa 6abd
00000330: b663 703d 35ec 28be 5e3c bdbd b9e6 4327
00000340: af88 b228 892a 872a 6366 daaa 6f57 012a
00000350: a4cb 6f28 1fa7 da2a a753 2caa 30c5 ebaa
00000360: 4ddb 6ebc 5668 9dbc f2d9 813a b054 46bc
00000370: a7ce cbbc 0003 6bbc 693d 41bb 1b24 d03a
00000380: 707d 403b d7f3 42bb b1ee 3ebc d9c9 b0bc
00000390: d869 26bc 497e 27bc 50f5 a8bc 3605 23bb
000003a0: 78dc 5cbc e069 f33a 3354 402a 9b69 062b
000003b0: a835 b0a6 7b86 85a8 a724 8228 3707 f728
000003c0: f53d 1caa a4b5 94aa 887a 1f29 4efe 9cbc
000003d0: 5635 a9bc ff6d 08bc d048 9ebc 5364 9cbc
000003e0: 4bcb ecbc edf9 dc3b 8f35 fcbc 714d 5c3b
000003f0: 0f38 c0aa be10 142b ea72 7929 554b c52a
0.009838665 -0.06703894 0.03422968 -0.007226248 -0.055651374 0.053445835 0.045588493 -0.110704735
0.09625887 -0.018192021 0.21433963 0.074179046 0.019095963 0.27775282 0.15097165 -0.030075973
0.2603245 0.058833424 1.7775934e-12 -2.0566242e-12 1.3432635e-12 1.8138153e-12 -1.304034e-12 1.017161e-12
2.072618e-12 2.6905062e-13 1.5680319e-12 -0.033116393 -0.06296991 0.114649326 -0.07644789 -0.120119154
0.05727603 -0.054913588 -0.08341414 0.04520394 0.174341 0.26601988 0.06850595 0.17830083
0.32888547 0.14637692 0.2345946 0.27300155 0.08251258 -7.0133392e-09 9.112028e-12 4.3122164e-12
-4.292726e-09 7.1843417e-12 -9.494195e-12 -1.682626e-10 -2.7672346e-12 8.281843e-12 0.09738032 -0.06864419
0.039518166 0.0466048 -0.1544558 -0.01232398 0.06444872 -0.16599596 0.022074332 1.9189987e-13
7.9534556e-13 5.653138e-13 -1.9820987e-13 -9.102601e-13 7.05477e-13 -1.6121167e-13 9.785197e-13 4.2827322e-13
-0.0436986 -0.116730556 -0.019735321 -0.031803653 -0.051674172 -0.031657334 -0.046931457 -0.10701973
-0.062884234 0.039305527 0.06908769 -0.018916003 -0.015182821 0.04110068 -0.000998383 0.004716071
0.09278913 0.021012647 -6.88024e-13 -1.5531792e-12 1.8351302e-13 9.432048e-14 1.467236e-12 -1.5187837e-12
2.0336818e-12 -1.9757908e-12 -1.3879762e-12 -0.05513259 -0.0610302 -0.06997471 -0.08758791 -0.08182659
-0.14369279 -0.10998083 -0.058540165 -0.044813316 0.20229594 0.14860874 0.14075923 0.15202735
0.20431095 0.19858012 0.2079538 0.16347079 0.14833657 7.6617684e-10 -1.9501672e-12 4.5738764e-12
-3.3948215e-09 2.683721e-13 -6.9864834e-12 6.226767e-10 6.4706495e-12 -5.06542e-12 0.12157043 0.042872578
-0.010457208 0.10710783 0.0056148325 -0.089124374 0.10800716 0.0017304712 -0.10638239 2.4501102e-13
-1.8454485e-14 1.980084e-13 1.1031842e-13 4.3491952e-13 -3.7064096e-13 -3.8780649e-13 1.4116403e-13 1.8187222e-13
-0.013922499 -0.009478763 -0.020289056 -0.10166187 -0.13489522 -0.01389448 -0.021016411 -0.07053178
-0.029807918 -0.014428029 0.0300829 -0.009234313 0.017915582 0.04409359 0.13178921 0.035179004
0.07891811 0.061547462 -5.583173e-13 3.2088974e-13 1.1840372e-12 -1.1879153e-13 3.795973e-13 2.1262376e-13
-1.326201e-12 4.262478e-13 1.0221627e-13 0.0010871952 -0.04358449 -0.04258981 -0.06666515 -0.048853602
-0.043328203 -0.058391433 -0.12601666 -0.0109776 0.14159639 0.028611792 0.08452643 0.16350514
0.115900815 0.031908456 0.16311315 0.1585113 0.012891926 6.8971946e-11 -2.770956e-12 -1.289303e-12
-1.4865158e-10 -1.8139828e-12 1.8001621e-12 -5.610674e-11 2.5838687e-12 4.336986e-12 0.13420144 0.058611225
0.027128965 0.059377298 -0.10433742 -0.057368062 0.05868884 -0.16496356 -0.0924003 2.7186761e-15
1.9821247e-14 2.4010332e-13 -3.8795624e-13 1.1487836e-13 1.3311323e-14 3.8840543e-13 -1.5305692e-13 -4.1881212e-13
-0.014578653 -0.01921479 0.0009906872 -0.012105152 -0.024878813 -0.014343977 -0.0029486066 0.0015879901
0.0029371642 -0.002974739 -0.011653588 -0.021580623 -0.010157071 -0.01022298 -0.020624787 -0.0024874932
-0.013480298 0.0018570982 1.7082238e-13 4.775292e-13 -1.2226997e-15 -1.4824288e-14 1.4448795e-14 2.7425638e-14
-1.3877079e-13 -2.641612e-13 3.541137e-14 -0.01916423 -0.020655315 -0.008327006 -0.01932183 -0.019090807
-0.028905531 0.0067436607 -0.030787257 0.0033615495 -3.414495e-13 5.2603397e-13 5.538878e-14 3.5046502e-13

encoder_conv.2.bias f4 [16]
00000000: cdd0 563e deac 2d3e cdca 073e 860c 82bd
00000010: 2c9b d43d 9d6e d63d 816f 393e 28be c53c
00000020: 2fbe 9ebb 6ad0 503e 81ce 3a3e abdf 013e
00000030: d858 3c3e 92ec dd3d c464 983d 72bb 543e
0.20978089 0.16960475 0.13260956 -0.06350045 0.10381159 0.104703166 0.18108942 0.024138525
-0.004844449 0.20392004 0.18242837 0.12682979 0.18393266 0.10836138 0.074410945 0.2077463

encoder_conv.4.weight f4 [32, 16, 3, 3]
00000000: 621e adb4 7893 13b7 7e83 02b8 1e11 1bb5
00000010: ad97 0fb7 7508 27b8 d4bd 08b6 e13c 5bb7
00000020: 3ce5 44b8 717b 04b3 30d2 1c34 343b cd33
00000030: b1af 02b3 fdbd 2834 f51e 3fb4 9bcf 06b3
00000040: f2e1 5134 e67d 11b5 8887 28b2 4446 3f32
00000050: bb62 bbb2 4837 29b2 9779 6532 65b2 f0b2
00000060: c8f6 a2b1 f136 c231 3116 11b3 7a30 f6a9
00000070: 8c4d cda7 05cc 78a9 0c75 8ea9 d292 83a9
00000080: 7fb7 a1a9 2f9d 88aa 372f daa9 2d5c 1e28
00000090: b63e 8eb1 b0f9 ce33 0c66 d633 1dd6 af31
000000a0: 0843 7632 5591 2434 d2fb b1b2 5f4c de33
000000b0: df72 6bb3 b703 7532 5776 a831 c7b2 38b2
000000c0: 48e8 f4b2 e414 a3b2 f32c 8532 1a50 aeb0
000000d0: c77b 0631 96be 1e32 6565 c0b5 8735 91b7
000000e0: 235d 64b8 a662 b7b5 9652 5eb7 4de3 70b8
000000f0: 3f46 97b6 7886 c6b7 2b97 9bb8 108a 0032
00000100: 3f22 f5b1 78ad 6632 c67e f331 a760 18b2
00000110: f5cf 8332 a0b9 8830 82c8 77b1 4975 7732
00000120: 7a37 df2e 72e4 5b30 2241 81b0 f1f7 85b0
00000130: ea71 5030 d19a 80b0 358d 3db0 d59b b0b0
00000140: 70f3 a230 5c47 5ab6 c8bc d2b7 26bc 87b8
00000150: 93e2 4eb6 7c09 bcb7 334b a3b8 079e d2b6
00000160: d01b fdb7 be78 b9b8 f38d 4033 4ce3 dfb4
00000170: ac44 b5b6 0d7e 2e33 6948 8ab3 8176 b8b6
00000180: dc69 3f34 edde 85b5 00d7 15b7 2df4 5432
00000190: c575 8fb2 0439 1d34 ea92 5032 8add cab2
000001a0: 7a31 4034 b56c 71b1 1329 3d32 e509 5e34
000001b0: 4bfd 6f32 4aa9 0eb3 15f1 7532 ccd5 7d32
000001c0: 8803 0bb3 d7eb 7433 f12d 1c32 e65c 8fb2
000001d0: 0be2 1134 1e41 18b3 04b3 5534 c83e 1ab5
000001e0: 75f3 b5b2 c225 4a34 311d deb5 53c6 5933
000001f0: a432 9233 9409 2ab6 5fa8 99b1 cc10 0332
00000200: a372 5932 8e69 06b2 e72e df31 a47f 3cb1
00000210: fba7 23b2 633e 5f32 c7c2 64b2 29e1 8132
00000220: 6d70 cdb2 7330 06b3 0c9b 5532 b6b2 dab0
00000230: 887b 20b3 ad56 8032 a20f 32b2 325d 0fb3
00000240: 61e3 86bd c783 56be 533a 3c3b 3130 45be
00000250: ab20 80be 43bd d63d 38e7 2dbe d12b 8cbe
00000260: 81a4 3f3e 5728 0cbe 51dc 7ebe a38c 0b3d
00000270: a31b 1cbe 43ee 79be 2577 1f3d 38d4 2cbe
00000280: 9c53 29be 6e15 e73c a4d8 ae3c 448b e6bd
00000290: 23ae 0fbd 43fc 4a3d 9e34 b3bd d461 8a3d
000002a0: 5618 33bc 18e7 89bd 53a5 a43d ad6d f629
000002b0: 5d91 74aa 2109 49aa 63ba 22aa b069 3c2a
000002c0: b3e6 842a aa69 eea9 5b4d fca9 9224 78aa
000002d0: c088 3abd 263a a9bd c067 943c bc41 eabb
000002e0: 23df 8ebd 1ff2 063e 09e8 813d 4d94 99bd
000002f0: 7da3 5b3e 5c53 153e 6f73 513e 54c1 8ab9
00000300: 5cc3 983e 439e a53e 1b04 20bc dfcb 953e
00000310: 4485 9f3e 394a 3cbd 8e58 80bd d47e 5dbe
00000320: 3f51 34bd 937c 2bbe 08ba 69be 17b2 463d
00000330: b5c4 2ebe e37b 7dbe 0193 ec3d 0bc7 46bd
00000340: de22 583d 0d38 3c3d 748d 2abc cfbf 3ebb
00000350: 28ab 283d 4379 603d 8aa8 23bc 4bfd 783e
00000360: 7005 7d3d f8cc 9f3c 23d6 3cbd 74ef e1bd
00000370: 67b5 9bbc ce1a b1bc 247f 00be 5865 cc3d
00000380: 97a4 f7bd 45eb 6abd 49b0 57be 1f25 be3c
00000390: 3705 7fbe 3dcd aabe 429b 753d 7f89 21be
000003a0: c74b 83be 7245 073e 0a26 ef3b b03d 53be
000003b0: b7cc c0bd 501f acbd 117b 71bd 5efb 6ebd
000003c0: 2398 21bd a751 49bd 8bdc 103c dd74 b0bd
000003d0: 9fea 56be 3bf2 d93b e02f bbbd 061f 32be
000003e0: 2a68 d23d eca4 efbd d54d 3fbe 2e4a ef3d
000003f0: b4fa 30be a8b4 98be 6cb1 d23a b608 87bd
-3.2245867e-07 -8.796218e-06 -3.1116877e-05 -5.776691e-07 -8.558779e-06 -3.982378e-05 -2.0376074e-06 -1.3067592e-05
-4.6943533e-05 -3.0845914e-08 1.4605098e-07 9.5568254e-08 -3.0427774e-08 1.5715337e-07 -1.7799523e-07 -3.1388122e-08
1.954684e-07 -5.4199916e-07 -9.809703e-09 1.113364e-08 -2.1814563e-08 -9.849664e-09 1.3357201e-08 -2.8020802e-08
-4.7428763e-09 5.6523892e-09 -3.3780626e-08 -1.0933004e-13 -5.6983007e-15 -5.524402e-14 -6.326371e-14 -5.843038e-14
-7.181668e-14 -2.426752e-13 -9.689335e-14 8.790749e-15 -4.1398733e-09 9.6380404e-08 9.983714e-08 5.117512e-09
1.4334326e-08 1.5326562e-07 -2.0720027e-08 1.03515724e-07 -5.4819676e-08 1.4261722e-08 4.902897e-09 -1.0750859e-08
-2.8510968e-08 -1.8985197e-08 1.5503678e-08 -1.2682932e-09 1.9569926e-09 9.240145e-09 -1.4334624e-06 -1.7310273e-05
-5.4446176e-05 -1.3663273e-06 -1.325146e-05 -5.743215e-05 -4.5083284e-06 -2.3666056e-05 -7.419133e-05 7.481972e-09
-7.134332e-09 1.3427204e-08 7.0866433e-09 -8.869541e-09 1.5344975e-08 9.94806e-10 -3.6057206e-09 1.440396e-08
1.01507205e-10 7.9996376e-10 -9.404497e-10 -9.747493e-10 7.583184e-10 -9.357227e-10 -6.8958467e-10 -1.2849976e-09
1.185624e-09 -3.2526068e-06 -2.5121859e-05 -6.472347e-05 -3.0828276e-06 -2.2415763e-05 -7.7864526e-05 -6.2768845e-06
-3.0172901e-05 -8.8439774e-05 4.4832586e-08 -4.1702367e-07 -5.402215e-06 4.0627175e-08 -6.439297e-08 -5.497423e-06
1.7826773e-07 -9.974152e-07 -8.931151e-06 1.2395543e-08 -1.6700946e-08 1.4642507e-07 1.2140598e-08 -2.361664e-08
1.7899393e-07 -3.5131908e-09 1.1010587e-08 2.0678961e-07 1.3969223e-08 -3.321592e-08 1.4315693e-08 1.477515e-08
-3.236667e-08 5.7025172e-08 9.090841e-09 -1.6689636e-08 1.3586411e-07 -3.544948e-08 1.9902296e-07 -5.746083e-07
-2.1181885e-08 1.8826452e-07 -1.6548785e-06 5.0704624e-08 6.807866e-08 -2.533755e-06 -4.4720276e-09 7.629023e-09
1.2657128e-08 -7.823827e-09 6.4954864e-09 -2.7430156e-09 -9.526043e-09 1.29944935e-08 -1.3315634e-08 1.5119968e-08
-2.3916266e-08 -3.124337e-08 1.2433485e-08 -1.591238e-09 -3.7365254e-08 1.4940577e-08 -1.0364518e-08 -3.3379543e-08
-0.06586338 -0.20948707 0.0028721287 -0.19256665 -0.25024924 0.104853176 -0.16982734 -0.2737718
0.18715097 -0.13687263 -0.24888732 0.03406967 -0.15244918 -0.24407296 0.038931984 -0.1687783
-0.165358 0.02820846 0.021343537 -0.112570316 -0.03507818 0.04955698 -0.0875027 0.067569405
-0.010931095 -0.06733531 0.080393456 1.094362e-13 -2.1721986e-13 -1.7855553e-13 -1.4453156e-13 1.6734422e-13
2.360799e-13 -1.0587653e-13 -1.1204467e-13 -2.2039513e-13 -0.04554057 -0.08263044 0.018115878 -0.0071489494
-0.06976154 0.131783 0.06343085 -0.07498989 0.21449085 0.1458258 0.2045419 -0.00026465452
0.29836547 0.32347307 -0.009766604 0.29257104 0.3115636 -0.04596922 -0.062668905 -0.21630412
-0.044022795 -0.1674674 -0.22824872 0.048509683 -0.17067225 -0.2475429 0.11551476 -0.048529666
0.052767627 0.04595189 -0.010409702 -0.0029106026 0.041178852 0.054803144 -0.009988913 0.24315374
0.061772764 0.019506916 -0.046102654 -0.11032 -0.019007398 -0.021619227 -0.125485 0.09980267
-0.1209194 -0.057353277 -0.21063341 0.02321106 -0.24904333 -0.3335971 0.05996252 -0.15775107
-0.2564375 0.13210085 0.007298236 -0.20629 -0.09414046 -0.0840441 -0.058955256 -0.05834519
-0.03945173 -0.049150135 0.008841644 -0.0861604 -0.20987938 0.0066511906 -0.09139991 -0.17394647
0.10273774 -0.11701378 -0.18682034 0.116840705 -0.17283136 -0.2982533 0.0016074604 -0.06593458

encoder_conv.4.bias f4 [32]
00000000: 592f 11bc 440d 713c 6869 74bd dce7 31bd
00000010: 868d 6d3e b413 25bd 4cd4 93bd 3d62 caba
00000020: fe45 b1bd 372c 47bd 8daa 7fbc 469a 85bd
00000030: 93d5 363e 9030 ddbc d4a2 88bd 3c08 6a3e
00000040: e81f e8bd fb9b eebc 404f 5d3e 3d02 4dbd
00000050: f515 d3bb 5333 ec3c b80f a5bc 20fb 8ebc
00000060: f5b1 64be cfae 0d3d 4c44 81bc 2b20 fe3c
00000070: f047 47bc f478 aabd c653 cfbc 1f65 94bb
-0.008861386 0.014712635 -0.059670836 -0.04343401 0.23198518 -0.040301993 -0.07218227 -0.0015440654
-0.08655928 -0.04862615 -0.015604627 -0.06523566 0.1785491 -0.027000695 -0.06671682 0.22854704
-0.11334211 -0.029127112 0.21612263 -0.050050963 -0.0064418265 0.028833067 -0.020149097 -0.01745373
-0.2233351 0.03459054 -0.015779637 0.031021198 -0.012163147 -0.08323851 -0.025308501 -0.004528656

encoder_lin.0.weight f4 [64, 288]
00000000: 9085 2334 e2a5 6c33 e44b 8eb2 4774 cfb2
00000010: a072 3fb1 98dc 9fae 8051 1332 e12d 9231
00000020: 5d2d 1e32 51a0 d839 aeb3 8dbd 41be febd
00000030: f303 58bb 1fca 443e 0218 a53e 8efb 32bd
00000040: a879 3ebe 166d 813d 9c84 8b3c 5d8f 523d
00000050: 9995 073d 5b12 1b3c 6b53 193a b149 8fbc
00000060: 6874 c63d f08a 093e 659a 2b3d d727 f3ba
00000070: e1db 163e e8c6 b2bb 130f ae3d 5bd6 2e3d
00000080: 3b8b 743c c79c edbd 951c dc3a 0efb 343c
00000090: fb8c 8dbd 89f7 0bbe 4378 35bd 4a1c d3bd
000000a0: ef25 3d3d 3135 1a3e ce45 8abd 9959 803b
000000b0: 8562 cb3d 6b9b 1133 31da 1b34 ffc7 a833
000000c0: 16b8 cc33 704b da34 f64c 7f34 aea5 d133
000000d0: 3afc e434 213d 1834 7859 f1bc 72fe 553d
000000e0: 1092 893d b9a6 4c3d 2e36 2b3d cb5f 8abd
000000f0: fd4b e83c abdc 643d b901 2bbd f1ec 2fbd
00000100: 0fa2 5c3d 73ce 663d 609b 0d3d 5c40 81bc
00000110: 534d 9dbd 8820 063d 401d db3d 9e1f 08bd
00000120: c617 963c 3e20 913d 7f80 2a3d 723a e73b
00000130: 1ea7 d0b9 7bda 54bc 9a53 9b3d 40e6 d73d
00000140: 6239 583d 8b93 473c 7375 fd3d 54ab fb3c
00000150: 66d9 90bc baae f6bb 3fd9 30bc 254a 0bbc
00000160: b2e2 113d 4be7 353d b5c8 e82f ff40 99b6
00000170: f321 52b6 46a2 64b4 9669 4bb8 3c2c 06b7
00000180: a477 61b4 1f68 69b8 6f9e 9cb7 a7f2 3bbc
00000190: 243d ce3d c252 793d 351c e63d ae79 123e
000001a0: fb6e 073d 3dd5 75bd 9755 b53c 117e ffbb
000001b0: 6a9e 0abd b46d 253d 5aec 04bd 20a6 ba3d
000001c0: 5468 193e c819 5f3e 55a3 a3bd 50c3 913d
000001d0: 3243 653d db99 08bd a1dc 313d b3ea fa3c
000001e0: 3b32 103d b4bf 15bd bd6a 20be a6d3 143d
000001f0: 397a 143d 5869 88bd 93a2 3bbd f0f2 253d
00000200: 8184 1dbd da7d f8bc c933 aabd 4bb0 9bbd
00000210: edba 96bd 7a5c 0f3d 1419 aebd 8a06 8abe
00000220: 4bf3 d6bd ea15 02be cdea cbbd 3583 d6bd
00000230: 1290 46bc d405 12be 34a2 f7bd 1a21 40bd
00000240: 22aa c93c 8154 003d 1361 9ebc e17c 8ebd
00000250: c45c b9bd 108f d5bc 1173 313e a80d 643e
00000260: de3a 273d dd61 afbc 1867 673d 4188 7b3c
00000270: ade2 9c3b c1dc 813d 49d2 12bb 5ace 823d
00000280: 0fa1 e33d 6360 64bc 5589 a4be 5bcf 66bd
00000290: 90ed bfbd 8ff5 5eb9 6af3 ee3d 5a25 993d
000002a0: a255 bdbe 917e 93bd 828f 40be 5c96 9cb9
000002b0: c50b 333d adac 743c 96c1 b33b d3e5 6c3d
000002c0: 4996 2c3b 1e0b c13d 2ff5 f23d f2f0 59ba
000002d0: 8950 1d2a 1706 f1ab 4f74 2b2b feb1 8e2c
000002e0: 64fa 8b2b 5e9a 322a 61a1 f82b 3583 9aab
000002f0: 862b 1bab c026 68bb f11e 0f3d 8adf 523d
00000300: 5555 5dbc 7e16 433b 11df 44bd fee3 303d
00000310: d217 b23d c830 c5bb 1946 f82c 8664 f1ac
00000320: 8007 f929 1235 98ac 259a 7f2d 335d d62c
00000330: 1126 18ad 20ff 842d 7f69 4d2b 2667 debb
00000340: 06a9 1b3d 5603 293d b0cc a13c e016 cebb
00000350: 051a a3bd 79e0 a23d aa88 f63d 0f23 5cbc
00000360: 8a3e 44b9 12d4 5fba d05d 87bb f82d b9bb
00000370: 7e9c de3b bdfa 1cbc c42c 48ba 8130 7cbb
00000380: cd15 bebc a8c8 78bd 23c7 e13c 4ee4 6a3d
00000390: 7c64 143d 44c7 0d3c 82f9 69bd d969 063d
000003a0: 5298 813d e3a3 f9bc a8f9 72ad 5abe c5ae
000003b0: 8e8e c1ae 1b90 6fae be87 b6ae 39ab e7ae
000003c0: 3c1c 7cae a866 f6ae 556f c5ae 6bc2 41be
000003d0: 0dd3 893d 1e36 613d b184 4bbd c017 053e
000003e0: 9be9 52be 3004 14be 6995 dbbd deee 8fbd
000003f0: 88f6 b0ae 51c2 30b6 0710 16b6 c74f e030
1.5229148e-07 5.50989e-08 -1.6565487e-08 -2.4150848e-08 -2.7859315e-09 -7.269668e-11 8.575057e-09 4.254375e-09
9.207125e-09 0.00041318175 -0.06919037 -0.12438632 -0.0032961338 0.19217728 0.3224488 -0.043696932
-0.18601096 0.063196346 0.017031007 0.051406253 0.03310165 0.0094648255 0.0005848917 -0.017491193
0.096901715 0.13431907 0.04189529 -0.0018551302 0.14732315 -0.0054558404 0.08498969 0.042684894
0.014925773 -0.116021685 0.0016793186 0.011046184 -0.069116555 -0.13668646 -0.044304144 -0.1030813
0.046178754 0.15059353 -0.067515954 0.003916931 0.099309005 3.3901795e-08 1.4514877e-07 7.859489e-08
9.532975e-08 4.0660552e-07 2.3776724e-07 9.762458e-08 4.2651828e-07 1.4178342e-07 -0.029461607 0.05224461
0.06717312 0.049963687 0.041799717 -0.06756552 0.028356547 0.055874508 -0.04174969 -0.042950574
0.05386549 0.05634923 0.034572005 -0.01577776 -0.07680764 0.032745868 0.10698938 -0.033233277
0.018321883 0.07086228 0.04162645 0.007056528 -0.00039797364 -0.012991543 0.07584305 0.105419636
0.0527891 0.012181173 0.12375917 0.030721344 -0.017681789 -0.0075281532 -0.010793983 -0.008501564
0.035616584 0.04441003 4.2343165e-10 -4.567322e-06 -3.13122e-06 -2.129319e-07 -4.8497306e-05 -7.9973215e-06
-2.0998283e-07 -5.56485e-05 -1.8670426e-05 -0.011471427 0.100702554 0.06086994 0.11235849 0.1430423
0.033064824 -0.060017813 0.022135539 -0.0077970107 -0.03384248 0.040387824 -0.032451965 0.09113717
0.14981204 0.21787179 -0.079901375 0.07117331 0.055972286 -0.033349853 0.0434233 0.030629491
0.035204154 -0.036559775 -0.15665717 0.036334656 0.036249373 -0.06660718 -0.04580934 0.040514886
-0.038456444 -0.030333448 -0.083106585 -0.076019846 -0.07359872 0.035000302 -0.08500877 -0.26958114
-0.10495623 -0.12703672 -0.09956894 -0.104742445 -0.01211931 -0.14260036 -0.12091485 -0.046906568
0.024617258 0.03133059 -0.019333398 -0.069574125 -0.09050897 -0.026069194 0.1732905 0.22270834
0.040827624 -0.02140897 0.056494802 0.01535231 0.004787764 0.063409336 -0.0022403172 0.06387015
0.11114704 -0.013938996 -0.32136026 -0.056350093 -0.09371483 -0.00021263048 0.11667521 0.07477827
-0.36979395 -0.07201875 -0.18804744 -0.00029866665 0.043712396 0.014933747 0.0054857237 0.057836365
0.0026334694 0.094259486 0.11863171 -0.0008313797 1.3972342e-13 -1.712577e-12 6.0912815e-13 4.055644e-12
9.946041e-13 1.5863133e-13 1.7666251e-12 -1.0978775e-12 -5.5127463e-13 -0.0035423487 0.034941617 0.051482715
-0.013509114 0.0029768045 -0.048064295 0.04318618 0.086959496 -0.006017778 7.0563663e-12 -6.8607923e-12
1.10591224e-13 -4.325992e-12 1.4529299e-11 6.092593e-12 -8.648652e-12 1.511996e-11 7.2977036e-13 -0.0067871986
0.03800299 0.041262947 0.019750923 -0.006289348 -0.07963947 0.07952971 0.12037785 -0.013436093
-0.00018715314 -0.0008538376 -0.0041310564 -0.005651232 0.0067935577 -0.009581265 -0.0007636065 -0.003848106
-0.023203755 -0.060738236 0.027560776 0.057346635 0.036228642 0.008653466 -0.057122715 0.032815788
0.06327881 -0.030473655 -1.3811542e-11 -8.992336e-11 -8.801947e-11 -5.44703e-11 -8.3005144e-11 -1.0535079e-10
-5.7323243e-11 -1.120502e-10 -8.9782994e-11 -0.18921821 0.06729708 0.05498325 -0.04968709 0.12997341
-0.20596926 -0.14454722 -0.10721857 -0.07027982 -8.047346e-11 -2.633915e-06 -2.236107e-06 1.6320819e-09

encoder_lin.0.bias f4 [64]
00000000: e35b 7cbd ab18 8dbd 4aab 20b1 fb11 6ab9
00000010: 3d57 a23d cb88 9dbd 245f 433d 0801 1fbd
00000020: 9efb 22bc aef8 f0bb 1af0 93b8 a58a ddb9
00000030: 6521 13bb 2f84 b5ba 9bfa 3a3c 878b cd3c
00000040: 4809 f8bc 62e2 42be d7fb 5abd fdeb 0d3d
00000050: 4fe2 4dbd 82f5 3ebc c184 863d 726e c7bb
00000060: efdb 883c 0276 1635 fdc0 343c ba0b d6bd
00000070: 45f7 20be 17db 3fbd 0ffa 983c 4cc7 83b1
00000080: 05e0 afba 8bfc e3bb 25c6 313b ceea 5ab5
00000090: fac2 c8bb 6f87 da3c e5cb 1eb9 5e19 9bbd
000000a0: 92f1 8fbc bd56 4c3d 1355 a4bb 7a38 27bc
000000b0: ef4b 67ba 3b40 18bc c71f 07bd 2b41 0b3c
000000c0: a043 e0ae 7e7e 8aba 4088 38ba a4b3 44bd
000000d0: a4d8 10bd 7c81 3dbe b55d 8dbd 5850 033d
000000e0: 3b60 4f3d 67d5 0abe 4c25 dc3c 6355 eabd
000000f0: e29f 073d 6ecb 2cbd ecd1 30be 0d7c 0bbb
-0.061611068 -0.06889471 -2.338043e-09 -0.00022322677 0.07926796 -0.07692107 0.047698155 -0.038819343
-0.0099476855 -0.0073538637 -7.0542286e-05 -0.00042255703 -0.0022450325 -0.0013848598 0.011412288 0.025090946
-0.030277863 -0.1903167 -0.05346283 0.034648884 -0.050264653 -0.011655213 0.065682895 -0.006086164
0.016706435 5.605108e-07 0.01103234 -0.104514554 -0.15719326 -0.0468398 0.018673925 -3.835259e-09
-0.0013418203 -0.0069575957 0.002712616 -8.1553014e-07 -0.0061267586 0.026675908 -0.00015144011 -0.07573198
-0.017571244 0.049887408 -0.0050150244 -0.010206336 -0.00088232657 -0.0092926575 -0.03298929 0.008499424
-1.0198353e-10 -0.0010566262 -0.0007039346 -0.04802288 -0.035362855 -0.18506426 -0.06902639 0.032059044
0.050628882 -0.13557969 0.026873253 -0.114420675 0.03311146 -0.042186193 -0.17267579 -0.0021283657

encoder_lin.2.weight f4 [3, 64]
00000000: 73f5 ba3e f152 bb3e afc0 d1b6 c952 603c
00000010: 78e6 c23d 9110 823e 60ac 523e 0235 a83e
00000020: 5c93 1fbd 2512 1d3e 40c3 1e3a de10 572e
00000030: a2a7 0f3c cf5d ae3b 2ddd bfbd af64 003d
00000040: 959e da3c 3ab1 0bbe 3d7c a43e 5eb3 15bd
00000050: d9a2 f73e 84e7 c1bd 46a7 0f3e 5ba5 443d
00000060: 53bb d43d 2a03 0e3d 655c ca3e 0f61 c8bd
00000070: 9497 94be 8ac3 34be c1b0 6d3b b047 03ba
00000080: bdc8 d83b 9b02 ccbd f249 8e3c c3b5 37b6
00000090: b1db 803d 3ae5 17be 979a d33b 311b 9e3e
000000a0: 61f2 113e 1eda 533c bfdc 1bbc bc66 a2bb
000000b0: 7921 51bb 159f 443d 7a7b 13be 44da 0b3d
000000c0: aa0c 982d 935c 063d 2a31 8035 0333 28be
000000d0: c0b0 743c d76e 83be 28ec dabd 36ab 9dbd
000000e0: a803 723e 9d7b 7ebe 9b86 dcbd 02cf 5ebe
000000f0: 2c32 cc3d c621 563e 2f41 1fbf ee55 b9bc
00000100: 9e79 b83d 8a89 ad3d e741 373c b22c 65bb
00000110: 2497 82be 5038 873e f327 7a3e 56b1 ecbd
00000120: 5104 c53d 11aa b1bc a25f c4ba 4265 f6b8
00000130: 2014 05bb 2221 e8bb fc82 a7be 0632 eb3c
00000140: ce40 b2bb f803 75be e06e c73e ff17 88bd
00000150: bece 88be a832 a43d 51d5 d93e f924 083e
00000160: 5a32 f33e 4a39 a53c 4bdd afbd 925f 233e
00000170: e271 74be 218a 963c 6b3f 543d 4470 863b
00000180: 40e2 9b3b 32ad 9e3d 2fbc eb3b 0568 94ba
00000190: 4829 793e f7e1 f1bc 59d2 6cbd ba1d bf3d
000001a0: 5815 473c 54bf 813d a070 c13c 7321 113c
000001b0: 10c7 2abd c044 3e3d 6f5c b2bd adb6 0a3e
000001c0: decc 0f3b 76ab f23b 4ce1 c1bb ac6e dc3e
000001d0: 5934 2dbe 7cd1 003e 5f89 38bd 3981 efbb
000001e0: 6434 4ebd 3785 23bb f54a 14be 676e f9bd
000001f0: b117 8c3c ef55 363e 6318 3f3e 8208 743c
00000200: 8232 163e 179b 4e3e f184 0c3d 83f0 403d
00000210: 4e2f 22bd 83eb ce3d 8568 b7bc b294 7c3e
00000220: b6c1 ef3d 78d8 f33c bfe7 343d 85d4 1cba
00000230: 93e1 143d 54e8 dbbd b61b b63d 75e9 cd3d
00000240: b84c 603d 01f7 b73d ae5a 66bd 1c5b f73d
00000250: 8eca 583d 6b26 ad3d 8508 74be 658d 06bd
00000260: 4ce7 ebbd fcfc 7b3d 91b9 aebe 002a c83d
00000270: dab2 76bc bac2 7bbc 8f4a 033d 863a 76bb
00000280: 782c 263b 7e09 043e 0765 1e3d 2856 b7bb
00000290: 59bf 6c3d 38a3 c93d 0292 beba 01e9 743e
000002a0: e8fc cb3d 3181 e93d 6b7f 0aba 091d 5a3d
000002b0: 1ca9 23ba a60d 953d d1e2 99bd 07ab dc3d
000002c0: 206a 033c 6705 fd3c 2ceb 9a3c ce5b dcbd
000002d0: 1bd2 4d3c 8084 093d 34fd c1be 0628 f73d
000002e0: aa49 7a3d 3727 b4bd ae38 4cbd eda8 ebbd
000002f0: 8bb9 983d eb4b b339 0e1a 5a3e 5d14 c8bb
0.36515388 0.36586717 -6.2511167e-06 0.0136916125 0.09516615 0.25403264 0.20573568 0.32852942
-0.038958892 0.15338953 0.0006056316 4.890032e-11 0.008767994 0.0053212414 -0.09368358 0.03134602
0.026686946 -0.13641825 0.32126036 -0.03654801 0.4836643 -0.09467986 0.14028654 0.048009258
0.10387292 0.034670986 0.39523616 -0.097841375 -0.29021895 -0.17652717 0.0036268684 -0.00050079357
0.0066157267 -0.099614345 0.017369244 -2.7374924e-06 0.06291903 -0.14833537 0.0064576375 0.3088012
0.14252616 0.012930421 -0.009513079 -0.0049560945 -0.003191082 0.048003275 -0.14402571 0.0341437
1.7286023e-11 0.03280313 9.551052e-07 -0.1642571 0.014934719 -0.25670502 -0.106895745 -0.076986715
0.23634207 -0.24851842 -0.107678615 -0.21758655 0.09970507 0.20911321 -0.6220884 -0.022623982
0.09007572 0.08473499 0.011185146 -0.0034969267 -0.25505936 0.2641015 0.24429302 -0.11557262
0.09619964 -0.02168754 -0.0014982114 -0.00011749055 -0.0020306185 -0.007084028 -0.3271712 0.028710376
-0.005439854 -0.23927295 0.38951778 -0.06645202 -0.26720232 0.080174744 0.4254556 0.13295354
0.47499353 0.02016892 -0.0858713 0.15954426 -0.23871568 0.018376412 0.051818293 0.0041027386
0.0047571957 0.07747878 0.007194064 -0.0011322504 0.24332154 -0.029526694 -0.05781779 0.09331842
0.012151085 0.06335321 0.023613274 0.008858073 -0.041693747 0.046452284 -0.087090366 0.13546248
0.0021942179 0.0074056936 -0.00591675 0.43053186 -0.169145 0.12579912 -0.045052882 -0.0073091057
-0.050342932 -0.0024951228 -0.14481719 -0.12179261 0.01710114 0.17806219 0.18661647 0.014894607
0.14667705 0.2017635 0.03430647 0.04710437 -0.039595895 0.10103514 -0.022388706 0.24666098
0.11706869 0.029766306 0.044166323 -0.00059825956 0.036347937 -0.107376724 0.08892004 0.10054294
0.054760665 0.08982659 -0.056238823 0.120779246 0.052927546 0.08454593 -0.23831375 -0.032849688
-0.11518726 0.06152056 -0.3412595 0.09773636 -0.01505729 -0.015366251 0.032053526 -0.0037571504
0.0025356095 0.12894246 0.038670566 -0.0055949874 0.05779967 0.09845585 -0.0014539363 0.23917009
0.099603474 0.114015944 -0.0005283269 0.053250346 -0.0006243156 0.07277994 -0.07513965 0.107748084
0.008020908 0.030886365 0.018910967 -0.10759698 0.0125623 0.033573627 -0.3788849 0.12068181
0.061105408 -0.08796542 -0.04985874 -0.115068294 0.074572645 0.00034198104 0.21299002 -0.006105943

encoder_lin.2.bias f4 [3]
00000000: 9466 a1bd d6be 7f3d 2ab1 dc3d
-0.07880893 0.062437855 0.10775979

decoder_lin.0.weight f4 [64, 3]
00000000: d418 383e 2208 083f 71fa edbe e7fe 9cbe
00000010: 2efc a8bc 327d e4bc 441e 0ebf ccf3 783e
00000020: c1d8 cc3c a9c8 9b3c 153c 803d 5253 c63e
00000030: ae4c 933e 9983 bb3e 6819 46be 65ee 2cbe
00000040: 29cc f03e ecad 13bf 258e b03e a736 753e
00000050: 4a25 843d b0fa 40be 854b 5bbe 22a4 373e
00000060: c84b b2be 800f 6a3d 2f04 b03e 37ee 5dbe
00000070: 6a7f 373e 512b f53e 103b ee3e ff09 9f3e
00000080: bda2 933e 054a a83e ef93 20be 6f2b a1be
00000090: 9422 943e 6850 ecbd 4670 49be 1c04 893e
000000a0: 2f5b a5be f70c 853d c55a 073e 7bbe 87be
000000b0: 1134 8b3e c536 b2be 46e2 503f fe09 77be
000000c0: 2cce c83e 82de 0fbf 320b c4bb 41e4 52be
000000d0: d6fc c7bc 0243 d4be 09c1 86bc f351 9bbe
000000e0: 3d29 173f 3923 71be 1563 dfbc cb5c 563e
000000f0: 4575 a4bd 1e80 95bd 6a8f 23bf e5ce d8ba
00000100: e110 1fbf e9ad a43e d922 74be eabb e5be
00000110: de67 cabe 74dc 1d3d cdcb b23d 0c74 9f3e
00000120: 55d7 e33c 4304 67be 3246 3dbf cc90 9e3e
00000130: 370a 35be 3a06 8abe 299e 2cbe b5fc 30be
00000140: b1a9 dbbe ec77 203f 7194 a8be 063f ca3d
00000150: 193a 23be 0822 343c d0ad d23e 56ae b8bd
00000160: 9db5 033f 2009 8dbd 9f2a 5dbe 601a 343e
00000170: 7b4c 193e 997f 20be 7be8 df3e da47 af3e
00000180: d070 753e 2406 9ebe cd09 8d3d 3467 0cbf
00000190: 72ba 083f 2c2c 213d 0bd0 a23e a88e 48be
000001a0: caa2 18be 7eee ff3d 4206 093f bf34 06bc
000001b0: 7225 603c d17c 35bd 5ea7 3f3e a211 4a3e
000001c0: 1236 423b e77b 41be 207c 973e 191d ac3e
000001d0: 76a7 803a a819 e2be 5412 83be 9905 62be
000001e0: 2907 2cbe 649b 393e f487 873e 5a8c 273f
000001f0: 086a 603e 23a7 7a3e 4d78 33bf 10e6 063c
00000200: b0b9 8a3b 0724 3abe 9b81 1dbe 3335 a1be
00000210: 457b b4be 3a36 44be a7e2 49be d170 263e
00000220: f71f 1b3f 21f9 793d 68dc b93e 8cd3 683e
00000230: b5a1 c8be 5ea1 47be d19e 17bf 2d55 073e
00000240: 85e6 07be 8954 593d 80da bbbe a879 863e
00000250: 250b 883e f1ee c53e 28b4 8bbe e627 70be
00000260: 0538 0bbf 501c 17be 0feb 983f 2e29 babe
00000270: 60f9 cbbe 2ba3 aa3d 8fc3 59be 43ff 823b
00000280: 5f63 cd3c 03a7 613e 97ce d13c ab7e 6fbe
00000290: 6202 453d ea51 8d3e 1e16 0f3f ca38 963d
000002a0: eae9 05bf a98f a73d 2144 0e3c 173a e63e
000002b0: f7a7 253e ffdb 6f3d 3c84 bd3e 2a61 443e
000002c0: ffd9 35bf 9110 fbbd baa2 babe f5aa 6f3e
000002d0: 52f6 c1be 1333 a23d 4991 cfbe 93df d33e
000002e0: 96e3 803e c8f7 d93d fadc 98bd d50e 113f
000002f0: c285 e93d f2fe 253c 0345 803e f0bb cf3e
0.17978221 0.5313741 -0.46480134 -0.30663225 -0.020628061 -0.027891729 -0.5551493 0.24311751
0.0250057 0.01901658 0.0626146 0.38735443 0.2876944 0.3662384 -0.19345629 -0.16887815
0.47030762 -0.5768726 0.34483448 0.2394663 0.06452425 -0.1884563 -0.21415527 0.17933705
-0.34823442 0.05714369 0.34378192 -0.21672903 0.17919698 0.4788461 0.46529436 0.31062314
0.28835097 0.32868972 -0.15681432 -0.3147845 0.2893263 -0.11538774 -0.19671735 0.26760948
-0.3229613 0.064966135 0.1321822 -0.26512513 0.2718816 -0.3480741 0.81595266 -0.24124905
0.39219797 -0.56198895 -0.00598278 -0.20594884 -0.024412554 -0.41457373 -0.016449468 -0.3033596
0.590473 -0.23548593 -0.027268926 0.20933835 -0.0803018 -0.07299827 -0.6389071 -0.0016541152
-0.6213513 0.32163933 -0.23841418 -0.4486993 -0.3953237 0.03854032 0.08730278 0.31143224
0.02781264 -0.2256022 -0.73935235 0.30969846 -0.17679678 -0.26957875 -0.16857208 -0.172839
-0.42902902 0.62682986 -0.32925752 0.09875302 -0.15940131 0.010994442 0.41148233 -0.09017627
0.51448995 -0.06886506 -0.2159829 0.17588186 0.14970581 -0.15673675 0.43732056 0.34234506
0.23968816 -0.3086406 0.06886635 -0.54844975 0.5340949 0.039348766 0.3179935 -0.19585669
-0.14905849 0.12496661 0.53525174 -0.008191287 0.013680803 -0.044308487 0.1871619 0.19733289
0.002963428 -0.18894921 0.29586887 0.3361595 0.0009815532 -0.441602 -0.2559992 -0.22072448
-0.16799606 0.18125683 0.26470912 0.65448534 0.21915448 0.2447782 -0.7010544 0.008233562
0.0042335615 -0.18177806 -0.15381472 -0.314859 -0.35250297 -0.19161311 -0.19715367 0.16253974
0.6059565 0.061028603 0.3630097 0.22736949 -0.39185873 -0.1949515 -0.5922671 0.13216086
-0.1327153 0.053059135 -0.3669014 0.2626469 0.26571003 0.3865886 -0.27285886 -0.2345272
-0.54382354 -0.14756894 1.1946734 -0.36359543 -0.39838696 0.08331903 -0.21266006 0.0039977147
0.025071798 0.22036366 0.025611205 -0.23388164 0.048097976 0.27601558 0.55893123 0.073350504
-0.5231005 0.08181698 0.008683235 0.44966194 0.16177355 0.058559414 0.3701495 0.1917769
-0.7103576 -0.12259019 -0.36452276 0.23405059 -0.3788324 0.07919898 -0.4054053 0.4138151
0.25173634 0.10642964 -0.07464023 0.56663257 0.114024654 0.0101315845 0.25052652 0.40573072

decoder_lin.0.bias f4 [64]
00000000: d638 063d 819c dcbe 32d8 90be 115a bc3e
00000010: 9234 0e3f 5995 773e a182 ae3d 5a50 233f
00000020: 82cd 153e 6469 ea3e 2016 6ebe 24e4 13bf
00000030: 6208 573f 41fd 8fbf c78c 803e d0c9 77be
00000040: c17f 993e 93e5 d13d 70eb e9be 215a 30bf
00000050: 048c 4d3e 5110 8cbe 3a23 af3e a3e1 853e
00000060: e18b b93d c9d9 26bf 09a5 223e f42b ca3d
00000070: ab5b e0be 5526 a2bc d443 b93e 7b18 8c3e
00000080: 8bcc 93bf a4a8 43bf 3b14 5abf 1ebc ecbe
00000090: 9842 193e d685 f73e f02a e4be b190 863e
000000a0: 4ad1 4a3f 94b2 7bbe 5a84 983c 7a72 613f
000000b0: b7e7 3b3f 4edc 1fbe 4a38 1b3f 4d96 84bf
000000c0: 844b c13e 4215 ea3e 52b8 e73e 12b3 213f
000000d0: 5879 bb3e c1e9 893f b611 153f e9f0 0dbf
000000e0: f081 8cbf 18f2 b93e 9ebe 203e 4863 433e
000000f0: 3667 f53e a997 23bf 1ed5 cfbe 9c37 1dbf
0.032769047 -0.43088153 -0.28289944 0.36787465 0.55548966 0.24178065 0.08521009 0.6379448
0.14629176 0.45783532 -0.23250628 -0.5776999 0.83997166 -1.1249162 0.25107405 -0.24198079
0.2998028 0.10248866 -0.45687437 -0.68887526 0.20072943 -0.27356198 0.34206563 0.2614871
0.09059883 -0.65176064 0.15883268 0.09871665 -0.43819937 -0.019793669 0.3618456 0.27362427
-1.1546797 -0.764292 -0.8518712 -0.46237272 0.1496681 0.48344296 -0.4456401 0.26282266
0.792256 -0.24579841 0.018617798 0.880653 0.73400444 -0.15611383 0.60632765 -1.0358368
0.37752926 0.45719343 0.45257813 0.63163865 0.36616015 1.0774461 0.5823015 -0.55445725
-1.0977154 0.36317515 0.15697715 0.19080842 0.47930306 -0.6390329 -0.40592283 -0.6141298

decoder_lin.2.weight f4 [288, 64]
00000000: 0846 d1bd ea7c 7b3d afef e63d 64b3 d43d
00000010: 5520 983d 5a17 96bb 8be5 9d3d e038 823d
00000020: e189 e53d 5b2d 353c 0e17 863c 2442 14bd
00000030: 4820 8b3d 33cb b03d 8b1d ce3d 030d 71bd
00000040: e74f 1c3e df63 31bd 794e dd3d 6a29 0bbb
00000050: a29a 91bd 9ce8 1d3e 78de 983d 3139 703d
00000060: ed33 cbbd d72f 26bd d7b1 3abd 2d65 5b3e
00000070: 5f70 f53c c3b3 9d3c e79c 8f3c e2b2 803c
00000080: 52cf 933d 54ec 17bd 7b00 dfbc 0b82 b63d
00000090: 77b1 dc3c 9786 fa3c e595 7bbd b167 ab3d
000000a0: a4d3 d43d a532 5b3d 0090 3d3d da04 91bd
000000b0: 04d0 e93d bc55 dc3d 03ab 3bbc 4303 a93d
000000c0: 5daf 64bd c031 a33d b93d 2ebd 8524 05be
000000d0: b9dd b6bb 5bad c23c c688 e93d 77e2 e93c
000000e0: 3a78 803d 63db 203d 3c24 8dbd 64fd 0f3e
000000f0: d4e7 d3bc eed8 f8bb 70be a6bc 6a5f 863c
00000100: 9dd4 5ea9 a8e5 f2a9 e30d 28bc 297e b8bc
00000110: ed21 32bc 5082 a4a9 9bb3 42ba ae16 e6ba
00000120: 2dc2 72bc 22bd b0bc 832e 99bc a053 c0a9
00000130: c0f3 63ae d048 2029 972a 12bc 9d68 d8aa
00000140: 2472 f5a8 268e 98aa b05a fbb8 4272 392a
00000150: bdbf d0aa b847 42ab a0ae 6428 7d8e 283a
00000160: 083e 98a8 a1fa 9da8 dc8e 43aa 00be f3ba
00000170: 0c77 1eb9 eaa3 03bc 09c9 96bc 9c88 21bd
00000180: 3c02 522a 7918 0ba9 08b1 6ea9 1b16 962a
00000190: bebe 76ba 3aef 7f2a 9e66 1daa 5826 73aa
000001a0: 6cab 37bb e595 10a9 15f6 3b2a a7ea d8a9
000001b0: ae0b dca8 aefa 89ba 9f95 eea9 389b c02a
000001c0: 6695 20a9 e3b9 ccbc dd36 2c2a 10b9 c92a
000001d0: 3ba6 f7ba c8cb 71bc c9ff d82e 9c1d a0bc
000001e0: b07c 5caa 872e cb28 8a51 1fa8 8bd6 a2b9
000001f0: f958 1baa 2ce9 79b6 beca f4ba bc36 45bb
00000200: b392 f43b cfe8 3a3d afff 843c 08ea a43c
00000210: 01f3 a33d e6f1 7fbd 9e68 f73c d1a1 2a3d
00000220: 6f79 bd3d 3b4a 8c3d 0abc 383d 27d1 a8bd
00000230: 483e 653d 1b6f 95be 2dc7 903c 8da5 e8bd
00000240: 432a e2bc cb54 fabc f89b 143e 0690 1e3d
00000250: b98a c8bd 2500 d33d fc22 0f3e b263 6ebb
00000260: cda7 93bd 595b b5bd 3655 f33c 24ae 0f3d
00000270: 239f 863d 9260 d6bd 3580 b43c 6ae1 90bc
00000280: 48a0 bcbe 7f61 c1bd d78e 58be 5a49 293e
00000290: e156 2fbc 1c13 383d 3a08 0e3e 7ab2 983e
000002a0: 731d a9bd fa2c a4bc 6aea bd3d 3abf 03bd
000002b0: 0c2f 7d3e 16c1 b23d ed31 e83c 35b6 5b3d
000002c0: 5681 9bbd 846b 2b3c 5fb7 eb3c ad45 92be
000002d0: a6d6 babd 74ed 91bd 48d8 ba3d d803 0d3e
000002e0: 1d75 d73d e4d8 b13d 04b5 a3bd c66b 1a3e
000002f0: 85f7 14be 7235 a43c d9f6 27bd 92e7 81bd
00000300: 1d04 a129 3429 c82a 3c6a 4aba 7eac 40bc
00000310: 9a4c 3abc e0c6 bb2a 55d4 a2bb 9418 f230
00000320: 7bc5 14bb f1c3 8bbc 2e3e 5fbc e0e7 09ab
00000330: 48df 92ba 39b8 8ba9 0091 0fbb 0751 0e2a
00000340: 972b 6aaf a8c8 c6aa e396 a02b c285 8a2a
00000350: e3f1 0eaa 4132 29aa ce6c c1aa fdb2 31bc
00000360: 5fb3 36aa 4066 9faa 95e9 86aa 729f 07bb
00000370: a4d1 42aa 22e5 b2ba 6ad5 5ebb 1e58 05bc
00000380: 22d5 c4aa 0a01 f22a 6503 c1aa c7a8 0729
00000390: fb4f 07b9 1cb0 1db8 8b0f 552a 19c2 1929
000003a0: 193a 07bc 6703 caaa b2d3 8829 38f2 c42a
000003b0: 3e72 89a9 a325 29bc 9aac 0abb 44d4 9faa
000003c0: 8ba2 0c28 dc4e d3bc 9225 fbaa 93d5 ccaa
000003d0: 235d 31b9 f335 d5bb 0b24 d131 50e0 a2bb
000003e0: 893b 41aa 2e4f 4aa9 9ec9 8aa9 285d 2fb5
000003f0: 1808 c729 cf54 52b9 7b55 19ba e672 1fba
-0.102184355 0.061398424 0.11276185 0.103857785 0.07428042 -0.0045804204 0.077097975 0.06358504
0.11207939 0.011058177 0.016368415 -0.03619589 0.067932665 0.08632507 0.100642286 -0.0588503
0.15264855 -0.043308135 0.10805983 -0.0021234402 -0.07109572 0.15420765 0.074643075 0.058648292
-0.099220134 -0.040572967 -0.045579758 0.21425314 0.02996081 0.019250756 0.017530872 0.015710298
0.072172776 -0.037090614 -0.027221909 0.089115225 0.02694009 0.030581756 -0.061422247 0.08369387
0.1039193 0.053515095 0.046279907 -0.070810035 0.11416629 0.1075854 -0.011454347 0.08252575
-0.055831302 0.079684734 -0.042539332 -0.13002212 -0.0055806306 0.023764303 0.114030406 0.02855037
0.062729314 0.039271723 -0.06891677 0.14061505 -0.02586738 -0.0075942194 -0.02035448 0.016402919
-4.9478315e-14 -1.0786798e-13 -0.010257217 -0.022521095 -0.010872346 -7.3056687e-14 -0.0007427276 -0.0017554366
-0.014816803 -0.02157456 -0.018698936 -8.5410195e-14 -5.1830318e-11 3.559029e-14 -0.008921287 -3.8441898e-13
-2.7249965e-14 -2.709926e-13 -0.000119855045 1.6470942e-13 -3.7081267e-13 -6.9022175e-13 1.2694408e-14 0.0006429924
-1.6902292e-14 -1.7539194e-14 -1.7369043e-13 -0.0018596053 -0.00015112403 -0.008034686 -0.018406408 -0.03943692
1.8652522e-13 -3.0885427e-14 -5.3000166e-14 2.666069e-13 -0.0009412578 2.2731548e-13 -1.3980004e-13 -2.1596039e-13
-0.002802576 -3.2104436e-14 1.6694313e-13 -9.6330326e-14 -2.4429972e-14 -0.0010526979 -1.0595278e-13 3.4213756e-13
-3.565672e-14 -0.024990981 1.5295703e-13 3.5833185e-13 -0.0018894145 -0.014758058 9.8679794e-11 -0.019545369
-1.9583185e-13 2.2557705e-14 -8.843954e-15 -0.00031058895 -1.3797634e-13 -3.7239615e-06 -0.0018676145 -0.0030092439
0.007463777 0.04563218 0.0162352 0.020131126 0.08005334 -0.06248655 0.030201253 0.041658226
0.09251677 0.06850096 0.045101203 -0.08243018 0.0559676 -0.2918633 0.0176731 -0.11359701
-0.027608043 -0.03055801 0.14512622 0.03871157 -0.09792084 0.10302762 0.13978189 -0.003637534
-0.0720974 -0.08855314 0.029703718 0.035078183 0.06573322 -0.10467638 0.02203379 -0.01768561
-0.36841035 -0.09442424 -0.21148239 0.16531888 -0.010701866 0.0449401 0.13870326 0.29823667
-0.0825757 -0.020040978 0.092732266 -0.03216479 0.24724978 0.087282345 0.028344119 0.053640563
-0.07593028 0.010462645 0.028773962 -0.28568783 -0.09122972 -0.07125369 0.091232836 0.13770998
0.105203845 0.08683947 -0.0799351 0.15080175 -0.14547546 0.020045016 -0.041006897 -0.06342997
7.15055e-14 3.5555727e-13 -0.00077215186 -0.011759875 -0.011370802 3.335587e-13 -0.0049691596 1.7614803e-09
-0.0022700715 -0.017061206 -0.013625665 -4.899397e-13 -0.0011205459 -6.2047976e-14 -0.0021906495 1.2640246e-13
-2.1297662e-10 -3.53111e-13 1.1410563e-12 2.4606538e-13 -1.2696055e-13 -1.502765e-13 -3.4359185e-13 -0.010845897
-1.6227079e-13 -2.8315024e-13 -2.3965262e-13 -0.0020694402 -1.7303395e-13 -0.0013648609 -0.0034001716 -0.008138685
-3.4964485e-13 4.2988557e-13 -3.4286042e-13 3.0122413e-14 -0.00012904398 -3.759573e-05 1.8923593e-13 3.4141177e-14
-0.008253598 -3.588477e-13 6.0763365e-14 3.4984667e-13 -6.10384e-14 -0.010323915 -0.0021160007 -2.8391363e-13
7.806807e-15 -0.025794439 -4.4612626e-13 -3.6385876e-13 -0.00016914732 -0.0065066754 6.086798e-09 -0.004970588
-1.7162499e-13 -4.4921688e-14 -6.163406e-14 -6.532814e-07 8.838779e-14 -0.00020058754 -0.00058492244 -0.000608249

decoder_lin.2.bias f4 [288]
00000000: b29f a93c 1191 e8ba d4f0 683d 71d2 0bbb
00000010: 7702 43b7 0f32 3aba 9f6f 25be 82f2 603d
00000020: 1318 6dbc daa9 0b3e f4cd 833e 1430 1c3e
00000030: 5177 28bc 3a8b bdbe bbd1 84bd 4318 a5b0
00000040: b060 21be 9f73 0abb 314f 333d 3d21 393c
00000050: c266 9f3d b9f1 0db7 141c 9bbb 2c00 913b
00000060: 2403 c63d e10f b4bb 0875 f73d a25a babd
00000070: 90a2 dcbc 118c 3cbe 7ae2 d63d 5b50 1eb7
00000080: f6af 72bc 88fa 953e 069d 75b6 4140 15b8
00000090: b802 1fbc 5fb6 8f3d b0a9 25bd 7948 b43d
000000a0: 85f9 73ba 83ac d63e a09b f3bc 7f0a f33e
000000b0: 6aef 943e cf45 20bc 3b3b d7b7 6e29 5a3d
000000c0: b23a d8bd 7b4b 33bb 5edc 41b7 bda2 84b9
000000d0: e966 d4ba dd95 c73d b3e2 123e b07a 763e
000000e0: 4614 803e 0543 03b7 0eae e9b8 d541 83ba
000000f0: e1d4 1eb2 1f66 873a 1981 dc3e 3191 643e
00000100: a6be bdba 331f be3d 67d1 a0bd e3ce 37ba
00000110: f3c3 22bc f893 00ba 047b 11ba cc2c 8ebc
00000120: fdb5 fbb3 0d2a a5bd 69a3 bc3a 3022 0f3a
00000130: e7d8 fbbb aef4 16b7 87c3 25b7 d77e 4db8
00000140: 4d63 3ebd 6fdf c8b9 4b44 9134 0e1f 2731
00000150: ea78 87b8 a837 31be 1576 ab3e fdd5 41bd
00000160: 0422 20b9 e9e3 8fb6 eb8e e93d 75b8 dabc
00000170: f426 103d b1c4 e5ba 5c77 463d ff7e 1fbb
00000180: e1e0 e3bd 6710 2ebd 3312 4abd 1d2f da3d
00000190: b045 0cbe 57d1 2eb6 1a6b 523e 2103 8139
000001a0: 769b 72b4 7e79 9c3e ad8f 23bc 7301 973d
000001b0: 4a81 3fbd 004d dcbc 662e 8a3c ee1a d1bb
000001c0: 52ec cfbb 83cb 0abd 1dba 91bd 4e0e c3bd
000001d0: ea00 4b3e 64c3 153d e11b 23be b807 233e
000001e0: d7e5 a73d 15cd 6d3b 42b7 d43d 65ba 803d
000001f0: 3fa8 1d3e c79a 4e3e 65be 8c3d 4288 f0bd
00000200: 2bf0 36bb 36f6 14b9 0930 4eb3 3eb7 26ba
00000210: 0610 173e 4dc5 99bc e7d4 ea3e 42e4 1e3d
00000220: e967 823e c62e 1e3e f83b b6be f7ff 0d3f
00000230: 41b8 933d 2ebc 8fbb 1af1 94bd 3343 ffbd
00000240: bfc1 21be cae6 123d a8b4 e33d 4b92 8a3d
00000250: 5eba 0931 3277 d5ba 3c03 57be 6cd9 0d3f
00000260: 4138 5ebd 0fde e83c 79cc 19b7 7755 3437
00000270: 5451 263e 7148 083c aad9 87ba 69c3 ca3d
00000280: c3b2 32b5 f0ae 0ebb c155 03be 52e4 20b6
00000290: 0a41 e43d 4301 46bd d926 89be e4fc e1b7
000002a0: 9c04 0d3d b000 c43d ec36 30b1 b7fb 56ba
000002b0: 303a 25b8 3986 bbb7 093d 24b2 8fd9 85b5
000002c0: bc85 903e 3467 9e3c de06 afbb df2c 393e
000002d0: 3944 0fbe 5709 ffbc 608c f3bc 0d05 4cbe
000002e0: 9902 2aba ec34 efb7 a3b3 7f3b efd0 21bd
000002f0: f22e e43d a287 573e fb90 9b39 21ef 5c3d
00000300: ff57 613e 01fc 413c c345 16be e04c ac3c
00000310: 7737 92bb 1a81 023e d1d4 213d 7950 6eb5
00000320: 4c54 723d 4ef7 493c 91a6 84bc ef14 dfb8
00000330: 82a6 e03d c600 563e 4f40 8e3e c7ce f43c
00000340: b048 f6ba 5d16 9d3e 76da 57be 845f 17b9
00000350: ddb8 be3d 0119 84bd d8ea 5c3b eed2 ebbd
00000360: 8137 42bd 49f3 0f3d 3414 44bd 1084 44b8
00000370: 9556 b8ba a833 91bd 54c8 d43c ed1b abbe
00000380: a433 a2ba fed5 20b9 8a66 a0bb d54c 3f3e
00000390: 559d 0bbe b005 94bb 068a b3bd 8b34 ca3d
000003a0: c64a 3dbe 2f5b 0fbe 3251 31b9 ffef 67bc
000003b0: a32f 563e aec1 dfbd 4409 b0bb 1f84 123e
000003c0: afa4 44b8 1d57 ccbc b152 8e3e 0eeb f83d
000003d0: 1627 dabe eafa f0bd 3037 0c3e c712 69bc
000003e0: c281 a5bd 596c e4bd 099a 9abb 1fec d8bc
000003f0: a193 103e 895d b83d 6797 1e34 b6eb 7d3b
0.020706031 -0.0017743428 0.056870297 -0.002133515 -1.162348e-05 -0.0007102796 -0.16155861 0.054918773
-0.014471072 0.13639012 0.25743067 0.15252715 -0.0102823535 -0.37020284 -0.064853154 -1.2012226e-09
-0.1575954 -0.0021126044 0.043776695 0.0112994285 0.07783271 -8.460535e-06 -0.004733572 0.0044250693
0.09668568 -0.005495057 0.12082869 -0.09099318 -0.026932985 -0.18412806 0.10492416 -9.436243e-06
-0.01481246 0.29292703 -3.6599245e-06 -3.558421e-05 -0.009705238 0.070172064 -0.04044503 0.088028856
-0.00093068957 0.4192849 -0.029737294 0.47468945 0.29088908 -0.009782269 -2.5657579e-05 0.053262167
-0.1055807 -0.0027358222 -1.1555005e-05 -0.0002529825 -0.0016204986 0.09745381 0.14344291 0.24070239
0.25015467 -7.823813e-06 -0.00011142726 -0.0010014126 -9.2452135e-09 0.0010330117 0.43067244 0.22321011
-0.0014476373 0.092832945 -0.0785244 -0.00070117245 -0.009934413 -0.00049048616 -0.0005549642 -0.017355345
-1.1721202e-07 -0.08064661 0.0014391962 0.00054601114 -0.007685769 -8.997666e-06 -9.880291e-06 -4.8993938e-05
-0.04648142 -0.00038313444 2.7058044e-07 2.431935e-09 -6.4598236e-05 -0.17306387 0.33488527 -0.047323216
-0.00015271461 -4.2882643e-06 0.114042126 -0.026699284 0.0351934 -0.0017529932 0.048453674 -0.002433717
-0.111268766 -0.04249611 -0.049333762 0.106535174 -0.13698459 -2.6049872e-06 0.20548669 0.0002460713
-2.2594563e-07 0.3056144 -0.009982985 0.07373323 -0.04675416 -0.026892185 0.016867828 -0.006381384
-0.0063453102 -0.03388549 -0.071155764 -0.09524213 0.19824567 0.036563292 -0.15928604 0.15920913
0.08198135 0.0036285568 0.10386516 0.06285552 0.15396212 0.2017623 0.068722524 -0.11744739
-0.0027914147 -0.000142061 -4.80068e-08 -0.00063597027 0.14752206 -0.018770838 0.45865557 0.038791902
0.25469902 0.1544753 -0.35592628 0.55468696 0.07212878 -0.0043864464 -0.07272549 -0.12463989
-0.15796565 0.03586463 0.11118442 0.067661844 2.0042061e-09 -0.0016286133 -0.20997328 0.55409884
-0.054252867 0.028426198 -9.167118e-06 1.0748735e-05 0.16241962 0.008318053 -0.0010364552 0.09900553
-6.65703e-07 -0.0021771751 -0.12825681 -2.3974758e-06 0.11145218 -0.048341047 -0.2678745 -2.6939852e-05
0.034428224 0.09570444 -2.564259e-09 -0.00082009606 -3.9393257e-05 -2.235464e-05 -9.559934e-09 -9.97259e-07
0.2822703 0.01933632 -0.005341395 0.18083523 -0.13990869 -0.031132383 -0.029730022 -0.19923802
-0.00064853724 -2.8515664e-05 0.0039016984 -0.039505895 0.111417666 0.21047834 0.00029671923 0.05393899
0.22006224 0.011839868 -0.1467505 0.02103275 -0.0044621783 0.12744561 0.0395096 -8.877901e-07
0.059162423 0.012327028 -0.016192706 -0.00010637368 0.10969259 0.20898733 0.2778344 0.029883755
-0.0018789973 0.30681124 -0.2107943 -0.00014436065 0.093126036 -0.064500816 0.0033709314 -0.11514841
-0.047416214 0.035144124 -0.04787083 -4.6853034e-05 -0.0014063889 -0.07089931 0.02597443 -0.33419743
-0.0012375009 -0.00015338507 -0.004895036 0.18681653 -0.13634236 -0.0045172796 -0.0876656 0.09873303
-0.18485555 -0.13999628 -0.00016910283 -0.014156341 0.2091661 -0.10925613 -0.0053721983 0.14308213
-4.6883415e-05 -0.024943883 0.27797464 0.12154208 -0.42607945 -0.11766608 0.13692927 -0.014225668
-0.0808139 -0.11153478 -0.0047180695 -0.026479779 0.14118816 0.090022154 1.4769977e-07 0.003874523
