2. Convolutional Autoencoders/models/autoencoder.pth (torch, 203433 bytes, 19 tensors)

encoder_conv.0.weight f4 [8, 1, 3, 3]
00000000: 8456 9dbe f455 263e 814e 87be 55b3 70bd
00000010: 3e2e 5f3e 6eb6 27be 5b51 cabd 6a46 e6bd
00000020: 8fcb 483b 8c8a 06be aba8 ad3c f7c4 12be
00000030: 86b9 983d 3795 15bc 1df3 023e 5251 dd3d
00000040: 877b 96be ea23 4bbe 1486 0bbe 465d 52be
00000050: f821 a2bd a2bc ca3c 21c0 5ebd 47a4 783d
00000060: 90a7 bbbb 50a5 0fbe d989 69be e5e9 9e3e
00000070: 385b 7d3e 726e 2ebe ffaa 343e 16cb 7ebe
00000080: aeb7 663e cb61 033e 0e93 6dbe a228 4cbb
00000090: 0f8f a23e 96e6 7e3d dad4 913e aee9 7f3d
000000a0: 2eda 243e 045b 84be c7d0 d8bd 8981 2abe
000000b0: 4295 843e f618 053e e806 4abd ddf5 953e
000000c0: 58b9 e73d 8651 a83d 51a7 fc3d 99f3 7cbe
000000d0: c4a9 f5bd b898 53be 1aa0 b4bc 7aaa a43e
000000e0: c823 68be 3ba7 9b3e 4975 6f3e 5a92 1cbd
000000f0: 43ba f23d a507 0fbe 495b 0e3e c2b0 36be
00000100: 0d27 a6bc ac63 9f3d 734a 893d 2c66 50bd
00000110: ff86 fabd 1efa c0bd e45c a9bd b2c6 32bd
-0.3073007 0.16243726 -0.2642708 -0.058764774 0.21794984 -0.16378185 -0.098787986 -0.11243899
0.0030638909 -0.13138789 0.021198591 -0.14332949 0.07457261 -0.009129814 0.12788053 0.10806526
-0.2939112 -0.19837919 -0.13625365 -0.20543393 -0.07916635 0.02474815 -0.054382447 0.060703542
-0.005726762 -0.14027905 -0.22806491 0.31037822 0.24741828 -0.17034319 0.17643355 -0.24882159
0.22531006 0.12830274 -0.23200628 -0.0031152149 0.3174977 0.062231623 0.28482705 0.062478714
0.16098854 -0.2585069 -0.10586696 -0.16650976 0.25895125 0.12997803 -0.049322993 0.2928914
0.113146484 0.08218674 0.123366006 -0.247023 -0.11995271 -0.20663726 -0.022048999 0.32161313
-0.226699 0.30401024 0.23384584 -0.03822551 0.11851933 -0.1396776 0.1390201 -0.17840865
-0.020282293 0.07782683 0.06703653 -0.05087869 -0.1223278 -0.09422706 -0.082696706 -0.043646522

encoder_conv.0.bias f4 [8]
00000000: 1ad4 563e 09f9 b03d ac0e b13e 0cee 7dbd
00000010: e7a7 11be 51f4 64bd f486 e4bd 6abf d73d
0.20979348 0.0864125 0.34581506 -0.061994597 -0.14224206 -0.05589706 -0.11158553 0.10534556

encoder_conv.2.weight f4 [16, 8, 3, 3]
00000000: 7f9e fe3d 31d4 ae3c eb9f 713d 8eca 903c
00000010: 44e0 d13d 2547 9d3d 8d13 783d 1095 173e
00000020: 5ca5 d43d e677 203e 9df3 4b3d b618 0c3e
00000030: 0714 a23d b8b3 223c 207b 203e 56ed 7f3d
00000040: 13aa a9bc 68a2 ac3d 0ec4 14bb d064 c73d
00000050: 7f2d 63bb 2510 1b3c bc8d 033e 2bcb aa3d
00000060: 7bfc c73d 1e08 213e 9a8d f93c a939 af3c
00000070: c388 56bd be81 083c 4050 5cbd ef2a 273d
00000080: ea00 08bd 9cf1 fdbc fcf9 82bd 38a1 b9bd
00000090: 71f2 a3bc 202e dbbc 093c 01be fd27 34bd
000000a0: cd11 75bd d52b b9bd 43b7 e0bb 7d08 86bd
000000b0: c169 a93c 1124 76bd e800 b7bd d5c8 e739
000000c0: db9a 72bc 37d4 74bd 01fc 4b3c cd15 0a3c
000000d0: 065c 113c 2066 f33b a70d 98bd 0e0b 89bd
000000e0: b7e3 77bd 6c5e 9bbc faed f3bd 8928 f6bc
000000f0: 46a2 d3bd b9cd 3e3d a982 893d c158 cc3d
00000100: ad58 3e3e 8da4 013d e62b 1a3e a3f0 5a3b
00000110: 6a3f 013e e9cb d83d e483 283e 94aa d63d
00000120: 9352 f23d e1f1 133e 0552 123e fa83 d73d
00000130: 8e84 cf3c ff2d a83d 0838 fa3d e979 213d
00000140: 693c 963d 5eea cb3d ee12 f93d c833 633d
00000150: 3152 e33d 1024 c13d 2b9d 0c3e 07fd 353d
00000160: 042a 403e 489a b83d ffca e23d 96b1 ea3d
00000170: 5d2c 2f3e d75c 273d 86ce d13d ab8f 0d3e
00000180: b9f7 373e ca6b 013e 10bc 423e a774 cebd
00000190: 79b5 4cbd 5576 0cbe 7b27 053d 30c9 673c
000001a0: 579b a1bd 362b c6bc 1576 80bc ed21 ecbd
000001b0: 3da9 babd 345c c1bd 12e4 d4bd 1798 583c
000001c0: 957d 8fbd 73c9 98bd 6031 b7bd b648 94bd
000001d0: 9a0a fdbd 2b52 13bc 6176 50bd 0b52 47bd
000001e0: 1392 c63c 7fe9 573d 1a09 813d 7211 8b3d
000001f0: 3df4 7f3c 244e 8c3b 676c 14bd 36ee 0cbe
00000200: 3ef0 b7bd 4935 12bd e055 70bd 5093 10be
00000210: d828 9cbd e7da 7abd acf7 e7bd edec 013e
00000220: 9ccd 033e 1738 323e ca9d ed3d c145 303e
00000230: a59f a13d b9d7 0a3e 77d3 043e 1ebf 153e
00000240: 62c4 0c3e 4a03 74bb c017 503d 74be d53d
00000250: f988 e13c 5e52 1f3e 81ba 143e 3f11 b93d
00000260: b404 90bc eb58 ef3c 779b 103e 9724 c13d
00000270: c1b7 bb3d 483d 623d 25cc fc3d 3c26 2cbc
00000280: edd2 8e3d d78d 933c 78de d63d 5336 ef3d
00000290: c362 e73d f549 903d 6bb4 f83c 57fd b73c
000002a0: 9a4a 03bd 5fa0 013e 51df a43d 8ee1 623d
000002b0: 51f1 333d 909f 363d 97e1 953d 1b46 9ebb
000002c0: 77c7 ca3b 6eea c83a 56e3 7cbd 5490 d6bd
000002d0: 9d9f adbc 25c8 e6bd a614 19bd dd0d edbc
000002e0: d2b3 b93c d9b7 4b3d 47f9 543d efd3 40bc
000002f0: 5969 3f3d 861f 24bc 9873 6abd 367d 18bc
00000300: 281b 9b3d b71d 333d e258 bc3b 180f 2a3d
00000310: 73fe 91bc 3ddb d3bb 9552 e8bd 5d45 e13c
00000320: 71c3 4b3c 241b 8a3b 235e ea3b 4c26 b13a
00000330: 4eee d6bd a96b 993b 0b3b ff3c 7240 663d
00000340: 6bbb f83d 8177 083e bac5 e63d d6a2 643d
00000350: 7d73 143d d1a7 c03d 54ad 2d3e fe2d eb3d
00000360: 16cd b83c 5c06 9d3b d2d9 73bb 81f7 613d
00000370: 54a2 6b3d 37f0 883c 8a11 a43b 5b53 0bbd
00000380: fc67 a83b 3b7c 203d 24bd a4bb 8a26 5b3d
00000390: 0c12 9d3c 6e86 353b e0ed 8ebc 7b8e 743d
000003a0: 93f9 ddba af60 bc3c 69b7 25bd 29b7 e13c
000003b0: 38c9 abbc c0ac b2bc f78a 8cbc 92d4 91bd
000003c0: 1b12 223d 1932 82bc 2852 d3bc 8969 053e
000003d0: 4107 123e b822 e83d ff33 d03d 47fa 4b3c
000003e0: b375 8c3d 5f2e ca3d d4a1 8f3c 2008 ca3c
000003f0: fbda 8a3d 9477 233e 8944 423d 5f18 d23d
0.124325745 0.021341415 0.0589904 0.01767471 0.102478534 0.07679585 0.06056552 0.14802957
0.10383102 0.15670738 0.049792875 0.13681301 0.07913976 0.009930544 0.15671968 0.0624822
-0.02071098 0.08429414 -0.0022699866 0.09736025 -0.003466457 0.009464298 0.12847036 0.083395325
0.09764954 0.15725753 0.030463029 0.0213898 -0.05237652 0.008331714 -0.05378747 0.04081243
-0.033203997 -0.030998997 -0.06395337 -0.09063953 -0.020013066 -0.026755393 -0.12620558 -0.04398345
-0.05983143 -0.090415634 -0.006857784 -0.06544588 0.02068031 -0.06009299 -0.0893572 0.00044209385
-0.014807428 -0.059772696 0.012450219 0.008428049 0.008872038 0.0074279457 -0.07424479 -0.06691562
-0.0605199 -0.018965922 -0.11910625 -0.030048626 -0.103336856 0.04658291 0.067143746 0.09977866
0.18588515 0.03165107 0.15055808 0.003340759 0.12621847 0.10585768 0.16456562 0.10481754
0.11832156 0.14447738 0.142891 0.105232194 0.025331762 0.08211898 0.12217718 0.039422903
0.07335741 0.09956811 0.12161814 0.055469304 0.11099661 0.094307065 0.1373183 0.04443076
0.18766028 0.09013802 0.11073875 0.11459653 0.17106767 0.040860023 0.10244469 0.13824336
0.17965592 0.12638775 0.19017053 -0.100808434 -0.049977753 -0.13717015 0.032508355 0.014147088
-0.07890957 -0.024190526 -0.015681306 -0.11529908 -0.09114311 -0.094414145 -0.103950635 0.013219855
-0.07006375 -0.074602984 -0.089449644 -0.07240431 -0.12355538 -0.008991758 -0.050894145 -0.048662227
0.024239575 0.052712914 0.06300564 0.06790437 0.015622196 0.004281776 -0.036236193 -0.13762745
-0.089813694 -0.035695348 -0.058675647 -0.14118695 -0.07624978 -0.061243918 -0.113265365 0.12688036
0.12871403 0.17404209 0.116023615 0.17214109 0.07891778 0.13558854 0.12971292 0.14623687
0.13746789 -0.0037233406 0.0508039 0.10436717 0.027531134 0.15558764 0.1452427 0.090364926
-0.017580368 0.029217204 0.14121805 0.09430807 0.09165908 0.055234224 0.12343625 -0.010507163
0.06973825 0.01801197 0.10491651 0.116802834 0.11298134 0.07045356 0.030359467 0.022459669
-0.032053567 0.12658833 0.08050407 0.055390887 0.04393131 0.044585764 0.073184185 -0.0048301346
0.006188329 0.0015328655 -0.061740242 -0.10476747 -0.021194274 -0.11268643 -0.037373208 -0.028937275
0.022668753 0.049735878 0.051995542 -0.011769279 0.046731327 -0.010017281 -0.057239145 -0.009307196
0.07573539 0.04372951 0.0057479003 0.0415183 -0.017821526 -0.006465344 -0.11343876 0.027498895
0.012436734 0.004214661 0.0071523353 0.0013515442 -0.10494672 0.0046820235 0.031156084 0.056213804
0.12145122 0.13326837 0.11268182 0.055819355 0.03624295 0.094070084 0.1696065 0.11483382
0.02255873 0.004792018 -0.0037208688 0.05516768 0.057527855 0.016716106 0.0050069736 -0.03401504
0.005139349 0.039180975 -0.00502743 0.05350355 0.019173644 0.0027698535 -0.017447412 0.059706192
-0.0016935341 0.022995321 -0.040458117 0.027553158 -0.020969972 -0.02181089 -0.017156107 -0.07120623
0.039568048 -0.015893029 -0.025796011 0.1302854 0.1426058 0.11334747 0.101661675 0.0124498075
0.06858387 0.09872126 0.01753322 0.024662077 0.067800485 0.15963584 0.04742864 0.10258555

encoder_conv.2.bias f4 [16]
00000000: ae0d ea3d 7cc2 923c cb16 eaba 5fbd f93c
00000010: ff1d 083d e22e 113d 4ec0 003e be2e cb3d
00000020: 15fc f03d c5c0 5d3d 5624 70bc 96f3 8c3c
00000030: c121 413c 2607 2c3d 6c8e 013e 19f6 ca3d
0.114283904 0.017915003 -0.0017859576 0.030485807 0.03323173 0.0354451 0.12573358 0.09921025
0.11766831 0.054138917 -0.014657101 0.017205995 0.011787833 0.041999005 0.12651986 0.09910221

encoder_conv.4.weight f4 [32, 16, 3, 3]
00000000: 8921 00bc d48c f83b 6d84 993c ed32 b0bd
00000010: a768 1abd f044 393d 8186 9ebd 1e42 b6bc
00000020: 3037 a43d 5721 b3bd 9afa ac3c e8c0 823d
00000030: 15cb 96bd ac0f 27bd 6c7e 113d d11d 9fbd
00000040: f2ab 8fbd 6201 b63d 0108 1a3d 6d45 4d3d
00000050: c352 cc3d b0df d63c b7b4 513d 468c e03d
00000060: a608 0e3d 4468 1fbd 583f 903d d82a 783d
00000070: bfd0 b63b ad7c 403a 4cb6 c83d 6f8f 213d
00000080: 0855 363d e491 173d 9a57 b03d 0bba 623d
00000090: e0aa f4bb 35b7 f13b fb48 923d 9a50 dabc
000000a0: e771 b2bc 229f 5d3d 59eb 25bd d18b 04bd
000000b0: 97c2 a53d 0677 a2bc 6522 8bbd 9913 2e3d
000000c0: fc21 f1bc 28f9 acbd 8f97 b23c 0e5f a0bd
000000d0: 9ff8 adbc ad58 9fbb 9cca 5fbb 89b2 d0bb
000000e0: 2bf2 6a3d 6bd4 f03c 4fc5 6b3d 584c a13d
000000f0: 445e 443c 61f7 3fbc 1063 dc3d 01ca a4bb
00000100: c9a5 573c 2b3f 8b3d 2f3b 10bb 5cd6 6abd
00000110: ddbd 893d 16ec 3c3b 0f79 d1bb 73e7 a33c
00000120: 8f33 23bc 1a95 f43c 0a5b cd3d 0e2b 173d
00000130: 5e2b c83c 3a81 5a3d c459 66bc 7113 dabc
00000140: b3e8 483d e25c 43bd 58af f2bc 7318 003d
00000150: cd47 b0bd 554c 9fbd bcdd 053d 76f6 91bd
00000160: cff7 96bd 31ab 3c3d d056 7bbd 9610 bdbc
00000170: 2690 473d 0acc d1bd 6389 f5bb ef72 083d
00000180: d0ae 01be 9085 2bbd 5058 9f3d fd0b 02bd
00000190: 02e3 08bd 382f 6b3d 5613 8abd 1a51 0abd
000001a0: 57f3 933d 6a01 46bd d128 fabc 0598 123d
000001b0: 441d 4cbd ddff d13c 5efc 433d 9a4b 01bd
000001c0: 9ea7 76bd 529a a43c 5291 dcbd f4f7 99bd
000001d0: c354 753d 5c2d 72bd 919c 69bd 2452 773d
000001e0: 94cb aabd b0f7 febc 8994 313d 1756 bbbd
000001f0: e9c5 6cbd 7554 033d 5864 813d 4fd6 33bc
00000200: 766e c23d 4161 ef3b 9a65 213d f1e9 9b3d
00000210: 7827 423b ecaa c8bb db69 513d 9ee8 8bbc
00000220: 7251 4a3d 643b bf3d a757 443d 8cb0 9f3d
00000230: 3653 303d 20d3 173c cf69 4a3d 7792 b23d
00000240: 9043 083c 908f 973d 0ed8 97bb 1f0e 723d
00000250: 3a92 f93c a3fe 393c 8d71 cc3d 665c ae3d
00000260: 815f 013e fc7a 733d 4f4d ba3d f8fd cf3d
00000270: 51b6 973d 9d95 a13d 6477 bf3d e46b c43d
00000280: 40f8 703d 1322 8b3d 70b3 dc3b 121b 623d
00000290: 4329 843c fc7e aa3b 5e00 2b3d 018a 263d
000002a0: f57d 1d3d c0a6 a93d d51c dcbc 4b61 41bd
000002b0: ab59 a5bd 0664 a5bd 6adc 6dbd 20fd 71bd
000002c0: 9f15 b5bd a692 9fbd 79fd bebd 3b6e 81bd
000002d0: f541 c43d 5bd9 233c 2307 1f3d b39f 853d
000002e0: 7b6e f13d 4691 3b3c 70ed ee3d aa22 c23c
000002f0: 3034 aa3d 99e9 b43b fe17 d83c 2c29 9f3d
00000300: 2a29 a83c 6eb1 033e eb7d 343d f751 ad3d
00000310: 2263 c63d 6d93 423d e650 c93c a02b ca3c
00000320: adc3 9d3d 0b9e 60bc f99f ac3c c322 b43d
00000330: c40f 2bbc 0d72 ce3d 6aed 5e3d 12fb 7e3b
00000340: 23cb 4a3d 90f1 4f3d 13ff f33b cf7c 903d
00000350: 7374 7f3d c158 b33d a5ae 94bb fb51 8f3d
00000360: c51a 773c 304a ca3c b3be 3a3d 5888 be3d
00000370: 5641 443d deea ea3d 8156 0f3d fb5c ae3d
00000380: 49bd ec3d 5710 6e3d dd74 d23b 6cc1 343d
00000390: 1ac2 e13d 8e3d ad3d ef9e be3d 68fe c83d
000003a0: f643 8c3d 3b35 063d 4ca9 263d 8dfd ce3d
000003b0: 757e 3f3d 111a f63d 79aa bd3d bd02 d73d
000003c0: 7a73 9d3d b43b 623d 22c8 9a3d d5a3 9a3d
000003d0: 4e33 c53d 2b3d a03d f563 cd3d 50bc df3d
000003e0: 8213 cb3d d049 863d 4910 f63d 9a54 cd3d
000003f0: 5822 113d 55f7 893d ecec 8f3d 87ec 9d3d
-0.007820495 0.0075851474 0.018739903 -0.08603463 -0.03769746 0.04523176 -0.07740498 -0.022248324
0.08018339 -0.087465934 0.02111559 0.0638445 -0.073629536 -0.04078643 0.035520956 -0.07769359
-0.07015218 0.088869825 0.03760529 0.050115038 0.09976723 0.02622971 0.051197734 0.10964255
0.034676217 -0.038917795 0.07043332 0.060587734 0.0055790837 0.0007342797 0.09800395 0.03944343
0.044514686 0.037004367 0.08610459 0.055353206 -0.007466659 0.0073765763 0.07142826 -0.026649762
-0.021782828 0.05410684 -0.04050765 -0.0323599 0.08093756 -0.019832145 -0.067936696 0.04249916
-0.02943515 -0.0844596 0.021800784 -0.0783063 -0.021236716 -0.004862866 -0.0034147864 -0.0063689393
0.057359856 0.029398164 0.057561215 0.078758895 0.011985365 -0.011716695 0.10761082 -0.0050289636
0.013162085 0.06799158 -0.0022007932 -0.057333335 0.06725667 0.0028827242 -0.006392605 0.020007825
-0.009961023 0.029856253 0.1002713 0.036906295 0.024434742 0.053345896 -0.014059488 -0.026620599
0.049050044 -0.047696 -0.029624626 0.031273317 -0.08607445 -0.07778231 0.032682166 -0.07127087
-0.073714845 0.0460617 -0.061362088 -0.023079198 0.048721455 -0.102439955 -0.0074931844 0.033312734
-0.12664342 -0.041875422 0.07780516 -0.031749714 -0.033419617 0.05741808 -0.06741969 -0.03376875
0.07224148 -0.048341192 -0.03053704 0.03578951 -0.049832597 0.0256347 0.047848098 -0.03156624
-0.060218446 0.020093117 -0.10769905 -0.075179964 0.05989529 -0.05912529 -0.05703408 0.06038107
-0.08339611 -0.031123966 0.043354545 -0.0914728 -0.05780593 0.032062966 0.06317967 -0.010976388
0.09493725 0.0073052947 0.039403535 0.0761298 0.0029625576 -0.006123891 0.051126342 -0.017078694
0.04939408 0.093375 0.047935154 0.077973455 0.043048106 0.009266645 0.049417313 0.08719342
0.008316889 0.07400429 -0.00463391 0.0590955 0.030465234 0.011352214 0.099825956 0.08513717
0.12634088 0.05944346 0.09096777 0.101558626 0.07407821 0.078898646 0.09348944 0.09590891
0.0588305 0.067936085 0.006735258 0.055201598 0.016132956 0.005203126 0.041748397 0.040658955
0.0384502 0.08283758 -0.026869217 -0.047211926 -0.080737434 -0.080757186 -0.05807153 -0.05907929
-0.088420145 -0.07791643 -0.0932569 -0.06319853 0.09582893 0.010000552 0.038825165 0.06524601
0.117886506 0.01144821 0.11666381 0.02369817 0.08310735 0.005521011 0.026378628 0.07771525
0.020527441 0.12860653 0.044065397 0.08462899 0.09686877 0.047503877 0.024574708 0.024679005
0.07703338 -0.013709555 0.021072375 0.08795693 -0.010440771 0.10080347 0.054425634 0.0038906974
0.049510133 0.05076748 0.0074461787 0.07055055 0.062366914 0.08757163 -0.004537421 0.069980584
0.015082066 0.024693578 0.04559202 0.09303349 0.04791387 0.114705786 0.034994606 0.08513828
0.11559541 0.05812105 0.0064226226 0.044129774 0.1102335 0.08459006 0.09307658 0.09814149
0.068489 0.03276561 0.040688798 0.10106955 0.04675146 0.120166905 0.09261031 0.10498569
0.07688041 0.05523272 0.075577036 0.0755078 0.09628926 0.07824167 0.10028831 0.1092459
0.0991583 0.06557047 0.12014825 0.10025902 0.035433143 0.06736628 0.07027611 0.0771113

encoder_conv.4.bias f4 [32]
00000000: a90b ac3c 0b9e b13c 511f c63d e7ba 673d
00000010: f519 6f3d 93c1 c93c 50d0 aebd 5f1d 00bc
00000020: 8563 f73c 8ee9 c43d cdf3 1bbd 744c 263d
00000030: 52eb a63d 6eee da3d 84a2 473d 6000 c53d
00000040: 3cf6 3a3d be4e 803d e323 2bbd 4282 cfbb
00000050: afce c63d 7c90 813d ed15 46bc ce47 b13d
00000060: 18bb 4c3c 8dbf f2bb 9796 7d3d 57e5 ba3d
00000070: 43e3 97bb 7696 b43d e425 753d ffb9 5d3d
0.021001654 0.021681806 0.09673942 0.05657473 0.058374364 0.024628436 -0.08535826 -0.007819503
0.030198822 0.096148595 -0.038074303 0.040600255 0.081503525 0.10690008 0.04873897 0.09619212
0.045644984 0.06265019 -0.04178227 -0.0063326666 0.097073905 0.06326386 -0.012090188 0.08656274
0.0124957785 -0.0074080885 0.06191119 0.09125774 -0.004635246 0.08817761 0.05985059 0.054132458

encoder_lin.0.weight f4 [64, 288]
00000000: 5893 523d c136 5ebd 6e35 91bd ff41 453d
00000010: 33b1 c1bc 4d82 7fbd e56f 2d3d 001e b5bb
00000020: 4cc5 95bd 96ef 843d 3ddb d63d 1572 223d
00000030: 5e14 643d d6d0 b03d 74bc b5bd 1cbb 34bd
00000040: f65b 3c3a 890b 5fbc 9cc2 613d e35f d23d
00000050: 4187 603d 6720 4d3d 6be7 ca3d c73c 8cbd
00000060: 4f7d 5cbd a659 2abc 1397 d4bc 8cf2 6e3d
00000070: d9c8 d33d ee75 6d3d ba0e 453d 6a56 ac3d
00000080: 6504 6fbd 6e66 5cbd 7a5d 62ba 43aa 72bc
00000090: b0fd 723d ff90 dd3d 4796 4e3d dbe1 393d
000000a0: 6c53 cb3d 45cc a8bd db36 67bd 10c9 02bb
000000b0: 37b5 d0bc fd0a 853d 99e6 d63d 30af 633d
000000c0: 9820 603d 1332 bc3d 6407 91bd 029c 64bd
000000d0: 1d47 9abb 0c67 bebc 98bb 033c a322 d53d
000000e0: 530a a13d cd16 6d3b f03a c73d 8cd3 88bd
000000f0: 962d 9fbd 9ef7 15bb 4956 44bc 0440 913d
00000100: 4cd3 df3d edcd 323d e72e 833d a0e1 963d
00000110: 794f 99bd 96fd 3abd bd9d a4ba 299b 8fbc
00000120: 864d b5bd 9e8a fcbc fef4 803d 9c2c 88bd
00000130: d5f4 843d 3ba2 893d 7afa 37bd e05a eebc
00000140: 0bc9 423d 5a70 6a3d 3b8b c93d ce21 503d
00000150: d69a 433d 1fef b73d 48ae 96bd 0d8c 4bbd
00000160: 1702 f1bb 18ba a7bc 4b7f 7d3d 380b e33d
00000170: 6e2e 493d 022f 5b3d 86ec b13d 9b23 a6bd
00000180: 3a90 28bd 791c 0ebc 5b86 99bb 2f2b afbd
00000190: 9180 2bbc 12ca 843d e119 93bd 8e8c 923d
000001a0: bfb0 893d f921 63bd fb25 14bd 8cb8 3e3d
000001b0: 96a5 813d cdf6 e03d 794e 563d 5f45 3e3d
000001c0: c63f b43d 9dd6 8ebd 3f70 61bd 54e9 ce3b
000001d0: b39d 90bc 023a 8e3d a07d bc3d 4b75 2c3d
000001e0: 3016 793d 0aa1 bf3d df0d aabd ef6e 4cbd
000001f0: 0882 95bb 1492 04bd 7466 abbb 7184 0ebc
00000200: 0ee8 8bbc 4e7e 9fbb e382 403c 022c 45bd
00000210: a470 acbc 14d1 0d3d 859a 5fbd 7f26 733d
00000220: c25d c33d 6e97 403d 15e5 413d fc5e ca3d
00000230: 1230 aabd bcd3 68bd 487d d9ba f328 d1bc
00000240: 7bac 7d3d 5fb1 d43d cbae 703d 1653 463d
00000250: 0467 bb3d 473d 93bd 8bc8 66bd d0b7 d4bb
00000260: ec19 84bc 09e8 853d fcf8 d93d 8549 4b3d
00000270: fd52 5a3d 7808 c03d 765b abbd e833 68bd
00000280: a7ea 23bb 026c b3bc 447f 873d 1b7f de3d
00000290: b7e9 403d d078 653d ee3e be3d 2f4a a5bd
000002a0: d074 35bd ce41 28bc c0a4 11bc f6b4 e132
000002b0: 041f 4435 89ba 5db8 1e6f 5439 5e72 0836
000002c0: d6bb 1b3a c870 7f37 3ca8 2738 6901 9d38
000002d0: d62c 863d b04d d83d abac 353d b61f 5d3d
000002e0: 9e7e c73d 2912 aebd 4fee 6abd b7a0 79bb
000002f0: 06f3 a4bc 5488 d5bc 3582 30bd 3164 3fbd
00000300: 4de2 6dbc a761 4dbd b635 57bd 3282 e5bc
00000310: a546 81bd c46e 85bd 87bd 743d 9d60 e03d
00000320: d185 823d 9d51 353d bfa2 ae3d 57ee 66bd
00000330: c06f 78bd 1e9b c0bb 872a d5bc a434 773d
00000340: b589 db3d d465 303d 7213 533d 8672 9c3d
00000350: 3e46 9dbd 148d 4dbd 68b6 fcbb 1b86 acbc
00000360: 6aed d7bb 562f 35bb ac12 903c 2529 2cbb
00000370: 0951 6dba 3cc8 9e3c c963 f03b 7fca 003a
00000380: 25fe 4bbb 1edf a739 11d7 4b37 d19f 1eb9
00000390: c242 c937 0dcc 6236 e29c d3ba a606 c6b7
000003a0: 1458 13b8 07ae 6dba d307 903d a799 e03d
000003b0: 9ca1 453d c5db 453d b322 aa3d 5668 a1bd
000003c0: 29f0 5bbd 40f7 23bc ca64 cabc d8ad 713d
000003d0: 3338 d83d 9829 4e3d 065c 293d a5c6 b73d
000003e0: fb90 a3bd 9c17 72bd d9f7 983b 7519 9abc
000003f0: ad0d 9c3d 4ca5 b83d 670e ed3c ffa4 803d
0.05141005 -0.054251436 -0.07090269 0.048158642 -0.023644065 -0.062380124 0.04234304 -0.005527258
-0.07313022 0.0649101 0.10491035 0.03965958 0.055683486 0.08633582 -0.08873835 -0.044123754
0.0007185334 -0.01361359 0.055117235 0.10272195 0.05481649 0.05007973 0.09907421 -0.0684753
-0.05383044 -0.01039735 -0.025950944 0.05833678 0.10341043 0.057973795 0.048109747 0.0841492
-0.0583538 -0.053808622 -0.0008635145 -0.014811101 0.059323967 0.108186714 0.050436284 0.04538141
0.09928021 -0.08242086 -0.0564488 -0.0019956268 -0.025477035 0.064962365 0.10493202 0.055586994
0.054718584 0.091892384 -0.07081488 -0.055812843 -0.0047081844 -0.023242496 0.008040331 0.10406997
0.07863297 0.003617692 0.09728038 -0.06680974 -0.07772367 -0.0022883187 -0.011983463 0.07092288
0.109289736 0.043653417 0.0640543 0.07367253 -0.07485861 -0.045651995 -0.0012559217 -0.01753004
-0.08852677 -0.030827817 0.062967286 -0.066491336 0.064920105 0.06720396 -0.044916607 -0.029096067
0.04755501 0.057236053 0.09841009 0.05081349 0.047755085 0.089811556 -0.0735746 -0.04969411
-0.0073549855 -0.020474479 0.061888974 0.11086124 0.049116544 0.053511627 0.086876914 -0.0811226
-0.04115317 -0.008673781 -0.004685206 -0.085531585 -0.010467664 0.06483854 -0.071826704 0.07155715
0.06723165 -0.05545232 -0.036169033 0.046562716 0.06330411 0.109845735 0.05232093 0.046452876
0.08801226 -0.06974528 -0.055038687 0.006314436 -0.017653322 0.06944658 0.092036486 0.042104047
0.060812175 0.09356888 -0.08303427 -0.049910482 -0.00456262 -0.032365873 -0.005230719 -0.008698569
-0.017078426 -0.0048673516 0.011749956 -0.048137672 -0.021049805 0.03462322 -0.05459072 0.059362885
0.09539367 0.047019415 0.04733761 0.09881398 -0.0830995 -0.05684255 -0.0016593123 -0.025532221
0.06193207 0.10385393 0.058760446 0.04841908 0.09150508 -0.07189422 -0.056343596 -0.0064916387
-0.016125642 0.06538398 0.10643193 0.04963066 0.0533018 0.09376615 -0.08367054 -0.056690127
-0.002501169 -0.021902088 0.06616071 0.10864087 0.047097888 0.05602342 0.09289347 -0.0807079
-0.044300854 -0.010269595 -0.008889377 2.6275739e-08 7.3060824e-07 -5.286423e-05 0.0002025929 2.033215e-06
0.00059407705 1.5225443e-05 3.9972583e-05 7.486606e-05 0.065515205 0.10561693 0.044354122 0.05398532
0.09740947 -0.084995575 -0.057356175 -0.0038090178 -0.020135414 -0.026065983 -0.043092925 -0.04672641
-0.014519286 -0.050141957 -0.052541457 -0.028016184 -0.063123025 -0.065152675 0.05975106 0.109559275
0.0637318 0.044267286 0.08527135 -0.056379642 -0.060653448 -0.0058778664 -0.026021255 0.060352936
0.10719625 0.04306586 0.051532216 0.07639031 -0.07679413 -0.05018337 -0.007712174 -0.02106004
-0.0065895813 -0.0027646623 0.017587028 -0.0026269641 -0.00090529077 0.019382589 0.007336114 0.0004912987
-0.0031126824 0.00032018957 1.2149817e-05 -0.0001512759 2.3992154e-05 3.3795397e-06 -0.0016144777 -2.3606535e-05
-3.512956e-05 -0.00090667646 0.07032742 0.10966807 0.048249826 0.04830529 0.083073996 -0.078812286
-0.05369583 -0.010007679 -0.024706263 0.05900368 0.10557594 0.050332636 0.041347526 0.08973435
-0.07986637 -0.059104547 0.0046682176 -0.018810967 0.07619796 0.09015903 0.028937532 0.062814705

encoder_lin.0.bias f4 [64]
00000000: 06cf 38bd 5a24 1dbb eebf a0bb 3f69 94ba
00000010: df19 36bd 0e44 bc3b 064b afbc e07d 813c
00000020: d41e 95bb ddb6 953c 4f4a b13d 7bc4 813d
00000030: 55d7 213a 7ffa 463d 8f56 b13d 98b9 ae3d
00000040: 67c2 6cb7 8d70 f03c 7f66 ff3c 6942 a43d
00000050: 6561 fb3c 4bb5 01bc b26a 703d 5ed5 f13c
00000060: c268 5c3d f2f4 6e3d 11f3 363d e2d7 9c3c
00000070: 4e25 abbc ab48 a93c 4f44 5f3b 75f5 f43b
00000080: f93e b2bc 6729 8abb 03e3 4fb8 181a 353b
00000090: 5224 393d 6743 44bd 3885 8a3c 59dc 1c3d
000000a0: fe34 703c 9b8f 5c3d 57ce 2ebd c9d1 a33d
000000b0: 1194 e2b8 e1fc 5cbc 3fa7 eb3a 0d8c 0e3d
000000c0: 27c5 bbb9 32af b93d 49d1 90ba bba2 4fba
000000d0: c077 33bc 6b4e b236 997f bbbc 2246 853d
000000e0: c5b4 dcb9 335d ff3c 63ad 53bb 307e c13c
000000f0: 7efd 33bd 3510 9439 19ac c93c a8ea c83c
-0.045119308 -0.0023977966 -0.0049056923 -0.001132287 -0.044458266 0.0057454174 -0.021398079 0.015807092
-0.004550794 0.018275673 0.08656751 0.06336304 0.00061737496 0.048578735 0.08659088 0.08531493
-1.4111959e-05 0.029350543 0.031176804 0.08020479 0.03068609 -0.007916759 0.058695503 0.029520687
0.053810842 0.058339067 0.0446654 0.01914591 -0.020891812 0.020664534 0.0034067815 0.00747555
-0.021758543 -0.0042163613 -4.9564067e-05 0.0027633961 0.045200653 -0.047915842 0.016909227 0.038296077
0.014661072 0.05384789 -0.04267725 0.07998998 -0.00010804099 -0.013488025 0.001797892 0.03480153
-0.0003581431 0.09066619 -0.00110487 -0.0007920672 -0.010953844 5.3139424e-06 -0.022887992 0.065075174
-0.00042096354 0.03117237 -0.0032299391 0.023619741 -0.04394292 0.00028240835 0.024618195 0.024525955

encoder_lin.2.weight f4 [2, 64]
00000000: cf2a e73b 2651 abbc e536 50b2 34a6 953b
00000010: e11d 443c 0993 093e 6417 ccbb 5464 273e
00000020: f3f9 0638 3edf 1b3e 0906 063e 9688 d83d
00000030: d42f 4fbb 177a 3f3e 3daf c03d 5771 1b3e
00000040: acc5 e33c 500c cfbd 99a5 c6bd f8a4 1d3e
00000050: 2aed a63d 3b6c dfb8 805d 30be 2696 aa3d
00000060: ce97 c93c 5346 573d eb0c 10be 79e6 e93c
00000070: ea9d 3d3e 8f9c e03d 7e92 afbd 75fd 95bd
00000080: fd9d bbbc 6d9a 8dbc 4656 c5bb b325 b3bd
00000090: 3837 233e a4e3 1bbb 3a4f 1e3e 968c 193e
000000a0: 4408 a0bc bcc2 a7bd 43b0 083b 328b 6a3d
000000b0: 8469 d7bb a42b 4f3d cf96 d33b 1496 b3bd
000000c0: 9ce5 483b 3aac 393c 849d 63bc 6d80 47b7
000000d0: 3311 f23d 5659 dcbb 6672 3bbd 14c5 463e
000000e0: 7767 9fbb c25d ff3b 75c8 3fbc 9b64 e3bd
000000f0: e844 5d3c e53e a5b9 c57c 2fbe 6306 ee3c
00000100: c790 f73d 9b73 143e d81e 013d 4dc6 ab3c
00000110: 17af 2e3e 9d48 20be 47bb af3d 0a5f b53c
00000120: 5b04 df3c 571a 87bd 80ca 01be 5cab 97bd
00000130: 36b4 debb d42b d53c b91d dabd 58a3 1fbe
00000140: 8261 2735 54e4 ae3d de54 56bd e2d0 94bd
00000150: d1ab 2abe a764 d33a 721a 9a3d ac52 2dbe
00000160: 5902 0bbe 504c a1bd c119 0b3e 0b7e 523e
00000170: 799b 03bc 333e 0fbe 142f cb3d f202 033e
00000180: 8a0b 113e 6f2d 57bd f308 b6b8 10ff de3d
00000190: 649c d7bc 43ca 2e3e b304 2abc 7c48 b7bd
000001a0: 2f12 193e 7939 a7bd 9a0e 0d3e 010e 2fbe
000001b0: 5c05 553b 391a 4c3d faa4 1f3d 8acb 003e
000001c0: 43ee bdbc 5d2f 1dbe 7b01 ad3b 0af5 fdbc
000001d0: c182 073e 7dd4 eab3 b300 593d 4967 c83c
000001e0: 0928 e2bc 5628 04be 0695 8bbd db64 25bd
000001f0: 2e9d f03d 2cd1 863b 3307 0b3d 6442 433e
0.0070546637 -0.020912718 -1.2119675e-08 0.004566932 0.011970014 0.13434996 -0.0062283743 0.16346866
3.2180873e-05 0.15221879 0.1308824 0.10572927 -0.00316142 0.18698917 0.09408424 0.15179954
0.027804218 -0.1010977 -0.09699554 0.15394962 0.08150704 -0.00010653628 -0.17223167 0.0832942
0.024608519 0.0525573 -0.14067428 0.02855228 0.1851727 0.10967361 -0.08572863 -0.07323734
-0.022902483 -0.01728555 -0.0060222475 -0.08747425 0.15939033 -0.0023786807 0.1545991 0.14995036
-0.019535191 -0.081914395 0.0020857013 0.057261653 -0.0065738577 0.05057873 0.006457187 -0.087688595
0.0030654436 0.011332566 -0.013892535 -1.1891226e-05 0.11819687 -0.006724517 -0.045763396 0.19411117
-0.004864629 0.007793159 -0.0117055075 -0.11103173 0.013505198 -0.00031518113 -0.1713744 0.02905578
0.12088161 0.14497225 0.031523556 0.02096858 0.17058979 -0.156527 0.08580642 0.022140045
0.027223757 -0.06596821 -0.12674904 -0.07405731 -0.006796385 0.026021875 -0.106502004 -0.15589654
6.235424e-07 0.08539644 -0.05232703 -0.07266404 -0.16667105 0.0016128019 0.07524575 -0.16926068
-0.13575114 -0.078758836 0.13584043 0.20555894 -0.008032673 -0.13988571 0.09921089 0.12794092
0.14164558 -0.052533563 -8.680103e-05 0.10888493 -0.02631969 0.17069344 -0.010377097 -0.08949372
0.14948343 -0.08165259 0.13775101 -0.17095186 0.0032504415 0.049829695 0.038975693 0.12577644
-0.023184901 -0.15350099 0.0052797175 -0.031000633 0.13233472 -1.09351255e-07 0.052979182 0.024463313
-0.02760698 -0.12906012 -0.06815533 -0.040379386 0.1174873 0.0041142907 0.033942413 0.19068295

encoder_lin.2.bias f4 [2]
00000000: 4ecb d53c 33b9 eabd
0.02609792 -0.11461105

decoder_lin.0.weight f4 [64, 2]
00000000: ad31 233f 252b a33e fb47 c53e dd73 e4be
00000010: 77b9 323e 3592 cf3e 3ddc d53d ee4c 2dbf
00000020: ba90 293f 5640 04bf e094 083f 1d04 fa3e
00000030: 381b 8abe 4bee f53e 380c e23e 801c 4f3e
00000040: 1771 2c3e 927c c73e 3728 863a 24af 2bb3
00000050: e0fd 913e 3215 ddbd a510 8b3d 4ae0 ec3e
00000060: b035 20be a8c9 2ebf 0877 bb3d 5c56 443e
00000070: 3ccd 86be 3f00 59be ff3d 643e 803a d8bc
00000080: f5ca efbe 7872 32bf c8d6 1d3f 25f4 76be
00000090: 7068 cb3d 3a84 083f b580 683e bf96 4ebe
000000a0: 415a d5be 8f5b 113f 846f 883e 0226 95be
000000b0: 76bd 7c3e db22 3f3c b789 f03e a585 393e
000000c0: f5d5 873c 2094 23be 2250 acbe 687b ea3e
000000d0: 5888 0c3f a597 39bf 79d5 1a3f 294e 12bf
000000e0: 7949 113f 652f 493e 67fe 0fbf c5ad d83d
000000f0: 456e bdbe 29da 09bf b9da 133f ca1d 08bf
00000100: c7cc 8b3b 1dd8 d3be 48db 423d 82fa ea3d
00000110: b136 98be 25a5 7bbe e848 dabd 7c30 f6bc
00000120: 0fd1 8fbe 84b3 07bf 87d7 153f 5770 e63e
00000130: 1d63 e2bd 5933 eebe f762 253e 6176 933c
00000140: a125 a03e f41e af3b a372 3d3f d6eb 05bf
00000150: a004 453e 00b3 edbe 44fd 543d 98ed 82be
00000160: dfa0 96be 446a 4f3e e733 9bbe 1340 893e
00000170: f797 d6bd b0ab a6be aa9a b7be 7fde 4dbc
00000180: 315e 4dbe 39b7 b03e 3052 9dbe dd0c 89bc
00000190: eada b4be 9d18 d63c 78bf d4be 3e8c 5cbe
000001a0: 1266 8b3d ddb1 1bbf 3867 55bd a536 0b3f
000001b0: 0acb b73e 69b2 71be 8eba c3be 78a0 b13e
000001c0: 20f2 a93e cf46 023e 4563 27be e45c fabe
000001d0: cf3f 773c bbbd 96be cd92 a5bd f058 f9be
000001e0: 991b 8e3e 581b d5be c831 debe c15e 6ebe
000001f0: a819 f7be a136 ab3e bf6c 1d3f c8f4 c5be
0.63747674 0.31868854 0.3853148 -0.44619647 0.17453562 0.40541235 0.10442398 -0.6769551
0.6623646 -0.5166067 0.53352165 0.48831263 -0.2697389 0.48033366 0.44149947 0.20225716
0.16840015 0.38962227 0.0010235374 -3.997333e-08 0.28514004 -0.10795058 0.06790284 0.4626487
-0.1564548 -0.68276453 0.09153563 0.19173568 -0.26328456 -0.211915 0.22289275 -0.026395082
-0.4683453 -0.69705915 0.61655855 -0.24116571 0.09932029 0.5332676 0.22705348 -0.20174693
-0.4167042 0.5678033 0.2664758 -0.2913056 0.24681649 0.011666025 0.46980068 0.18117388
0.016581515 -0.15974474 -0.33654886 0.45797276 0.54895544 -0.72497016 0.60481983 -0.5715051
0.56752735 0.19646986 -0.5624756 0.10580019 -0.3699819 -0.5384851 0.5775562 -0.53170455
0.0042663547 -0.4137582 0.047572404 0.11473562 -0.29729226 -0.24574716 -0.10658437 -0.030052416
-0.28089187 -0.53008294 0.58531994 0.45007583 -0.110540606 -0.4652355 0.16151033 0.018000783
0.3127871 0.005344266 0.74003047 -0.5231298 0.19240046 -0.4642563 0.051999345 -0.25571895
-0.2941961 0.20255381 -0.30313036 0.26806697 -0.10478204 -0.32552862 -0.35860187 -0.012565254
-0.20055462 0.34514788 -0.30726767 -0.016729767 -0.35323268 0.026134783 -0.4155233 -0.21537873
0.06806578 -0.6081827 -0.05210039 0.54380256 0.35897094 -0.23603214 -0.38228267 0.3469274
0.3319254 0.12722324 -0.16346462 -0.48898995 0.015090897 -0.29441628 -0.08084641 -0.48700666
0.2775543 -0.41622424 -0.43397355 -0.23278333 -0.48261762 0.33440116 0.6149406 -0.38663316

decoder_lin.0.bias f4 [64]
00000000: eaed 0dbf 093e f2bc fc26 213f e71b 163e
00000010: ad4a 183f 7c65 c2be 3806 c13c 20f2 05bf
00000020: 9b03 f83e 3aba 09bf 17e6 593d 5dd6 4abe
00000030: 5bd9 ffbd 6f84 9dbe 4a10 593e 1861 c13e
00000040: 82f2 993e e455 bdbe f84b 453e 08f0 c9be
00000050: cc3a 41be f04b 1cbf 1016 0bbf ebc7 a13e
00000060: 28ea 253d c43b 0fbe bc46 b83e 48a4 14bf
00000070: 3575 603e 18d0 86be da1e cdbe dcc8 223f
00000080: af53 323f 0dc4 15bf ab15 03bf 87e7 203e
00000090: 7d90 8d3d 0384 f3be fe92 653e 9104 7f3e
000000a0: 6367 273f 7316 313f f4a4 cf3e 868c df3e
000000b0: eb41 9bbb 9478 12bf 7b39 36bf d3a6 07bf
000000c0: eea8 173f 80e3 2ebe 5e3e f1be 1bf3 c7bd
000000d0: c8aa 293f 7ad6 ac3c cc4d 0fbf b81d e8be
000000e0: 245e 013f 176d 0f3f 11c3 05bf 35f1 fdbe
000000f0: 5bd4 20bf 1c49 913c 2111 c3be 7ac9 283f
-0.55441153 -0.029570596 0.6295011 0.14659081 0.59488946 -0.3796805 0.023562536 -0.5232258
0.4844025 -0.53799784 0.053197946 -0.19808336 -0.12492629 -0.307651 0.2119762 0.3776939
0.3006783 -0.36979592 0.19267261 -0.39440942 -0.18870085 -0.6105337 -0.5433054 0.31597838
0.040506512 -0.13987643 0.35991466 -0.58063173 0.21919711 -0.26330638 -0.400626 0.6358774
0.6965894 -0.58502275 -0.5120494 0.1571332 0.069123246 -0.47561654 0.22419354 0.24904086
0.6539213 0.6917488 0.40555537 0.43661898 -0.0047380826 -0.5721524 -0.7118146 -0.5298893
0.5924214 -0.17078972 -0.47117895 -0.097631656 0.66276217 0.021098364 -0.55978084 -0.45335174
0.5053427 0.5602583 -0.5225077 -0.4959809 -0.6282403 0.017735057 -0.38099006 0.6593243

decoder_lin.2.weight f4 [288, 64]
00000000: fe5b 9c2c c479 cdba 377d 3d32 8083 98b1
00000010: 932c 55bc 64be aaba 1e5d 8cb9 ce14 a33b
00000020: 9178 d23b fdd8 30bb 71b1 5eb1 ee0c 223c
00000030: e0e7 b9ba 4d23 e0bc 1a38 7aba f268 0233
00000040: b61f 543a c89c ca30 ea6d 78bc 6662 b43c
00000050: 9f10 fc3c 42e5 173b e180 643c fdc9 3d3b
00000060: 140f f7bb b70e c3b3 9efc d83c c358 c2b3
00000070: f241 9bbb 3e74 08ba 2d27 22b8 5d22 72bc
00000080: eb69 91af 6900 d8bc b269 b7b9 e79c b2b9
00000090: 6812 7c3b b791 6ebb aedc fbbc 958d 47bc
000000a0: 848e 61bb 5bb0 68b7 38f9 cbbb 4f63 b5b9
000000b0: 5ca0 ad3c dda3 2a3c 764e c1bc 0984 853c
000000c0: d645 8433 06ed 7f33 49ef 40b9 8c3e 81b9
000000d0: ae39 50b2 2c76 24bb 8a31 c1ba f229 0c36
000000e0: 18d3 79bc b7b3 c8b2 eab7 023c 2643 07bc
000000f0: b3a3 513c 59c8 1037 15c2 71b8 6082 df32
00000100: bde0 5bbd 60b1 2a3d 3cd0 983d 080f 5c3d
00000110: 7a58 cabd 6c1a 4b3b 2eed 413b 0125 9bbd
00000120: 2889 233d 81eb 1e3c fe21 1abd 2e35 f6ba
00000130: a9ee 913d 52e0 86bc 28ce 7cbc 945c 9b3a
00000140: aaa9 78bb 9fd9 e0bd 4388 2cbd 1b3a e4bd
00000150: fdfd c239 a054 63bd 524a 06bd 0ad7 cabd
00000160: f4cd 8cbc 8d7d 363a 2906 8d3d 26b5 bbbd
00000170: ed32 fb3b 6e4c 8aba e2f1 10bd 4edd 6d3d
00000180: 4345 f23c 35cc e73c e59f c0bc 71a6 17bd
00000190: 1aa9 6abd 3816 b03a 743f 883d 6627 013d
000001a0: 9079 483c dd70 913d 48ae 873d 54d9 8fbd
000001b0: 988f 1d36 81ff 373c b9dc 21bd 9f52 4aba
000001c0: 4217 88bd a64b 4d3c 2ab3 a7bc ec9e a0bc
000001d0: d378 0d3d 1a7f 1a3b 33d4 383d 1819 d43b
000001e0: 7c5a d93d 431e ea3d 4dae fcbd 3851 6b3c
000001f0: 58e9 d6bd ccf5 273c ad80 f339 2e60 debd
00000200: 2a83 023e e78e d53d 5434 fcbd 823f 783d
00000210: 15b0 043e 37ef a4bd 67cc 64bb 8bf1 ff3c
00000220: c73c 91bd 0750 21bc 4028 9e3a 6282 6fbc
00000230: 9eb2 e23d fde9 86bd 4be3 e1bd b85c a2bc
00000240: 6e4e e6bc 9104 30bc 5c3e 5fbd e774 c13d
00000250: f2b9 053a c2c2 c13d c548 863d 2b90 fa3d
00000260: 6eb7 0d3e 0f59 8239 161a 95bc a6c1 6b3d
00000270: 81d0 42bd 6985 9fb7 1def aebc ce41 903d
00000280: 9710 003e a909 37bd aeb2 51bd ee01 f23c
00000290: 7ecc 0bbc 140d e0bd d8a9 cd3d c133 8438
000002a0: 770e d23d e2fa 223d 5c7c 893d eff0 9c3d
000002b0: b2ff 98bc cb9e 94bc 2bcc 003e 392d e2b6
000002c0: 9023 2e3d 5d8f 843c c2cb a333 856a 3abd
000002d0: 064f cb3d d7c4 5cbd d9bd 723d 90f8 5cbc
000002e0: de73 a0bb 94fa aebc a74f 043e 0e31 643d
000002f0: ab77 01bd 38bf 33bd 5f0d 33b8 1156 893d
00000300: e24a d63d 03a6 cabd bc8c 133d 5b7f 50bc
00000310: ad7f 3d3b 821b 683d 13ae 113d a046 d93d
00000320: 3371 153d 74b7 653c a000 863d 17a2 333d
00000330: 04f9 e3bb 937d 513d 889c 5ebc 671e 9ebc
00000340: 80e2 d63b 91b6 a33d 9704 803d 04cb 6f3d
00000350: ce25 a43c 227c 8fbd bfff 8a3a 1f20 05bc
00000360: 67a6 913d 44b2 b43c 0445 d1bc 92cf b03d
00000370: 2e57 52bd 31f5 853b 090a a1bc 3081 7abc
00000380: f606 a4bc e335 073c c820 903a ab33 2cbc
00000390: 6b7a c8bd 67c2 ac3d c2bc 4cbd b5f9 273b
000003a0: 0040 5abd c611 e0bd 4bef 31bd 5ad8 0b3b
000003b0: b6ce a2ba 0777 ca37 d04d 133e 8c5c 1eb3
000003c0: 722f bd3c d4b7 8f3c fbe9 66bc e6ab 0a3c
000003d0: 2339 a2bd 09fa 753d 751b b53d 3003 f4b9
000003e0: c274 a4bd 0d52 b03a 7190 833d a3dd aabd
000003f0: dd6d 4d3d 4ee9 f5bc f527 32b9 b1fa 1f3d
4.444e-12 -0.0015676548 1.10297185e-08 -4.438732e-09 -0.013011116 -0.0013026712 -0.0002677226 0.0049768453
0.006423064 -0.0026984804 -3.2406116e-09 0.009890778 -0.0014183484 -0.027360583 -0.0009545103 3.036343e-08
0.00080918835 1.4741994e-09 -0.015162924 0.022019576 0.030769644 0.002317742 0.013946743 0.0028959506
-0.0075396392 -9.083072e-08 0.026487645 -9.0499746e-08 -0.004738086 -0.000520531 -3.8660295e-05 -0.014778701
-2.6450606e-10 -0.026367383 -0.0003498323 -0.00034067707 0.003846312 -0.003640277 -0.030744877 -0.012179752
-0.0034417221 -1.38693385e-05 -0.0062247775 -0.00034597 0.02119463 0.010415045 -0.023596983 0.01629831
6.159432e-08 5.9587386e-08 -0.00018399688 -0.00024651398 -1.2120308e-08 -0.002509485 -0.0014739495 2.088604e-06
-0.015248083 -2.336479e-08 0.007978419 -0.0082557555 0.012795377 8.629716e-06 -5.763963e-05 2.6019904e-08
-0.053681124 0.041673064 0.074615926 0.053725272 -0.09880157 0.003099109 0.0029590833 -0.07575417
0.039925724 0.009699703 -0.037630074 -0.0018784159 0.07125599 -0.016464386 -0.015430011 0.0011853152
-0.0037942925 -0.10979008 -0.042122137 -0.11143895 0.000371918 -0.055500627 -0.03278572 -0.09904297
-0.01718805 0.00069614575 0.068859406 -0.09165411 0.007665983 -0.0010551342 -0.035386927 0.05807238
0.029574042 0.028295616 -0.023513744 -0.037023965 -0.057290174 0.0013434356 0.06652728 0.031531714
0.012236014 0.07101605 0.066250384 -0.07023874 2.3478406e-06 0.0112303505 -0.03951714 -0.0007718
-0.06645061 0.012530243 -0.020471174 -0.01960703 0.034539055 0.0023574294 0.045124244 0.006472718
0.10612962 0.11431553 -0.12337933 0.014362626 -0.104937255 0.010251474 0.00046444443 -0.108581886
0.12745348 0.10427647 -0.12314668 0.06060744 0.12957795 -0.08053439 -0.0034911872 0.031243106
-0.070916705 -0.00984574 0.0012066439 -0.014618488 0.11069225 -0.065875985 -0.11029681 -0.019819602
-0.02811357 -0.010743276 -0.05450283 0.094461255 0.00051012554 0.09460975 0.065568484 0.12234529
0.13839504 0.00024861886 -0.018200915 0.057557724 -0.047562126 -1.9016401e-05 -0.021354252 0.07043801
0.12506329 -0.044686947 -0.051195793 0.029541936 -0.008532641 -0.109399945 0.10042161 6.3038904e-05
0.10256665 0.03979004 0.06713173 0.07663142 -0.018676613 -0.018142125 0.12577884 -6.7405895e-06
0.042514384 0.016181642 7.627342e-08 -0.04551174 0.09927182 -0.05389866 0.059263084 -0.013486996
-0.004896625 -0.02135972 0.1292101 0.055710845 -0.031608265 -0.043883532 -4.268938e-05 0.06705869
0.104635015 -0.098949455 0.036022887 -0.012725676 0.0028915212 0.05666686 0.0355664 0.10609174
0.03648491 0.014020789 0.06543088 0.043855753 -0.006957175 0.051145148 -0.013587125 -0.019301606
0.0065577626 0.07993806 0.062508754 0.05854322 0.020037558 -0.07006098 0.0010604783 -0.008125334
0.07111817 0.02205766 -0.025545605 0.08633341 -0.051352672 0.004088067 -0.019658105 -0.01528959
-0.02002285 0.008252594 0.0010996098 -0.0105103655 -0.097889744 0.08435517 -0.0499847 0.0025631015
-0.05328369 -0.1094089 -0.0434411 0.0021338672 -0.0012421224 2.4135703e-05 0.14385152 -3.6871413e-08
0.023093913 0.01754371 -0.014093871 0.008463835 -0.07921054 0.060052905 0.08843128 -0.00046541682
-0.08030082 0.0013452187 0.064240344 -0.08343055 0.050153602 -0.030018475 -0.00016990288 0.039057437

decoder_lin.2.bias f4 [288]
00000000: dc73 dfbc 3b12 9c3d 3cf2 613d e31c 46bc
00000010: 9813 88bb 5a21 b2bd 9e8a e8bc d567 e83c
00000020: acc8 363d 92be c53c 081a 70b9 85d2 6b3c
00000030: c6fc d7bd 40be 4db9 5c3b b2b4 a2dd c5bb
00000040: b1b1 87bb 0f6d 953d c09a 513d 6555 33be
00000050: f17b 92bd 07b5 c73d d09c 20ba 5869 253d
00000060: 6b47 7bbc dcff abbd 4b50 b7bc ab74 0fbe
00000070: b76e 1abd 83ec c83c 5a81 12be 67d3 8532
00000080: 8677 e13d 19be e4bb 8b02 96bb 67e2 29bc
00000090: 6f25 983d a8e4 57bc 0b4a 4ebb b652 0fbc
000000a0: b5a5 19bd 0124 3abd 8e47 0c3e 8d44 a9bd
000000b0: d7fc b6bd 06f0 053d 3408 7e3a 8325 613d
000000c0: 69e7 97b2 587c 153e 3221 a83d 7102 02bc
000000d0: b280 353d fd2f ec3d 0585 9f3c ec6a e5bd
000000e0: c61a e43a fd8c e53b 59a9 85ba 9ef5 fabd
000000f0: 04ce 003e e6df c03d 1354 123e 2726 5eb9
00000100: 7ecf 133d 9eda 0333 b6b2 b3bd 8085 173c
00000110: 011d 293d 9cf1 ca3d fb12 cd3d 4cb2 c23d
00000120: eb41 c0bc 8c73 533c e121 bb3d 2942 0dba
00000130: e510 2cba b6f2 6dbd a49f 56bc cec4 943c
00000140: e762 9a3d cc0f 993c ae7e d3bb bb37 0cbb
00000150: 7d52 9b3d caaa 1abd fc04 2d3e 2fbf 93bd
00000160: a111 20bc b68e 053e 0c99 8f3c f42e efbd
00000170: d63e f73d f705 13be 0b68 b234 3059 b93c
00000180: e00a 84bd 0927 5a3d a53b ac3d c595 d4ba
00000190: 6e2c 2cba 36e7 e7b4 76f2 a2bd 286e 9cbd
000001a0: 458c 8c3d 16f7 1e3d e1bc 8bbd c5c4 fe3d
000001b0: 15f9 aabd bcbd 4031 0620 a43d 672e 0cbb
000001c0: fddd 2f3a 28f5 833c 88ed 9d3d 886b 303b
000001d0: bbcd c5bd e04e 9fbc d280 a1ba 4b82 12bc
000001e0: c1cc 06be cea3 99bc db90 d5bc bc55 c4bb
000001f0: 7f51 bebc fe0f 863d d62b 98ba a8ae 71bc
00000200: 53ad 5abd a82b 40bd 5e89 f2ba ab6e bb3c
00000210: b8a2 333e f913 20bd 2fcd 78bb a9e1 96ba
00000220: 9549 803d 051f 1bbc 9101 97bb d168 713d
00000230: f1f7 fd3c b820 7c3d 36de 2bbd 8d25 60bd
00000240: 39ca 52bc e1e4 a3bd 6f01 173e da04 7fbd
00000250: 9ac4 d53c 1782 a33d 7da3 8d3d 04a2 17bd
00000260: b7c7 f23d c6a2 343e 4371 13bd 0c6f 09bc
00000270: 4a2e 823a 33e6 053d 007f a5b9 46ea 67bd
00000280: 0581 a93c e267 75bc d314 483d d316 d13d
00000290: c295 723d 4505 8dbc 8ac0 87bd 5dbd 2eb2
000002a0: caf7 ce3c cffd 323d f250 25bc b451 043d
000002b0: 9d3e f1bd 3cb5 243c 981e c43d bdb0 9a3a
000002c0: 756b b1bd 7116 39ba 3514 58bd 2c3e b63d
000002d0: 511a 74bd 9654 9f3c e9a0 723c 2f44 123e
000002e0: efd2 1a3d 5a70 0db2 6b4c a73d 5f14 05bb
000002f0: 3140 153d 69ea f5bd 66ea 453c 70c9 42bc
00000300: b3ae ca3a 9d6e d43d 9a0b 50bc 917a 6b3d
00000310: 4bc9 7e3d 1b58 b6bd 2cdc 9d3d 0e75 d93b
00000320: 1c00 a03d 63d1 173a 9d93 903d 4f87 8ebd
00000330: e968 26bd bc82 183e 532d ebbd b8f6 3d32
00000340: 8c35 8c3c 719f 823d b613 c13d ed61 563b
00000350: 2156 c53c cb8b 223d 2c76 923d 16fb 883d
00000360: 2416 b53c 6873 b93d 0f0c 12bd 5748 dc3c
00000370: 6add deb9 d3b3 283c 8610 013c 6b42 8dbd
00000380: a213 a6bb c729 f3bd 7873 28b8 0a7d 0e3d
00000390: 6531 6bbc 7a54 6bbc d818 73bc 72e6 cc3b
000003a0: cbdb a1bd 8f80 92bb eb91 2abd cbcd af3d
000003b0: 5062 2bbc 8de2 c23c 3433 0c3d 63fc c63c
000003c0: 9d39 e4b1 21b8 acbd 8f10 083e bb67 8ebc
000003d0: c149 bb3c 1bae 92bb 5f26 fd38 e29b 593b
000003e0: e472 cf3d 8ef7 07bd d9d0 cc3c b054 9bba
000003f0: 436a 083e 228f f9bd ff3e 29bc aa3b 81bc
-0.027276926 0.07620665 0.055162653 -0.012091848 -0.0041527264 -0.086977676 -0.02838641 0.028369823
0.04462497 0.024138723 -0.00022897881 0.0143934535 -0.105462596 -0.00019621197 -3.3198273e-07 -0.0060383836
-0.0041410555 0.07296192 0.05117297 -0.17513044 -0.07152546 0.09751325 -0.00061268825 0.040383667
-0.015336852 -0.08398411 -0.022377154 -0.14009349 -0.037703242 0.02452684 -0.14307156 1.5579372e-08
0.110091254 -0.006980669 -0.00457794 -0.01036892 0.07429015 -0.0131770745 -0.0031477239 -0.008747747
-0.037511546 -0.045444492 0.13699171 -0.08265028 -0.08934944 0.032699607 0.00096905534 0.054967415
-1.7683947e-08 0.14598215 0.082094565 -0.007935152 0.044312187 0.115325905 0.019472608 -0.11202034
0.0017402999 0.0070053325 -0.0010197564 -0.12253879 0.12578589 0.09417705 0.14289884 -0.00021185783
0.03608655 3.0699645e-08 -0.08774321 0.0092481375 0.041287426 0.099093646 0.10013386 0.09506664
-0.023468932 0.0129059665 0.09137321 -0.0005388582 -0.0006563797 -0.058092795 -0.013099585 0.01816025
0.075383954 0.01868429 -0.0064543104 -0.0021395523 0.07584093 -0.037760533 0.16896433 -0.072142
-0.009769828 0.13042721 0.017529033 -0.116788775 0.12072532 -0.14357744 3.3230785e-07 0.022625536
-0.06447387 0.053259883 0.08409814 -0.0016218951 -0.00065679 -4.319533e-07 -0.07956402 -0.07638198
0.06862692 0.03880986 -0.06823135 0.124398746 -0.0834829 2.8047529e-09 0.080139205 -0.0021389963
0.0006708799 0.01610811 0.07711321 0.0026919562 -0.096583806 -0.01944679 -0.0012321717 -0.008942197
-0.13164045 -0.018754866 -0.026070049 -0.0059916656 -0.02323222 0.06546019 -0.0011609744 -0.014751114
-0.05338795 -0.046916634 -0.0018504073 0.022879919 0.17542541 -0.039081547 -0.0037964096 -0.0011511344
0.06264035 -0.009467845 -0.004608341 0.05893785 0.031002017 0.06155464 -0.041959964 -0.05472331
-0.012865596 -0.080026396 0.1474664 -0.062260486 0.026094723 0.07983797 0.069159485 -0.037019745
0.11854499 0.17640218 -0.035996687 -0.008388292 0.0009932008 0.03269024 -0.00031565875 -0.056619905
0.020691404 -0.014978381 0.048847985 0.102094315 0.05922485 -0.017214427 -0.06628521 -1.0171189e-08
0.02526464 0.043699082 -0.0100901 0.03230448 -0.11779521 0.010052975 0.09576148 0.001180194
-0.08663074 -0.0007060534 -0.052753646 0.08898577 -0.05959541 0.019449513 0.014808872 0.14283822
0.03779882 -8.232826e-09 0.081688724 -0.0020306332 0.03643817 -0.12007601 0.012079811 -0.011888847
0.0015463441 0.1037266 -0.0126980785 0.057489935 0.062203687 -0.089035235 0.0770801 0.0066362685
0.07812521 0.0005791394 0.07059405 -0.06959402 -0.040627394 0.14893621 -0.11483254 1.1057345e-08
0.017115377 0.06378067 0.09427588 0.0032712177 0.024088921 0.0396841 0.07151446 0.06688516
0.022105284 0.09055215 -0.03565603 0.026889963 -0.00042508106 0.01029678 0.007877475 -0.06897434
-0.0050682584 -0.11873203 -4.016186e-05 0.034787215 -0.014355038 -0.0143634025 -0.014837466 0.006253057
-0.0790325 -0.004470892 -0.041643064 0.08584174 -0.010460451 0.023789668 0.03422852 0.02429027
-6.642223e-09 -0.08433557 0.13287567 -0.017383447 0.022862317 -0.0044763214 0.00012071127 0.0033204486
0.101293355 -0.03319507 0.02500193 -0.00118508 0.13321786 -0.121855035 -0.010329961 -0.01577552
