2. Convolutional Autoencoders/models/autoencoder3d.pth (torch, 203945 bytes, 19 tensors)

encoder_conv.0.weight f4 [8, 1, 3, 3]
0	0x3e43554e	0.1907551
1	0xbd2e82f3	-0.04260535
2	0xbd097677	-0.033560243
3	0xbdaa462d	-0.08314166
4	0xbe14caa9	-0.14530434
5	0x3e9be0fe	0.30445093
6	0x3e719bd4	0.235946
7	0xbb9398fb	-0.0045043207
8	0x3e943dfd	0.28953543
9	0xbe0114e9	-0.12605633
10	0xbe4a15c4	-0.19734865
11	0xbe09bb3b	-0.13450329
12	0xbe5770dd	-0.21039148
13	0x3e0fc884	0.14041334
14	0xbdda9e27	-0.106746964
15	0xbeb24994	-0.3482176
16	0x3c817798	0.015804097
17	0xbe987a9d	-0.29781047
18	0x2cca6043	5.7518725e-12
19	0xab4b2425	-7.217025e-13
20	0x2a072f28	1.2006769e-13
21	0x2c1d1a79	2.2325737e-12
22	0xac0e65f2	-2.0236005e-12
23	0xaa86c1b8	-2.39376e-13
24	0x2c348adf	2.5656627e-12
25	0xa9e8d25a	-1.033936e-13
26	0x2b629e94	8.05114e-13
27	0xbd8fd4ad	-0.070229866
28	0x3e66509d	0.22491689
29	0xbc8dd031	-0.017311187
30	0xbdceeeab	-0.10104116
31	0x3eac4774	0.33648264
32	0x3e95efa9	0.2928441
33	0x3cf27853	0.02959839
34	0xbe01981e	-0.12655684
35	0xbde8abdf	-0.11360907
36	0xbcc84b1e	-0.024449881
37	0xbe5c5010	-0.21514916
38	0x3dd195a6	0.10233621
39	0x3e2457ad	0.1604907
40	0xbe7e9caf	-0.24864458
41	0xbe1ba28b	-0.15198724
42	0xbe2fef8f	-0.17181228
43	0x3dedfca2	0.116204515
44	0xbd78d2bd	-0.06074785
45	0xbda3148c	-0.079629034
46	0xbce5a27d	-0.028031582
47	0xbcf20942	-0.02954543
48	0xbc2fb0e4	-0.010723326
49	0xbca03a16	-0.019558948
50	0xbd381fb6	-0.044952117
51	0x3c1a820f	0.009430422
52	0x3cdbfa9a	0.026852895
53	0xbd1319cc	-0.035913274
54	0xbadf5251	-0.0017038082
55	0x3acdb558	0.0015694303
56	0xbadecfd4	-0.0016999193
57	0xbb932977	-0.004491027
58	0xbbb4f05e	-0.005521818
59	0xbb4bfb28	-0.0031125043
60	0xbbd665c1	-0.0065428917
61	0xbbbdd5e0	-0.005793318
62	0xbb3dac3c	-0.002894177
63	0xba7db37f	-0.0009677931
64	0xb99f8771	-0.00030427755
65	0xba18220a	-0.0005803412
66	0xba7b0a87	-0.0009576459
67	0xb9d5e060	-0.00040793698
68	0xba52f1b5	-0.00080468814
69	0xba2117d8	-0.00061452156
70	0xb959bafc	-0.0002076439
71	0xb99d08e0	-0.00029951986

encoder_conv.0.bias f4 [8]
0	0xbeb1edfd	-0.34751883
1	0x3e95c03a	0.2924822
2	0xbc1a2cfd	-0.00941014
3	0xbdee1bd9	-0.11626405
4	0x3e9d5941	0.30732158
5	0xbdb2238e	-0.08698188
6	0xbd5523c6	-0.05203607
7	0xbc801b15	-0.015637914

encoder_conv.2.weight f4 [16, 8, 3, 3]
0	0xbd43f456	-0.04784044
1	0xbdba8e90	-0.09109223
2	0x3cd8410a	0.0263982
3	0xbd9b8af6	-0.07594864
4	0xbda4ea19	-0.08052463
5	0x3d2f9362	0.042865165
6	0xbbcd3699	-0.006262612
7	0xbe0c3228	-0.13691008
8	0x3d8df628	0.06931716
9	0x3c85be79	0.016326176
10	0x3e974c94	0.29550612
11	0x3d2221b4	0.039582923
12	0x3d871aa5	0.06596879
13	0x3ec12dd8	0.37730289
14	0x3e0d4174	0.137945
15	0xbcf4924d	-0.029854918
16	0x3eacf965	0.33784023
17	0x3cccf9dd	0.025021488
18	0x2c12b7a2	2.0849785e-12
19	0xabac0d3d	-1.2225009e-12
20	0x2bfae366	1.7826684e-12
21	0x2bea7343	1.6658692e-12
22	0xabf5d889	-1.7468398e-12
23	0xab7a7c3e	-8.899026e-13
24	0x2bd65dff	1.5231704e-12
25	0x2bf4280a	1.7348356e-12
26	0x2c019591	1.8415029e-12
27	0xbc9b154a	-0.01893105
28	0xbde1f685	-0.11033348
29	0x3d97e81f	0.074173205
30	0xbd2586ab	-0.040411633
31	0xbe3c9bb6	-0.18418774
32	0xbbe9262d	-0.0071151466
33	0x3c6ec30e	0.014572872
34	0xbdd8c92c	-0.105852455
35	0x3c957fe0	0.018249452
36	0x3db18737	0.08668368
37	0x3e8fe9ca	0.28108054
38	0x3d37af3a	0.044844843
39	0x3d9777e2	0.07395913
40	0x3ed2c3f2	0.4116512
41	0x3e22a427	0.15882932
42	0x3de7c061	0.1131599
43	0x3ea15b5b	0.3151501
44	0x3da87ff1	0.08227528
45	0x32cae558	2.3620188e-08
46	0x2c163872	2.1347616e-12
47	0xabbbfa1b	-1.3356567e-12
48	0x32bd7a65	2.2058154e-08
49	0x2c5adfaa	3.1103822e-12
50	0x2ce3573e	6.461414e-12
51	0xb0bbf01d	-1.3674285e-09
52	0xad521a07	-1.1942897e-11
53	0xac45ff04	-2.8136946e-12
54	0x35d16f5e	1.5604126e-06
55	0x2ea06571	7.293977e-11
56	0x2bff6097	1.8145649e-12
57	0x36ae387f	5.192181e-06
58	0x2edb4e37	9.972861e-11
59	0xabc763ce	-1.4167502e-12
60	0x371aa684	9.217885e-06
61	0x2f485808	1.8221169e-10
62	0x2d8d013f	1.6030397e-11
63	0x33cef798	9.6376596e-08
64	0xaf22f24f	-1.48199e-10
65	0xb19271db	-4.262103e-09
66	0x31e16478	6.559784e-09
67	0xad490df9	-1.142863e-11
68	0xae83087a	-5.958696e-11
69	0x320fd18b	8.37134e-09
70	0x2d14b4c8	8.4529675e-12
71	0x2f9b5afa	2.8258978e-10
72	0xbba9be6b	-0.0051801703
73	0xbcf569c4	-0.02995766
74	0x3ced0df7	0.028937323
75	0xbcd020a4	-0.02540619
76	0x3beb7121	0.007185117
77	0x3c0952f6	0.008381596
78	0xbd302f7f	-0.043014046
79	0xbd7e4a37	-0.062082496
80	0xbd1e8559	-0.03870139
81	0x3d6c7c12	0.05773551
82	0x3dc3cea5	0.09560899
83	0x3b77aa80	0.0037790835
84	0x3cc1066e	0.023562636
85	0x3dcb6b1a	0.099325374
86	0x3cc4e260	0.024033725
87	0x3ce692b9	0.028146135
88	0x3defa7b9	0.117019124
89	0x3caf15e8	0.02137275
90	0x2b598c5b	7.728867e-13
91	0xac0c6d0f	-1.9955736e-12
92	0xabacedf5	-1.2287381e-12
93	0xab9d6e69	-1.1186166e-12
94	0x2a887b42	2.424398e-13
95	0xac0274e6	-1.8539003e-12
96	0x2bcf8040	1.4743831e-12
97	0xabf726d0	-1.7561178e-12
98	0x2a1e665b	1.4068731e-13
99	0xbce6abc7	-0.028158082
100	0xbd56003d	-0.05224632
101	0xbdb3daaa	-0.08781941
102	0xbd130a32	-0.035898395
103	0xbd912310	-0.07086766
104	0xbe135cfe	-0.14390942
105	0xbd7bc053	-0.06146271
106	0xbc936a62	-0.017995063
107	0xbcdc3572	-0.026880953
108	0x3e237f53	0.15966539
109	0x3e142327	0.14466535
110	0x3df75115	0.12076012
111	0x3dcb6763	0.09931829
112	0x3e5faef9	0.2184409
113	0x3e37f73e	0.17965409
114	0x3e1f30c2	0.15545943
115	0x3e228ec4	0.15874773
116	0x3df8f503	0.12156107
117	0x2fd9895c	3.956967e-10
118	0x2b8b80c7	9.912287e-13
119	0xac0e0d95	-2.0186953e-12
120	0xb190bd78	-4.2124917e-09
121	0x2c27a7e3	2.3825323e-12
122	0xac6e67e6	-3.387951e-12
123	0x2f88bfc1	2.4874505e-10
124	0xacad71ce	-4.9295906e-12
125	0xacf23acb	-6.884581e-12
126	0xacc68a73	-5.6428694e-12
127	0xac3a2589	-2.6453026e-12
128	0x2cffc987	7.26991e-12
129	0xafb79490	-3.3393066e-10
130	0xac449445	-2.7935581e-12
131	0x2c40c053	2.7391602e-12
132	0x30291dda	6.1524263e-10
133	0xac3b501d	-2.661877e-12
134	0xabd066af	-1.4807789e-12
135	0x2e3eb9d6	4.3366054e-11
136	0xac2e5d49	-2.477867e-12
137	0x2cf5205a	6.9669106e-12
138	0xad73674e	-1.3835889e-11
139	0xaca021e1	-4.551235e-12
140	0xac9c16c5	-4.4363146e-12
141	0x2e2e13f3	3.9580738e-11
142	0xac4ab490	-2.8806159e-12
143	0x2c64fc70	3.254088e-12
144	0xbc123648	-0.0089240745
145	0x3cfb0bb5	0.03064523
146	0x3cb006d4	0.02148763
147	0xbe011d17	-0.12608753
148	0xbdf5c7dd	-0.120010115
149	0x3a356d6f	0.0006920909
150	0xbd24a061	-0.04019201
151	0xbd8abe86	-0.06774621
152	0xbc97cb52	-0.018529568
153	0xbd1dae07	-0.038496044
154	0x3cd1cb4f	0.02560964
155	0xbcce7c92	-0.025205884
156	0x3c4d6262	0.012535663
157	0x3d726fe6	0.059188746
158	0x3de5819e	0.11206363
159	0x3cfa3f5e	0.030547794
160	0x3daf5570	0.08561218
161	0x3d1dc188	0.038514644
162	0x2b7429a5	8.6744007e-13
163	0x2bd5cce7	1.5191432e-12
164	0x2b8ea52f	1.0135555e-12
165	0xaba6feb5	-1.1865705e-12
166	0x2b940940	1.05186e-12
167	0xaba0911c	-1.140896e-12
168	0xaa38f4ef	-1.6427461e-13
169	0x2bb6aa96	1.2979225e-12
170	0xab9bbfb6	-1.1066623e-12
171	0x3c5cdd0f	0.013480439
172	0xbd173e81	-0.036924843
173	0xbd61352c	-0.05498235
174	0xbcc4d8c3	-0.024029141
175	0xbcbffe49	-0.023436682
176	0xbd30b8fb	-0.04314516
177	0xbd2fa9fb	-0.042886715
178	0xbdf5a609	-0.11994559
179	0xbcd370f9	-0.025810705
180	0x3dff7978	0.1247434
181	0x3d378dbc	0.044812903
182	0x3dd5da27	0.10442
183	0x3de9b3e5	0.11411265
184	0x3dea2d9b	0.1143448
185	0x3d8169de	0.06319021
186	0x3df6bbe0	0.12047553
187	0x3e32d4f0	0.17464042
188	0x3d533769	0.051566515
189	0x2e82d38e	5.949295e-11
190	0x2c068cb5	1.9120653e-12
191	0x2b56c1e5	7.6297155e-13
192	0xaf172653	-1.3746985e-10
193	0x2c25a6ef	2.3540577e-12
194	0xab85e326	-9.513265e-13
195	0xae2485d3	-3.7408143e-11
196	0x2c98a565	4.3384623e-12
197	0x2c4eb7fa	2.9376488e-12
198	0xad0ea5ea	-8.108606e-12
199	0x2d0b04ea	7.902326e-12
200	0x2ce02bb4	6.371315e-12
201	0xad5ffe3c	-1.2732534e-11
202	0x2ce614b4	6.5392917e-12
203	0x2c03ac3f	1.8711835e-12
204	0x2dd6a3b0	2.4401675e-11
205	0x2cb8e9e7	5.255563e-12
206	0xac92f068	-4.17626e-12
207	0xabcd4106	-1.4584174e-12
208	0xaae15bd8	-4.0031758e-13
209	0x2c8d5237	4.0165887e-12
210	0xaba9222a	-1.2017655e-12
211	0x2c0e473e	2.021896e-12
212	0xaaa0c364	-2.855729e-13
213	0xabd0a30f	-1.4824547e-12
214	0xac538729	-3.0059932e-12
215	0xac07d0cf	-1.9300566e-12
216	0xbc6edaf7	-0.0145785725
217	0xbc9d6822	-0.019214693
218	0x3a81d947	0.0009906673
219	0xbc465478	-0.0121051
220	0xbccbce59	-0.024878668
221	0xbc6b02c7	-0.014343924
222	0xbb413d70	-0.0029486082
223	0x3ad022e6	0.0015879541
224	0x3b407ce4	0.0029371316
225	0xbb42f3c3	-0.0029747344
226	0xbc3eee6f	-0.011653527
227	0xbcb0c9a3	-0.021580523
228	0xbc2669b0	-0.010157034
229	0xbc277e2a	-0.010222951
230	0xbca8f51e	-0.020624693
231	0xbb230549	-0.0024874976
232	0xbc5cdc4c	-0.013480257
233	0x3af36907	0.0018570729
234	0x2a405433	1.7082238e-13
235	0x2b06699b	4.775292e-13
236	0xa6b035a8	-1.2226997e-15
237	0xa885867b	-1.4824288e-14
238	0x288224a7	1.4448795e-14
239	0x28f70737	2.7425638e-14
240	0xaa1c3df5	-1.3877079e-13
241	0xaa94b5a4	-2.641612e-13
242	0x291f7a88	3.541137e-14
243	0xbc9cfe31	-0.019164177
244	0xbca93535	-0.020655254
245	0xbc086e02	-0.008327009
246	0xbc9e48a8	-0.019321755
247	0xbc9c6439	-0.019090759
248	0xbceccb1a	-0.02890544
249	0x3bdcf984	0.006743612
250	0xbcfc356f	-0.030787198
251	0x3b5c4c7c	0.0033614924
252	0xaac03870	-3.4145213e-13
253	0x2b141858	5.2613946e-13
254	0x29797b60	5.5396117e-14
255	0x2ac54c94	3.5047366e-13

encoder_conv.2.bias f4 [16]
0	0x3e3cb01f	0.1842656
1	0x3e34237c	0.17591661
2	0x3e38cb9a	0.18046418
3	0xbd820c78	-0.063500345
4	0x3dd6add5	0.104823746
5	0x3c8ef167	0.017449094
6	0x3e1dcfef	0.15411352
7	0xbd8b5ff3	-0.0680541
8	0xbc81b2f2	-0.015832398
9	0x3e4c5058	0.19952524
10	0x3e3db474	0.18525869
11	0x3de584dc	0.112069815
12	0x3e3fa720	0.18716097
13	0x3de8288d	0.113358594
14	0xbd191f9c	-0.03738366
15	0x3e6fb63a	0.23409358

encoder_conv.4.weight f4 [32, 16, 3, 3]
0	0xbbcda922	-0.0062762657
1	0xbbd66136	-0.00654235
2	0xbb98f738	-0.0046681426
3	0xbbcd78dd	-0.0062705115
4	0xbbc4acad	-0.00600203
5	0xbb867702	-0.0041035423
6	0xbbb2d08d	-0.00545699
7	0xbb9d8928	-0.00480761
8	0xbb547107	-0.0032416002
9	0xba70ff08	-0.0009193276
10	0xbaac1135	-0.0013127687
11	0xba5be029	-0.00083875895
12	0xba618864	-0.00086033926
13	0xba9ee16a	-0.0012121622
14	0xba396043	-0.0007071534
15	0xba28fdb0	-0.0006446494
16	0xba5ce919	-0.0008427068
17	0xb9f99221	-0.00047601855
18	0xb90b86aa	-0.00013306239
19	0xb999998e	-0.0002929684
20	0xb914a322	-0.00014175152
21	0xb8bbaf03	-8.949453e-05
22	0xb93fd303	-0.00018293787
23	0xb89ae3a1	-7.3856914e-05
24	0xb84be2f8	-4.8610353e-05
25	0xb8d4a497	-0.00010139605
26	0xb8033d79	-3.1290085e-05
27	0xa9f62f56	-1.0932806e-13
28	0xa7cd1d99	-5.693102e-15
29	0xa978ca5d	-5.5242584e-14
30	0xa98e750c	-6.326371e-14
31	0xa98392d2	-5.843038e-14
32	0xa9a1b680	-7.181495e-14
33	0xaa889d29	-2.4267505e-13
34	0xa9da2f4e	-9.689351e-14
35	0x281e651e	8.792688e-15
36	0xba8f6716	-0.0010940756
37	0xbadcd02d	-0.0016846709
38	0xba7801d8	-0.0009460724
39	0xba4acc87	-0.00077361654
40	0xba935b47	-0.0011242413
41	0xba09e641	-0.0005260446
42	0xba128c5e	-0.00055903743
43	0xba42aaba	-0.0007425953
44	0xb9abf50a	-0.0003279823
45	0xb5c0e090	-1.4370471e-06
46	0xb5ada0ad	-1.2936267e-06
47	0x362f742a	2.6144648e-06
48	0x361a2b97	2.297316e-06
49	0x3590f10c	1.079899e-06
50	0xb68365d8	-3.9159604e-06
51	0x3638933f	2.7503845e-06
52	0xb64b9eed	-3.0341864e-06
53	0xb668810e	-3.4645814e-06
54	0xbbe5cf61	-0.007013247
55	0xbbff3f76	-0.0077895476
56	0xbbb6efe1	-0.005582795
57	0xbbd84cfc	-0.006600974
58	0xbbdf74d7	-0.0068193483
59	0xbb9a16a1	-0.0047024046
60	0xbbbd4896	-0.005776475
61	0xbbb7a291	-0.005604096
62	0xbb7b6823	-0.003836163
63	0xb64db450	-3.0652336e-06
64	0x35ca5f6f	1.5077948e-06
65	0xb686f32d	-4.0218206e-06
66	0xb6730439	-3.621228e-06
67	0xb62c48f5	-2.5672464e-06
68	0xb64af545	-3.0243111e-06
69	0xb68402df	-3.934241e-06
70	0xb684e626	-3.9606994e-06
71	0xb519580d	-5.712507e-07
72	0xae942d28	-6.738282e-11
73	0x2dabbed8	1.9525201e-11
74	0x2c98d978	4.3442437e-12
75	0xadef6783	-2.7217123e-11
76	0xae4a832a	-4.604598e-11
77	0x2dad1688	1.9677829e-11
78	0xaf295030	-1.5398949e-10
79	0x2ebba681	8.5333525e-11
80	0x2eb32c55	8.1478525e-11
81	0xbbb4ec10	-0.005521305
82	0xbbc0f8d8	-0.0058890395
83	0xbb8ab2a0	-0.0042327195
84	0xbba8f41e	-0.005156054
85	0xbbaba448	-0.0052380897
86	0xbb62bb5a	-0.0034596534
87	0xbb903dce	-0.004401899
88	0xbb871564	-0.004122423
89	0xbb3259ea	-0.0027214237
90	0xbaf8d9c1	-0.0018985794
91	0xbb46a4a7	-0.0030310543
92	0xbb09bb6e	-0.0021016258
93	0xbad54c52	-0.0016273356
94	0xbb23f646	-0.0025018617
95	0xbad2d338	-0.0016084677
96	0xbaa82446	-0.0012828193
97	0xbaf66269	-0.0018797639
98	0xba9ad6c1	-0.0011813269
99	0xba287c07	-0.0006427173
100	0xba616def	-0.000859945
101	0xb9ecdaba	-0.00045176392
102	0xba0f4c15	-0.0005466354
103	0xba2c3647	-0.0006569367
104	0xb997a444	-0.00028923352
105	0xb9cbefb6	-0.00038897776
106	0xb9d823fe	-0.00041225547
107	0xb9317268	-0.00016922655
108	0xb992338b	-0.00027885693
109	0xb9c24aa6	-0.0003705818
110	0xb93bc36a	-0.00017906507
111	0xb93eadae	-0.00018184513
112	0xb967e016	-0.00022113355
113	0xb8bec114	-9.0958696e-05
114	0xb90c1078	-0.00013357576
115	0xb9208e71	-0.00015311853
116	0xb87a04cb	-5.960911e-05
117	0xbb20a026	-0.0024509518
118	0xbb7f6b25	-0.0038973775
119	0xbb2dccb9	-0.002651973
120	0xbb2ab26f	-0.0026046296
121	0xbb800da3	-0.0039078756
122	0xbb261b1d	-0.002534575
123	0xbb0841e6	-0.0020791232
124	0xbb42d4ec	-0.0029728962
125	0xbaf29aad	-0.0018509232
126	0xb62565fc	-2.4646279e-06
127	0xb40bb9a7	-1.3012924e-07
128	0x363a574b	2.776697e-06
129	0xb5e5bd75	-1.7116969e-06
130	0x3615a1a1	2.229681e-06
131	0x35fa94ee	1.8669796e-06
132	0xb3fbc379	-1.17236546e-07
133	0x36354425	2.7010767e-06
134	0x34cb0c43	3.7820618e-07
135	0xb5e702d9	-1.721167e-06
136	0x370211a1	7.752708e-06
137	0x35ec09b9	1.75862e-06
138	0x37119d3a	8.679281e-06
139	0xb5d107ce	-1.5573985e-06
140	0xb6839fbc	-3.9226998e-06
141	0x370f5032	8.542136e-06
142	0xb6543852	-3.1623244e-06
143	0xb6801bb1	-3.817921e-06
144	0xbd65d295	-0.05610903
145	0xbe35eb81	-0.17765619
146	0x3d7434e8	0.059620768
147	0xbdddf0f0	-0.10836971
148	0xbeab1db3	-0.33421096
149	0x3e0a1ed5	0.13488324
150	0x3d12f0c9	0.035874162
151	0xbea8e0a0	-0.32983875
152	0x3e86171d	0.2618951
153	0xbdb6e2cb	-0.08929976
154	0xbe2b9fac	-0.16760129
155	0x3d0b406a	0.033996977
156	0xbd9d33af	-0.076758735
157	0xbe892d43	-0.26792344
158	0x3d97708f	0.07394516
159	0x3c918684	0.017764337
160	0xbe1fbb9d	-0.15598913
161	0x3e036576	0.12831673
162	0xbd93c7b0	-0.07215822
163	0xbe2491bf	-0.16071223
164	0x395daaa6	0.00021139774
165	0xbd63f2ea	-0.055651583
166	0xbe6515ef	-0.22371648
167	0x3d1e9a93	0.038721632
168	0x3b42862b	0.002968202
169	0xbe0dd685	-0.13851364
170	0x3d9ea25d	0.07745812
171	0x29f6aee2	1.0954932e-13
172	0xaa748fb0	-2.1721405e-13
173	0xaa491ca5	-1.7862324e-13
174	0xaa22d7ec	-1.4463403e-13
175	0x2a3c54d6	1.6727188e-13
176	0x2a84dfea	2.3603282e-13
177	0xa9ee608d	-1.0586072e-13
178	0xa9fc896d	-1.12148877e-13
179	0xaa781188	-2.2032907e-13
180	0xbdef1055	-0.11673037
181	0xbe12a6e1	-0.14321472
182	0x3c9a0ea1	0.018805804
183	0x3d85eb68	0.06539041
184	0xbe3375f0	-0.17525458
185	0x3dfaa7f8	0.12239069
186	0x3e420316	0.1894649
187	0xbd8b7075	-0.06808559
188	0x3e6b7aa1	0.22995998
189	0x3e72b410	0.23701501
190	0x3e8517a4	0.259946
191	0x3c5a6abc	0.0133311115
192	0x3eb6816b	0.35645613
193	0x3ee3e608	0.44511437
194	0x3d77b8c1	0.06047893
195	0x3ea78674	0.32719767
196	0x3ef05868	0.4694245
197	0x3d0ad9ae	0.033899
198	0xbdceb210	-0.100925565
199	0xbe35eeda	-0.17766896
200	0x3d05837a	0.03259609
201	0xbd105275	-0.035234887
202	0xbea87d05	-0.32907882
203	0x3e0f24fb	0.1397895
204	0x3d714338	0.058901995
205	0xbe8ed93c	-0.27900112
206	0x3e7e3404	0.2482453
207	0xbd9b4ee1	-0.07583404
208	0xbd6ee1bd	-0.05832075
209	0x3d5bed89	0.053693328
210	0x3cf765d6	0.030199926
211	0xbad15074	-0.0015969411
212	0x3d5a5c7c	0.053310856
213	0x3e1ebe59	0.155023
214	0xbd13e879	-0.036110375
215	0x3e391cf0	0.18077445
216	0xb96ceaac	-0.00022594136
217	0xb8b77442	-8.747775e-05
218	0xb8b87309	-8.795231e-05
219	0xb80cf727	-3.360878e-05
220	0x3982c650	0.00024943287
221	0xb7082802	-8.115547e-06
222	0xb8a2fe8a	-7.7721736e-05
223	0xb696bc9b	-4.492305e-06
224	0xb7a8d3f6	-2.0125863e-05
225	0xbd76140a	-0.060077704
226	0xbe206e7a	-0.15667143
227	0x3d8b72e8	0.06809026
228	0xbdb12007	-0.08648687
229	0xbec52c2f	-0.38510272
230	0x3e20520d	0.156563
231	0x3d25d151	0.040482823
232	0xbea14652	-0.31498963
233	0x3e844a1c	0.2583779
234	0xbde8f92f	-0.11375653
235	0xbe5e2516	-0.21693835
236	0x3a6fbac3	0.0009144956
237	0xbc922317	-0.017838998
238	0xbe3d4abd	-0.18485542
239	0x3cbbc4c7	0.02292098
240	0x3dad8f36	0.08474581
241	0xbd935eb2	-0.07195796
242	0x3dbaeeb3	0.091275595
243	0xbd933624	-0.07188061
244	0xbe162e72	-0.14666155
245	0x3cac3d10	0.02102521
246	0x3d0ee71b	0.034888368
247	0xbe6c98b3	-0.23105125
248	0x3deb1360	0.11478305
249	0x3df8687f	0.12129306
250	0xbe0e133e	-0.13874528
251	0x3e4980d5	0.19678052
252	0xbe0f396c	-0.13986748
253	0xbe7068e6	-0.23477516
254	0xbcd4d89b	-0.025982192
255	0x3c19fac3	0.009398165

encoder_conv.4.bias f4 [32]
0	0xbd0cfba2	-0.034419663
1	0x3c97ae4f	0.018515734
2	0xbdb1adb8	-0.08675712
3	0xbcda9fce	-0.026687529
4	0x3eab1d33	0.33420715
5	0xbd251737	-0.040305343
6	0xbdcc78ce	-0.09983979
7	0xbc89796b	-0.01678153
8	0xbdc10a48	-0.09425789
9	0xbd733bd3	-0.059383225
10	0xbc7faa26	-0.015604531
11	0xbdeecf68	-0.11660653
12	0x3e555038	0.20831382
13	0xbd236f94	-0.03990133
14	0xbdcfff92	-0.10156168
15	0x3e0885ef	0.13332342
16	0xbe20ff84	-0.15722471
17	0xbd91374e	-0.07090627
18	0x3e798c24	0.24369866
19	0xbdc787e5	-0.09742717
20	0xbbd14bfd	-0.0063872323
21	0x3b480af4	0.0030524107
22	0xbca50f73	-0.020148968
23	0xbd11ac79	-0.035564873
24	0xbe772abb	-0.24137394
25	0x3ceb531a	0.02872615
26	0xbc814473	-0.01577971
27	0x3c13719e	0.008999256
28	0xbc474838	-0.012163214
29	0xbde1be35	-0.11022607
30	0xbccf543e	-0.025308724
31	0xb67f59b3	-3.8050173e-06

encoder_lin.0.weight f4 [64, 288]
0	0x33fd1538	1.178509e-07
1	0x3362b1f6	5.278158e-08
2	0xb40bc8f2	-1.3018487e-07
3	0x32fc9094	2.9402408e-08
4	0x3315d636	3.488659e-08
5	0x342ec904	1.6278142e-07
6	0x330f6273	3.338432e-08
7	0xb31042e9	-3.3588467e-08
8	0x318f1c3c	4.1650576e-09
9	0xbb73b7f2	-0.0037188497
10	0x3df55f7b	0.11981102
11	0xbc9cddbd	-0.019148702
12	0xbd4c9474	-0.049946263
13	0x3e8342d8	0.25636935
14	0x3ea19088	0.3155558
15	0xbe50de47	-0.20397292
16	0xbe2091d8	-0.15680635
17	0x3d2c616e	0.042085104
18	0x3b5f8a6a	0.00341096
19	0x3d998f57	0.07498043
20	0x3d3579d1	0.044305626
21	0x3cbd49f3	0.02310655
22	0x3c14a1e0	0.009071797
23	0xbcbcfd36	-0.02306996
24	0x3dafdaf2	0.085866824
25	0x3da1ad0d	0.07894335
26	0x3bf8cc4b	0.007592713
27	0xbc03326c	-0.008007627
28	0xbcee3e8e	-0.029082563
29	0xbd6c94e6	-0.057759188
30	0x3d7b2ee4	0.061324015
31	0x3d9499ae	0.072558746
32	0x3dd5b2bb	0.10434481
33	0xbd81136d	-0.06302533
34	0x3ca2bb82	0.019864801
35	0xbe5fb5df	-0.21846722
36	0xbe13e99c	-0.14444584
37	0xbd403634	-0.046926692
38	0xbe1b0a0a	-0.15140548
39	0xbd7de5c7	-0.06198671
40	0x3e1f9670	0.15584731
41	0x3e170336	0.14747319
42	0xbdc04150	-0.09387457
43	0xbddd1dde	-0.10796712
44	0xbdd84992	-0.105609074
45	0x33115f35	3.3847034e-08
46	0x341bc45c	1.4506935e-07
47	0x33a88366	7.847011e-08
48	0x33cc98ec	9.5273066e-08
49	0x34da1f6d	4.062853e-07
50	0x347ef381	2.374418e-07
51	0x33d18089	9.755701e-08
52	0x34e4b366	4.259884e-07
53	0x3417f92a	1.4153616e-07
54	0xbd450d33	-0.04810829
55	0x3d6c01cc	0.0576189
56	0x3d893b9e	0.06700824
57	0x3d51d52c	0.051228687
58	0x3d21b4cd	0.039479066
59	0xbd95875c	-0.073012084
60	0x3d8dcc23	0.069237016
61	0x3d08346d	0.033253122
62	0xbd0c804e	-0.03430205
63	0xbd645268	-0.05574265
64	0x3d80bbfd	0.06285856
65	0x3d745376	0.059649907
66	0x3d175574	0.03694673
67	0xbcb72f62	-0.022361461
68	0xbdb00996	-0.08595578
69	0x3d5e747a	0.0543103
70	0x3d985c09	0.07439429
71	0xbd0590ca	-0.032608785
72	0xbc11ec55	-0.008906444
73	0x3d8a78a1	0.067612894
74	0x3d7ddfbb	0.061980944
75	0x3d1b304b	0.037887853
76	0x3d12dbea	0.035854258
77	0xbcf666ed	-0.030078376
78	0x3dab3f2f	0.08361661
79	0x3d982404	0.074287444
80	0xbc14b528	-0.009076394
81	0xbcb94283	-0.022614723
82	0x3cd730f5	0.026268462
83	0x3d2c7cdd	0.042111266
84	0x3c37045f	0.011170476
85	0x3c8649d0	0.016392618
86	0x3c9cc212	0.019135509
87	0x3ccb204f	0.02479568
88	0x3c84b679	0.016200291
89	0x3c91aac3	0.01778162
90	0x2fe97f7c	4.2473036e-10
91	0xb699455a	-4.567829e-06
92	0xb65228b3	-3.1316129e-06
93	0xb464b45a	-2.1299766e-07
94	0xb84b6c96	-4.85001e-05
95	0xb706313f	-7.998488e-06
96	0xb46183e8	-2.1002745e-07
97	0xb8696b0c	-5.5651224e-05
98	0xb79ca1e4	-1.8672035e-05
99	0xbb24c7c6	-0.0025143488
100	0x3d8d4499	0.068978496
101	0x3da0d636	0.078533575
102	0x3d773dc1	0.060361627
103	0x3e18fb67	0.14939652
104	0x3cf412bd	0.029794091
105	0xbb875b4d	-0.004130757
106	0x3d9cded8	0.076596916
107	0x3d110381	0.035403732
108	0xbd4b2c10	-0.04960257
109	0x3c20c14b	0.00981171
110	0xbd60d2e2	-0.054888614
111	0x3e9b09fa	0.3028105
112	0x3e13188b	0.14364831
113	0x3e6f6c6e	0.23381206
114	0xbd940252	-0.07227005
115	0xbcb4b5f6	-0.022059422
116	0xbdafb5e2	-0.08579613
117	0xbd5ca771	-0.053870622
118	0x3d57897b	0.052621346
119	0x3d17526b	0.036943834
120	0x3d23e2be	0.04001116
121	0xbcd71b14	-0.026258029
122	0xbe0bd996	-0.13657221
123	0x3d748701	0.059699062
124	0x3cd0c2f6	0.02548359
125	0xbd43a796	-0.047767244
126	0xbd906e9a	-0.070523456
127	0x3d3bbdf2	0.045835443
128	0xbbf76bc8	-0.0075506903
129	0x3c84bb4f	0.016202597
130	0xbd615e40	-0.055021524
131	0x3bee3fda	0.0072707953
132	0xbd062dea	-0.03275863
133	0x3d45b6a8	0.048269898
134	0xbd81a4a8	-0.06330234
135	0xbc0cddeb	-0.008597831
136	0x3c2af0da	0.0104334
137	0xbd831db5	-0.064021505
138	0xbc4f82d6	-0.012665471
139	0x3e14abef	0.14518712
140	0x3def2f87	0.11678987
141	0xba267c64	-0.0006350933
142	0xbc0d0fa1	-0.008609683
143	0xbb1aa923	-0.0023599348
144	0x3c45f935	0.012083341
145	0x3dba8b5d	0.09108613
146	0x3d1ced62	0.038312323
147	0xbe356f53	-0.17718248
148	0xbddfb2df	-0.10922789
149	0xbdf8a609	-0.12141044
150	0x3ddd8596	0.10816495
151	0x3e6eae67	0.23308717
152	0x3d1d9e22	0.038480885
153	0xbd0ce294	-0.03439577
154	0x3d68b552	0.056813546
155	0x3c508ae4	0.012728427
156	0xbc41fd24	-0.011840139
157	0x3c9fd9de	0.019513067
158	0xb99693fd	-0.0002872049
159	0x3d847f80	0.06469631
160	0x3da1b0f5	0.0789508
161	0x3d1f4ce0	0.038891673
162	0xbebfe72f	-0.37481067
163	0xbe37ff18	-0.17968404
164	0xbe030818	-0.12796056
165	0xbca9a3ba	-0.020707954
166	0x3e1170a1	0.14203121
167	0x3db33918	0.08751124
168	0xbeb33a93	-0.35005626
169	0xbdafee1b	-0.08590337
170	0xbd97366c	-0.07383427
171	0xbcc7d9ca	-0.024395842
172	0x3d72612b	0.059174698
173	0x3d4f8c9a	0.050671197
174	0x3b45432c	0.0030099852
175	0x3d18bc3c	0.03728889
176	0x3c6731ee	0.014111025
177	0x3d93267b	0.07185074
178	0x3dd6b27d	0.10483263
179	0x3da221f1	0.0791663
180	0x2a194ffa	1.3616877e-13
181	0xabf12453	-1.7134162e-12
182	0x2b2be2eb	6.1066316e-13
183	0x2c8ebae5	4.056632e-12
184	0x2b8bfb5f	9.946314e-13
185	0x2a2e76c9	1.5495516e-13
186	0x2bf926a4	1.7703239e-12
187	0xab9a532b	-1.0965442e-12
188	0xab1bf814	-5.541134e-13
189	0x3a085352	0.0005200404
190	0x3d439077	0.047745194
191	0x3d5ba318	0.053622335
192	0x3bda4ba9	0.0066618514
193	0x3c54eeaf	0.01299636
194	0xbd424cbc	-0.04743646
195	0x3d7c743c	0.061634287
196	0x3d89b2f0	0.06723583
197	0xbbec925e	-0.0072195968
198	0x2cf84cbb	7.0571027e-12
199	0xacf14b62	-6.858001e-12
200	0x29fa1c43	1.1107133e-13
201	0xac98264e	-4.3243525e-12
202	0x2d7f995f	1.4529127e-11
203	0x2cd65176	6.09129e-12
204	0xad182516	-8.648434e-12
205	0x2d84fe31	1.5119546e-11
206	0x2b4d7cd6	7.3003875e-13
207	0xbc7685cf	-0.015046551
208	0x3d7254d8	0.059162945
209	0x3d42d46f	0.047565874
210	0x3d0a3a7d	0.033747185
211	0xbc40ef63	-0.011775824
212	0xbd9c51b0	-0.07632768
213	0x3dc5fa31	0.09666861
214	0x3db9dd9b	0.09075471
215	0xbc89bda5	-0.016814062
216	0x3aabc464	0.0013104794
217	0x3bd73a1d	0.006568207
218	0x3dfd5eab	0.12371572
219	0xb9b15d6f	-0.00033829684
220	0x3c82da5e	0.015973266
221	0x3dfe98a9	0.12431461
222	0x3b60cd4b	0.0034302052
223	0x3cd892d7	0.026437206
224	0x3c9dffd8	0.019287035
225	0xbdac7e16	-0.084224865
226	0x3cef9c19	0.029249238
227	0x3d5d625a	0.054048873
228	0x3ce27b17	0.027646584
229	0xbc41bed6	-0.011825284
230	0xbda54b10	-0.08070958
231	0x3d4c7f54	0.049926117
232	0x3d0ab1d4	0.033860996
233	0xbc9e931d	-0.019357258
234	0xad7301ee	-1.3813379e-11
235	0xaec5c16d	-8.992882e-11
236	0xaec191e1	-8.802537e-11
237	0xae6f9bfd	-5.4480854e-11
238	0xaeb689a1	-8.3008496e-11
239	0xaee7abb1	-1.0535162e-10
240	0xae7c255c	-5.7331348e-11
241	0xaef660bf	-1.12039704e-10
242	0xaec56b62	-8.977598e-11
243	0xbe7ba454	-0.24574405
244	0x3c86ffff	0.01647949
245	0x3d3ca764	0.046058074
246	0xbd7c4c5b	-0.061596256
247	0x3e078fed	0.13238497
248	0xbe8f7b1c	-0.28023612
249	0xbdbe8cd5	-0.09304205
250	0xbca41770	-0.020030707
251	0xbd0ffc90	-0.03515297
252	0xaeb106c2	-8.0502285e-11
253	0xb630c61f	-2.6341365e-06
254	0xb61614b4	-2.2363793e-06
255	0x30e05c29	1.6324339e-09

encoder_lin.0.bias f4 [64]
0	0xbdb6f3db	-0.089332305
1	0xbdb64f22	-0.08901812
2	0xbe026366	-0.1273323
3	0xb9775185	-0.00023586124
4	0x3dd98d2c	0.106226295
5	0xbd4e6898	-0.050392717
6	0x3de3fc6c	0.1113213
7	0xbd642e83	-0.05570842
8	0xbd34cc58	-0.04414019
9	0xbc9557ab	-0.01823028
10	0xb893ed5b	-7.053717e-05
11	0xb9dfecff	-0.0004271045
12	0xbb123b9f	-0.002231337
13	0xb758ce5d	-1.2922651e-05
14	0xbc311028	-0.010807075
15	0x3d2d4ee6	0.04231157
16	0xbcfb7699	-0.0306962
17	0xbe50ca92	-0.20389774
18	0xbd61afb2	-0.055099197
19	0x3d1f35ca	0.038869657
20	0xbd9b6e25	-0.07589368
21	0xbc0678c2	-0.008207502
22	0x3d93af6c	0.072111934
23	0xbb64b55e	-0.0034898142
24	0xb7c7f990	-2.383886e-05
25	0xbce9aac2	-0.028523806
26	0xb76787da	-1.3800303e-05
27	0xbe04b011	-0.12957789
28	0xbe128259	-0.14307536
29	0xbdf728c5	-0.12068323
30	0xbce32593	-0.027727878
31	0xb08fc96d	-1.0461868e-09
32	0xbd3518c9	-0.04421309
33	0xbe13f30f	-0.14448188
34	0x3b7a5625	0.0038198319
35	0xb55b0459	-8.1590184e-07
36	0xbc88fc0a	-0.016721744
37	0x3ca27dba	0.019835342
38	0xbc4184ad	-0.0118114175
39	0xbdcbc33d	-0.09949348
40	0xbae220f0	-0.0017252248
41	0x3ce6adf8	0.028159127
42	0xbd964fa5	-0.0733941
43	0xbc33c00d	-0.010971081
44	0xbb57cceb	-0.0032928537
45	0xbc179f51	-0.009254293
46	0xbe00ce89	-0.12578787
47	0xbc811d1b	-0.015760949
48	0x31d29274	6.128454e-09
49	0xbd783397	-0.060596075
50	0xbce26ba2	-0.027639214
51	0x3ba69167	0.0050832513
52	0xbc51cd9c	-0.012805369
53	0xbe3f3696	-0.18673167
54	0x35b11ac1	1.3195314e-06
55	0x3ccc59be	0.024945136
56	0x3cf110f7	0.029427035
57	0xbe1ae156	-0.15125021
58	0x3d243f9a	0.040099718
59	0xbe185d9f	-0.14879464
60	0x3c90e7da	0.01768868
61	0xbcf16218	-0.02946572
62	0xbe3161df	-0.17322491
63	0xbc22192f	-0.0098937

encoder_lin.2.weight f4 [3, 64]
0	0x3eb9ec33	0.36313018
1	0x3ec10f15	0.3770682
2	0xbf4008da	-0.75013506
3	0x3c64d880	0.013967633
4	0x3dddab78	0.10823721
5	0x3e8bad82	0.27280813
6	0x3e97dace	0.29659122
7	0x3ec4946d	0.3839449
8	0xbd0fea59	-0.0351356
9	0x3da750ac	0.08169684
10	0x3a1f0ce7	0.0006067291
11	0x2e0eae62	3.2441945e-11
12	0x3c10f0c3	0.008846465
13	0xb43f875d	-1.7837506e-07
14	0xbde859f6	-0.11345284
15	0x3d26d13b	0.04072688
16	0x3cde2221	0.027115883
17	0xbe24c3e8	-0.16090357
18	0x3e976e9c	0.29576576
19	0xbd06d7b2	-0.032920547
20	0x3eeb5f1f	0.4597101
21	0xbba0e077	-0.004909571
22	0x3e0c61e8	0.13709223
23	0x3d2ef399	0.04271278
24	0x3b33a3b1	0.00274108
25	0x3c308a00	0.010775089
26	0x3cee1234	0.029061414
27	0xbd9d54c9	-0.07682187
28	0xbe2a2dde	-0.1661906
29	0xbecbc9ce	-0.39802402
30	0x3afc32ec	0.001924125
31	0xb83c9345	-4.495985e-05
32	0x3d23882c	0.039924785
33	0xbf083665	-0.53208
34	0x3b8676bd	0.00410351
35	0xb635b604	-2.7077049e-06
36	0x3d95c21f	0.07312416
37	0xbe194f19	-0.1497158
38	0xbc80fadc	-0.01574462
39	0x3eb6f7a6	0.35735816
40	0x3d887814	0.06663528
41	0x3cfe99cf	0.031079201
42	0x3f259966	0.6468719
43	0x3a8443ae	0.0010090971
44	0xbd48391d	-0.048882592
45	0x3d5858e8	0.052819163
46	0xbe2ad4bc	-0.16682714
47	0x3d07fea6	0.033201836
48	0x2e07ef0f	3.0907773e-11
49	0xbe467d20	-0.19383669
50	0x3df450e6	0.11929493
51	0x3c0871e1	0.008327932
52	0x3d78071a	0.060553648
53	0xbe366201	-0.17810823
54	0x3d00f944	0.03148772
55	0xbd8156bb	-0.06315371
56	0x3e6f0354	0.23341113
57	0xbe461437	-0.19343649
58	0xbdc5f164	-0.09665182
59	0xbe11b22f	-0.14228128
60	0x3dc97251	0.09836257
61	0x3ddeb1a6	0.108737275
62	0xbed51dfd	-0.41624442
63	0x3c19cf8b	0.009387861
64	0x3dc4bbd2	0.096061364
65	0x3e1421d3	0.14466028
66	0x3e9fc14c	0.3120216
67	0xbb859393	-0.00407643
68	0xbe7dafb8	-0.24774063
69	0x3e0861f1	0.13318612
70	0x3e006982	0.12540248
71	0xbdd2960f	-0.10282528
72	0x3dfeca4d	0.124409296
73	0x3afd534e	0.0019327195
74	0xbac3fc45	-0.0014952502
75	0xb8f16433	-0.00011510439
76	0xbb051c0f	-0.0020310914
77	0x3767032f	1.3769414e-05
78	0xbeab709f	-0.3348436
79	0x3d275c82	0.040859707
80	0xbba21bc6	-0.0049471585
81	0xbe91c8d2	-0.28473526
82	0x3eb989f6	0.36238068
83	0xbd53daba	-0.051722266
84	0xbe93d0c4	-0.28870213
85	0xbba5cdec	-0.005059948
86	0x3efe3407	0.4964907
87	0x3e0aa259	0.13538493
88	0xbc92034c	-0.017823838
89	0x3bc7b551	0.0060946126
90	0xbaad37e8	-0.0013215514
91	0x3e4c9945	0.19980343
92	0xbe14cfa5	-0.14532335
93	0x3e039706	0.1285058
94	0x3c22fc32	0.009947823
95	0x373965bd	1.1050547e-05
96	0x3d21e913	0.039528918
97	0xbf156f18	-0.5837264
98	0x3c018305	0.007904773
99	0xba9454c4	-0.0011316766
100	0x3e49052e	0.19630882
101	0xbcf067ed	-0.02934643
102	0xbd04cb3a	-0.032420374
103	0x3e285fb4	0.16442758
104	0xbc2ef768	-0.010679103
105	0x3d5d4a7e	0.05402612
106	0xbe53bfb7	-0.20678602
107	0x3c1b6ba8	0.0094861165
108	0x3d1e4d92	0.038648196
109	0x3d2bc641	0.041937117
110	0xbdd5016f	-0.10400664
111	0x3dfc674c	0.1232439
112	0xb4b9defc	-3.4621178e-07
113	0xbe14a081	-0.14514352
114	0xbd215e56	-0.039396606
115	0x3ea1ec3f	0.31625554
116	0xbe2fe2d0	-0.17176366
117	0x3daca350	0.08429587
118	0xbc1b2242	-0.009468617
119	0x3b92a3b7	0.0044750827
120	0xbd255db0	-0.04037255
121	0xbbbc361e	-0.005743756
122	0xbe061cd4	-0.13096935
123	0xbd8b042c	-0.06787905
124	0x3cba0768	0.02270861
125	0x3e54fce1	0.2079959
126	0x3e82271c	0.25420463
127	0x38bd1a8f	9.017169e-05
128	0x3e0f0c0d	0.13969441
129	0x3e4ed7da	0.20199528
130	0x3e90420a	0.28175384
131	0x3d3e9a24	0.04653372
132	0xbd23f3d2	-0.040027447
133	0xbd4bb5ca	-0.049733914
134	0xbe9229b0	-0.2854743
135	0x3e8be47c	0.27322757
136	0x3df58c02	0.11989595
137	0x3cec1eed	0.02882334
138	0x3d34f062	0.04417456
139	0xba0addba	-0.0005297322
140	0x3d14c542	0.036320932
141	0x3a6675a9	0.00087913364
142	0x3d047979	0.032342408
143	0x3de72b1f	0.112875216
144	0x3d769a33	0.06020565
145	0x3d8df12a	0.06930764
146	0xbd77abb8	-0.060466498
147	0x3e0e697d	0.13907428
148	0x3c17f975	0.009275784
149	0xbc69607e	-0.014244197
150	0xbe1f3dc3	-0.15550904
151	0xbd09acf5	-0.03361221
152	0xbd27e7b5	-0.040992457
153	0xbd43be87	-0.047789123
154	0xbcc675f0	-0.024226159
155	0x3ddfd72f	0.10929715
156	0xbd7f3421	-0.062305573
157	0x3c8a1a54	0.016858257
158	0x3c38f34d	0.011288476
159	0xbbb131ce	-0.0054075485
160	0x3b4d81be	0.003135785
161	0x3d85169d	0.06498454
162	0x3d273de3	0.040830504
163	0xbbb771dd	-0.0055982904
164	0x3d458945	0.048226614
165	0x3ddff4b3	0.109353445
166	0xbd907aea	-0.07054694
167	0x3e93f014	0.28894103
168	0x3d6c56af	0.057699855
169	0x3df73cfb	0.12072178
170	0xbe0551c1	-0.13019468
171	0x3d545634	0.051840022
172	0x3d13ef2f	0.036116775
173	0x3d917227	0.07101851
174	0xbe0b2fef	-0.13592504
175	0x3de44a5c	0.111469954
176	0xb7dd08e4	-2.6349393e-05
177	0x3df4606d	0.11932454
178	0xbd15f168	-0.036607176
179	0xbdf59585	-0.11991409
180	0x3c1a5b01	0.009421111
181	0x3cfc5f2f	0.030807106
182	0x3d507616	0.050893866
183	0x3e0a3936	0.13498387
184	0x3d8e9cff	0.069635384
185	0xbdd445a8	-0.103648484
186	0xbd2b8b98	-0.041881174
187	0xbd74c4f2	-0.059758134
188	0x3d9bf52f	0.076151244
189	0xbd1efa0b	-0.03881268
190	0x3dbb3e26	0.09142713
191	0xbc0aa6b6	-0.008462599

encoder_lin.2.bias f4 [3]
0	0xbd32e24b	-0.04367284
1	0x3d60cfce	0.054885678
2	0x3df1528d	0.117833234

decoder_lin.0.weight f4 [64, 3]
0	0x3e4f56a4	0.20247895
1	0x3edb792c	0.42865884
2	0xbea50115	-0.32227388
3	0xbe802373	-0.25027046
4	0xba0ef01b	-0.00054526486
5	0xbd5a60ca	-0.05331496
6	0xbf0e3251	-0.55545527
7	0x3e47900f	0.19488548
8	0x3d64aa91	0.055826727
9	0x3c354248	0.011063166
10	0x3dcdd1c1	0.10049773
11	0x3ec31e83	0.38109216
12	0x3e38258c	0.17983073
13	0x3ecd6dfe	0.4012298
14	0xbe2035f5	-0.15645583
15	0xbe3da6fa	-0.18520728
16	0x3ede8c00	0.43466187
17	0xbf19f532	-0.60139763
18	0x3eb82377	0.35964558
19	0x3e67fcbb	0.22655003
20	0x3dd6d8a5	0.104905404
21	0xbe4f9b34	-0.20274049
22	0xbe4f927d	-0.20270725
23	0x3e2f1452	0.17097595
24	0xbeaef3a8	-0.3417027
25	0x3d8e6920	0.06953645
26	0x3eaed3df	0.3414602
27	0xbe576169	-0.21033253
28	0x3e3c0c1f	0.18363999
29	0x3ef63243	0.48085222
30	0x3ef5385c	0.4789456
31	0x3ea9d122	0.33167368
32	0x3e6a98ab	0.229098
33	0x3ea4db77	0.32198688
34	0xbe21720d	-0.15766163
35	0xbe9514ee	-0.2911753
36	0x3e5cd1a7	0.21564351
37	0xbe101dc4	-0.14073855
38	0xbe11eed9	-0.1425127
39	0x3e87dcbd	0.26535597
40	0xbe8f8ecf	-0.28038642
41	0x3d4ce012	0.050018378
42	0x3d605182	0.054765232
43	0xbe60e8fb	-0.21963875
44	0x3e8ecab0	0.27889013
45	0xbe998126	-0.29981345
46	0x3f46f800	0.7772217
47	0xbea361a3	-0.31910428
48	0x3ec7cf0b	0.3902515
49	0xbf141b60	-0.5785427
50	0xbccef60c	-0.025263809
51	0xbe5b4eea	-0.21416822
52	0x3dbcc2c4	0.09216836
53	0xbedd8fae	-0.4327368
54	0xbd0992ac	-0.033587143
55	0xbeabaa97	-0.33528587
56	0x3f15e402	0.5855104
57	0xbe610b04	-0.21976858
58	0xbc64fa08	-0.013975628
59	0x3e467fa2	0.19384626
60	0x3d7f39db	0.062311035
61	0xbd902c10	-0.07039654
62	0xbf200703	-0.625107
63	0x3bb3c099	0.005485606
64	0xbf0bfabd	-0.5467947
65	0x3ebad7b0	0.36492682
66	0xbe6d69de	-0.23184916
67	0xbebd29a3	-0.3694583
68	0xbedf3f5d	-0.4360303
69	0x3c9c5cee	0.019087281
70	0x3dfcdfb9	0.12347359
71	0x3e9f44d4	0.311072
72	0x3e04d930	0.12973475
73	0xbe1e248d	-0.1544363
74	0xbf333a34	-0.70010686
75	0x3e9852e9	0.29750755
76	0xbe3d8784	-0.18508726
77	0xbe88f576	-0.26749772
78	0xbe334518	-0.17506826
79	0xbd8f888c	-0.07008466
80	0xbef1785c	-0.4716214
81	0x3f214c40	0.63006973
82	0xbebb952a	-0.3663724
83	0x3ca5a023	0.02021796
84	0xbe171522	-0.14754155
85	0x3d1333b3	0.035937976
86	0x3ed6fde6	0.41990584
87	0xbda221d7	-0.07916611
88	0x3f098836	0.53723466
89	0xbd60ce62	-0.054884322
90	0xbe68d283	-0.22736554
91	0x3df102b1	0.117680915
92	0x3e36b059	0.17840709
93	0xbdf6a882	-0.12043859
94	0x3ebe8c8c	0.37216604
95	0x3ec15270	0.37758207
96	0x3e5a0191	0.2128966
97	0xbe7fa225	-0.24964197
98	0x3d8d12ac	0.06888327
99	0xbeea8871	-0.45807222
100	0x3f0340d8	0.5127082
101	0x3d0911d0	0.033464253
102	0x3e981263	0.29701528
103	0xbe54b19e	-0.2077088
104	0xbe19bf4e	-0.15014383
105	0x3d9b9eeb	0.075986706
106	0x3f257b10	0.64640903
107	0x3d0ec68f	0.03485733
108	0x3c7dea0b	0.015497695
109	0xbd3f84c6	-0.046757482
110	0x3e383e35	0.1799248
111	0x3e5496a5	0.20760591
112	0xbd0b970a	-0.03407959
113	0xbe245091	-0.16046359
114	0x3e94f5ff	0.2909393
115	0x3e926e5d	0.28599826
116	0xbca8c9a1	-0.020603957
117	0xbf0078ce	-0.50184333
118	0xbeb5f1a8	-0.35535932
119	0xbe5b393e	-0.21408555
120	0xbe3c9aef	-0.18418477
121	0x3e2e3a83	0.17014508
122	0x3e76a3f7	0.24085985
123	0x3f1cc264	0.61234117
124	0x3ea92347	0.33034727
125	0x3e7ba5cb	0.24574964
126	0xbf2b087f	-0.6680984
127	0x3d860270	0.06543434
128	0xbd0bd1ab	-0.0341355
129	0xbe37edbf	-0.17961787
130	0xbe109434	-0.14119035
131	0xbe9f4a83	-0.31111535
132	0xbea64a84	-0.32478726
133	0xbe8f08fe	-0.27936548
134	0xbe23e98f	-0.16007064
135	0x3e904c20	0.2818308
136	0x3f0ace31	0.54220873
137	0x3dac38ce	0.08409272
138	0x3ec065ee	0.37577766
139	0x3e8fc296	0.28078145
140	0xbed8922d	-0.42299023
141	0xbe339a59	-0.17539348
142	0xbf0e77e9	-0.5565172
143	0x3db98c9b	0.090600215
144	0xbe12d0fb	-0.14337532
145	0x3d1f2530	0.038853824
146	0xbeaa5daf	-0.332746
147	0x3e7177ed	0.23580904
148	0x3ea9eed4	0.33190024
149	0x3ec67e0c	0.3876804
150	0xbe82fe8c	-0.2558483
151	0xbe1babea	-0.15202299
152	0xbf13eb1e	-0.57780635
153	0xbe29cd16	-0.1658214
154	0x3fa83896	1.3142269
155	0xbeaa23bf	-0.33230397
156	0xbecabdfa	-0.39598066
157	0x3e0abb0a	0.13547912
158	0xbe2d95fa	-0.16951743
159	0x3c201089	0.009769567
160	0x3d3899cc	0.045068547
161	0x3e87ca91	0.26521733
162	0x3d73d51a	0.0595294
163	0xbe35cb16	-0.17753252
164	0xbbcf7183	-0.0063306703
165	0x3e7878b6	0.24264798
166	0x3f169e90	0.588357
167	0x3dc7ff8d	0.09765539
168	0xbf01acee	-0.50654495
169	0x3e14cd7b	0.1453151
170	0xbb8b721a	-0.0042555453
171	0x3ed7edd2	0.4217363
172	0x3e48ddc7	0.19615851
173	0x3d8522bf	0.06500768
174	0x3ecc79f7	0.39936802
175	0x3e62b8e9	0.2214085
176	0xbf3bc692	-0.7334987
177	0xbda14eef	-0.078763835
178	0xbeb28760	-0.34868908
179	0x3e592f53	0.21209459
180	0xbebe92e0	-0.37221432
181	0x3e06f324	0.13178688
182	0xbed474e8	-0.41495442
183	0x3ecf7e79	0.40526178
184	0x3e6459e4	0.22299916
185	0x3e1e67e0	0.15469313
186	0xbd0a899f	-0.033822652
187	0x3f36dc21	0.7142964
188	0x3e2e9d6f	0.17052244
189	0x3d383dcc	0.04498081
190	0x3e6ce16f	0.23132871
191	0x3ecf5f32	0.40502316

decoder_lin.0.bias f4 [64]
0	0xbe17b74a	-0.14816013
1	0xbf07809d	-0.52930623
2	0xbe6ab5f2	-0.22920969
3	0x3ec7cbb2	0.39022595
4	0x3f190367	0.59770817
5	0x3ddbcacb	0.10732039
6	0x3da336f5	0.079694666
7	0x3f23c914	0.63978696
8	0x3e065704	0.13119131
9	0x3eff6da3	0.49888334
10	0xbea5e504	-0.32401288
11	0xbf0a9f3b	-0.54149216
12	0x3f7dbd59	0.99117047
13	0xbf8ee595	-1.1163813
14	0x3e996abe	0.2996425
15	0xbe212966	-0.15738449
16	0x3ea7a7fd	0.32745352
17	0x3d0ca6fb	0.034338932
18	0xbed64073	-0.41846046
19	0xbf36afd7	-0.7136206
20	0x3e3d3a3f	0.1847925
21	0xbe7dadc7	-0.24773322
22	0x3eaa1411	0.33218434
23	0x3e9b1e86	0.30296725
24	0x3e169876	0.14706597
25	0xbf1b8885	-0.6075519
26	0x3e9a9cb1	0.3019767
27	0x3e63a4e3	0.22230868
28	0xbee9ef9f	-0.4569063
29	0x3c55816e	0.013031347
30	0x3eb7ea34	0.3592087
31	0x3ea26120	0.31714725
32	0xbf8afa2b	-1.0857595
33	0xbf26847a	-0.65045893
34	0xbf5ef952	-0.8709918
35	0xbea81d75	-0.32834974
36	0x3e37f0bd	0.17962928
37	0x3f061c06	0.5238651
38	0xbef43d0a	-0.4770282
39	0xbea699ac	-0.32539117
40	0x3f5fb632	0.87387383
41	0xbe9eaf68	-0.309932
42	0xbc3859a3	-0.01125184
43	0x3f809d34	1.0047975
44	0x3f35cfbb	0.71020097
45	0xbe4d43b8	-0.20045364
46	0x3f142bd8	0.578794
47	0xbf841971	-1.0320264
48	0x3f06ec12	0.52703965
49	0x3ed67248	0.41884065
50	0x3f11d362	0.5696317
51	0x3f450f23	0.7697622
52	0x3e9333e6	0.28750533
53	0x3f8cd0a8	1.1001177
54	0x3f185ae1	0.5951367
55	0xbf21b08a	-0.6316
56	0xbf8c52d6	-1.096278
57	0x3ec62ee2	0.38707644
58	0x3dab5384	0.08365539
59	0x3e1ad0c9	0.15118708
60	0x3eab325b	0.33436856
61	0xbf1f06ad	-0.6211956
62	0xbe63af90	-0.2223494
63	0xbf14bc08	-0.5809941

decoder_lin.2.weight f4 [288, 64]
0	0xbd8317f5	-0.06401054
1	0x3d5f2d91	0.054486815
2	0x3dbb489b	0.09144708
3	0x3ddae7aa	0.10688718
4	0x3dc30c9a	0.09523888
5	0xbdb51961	-0.08842731
6	0x3df7aff0	0.12094104
7	0x3d59f860	0.053215384
8	0x3dc885a2	0.097911134
9	0x3c2bf28a	0.010494838
10	0x3d638784	0.05554916
11	0xbcea889d	-0.028629595
12	0x3d301ef2	0.04299826
13	0x3d6de36c	0.058078215
14	0x3dac9112	0.084261075
15	0xbdac9921	-0.084276445
16	0x3e374279	0.17896451
17	0x3a8b2a99	0.0010617553
18	0x3dde2cd0	0.10848391
19	0xbcade071	-0.021225186
20	0xbd230a09	-0.039804492
21	0x3e0d8c18	0.13822973
22	0x3d1e6f89	0.038680587
23	0x3d88ccd4	0.06679693
24	0xbd8526d1	-0.06501544
25	0xbd2dac3e	-0.04240059
26	0xbd18c973	-0.037301492
27	0x3e850eb7	0.2598779
28	0x3c56a006	0.013099676
29	0x3cb2efed	0.021842921
30	0x3ba95b51	0.0051683565
31	0x3c878869	0.016544538
32	0x3d298fc1	0.04139686
33	0xbda28ffb	-0.07937618
34	0xbd0e2f93	-0.03471334
35	0x3d8eae81	0.06966878
36	0x3d1d0841	0.03833795
37	0x3d79800b	0.060913127
38	0x3c939cd3	0.018019116
39	0x3e02afa4	0.12762314
40	0x3dc9581d	0.098312594
41	0x3df25373	0.11832323
42	0x3d1e7110	0.038682044
43	0xbd26c7d9	-0.040717933
44	0x3df8c37f	0.12146663
45	0x3d8ca761	0.068678625
46	0xbc2ce199	-0.010551834
47	0x3d7cdf2f	0.061736282
48	0xbd327b02	-0.04357434
49	0x3dc2eebd	0.09518192
50	0xbd0aaa99	-0.0338541
51	0xbde58631	-0.112072356
52	0xbc081309	-0.00830532
53	0x3ccd2355	0.025041262
54	0x3dacd6c7	0.08439403
55	0x3c86fb88	0.016477361
56	0x3c781730	0.015142247
57	0x3db0f741	0.0864091
58	0xbdb5086e	-0.088394985
59	0x3e09bac7	0.13450156
60	0xbba778ce	-0.0051108366
61	0x3d6f8126	0.058472775
62	0x3c129726	0.008947169
63	0x3d4b026f	0.049562868
64	0xa95ed49d	-4.9478315e-14
65	0xa9f2e5a8	-1.0786798e-13
66	0xbc280db1	-0.010257171
67	0xbcb87e6e	-0.022521224
68	0xbc3221eb	-0.0108723445
69	0xa9a48250	-7.3056687e-14
70	0xba42b3b0	-0.0007427288
71	0xbae61681	-0.0017554314
72	0xbc72c2d3	-0.0148169575
73	0xbcb0bd03	-0.021574503
74	0xbc992ea4	-0.018698998
75	0xa9c053a0	-8.5410195e-14
76	0xae63f75f	-5.1833534e-11
77	0x292048d0	3.559029e-14
78	0xbc122a8b	-0.008921276
79	0xaad8689d	-3.8441898e-13
80	0xa8f57224	-2.7249965e-14
81	0xaa988e26	-2.709926e-13
82	0xb8fb5c22	-0.00011985774
83	0x2a397242	1.6470942e-13
84	0xaad0bfbd	-3.7081267e-13
85	0xab426815	-6.906709e-13
86	0x2864aea0	1.2694408e-14
87	0x3a288e7a	0.0006429922
88	0xa8983e08	-1.6902292e-14
89	0xa89dfaa1	-1.7539194e-14
90	0xaa438edc	-1.7369043e-13
91	0xbaf3bf8d	-0.0018596515
92	0xb91e77f1	-0.00015112736
93	0xbc03a406	-0.008034712
94	0xbc96c951	-0.018406542
95	0xbd2188b2	-0.039437003
96	0x2a52023c	1.8652522e-13
97	0xa90b1879	-3.0885427e-14
98	0xa96eb108	-5.3000166e-14
99	0x2a96161b	2.666069e-13
100	0xba76bf7c	-0.00094126887
101	0x2a7fef3a	2.2731548e-13
102	0xaa1d669e	-1.3980004e-13
103	0xaa732658	-2.1596039e-13
104	0xbb37ab71	-0.002802577
105	0xa91095e5	-3.2104436e-14
106	0x2a3bf615	1.6694313e-13
107	0xa9d8eaa7	-9.6330326e-14
108	0xa8dc0bae	-2.4429972e-14
109	0xba89fab9	-0.0010526992
110	0xa9e3335b	-1.0089734e-13
111	0x2ac09b38	3.4213756e-13
112	0xa9209566	-3.565672e-14
113	0xbcccb9ce	-0.024990942
114	0x2a2c36dd	1.5295703e-13
115	0x2ac9b910	3.5833185e-13
116	0xbaf7a804	-0.0018894677
117	0xbc71cc43	-0.014758172
118	0x2ed902f0	9.868539e-11
119	0xbca01e04	-0.019545563
120	0xaa5c7cb0	-1.9583185e-13
121	0x28cb2e87	2.2557705e-14
122	0xa81f518a	-8.843954e-15
123	0xb9a2d8f3	-0.00031060688
124	0xaa1b58f9	-1.3797634e-13
125	0xb679ee0d	-3.7242455e-06
126	0xbaf4cbb4	-0.0018676431
127	0xbb453751	-0.0030092786
128	0x3c0b91b3	0.008518624
129	0x3c687cbd	0.014189896
130	0x3bec6289	0.0072138947
131	0x3c975bed	0.01847645
132	0x3d2aa176	0.041657887
133	0xbd8cffc6	-0.068847224
134	0xbb81c5c8	-0.003960345
135	0x3cdc5056	0.026893776
136	0x3dc96f50	0.09835684
137	0x3da3bb63	0.079947256
138	0x3cd2c477	0.025728447
139	0xbd830742	-0.06397869
140	0x3c335db1	0.010947631
141	0xbe85477c	-0.260311
142	0x3ca6264a	0.02028193
143	0xbd2e9bc2	-0.04262901
144	0xbd124bdc	-0.035716876
145	0xbd303a30	-0.043024242
146	0x3e16bbdf	0.14720105
147	0x3d338c52	0.04383499
148	0xbd5a64c2	-0.053318746
149	0x3ddc383e	0.10752915
150	0x3da4e7f1	0.08052052
151	0x3b1c702b	0.0023870568
152	0xbd252b6c	-0.040324613
153	0xbd6e9ddd	-0.05825602
154	0xbcecf7e2	-0.028926793
155	0x3ca89191	0.020577224
156	0x3d9b901d	0.07595847
157	0xbd62090d	-0.055184413
158	0x3d0f20b5	0.0349433
159	0xbc6b8083	-0.014373901
160	0xbe986261	-0.29762557
161	0xbdd87a0f	-0.10570156
162	0xbe26805c	-0.16259903
163	0x3e111db8	0.14171493
164	0xbc43d1aa	-0.011951843
165	0x3d653dce	0.055967145
166	0x3defc44e	0.11707364
167	0x3e8afffb	0.27148423
168	0xbd93df43	-0.07220318
169	0xbcfca989	-0.03084256
170	0x3d7ef4ad	0.06224506
171	0xbd844c7c	-0.06459901
172	0x3e614aaf	0.22001146
173	0x3d3a9eb8	0.045561522
174	0x3c859a93	0.016309058
175	0x3d6795f4	0.05653949
176	0xbe0694b1	-0.13142659
177	0x3bdb2e82	0.006688894
178	0xbd55643b	-0.05209754
179	0xbe476c34	-0.1947487
180	0xbdcce0b2	-0.10003795
181	0xbda88f8e	-0.08230506
182	0x3d94f821	0.07273889
183	0x3ddc06cd	0.10743485
184	0x3d8759ad	0.06608901
185	0x3c9f9840	0.019481778
186	0xbd302a2b	-0.043008965
187	0x3e107814	0.14108306
188	0xbe03d060	-0.12872458
189	0x3be70597	0.007050227
190	0xba6fbac5	-0.00091449573
191	0xbd2a892e	-0.04163473
192	0x29a33650	7.248076e-14
193	0x2ac82934	3.5555727e-13
194	0xba4a7df6	-0.0007724458
195	0xbc40b097	-0.011760852
196	0xbc3a4d82	-0.011371018
197	0x2abbc6e0	3.335587e-13
198	0xbba2d62d	-0.0049693794
199	0x30f318ad	1.768759e-09
200	0xbb14cf7b	-0.0022706676
201	0xbc8bc6b6	-0.017062526
202	0xbc5f4137	-0.013626388
203	0xab09e7e0	-4.899397e-13
204	0xba92e042	-0.001120575
205	0xa98bb839	-6.2047976e-14
206	0xbb0f9901	-0.0021911266
207	0x2a0e5107	1.2640246e-13
208	0xaf69f09c	-2.1276708e-10
209	0xaac6c8a8	-3.53111e-13
210	0x2b9e3b8f	1.1243106e-12
211	0x2a8a85c2	2.4606538e-13
212	0xaa0f7097	-1.2740014e-13
213	0xaa293241	-1.502765e-13
214	0xaac16cce	-3.4359185e-13
215	0xbc31b6aa	-0.010846773
216	0xaa36b35f	-1.6227079e-13
217	0xaa9f6640	-2.8315024e-13
218	0xaa86e995	-2.3965262e-13
219	0xbb07a2bd	-0.0020696365
220	0xaa42ab2c	-1.7290049e-13
221	0xbab2e9d0	-0.0013650004
222	0xbb5edb15	-0.0034005095
223	0xbc055ac0	-0.008139312
224	0xaac4d522	-3.4964485e-13
225	0x2af2010a	4.2988557e-13
226	0xaac10365	-3.4286042e-13
227	0x2907a8c7	3.0122413e-14
228	0xb9075f2d	-0.00012910059
229	0xb81dab6d	-3.759137e-05
230	0x2a550f8b	1.8923593e-13
231	0x2919c219	3.4141177e-14
232	0xbc073d32	-0.008254336
233	0xaacb1e3e	-3.6081029e-13
234	0x2988d3b2	6.0763365e-14
235	0x2ac4f238	3.4984667e-13
236	0xa989723e	-6.10384e-14
237	0xbc2927f3	-0.010324466
238	0xbb0aaa87	-0.002115877
239	0xaa9fd444	-2.8391363e-13
240	0x280ca28b	7.806807e-15
241	0xbcd350c5	-0.02579535
242	0xaafb2592	-4.4612626e-13
243	0xaaccd593	-3.6385876e-13
244	0xb931640a	-0.00016917303
245	0xbbd53bb8	-0.006507363
246	0x31d12f2e	6.0880643e-09
247	0xbba2e2e1	-0.0049708937
248	0xaa413b89	-1.7162499e-13
249	0xa94a4f2e	-4.4921688e-14
250	0xa95a5d39	-4.848658e-14
251	0xb52fcb9c	-6.548887e-07
252	0x29c70818	8.838779e-14
253	0xb9526172	-0.00020063462
254	0xba195b86	-0.0005850125
255	0xba1f864b	-0.000608538
