2. Convolutional Autoencoders/models/autoencoder.pth (torch, 203433 bytes, 19 tensors)

encoder_conv.0.weight f4 [8, 1, 3, 3]
00000000: 03ac 9cb8 b0e6 949a 6cd8 7bba f760 0880
00000010: d869 4bb8 3644 b7b6 3492 9a08 7d79 45b5
00000020: ac65 9b39 4e03 b439 80b1 df3e 217d 0d3e
00000030: 435b 243e 69d7 f03d 3cf4 933e 46e6 b23e
00000040: db0b 073e 07f5 e2bd 15e4 193e d3d8 fc3d
00000050: 9ae4 013e 8bd8 ef3c d4e4 e13e 7403 a33e
00000060: 213b d2bd 0008 d63e b33c 243e 2db2 c3b9
00000070: 9e80 68b6 be0e 0800 a676 2dba f6ba 0100
00000080: e6b4 37af 223a 71ad 7283 0500 c5fa 0580
00000090: c66d 57be 18a9 c73e 3d01 653e e67c e9bc
000000a0: f624 393e a36d aabb 11ba a0bd 9a7f 39be
000000b0: 058a 8f3e f71c 08b1 b870 2632 465f 542d
000000c0: 88a2 e23a 1a39 1abb 0ba5 cfb9 865d 0580
000000d0: bdbd 17bb adf7 fa33 a044 3db3 aa75 0bb3
000000e0: 1966 eeb4 7ad3 1789 ff9c 0800 538c 592a
000000f0: ac90 0080 c604 f3ab 9dd8 2609 caad 0c3e
00000100: 6386 72bd 9c3c 31be 1cf7 c93e 8b6a ce3e
00000110: e5cb 493e 87b0 d13e d492 d13e b303 8d3e
-7.470699e-05 -6.158406e-23 -0.00096071395 -7.69468e-40 -4.8497546e-05 -5.461766e-06 9.30291e-34 -7.356501e-07
0.00029639655 0.00034334738 0.4369011 0.13817264 0.16050439 0.11759836 0.28897274 0.3494131
0.13188116 -0.110818915 0.15028413 0.123460434 0.12684861 0.02927806 0.44119895 0.31838572
-0.10265184 0.4180298 0.1603878 -0.0003732605 -3.464556e-06 7.39972e-40 -0.0006617106 1.58904e-40
-1.6708021e-10 -1.3712172e-11 5.06331e-40 -5.49137e-40 -0.21037969 0.38996196 0.22363754 -0.028501939
0.18080506 -0.005201058 -0.07847989 -0.18115082 0.28034988 -1.980707e-09 9.688101e-09 1.207196e-11
0.001729087 -0.002353257 -0.00039605083 -4.92727e-40 -0.0023153864 1.1686584e-07 -4.4067406e-08 -3.2470474e-08
-4.440524e-07 -1.82754e-33 7.91004e-40 1.9322156e-13 -5.1898e-41 -1.7267513e-12 2.0083374e-33 0.1373817
-0.059210192 -0.17308277 0.39446342 0.4031566 0.19706686 0.40954992 0.40932333 0.27541885

encoder_conv.0.bias f4 [8]
00000000: 928c 19bb 7b69 6a3c 1456 fd3c cdbb 01a3
00000010: d19d bbbe dd97 24bb a6ef 65aa b929 a33c
-0.0023429734 0.014307375 0.030924834 -7.032872e-18 -0.36643842 -0.0025114932 -2.042243e-13 0.019917356

encoder_conv.2.weight f4 [16, 8, 3, 3]
00000000: 9cb1 fc8e 6c90 1ea8 7c57 0500 ca31 8e1b
00000010: 383b 8709 bfd7 0580 dbdb 0780 6b23 5aa6
00000020: 07af 1106 f6a3 5e3e 05fa 0b3e ac4e 3d3d
00000030: f379 893e 345f fe3d 0415 383c b2d0 613e
00000040: 1784 f73d bd5e 323d eac9 523e 2f30 963d
00000050: f624 063e 9096 983e 4143 a23d e3ac 183d
00000060: e6c4 c93e b72e e33d 1eb2 573d af78 bda0
00000070: f108 0980 8e47 92a7 5e3d 0000 8559 0780
00000080: 1f22 0780 e6b7 c692 001e 0480 385d 3928
00000090: 8101 263e cc2a 8cbc 2fe0 ac3d 950f 1f3e
000000a0: 5776 01bc 690f e93d fdc2 033e 3af5 c6bd
000000b0: f1c5 363d cc58 3b8f cc5a 98a9 487c 6426
000000c0: a28a 3400 061b 0800 c6d8 93a3 14fd d8a7
000000d0: b5e3 0680 aa50 6f28 99f2 0000 b332 0980
000000e0: 8061 da24 057c 0500 2b88 0480 e0af 9ca9
000000f0: 7574 0500 fedc 0580 7b05 0380 8842 533e
00000100: 13ff 863d 963a 463d 4d61 9a3e 4765 c93d
00000110: ddb1 30bd ff5f 6a3e 4275 2b3e 6d35 253d
00000120: a43e 0300 20c5 0300 6d67 eca8 ff39 3e23
00000130: 8987 9296 4a59 1b8e b01d 588f bec4 0000
00000140: 249b 0000 ba10 a93d 6f52 b93d 43f7 0b3e
00000150: 78e8 373e 96b9 133e b0e4 ca3d e45d 9f3d
00000160: 6edd 073e e055 c33d f477 ea3d d98b 6b3d
00000170: 9f99 503d d457 623e 5814 da3d bd5c 1a3e
00000180: a0d1 183e 4b2a 243e b2e8 00bd 4375 0180
00000190: f156 0500 9d93 0a28 c80f 0500 b04c 0800
000001a0: 32c1 0000 a151 0480 3be1 0180 8952 0680
000001b0: a389 033e 7eb2 a23d bfe8 e53d adb1 2f3e
000001c0: 7ea8 393e cdf3 083e d16d cd3d ad43 b53d
000001d0: 84c9 953d 4710 0500 d74d 0580 0c4a 0300
000001e0: f943 5819 e90e 759d a22f 2b8e 7704 0780
000001f0: a0c3 0080 46ac 0500 8236 d225 2c8d c728
00000200: b552 0480 bf3b 0980 4ce4 2e1d fc81 6301
00000210: 23ec 8a8f 0217 0580 8b82 0700 7b1a dd3d
00000220: 73e3 2e3d 6ca3 873d 29f5 383e b4aa 383e
00000230: b470 073e 65d0 043e 15a5 f23d f2d0 b83d
00000240: 404a 0780 61a0 1b12 e8f5 0580 2c89 e30b
00000250: cf5d fa04 acca 5d19 1036 0780 cc84 1800
00000260: 3c8b 0380 1a78 053e 5ce9 e43d 36d0 913d
00000270: 71b1 0c3e ec02 273e de6b 423e fc86 eb3d
00000280: b466 133e 9a4a 263e 2119 2f3d d126 a93d
00000290: aa23 293e 04bd 343e 0e5c 3f3e eebf 073e
000002a0: 6960 133e 64f3 463e 3d1c 993d 5f86 0300
000002b0: 6019 0700 bd28 0380 2faa 0280 d44b 0080
000002c0: 6061 4f28 8467 0600 2fd7 ee1d 290d 0680
000002d0: 6731 d83d c2ae 173e 8d1b 823d 6042 103e
000002e0: 0524 033e 2182 543d 5522 e93d e4b5 e53c
000002f0: 304b 88bb 2e13 0780 0804 0700 5705 0780
00000300: f9ed 8e22 e01c 0780 7027 0200 e5ef b1a6
00000310: 7bbc 0380 ee53 1729 a595 0680 ee45 0500
00000320: 33b5 bf20 6063 c8a5 46be 2e27 1f45 0480
00000330: 9708 4d16 1348 0800 e38a 6703 d194 0e3d
00000340: a510 1f3d 78f3 d23d 9f8e b03d fb05 323e
00000350: d5f1 343e 4df4 d23d 8ee6 5d3e 712f 1b3e
00000360: 4795 258d ed91 c1a3 dc42 0900 b524 0600
00000370: f5fc 0100 38e8 a0a6 ed82 0280 7f03 4927
00000380: a433 9f99 9b86 b13d cf2e 053d 44e8 213e
00000390: 4a12 5f3c 01ab 693e afe1 c03d a9db efbb
000003a0: e769 343e 5ed6 0a3e 94e4 9b3d 7c72 7d3e
000003b0: 5d99 133e f2d7 f23d 4db4 8e3e 11a0 2e3e
000003c0: 9dcd c93c 93e2 493e 8e65 a73d 8e91 0100
000003d0: 9d6e 9204 495d 0300 9ba7 d525 8c66 d9a8
000003e0: 255f 0880 641a 8d89 ab7e 510c 08e5 0180
000003f0: ee27 673d 34c9 3c3e 3a6b 103e 4d3e 183e
-6.2293828e-30 -8.802078e-15 4.90561e-40 2.3524105e-22 3.2555757e-33 -5.36573e-40 -7.21718e-40 -7.5681944e-16
2.740006e-35 0.21742234 0.13669594 0.046217605 0.26850852 0.12420502 0.011235479 0.22052267
0.12085741 0.04354738 0.20584837 0.07333409 0.13100037 0.2980237 0.07922984 0.037274253
0.39408034 0.110928945 0.0526601 -3.2097707e-19 -8.29727e-40 -4.060072e-15 2.2014e-41 -6.74962e-40
-6.55089e-40 -1.2540891e-27 -3.78104e-40 1.02897766e-14 0.16211511 -0.01711025 0.08441197 0.15533288
-0.00790175 0.113798924 0.12867351 -0.09714742 0.044622365 -9.2369135e-30 -6.765907e-14 7.9271823e-16
4.825178e-39 7.44378e-40 -1.6029579e-17 -6.022643e-15 -6.32699e-40 1.3284656e-14 8.7028e-41 -8.44707e-40
9.47076e-17 5.03667e-40 -4.1619e-40 -6.958301e-14 5.00954e-40 -5.38455e-40 -2.77473e-40 0.20630848
0.0659162 0.048395716 0.3015236 0.0983377 -0.043138374 0.22888182 0.16743949 0.040334154
2.97978e-40 3.46222e-40 -2.6246117e-14 1.0312202e-17 -2.3673107e-25 -1.9148216e-30 -1.065534e-29 7.0578e-41
5.5654e-41 0.082551435 0.09048926 0.13668542 0.17959774 0.14426264 0.099069 0.0778158
0.13268062 0.09537864 0.114486605 0.057506416 0.050927754 0.22103816 0.106484115 0.1507444
0.14923716 0.16031758 -0.031471916 -1.33901e-40 4.90366e-40 7.692547e-15 4.64839e-40 7.62194e-40
6.9305e-41 -3.96625e-40 -1.72633e-40 -5.80621e-40 0.12845473 0.07944201 0.112260334 0.17157622
0.18130681 0.13374253 0.100307114 0.08850799 0.07313827 4.65017e-40 -4.87101e-40 3.0207e-40
1.1180665e-23 -3.2433188e-21 -2.1100312e-30 -6.4445e-40 -7.0177e-41 5.20978e-40 3.646613e-16 2.2154662e-14
-3.97012e-40 -8.47952e-40 2.3146735e-21 4.1786574e-38 -1.3698807e-29 -4.67431e-40 6.89678e-40 0.107960664
0.04269738 0.06622967 0.18062271 0.18033868 0.13226587 0.12970121 0.11847893 0.09024228
-6.69484e-40 4.910706e-28 -5.47392e-40 8.764361e-32 5.8860867e-36 1.14663615e-23 -6.62242e-40 2.25169e-39
-3.25454e-40 0.13034096 0.11177322 0.07119791 0.13739564 0.16309708 0.1898646 0.115003556
0.14394647 0.16239396 0.042748574 0.08259357 0.16517511 0.17650229 0.1868746 0.13256809
0.14392246 0.19428784 0.07476089 3.2371e-40 6.51951e-40 -2.9012e-40 -2.44721e-40 -2.7202e-41
1.1511923e-14 5.88147e-40 6.322057e-21 -5.55734e-40 0.10556298 0.14812759 0.06352911 0.1408782
0.12806709 0.051881913 0.113835014 0.028040834 -0.0041593537 -6.49729e-40 6.44295e-40 -6.44764e-40
3.874114e-18 -6.53207e-40 1.97819e-40 -1.2346866e-15 -3.4312e-40 3.3601533e-14 -6.04695e-40 4.84264e-40
3.2476566e-19 -3.4761809e-16 2.4250498e-15 -3.92138e-40 1.6562479e-25 7.6054e-40 6.8044233e-37 0.03480989
0.038834233 0.10300344 0.08620953 0.17385094 0.17670377 0.10300503 0.21669981 0.15154816
-5.1024237e-31 -2.0986904e-17 8.50504e-40 5.64181e-40 1.8258e-40 -1.1165173e-15 -2.30638e-40 2.7896249e-15
-1.6461072e-23 0.08668252 0.032515343 0.15811259 0.0136152 0.22819139 0.09418046 -0.0073198867
0.17618524 0.13558337 0.07611957 0.24750704 0.14413972 0.118575945 0.27871934 0.17053248
0.024634177 0.19715337 0.08173667 1.4405e-40 3.4426017e-36 3.08971e-40 3.7063184e-16 -2.4136312e-14
-7.68815e-40 -3.3969333e-33 1.6138892e-31 -1.73996e-40 0.056434564 0.18436128 0.14103404 0.14867516

encoder_conv.2.bias f4 [16]
00000000: f8a1 be3c 2e22 1ebd 2e7e 6b3d 75f1 643d
00000010: a454 2fbd 8e99 0dbd 53bc 2fbd e3fc 323c
00000020: 726e 823c e090 f039 ced3 07be 5635 34bb
00000030: dde5 6ebb cff7 21bc 8cd2 903e 666c 92bc
0.023270592 -0.038606815 0.05749338 0.055894334 -0.04280533 -0.03457027 -0.04290421 0.010924551
0.015921805 0.00045884307 -0.13264391 -0.002749761 -0.0036452927 -0.009885742 0.28285635 -0.017873954

encoder_conv.4.weight f4 [32, 16, 3, 3]
00000000: 6dd8 a13d e840 2a3d 8f94 403d 1c40 813d
00000010: 23ec 863c 6133 0d3d 1c70 553d 11f8 f83b
00000020: 67be 00bd 0793 8b3d fab5 be3d ddf4 893d
00000030: 7f7a 8a3d f89a e03d 003f f63c 9dca 853d
00000040: 8cdd 8c3d 56b8 26bd 92f0 443d 45c3 943d
00000050: 4819 883d 05cf 95bc af4d 733d 938a 00bd
00000060: 15b6 e83b d78f a13c 2f91 e1ba 461d 1f3d
00000070: f078 2f3c 4256 783d 18ff 0a3d 4330 b63d
00000080: 51f0 613d 263a ce3b ab58 2a3d ef28 df39
00000090: ce44 6e3d c53b d13d 724b f43c fc67 523d
000000a0: eb1c b53d 7a77 ae3d f994 893c 0ef5 c43c
000000b0: e1d4 fe3c 89a7 493d 5bfd ef3d c6ca 113d
000000c0: 9f56 b13d a665 bf3d 2e81 183a ef26 483d
000000d0: 8fbe 483d 408f 853c 1588 bc3d 98fc dd3d
000000e0: 99f0 0f3d 317e 953d 82f5 d03d 721b 673c
000000f0: 475a 143d 6506 f73c 408d de3c 9af6 773d
00000100: 441f bf3d e6ee 1d3d 59b3 2b3d 4ac9 9e3d
00000110: e381 993b 4b0c 8d3c 0add 123c b397 ae3b
00000120: df72 4f3d b185 1b3d ab0c 993c 4874 943d
00000130: 1127 e43d 5275 1a3d 479e 293d 7079 85bc
00000140: 8011 28bc cb49 623d 35a7 823d 5905 9b3c
00000150: 6310 343d 7834 b63d 2696 123d c6e7 8e3d
00000160: bc0b 32bc b31f 80bb 48eb 1b3d ad3a 9f3d
00000170: 17a2 093d 4c9e 033d 1be4 db3d d00b 703d
00000180: dede 203d 7453 1c3d a43a b03c eba6 033c
00000190: abbb a13d 13c1 503d 563a 643d 8d14 b53d
000001a0: 6058 fb3c 48d6 7f3d 4707 813d 997b d1bc
000001b0: c634 b13c 41d2 873d 06ed d13c 2a11 893d
000001c0: 984e 773d e03c b03d 0b54 983b 8757 313d
000001d0: 7d1d 43bd 6e8c 953d 48f9 8d3d 672f 3c3d
000001e0: fb0e ba3c 1fdc bf3d 1aef 4b3d f322 31bc
000001f0: fd24 2f3d ac48 46bc 69e7 9ebd 57f2 b9bd
00000200: f80a a5bd c79e c4bd dd3c bdbd 2b65 acbd
00000210: ab11 8dbd 589c 11be 7b1d 04be 523f fa3c
00000220: 4f1c 983d 1946 3a3d cdc0 5a3d 77b3 923d
00000230: efc8 7a3d 8056 ab3c 37d7 d53c ea3b 023d
00000240: c87a 9d3d 429b 01bd 1715 bc3c 42c3 863d
00000250: 59f5 2f3d f620 aa3c a0fb 893d 8897 10bd
00000260: 8d01 bc3c 3334 083d 4d4b 383d 9b13 8d3d
00000270: 52c1 193d b760 b03d 58b6 6b3d f0b1 5c3d
00000280: 9db7 203d bd8d 593d f3af 82bc 5bb7 f73c
00000290: e205 663d 4c67 883c 4f6e 143d cfa6 283d
000002a0: 44d8 07bd 4a27 513c d4dd 2c3c ed88 d6bb
000002b0: d01f 623d 6a83 5e3c 8f6e 32bd b460 833d
000002c0: cd85 973d 6e7f 21bd 9da2 14bd b805 543d
000002d0: f4b3 5f3d d6f5 7b3d 2483 cd3d cd65 0d3d
000002e0: cc11 b63d 2e9e dd3d d6e0 f23c 077b 3d3d
000002f0: 3612 ad3d 72b9 cc3c 1d81 5c3d f4e7 893d
00000300: 6be2 6a3d e235 a13d 02d6 a43d e2f4 debb
00000310: a05b b83c 78d1 903d 4e37 443d 0626 b23d
00000320: f5c5 7b3d 39e6 943c a290 ce3d 38c2 bd3d
00000330: 2c30 00bc 050c 403d 3704 a23d 0ec3 3a3c
00000340: 6e62 1c3d 3911 4d3d 2eed 453d 1d8f 833d
00000350: c6f7 b43d e6be ecbc ba37 06bd 3daf 253d
00000360: 1bd6 4c3d 05ae b83a 703e 4f3d be01 993d
00000370: 31b0 923c fa99 813d bb2d 2d3d 082b 00bd
00000380: bb8e 1f3d 8ba7 053d 722a 233d e034 a63d
00000390: dbcb 333d 77d0 573d 51d5 843d 7340 023d
000003a0: 26e7 b1bc 0eb2 aa3b 29d9 6abc 8f72 c83c
000003b0: b82a 4d3d 14fc 33bd 1e7a aa3d e00a b43d
000003c0: 503f e13a 3693 143d 3dab 8b3d 32c8 3aba
000003d0: 8edc a33c 04f5 643d 77e9 203d f8f5 7d3d
000003e0: 8188 813d 88f8 0b3d 77b2 163d 2517 5b3d
000003f0: d211 773c 3a3a a33c 95b3 643d f00d 513d
0.07902608 0.041565806 0.047016677 0.06311056 0.01647002 0.034472827 0.05210887 0.007597931
-0.03143158 0.068151526 0.09312053 0.06736157 0.067616455 0.10967058 0.030059338 0.06532786
0.06878194 -0.04070314 0.04808099 0.07263807 0.06645447 -0.018287191 0.059400257 -0.031382155
0.007101784 0.019721908 -0.0017209406 0.038846277 0.010709986 0.060629137 0.033934683 0.08895924
0.055160824 0.006293553 0.041588467 0.00042564372 0.058171086 0.10216478 0.029821131 0.0513687
0.08843406 0.08518882 0.016794669 0.024042632 0.031107368 0.04923204 0.117182456 0.03559377
0.086591 0.0934556 0.0005817589 0.048865255 0.049009856 0.016303658 0.09205643 0.10839194
0.03514156 0.0729946 0.10203077 0.014105665 0.036218908 0.030154416 0.027166963 0.060537912
0.09332135 0.03855791 0.041919086 0.077532366 0.004684673 0.017217776 0.008963833 0.0053281425
0.05064666 0.037969295 0.018682798 0.072487414 0.11140264 0.03770954 0.04141071 -0.016293257
-0.010258079 0.055246156 0.063795485 0.018923448 0.04396094 0.08896726 0.035787724 0.06977801
-0.0108670555 -0.003910029 0.03806618 0.077748634 0.033601847 0.032133386 0.10736867 0.058605015
0.039275043 0.038165525 0.021512337 0.008035402 0.07897123 0.05096538 0.055719696 0.088418104
0.030681789 0.062460214 0.06300216 -0.025571631 0.02163161 0.066318996 0.025625717 0.06692727
0.060377687 0.08605361 0.0046486906 0.043296363 -0.047635544 0.073021755 0.06932312 0.045943644
0.022712221 0.09368157 0.049788572 -0.010811555 0.042759884 -0.012102287 -0.07758982 -0.09079426
-0.08058733 -0.09600597 -0.092401244 -0.08417734 -0.068881355 -0.14219797 -0.12901871 0.030547772
0.074272744 0.045477007 0.053406525 0.071631365 0.06122678 0.02091527 0.026103599 0.03179542
0.07689434 -0.031642206 0.022959275 0.06580211 0.04295859 0.02076767 0.06737447 -0.03530076
0.022949958 0.033252906 0.044993687 0.06888505 0.03753788 0.08612197 0.057546943 0.053880632
0.039237607 0.053113688 -0.01595304 0.030238798 0.056157954 0.016650818 0.03623801 0.041174706
-0.03316523 0.012765715 0.010550935 -0.0065470845 0.05520612 0.013581136 -0.04356247 0.06414929
0.07398567 -0.039428167 -0.036287893 0.051763266 0.054614976 0.061513744 0.10034779 0.034520913
0.08890113 0.10821186 0.029648226 0.046259906 0.08450739 0.024990771 0.05383407 0.06733695
0.057344835 0.078716055 0.08048631 -0.0068040946 0.022504628 0.07071203 0.047904305 0.08698659
0.061468083 0.018176185 0.1008618 0.0926556 -0.007823985 0.046886463 0.0791096 0.011399044
0.038179807 0.050065253 0.048321895 0.06423781 0.088363215 -0.028899621 -0.03276799 0.040450323
0.050008874 0.0014089948 0.050596654 0.074710354 0.01790628 0.06328197 0.04227994 -0.031291038
0.038954478 0.032630485 0.0398354 0.08115554 0.043895584 0.052689042 0.064859994 0.031799745
-0.021716665 0.005209214 -0.014334002 0.024468688 0.050089568 -0.043941572 0.08324073 0.08791137
0.0017185006 0.036273204 0.068197705 -0.00071251683 0.02000263 0.055897728 0.03928515 0.062002152
0.06324864 0.034172565 0.03679129 0.05348887 0.015079932 0.019925226 0.055835325 0.051038682

encoder_conv.4.bias f4 [32]
00000000: 5f78 c13c c7cd b4bc c6a5 12bd 71bf e43d
00000010: 0c7c 82bc 9fa8 d53d 5394 17bc 8d8e ccbc
00000020: 4681 39bb ce2e 103e 77ea adba e636 60bc
00000030: 1dcf 59bc 94e9 b63d c9e2 ecbb cc4c 093d
00000040: 15c0 173d 037c 23bd 3a99 c7bb 10b7 aebc
00000050: a7da 3c3b 27a9 2dbd 30a3 93bc 364b 28bd
00000060: cd46 cbbc b319 0f3e d7e5 ff3d 3b81 c7bc
00000070: d751 73bd a9d7 4fbb f5b1 fe3d 7514 3c3d
0.023616968 -0.022070779 -0.035802625 0.11169327 -0.01592829 0.104325525 -0.009251672 -0.024970317
-0.0028305813 0.14080355 -0.0013268729 -0.013684964 -0.013294009 0.0893127 -0.0072291833 0.033520505
0.037048418 -0.03991319 -0.006091264 -0.021327525 0.002881685 -0.042397644 -0.01802215 -0.04108735
-0.024814034 0.13974647 0.1249501 -0.024353614 -0.05940422 -0.0031714237 0.12436286 0.045917947

encoder_lin.0.weight f4 [64, 288]
00000000: d927 5a3b 2289 093c f728 82bb 37bc d63c
00000010: b957 e63c 01a4 4c3b 23bf abbc 22f3 043d
00000020: 14bb 653c 8266 cbbb e614 fe3b 2f09 43bb
00000030: 8dce 123d bbc2 9c3c 1692 25bc 3f84 81bc
00000040: 7ab8 093d cb3d 6fbc 49d2 293c 43e1 ed3a
00000050: 1213 02bb b912 fa3c 9e55 a13c acee 62bc
00000060: 46f7 643c 52de 183d ff7a 71bc deef 803b
00000070: b0ef 7a3c 617e 2c3c 0f5d d23c ff27 d63c
00000080: f0b3 a4bc 7f3e 033d a88d 553d d1e8 58bb
00000090: 1e70 52bb 226f a43c 2452 ffba 9213 d73c
000000a0: f4ba 893c aec1 61bc 0446 32bb df30 2b3d
000000b0: f43c 7fbc cf25 c8bc 670e b43b 575a 86bc
000000c0: 0ee5 2d3d 773c 1d3d b129 8b3c c5ea 7d3d
000000d0: af86 853d 4202 f73c b8a3 c9bb b29c a93b
000000e0: f9b2 a3bb 8058 313d 3fd4 8a3c 4b27 aebc
000000f0: 6fee 0b3b 9b0d 203d 8e63 bbbc fca9 8b3b
00000100: b081 0f3d cc10 8ebb 93e4 75bb 1efd 8d3c
00000110: f890 f2bc 056e 8c3c 92ae c63c 917e 663c
00000120: 9657 cabb 8fd1 ce3c 4259 15bc 25ee 3a3c
00000130: 5043 803c d02d 9fba 9f80 cfbb 77b5 1c3d
00000140: 887f 00bb d165 55bb 08bd 013d 87c3 6c3c
00000150: 85ee 4d3c aa84 c23c 676b 083b 6672 cb3c
00000160: 4bb1 4c3d 405f 8839 b197 4ebb c7ca 723c
00000170: ec62 473c 9676 f23c 7b33 b93c 5d15 d6bc
00000180: 73fa 183c 4954 333d 7e30 05bd 8fdb 04bc
00000190: bcb7 f33c 301c dfbb 6651 cb3c 6bac 9f3c
000001a0: 460b 46bc a666 a23b e281 4f3d 0e94 aebc
000001b0: 8156 353a eb61 9d3c 448c 05bc 0b83 63bc
000001c0: 93f5 c93c 97d9 47bb 7262 12bd 3f95 f13c
000001d0: 33db 573c 80a9 9239 e0e6 873c 50bf 8cbb
000001e0: aa2e 373d c38b be3c c1e4 c0bc d6b8 2d3c
000001f0: 28df 493d 5086 febc bb2e 523d 4426 2ebc
00000200: 1684 53bc 2c43 57bd abb3 4a3d d53a 04bc
00000210: 6db9 11bd 4f8c fe3c 1a2f 223c c04d 103c
00000220: 47d3 44bc 7ac9 fa3a f0c7 6d3d 9842 223d
00000230: 610c ceba 7e0b 53bc c4db b63c ed96 503c
00000240: fafa 6d3c ce97 aabb f2f1 39bc ec7c 513d
00000250: f4eb f53c 8914 81bc 2df1 0dbc 6624 063d
00000260: 66ad a73b 20f8 c3bb e692 3b3c 464c ffb9
00000270: 32da ef3c e68b c83c e73b f2bb 1610 9aba
00000280: 882c 103d 5c63 a5bb 0816 97bb d049 963b
00000290: 2b4f f33a d824 143d e23d d13c d6a8 c9bb
000002a0: fbda 80bc ca55 053d 0f53 05bc 2a03 f63d
000002b0: 3cc5 043d f4fa 72bc 9682 ffbc 6bd0 4e3d
000002c0: be80 ce3b bb2f 22bd 2070 ec3c 6e8d e83c
000002d0: 7300 cfbb e050 b83c 606b 3ebb 53ae d43c
000002e0: c616 a03c feaa c9bb 2d88 07bc 7a35 143d
000002f0: b160 303b f231 c33b 3090 8fbc d231 1a3a
00000300: 050d b33d c4f2 423d 270f 17bd b4a4 abba
00000310: 9aaa 043d f196 d9bb a1e2 ddba 09b1 443c
00000320: 2630 6bbb c858 133d f3bb 793c 1c5d f5bc
00000330: 69c6 0c38 eb31 533d fba8 06bd 9943 26bc
00000340: cfa4 bb3c c2bf dcba 70e9 e03b ca0e 8f3c
00000350: 65d6 f43b 67bc 96bc 8bdf f93c 4ef4 8b3c
00000360: 3c71 ce3b 8776 043c cfc6 76bb 2274 323d
00000370: b2f3 1f3d bb1c 47bb b40c abbc 3d0c eb3c
00000380: 443b 553c 842d e33b 91e6 943c b126 88bb
00000390: bcac 173d 505e fe3c 4cc5 dfbc b9f5 7e3c
000003a0: 24e1 333d 4e7f 6bbc ccb3 45bb 464d d73c
000003b0: ed90 123b e7af 093d 18d1 ff3c d407 cebc
000003c0: 1805 fb3b f29e 573d 6b70 cfbc b9c9 28bb
000003d0: 3c68 b33c 3aef 51bb 935a 933c 705b c33c
000003e0: 481d 0ebc 1f55 ddbb ea2f 283d f896 523a
000003f0: ab5e 14bc c70c 713c 78b7 c6bb 0dec ab3c
0.0033287911 0.008394511 -0.0039721685 0.026212795 0.028118001 0.0031225684 -0.020965165 0.032458432
0.014021654 -0.0062072882 0.007753956 -0.0029760113 0.035841513 0.019135823 -0.01010563 -0.01581013
0.033623196 -0.014602135 0.010365077 0.0018148798 -0.0019847793 0.030526506 0.019694146 -0.013850849
0.01397497 0.037321396 -0.014738797 0.0039348444 0.015315935 0.010528178 0.02567914 0.026142118
-0.020105332 0.032042023 0.052137047 -0.0033097754 -0.0032110284 0.020072524 -0.0019479436 0.026254449
0.016812779 -0.013779087 -0.0027202377 0.041794654 -0.015578497 -0.024432091 0.005494881 -0.0164005
0.04245477 0.038387742 0.016987653 0.06199147 0.065198295 0.030152444 -0.00615355 0.0051761502
-0.0049957004 0.04329729 0.01694691 -0.02125897 0.0021351834 0.039075475 -0.02287462 0.004262207
0.03503579 -0.0043354984 -0.0037520274 0.01733261 -0.029610142 0.017142305 0.024253163 0.014068262
-0.006174992 0.02524641 -0.009115519 0.011409317 0.015657097 -0.001214439 -0.0063324715 0.038258996
-0.0019607265 -0.0032561908 0.031674415 0.014450914 0.0125690745 0.0237449 0.002081597 0.024834823
0.049973767 0.00026010908 -0.003152352 0.014818854 0.012169581 0.029597562 0.022607556 -0.026133234
0.0093370555 0.043781552 -0.03251695 -0.0081089875 0.029750697 -0.00680878 0.024819087 0.019491395
-0.012087649 0.0049560843 0.050660975 -0.021310832 0.0006917492 0.01921173 -0.008151118 -0.013886224
0.024653232 -0.0030494684 -0.035738416 0.029490111 0.01317482 0.00027973577 0.016589582 -0.004295267
0.044722237 0.023260003 -0.023546578 0.01060315 0.049285084 -0.031069905 0.051314097 -0.01062924
-0.01290991 -0.052554294 0.04948775 -0.008070667 -0.035577226 0.031072764 0.009898925 0.0088076
-0.012013263 0.0019133531 0.058052003 0.03961429 -0.0015720242 -0.012881158 0.02232159 0.012731296
0.0145251695 -0.005206085 -0.011349188 0.051144525 0.030019738 -0.015756862 -0.008663458 0.032749556
0.0051171063 -0.0059805065 0.011448598 -0.00048694218 0.029278848 0.024480771 -0.007392395 -0.0011754062
0.03519872 -0.005047245 -0.0046107806 0.004586436 0.0018563023 0.03616795 0.025542203 -0.00615416
-0.015729418 0.032552518 -0.0081374785 0.12012322 0.03241466 -0.01483034 -0.031190198 0.05049173
0.0063019684 -0.0395963 0.02886206 0.028387751 -0.006317192 0.022499502 -0.00290557 0.02596203
0.01954211 -0.006154417 -0.008272213 0.03618381 0.0026913101 0.0059568817 -0.017524809 0.00058820576
0.08742718 0.0475948 -0.036879685 -0.001309535 0.03238926 -0.006640308 -0.0016928503 0.012005099
-0.0035886853 0.03597334 0.0152425645 -0.029951625 3.3563385e-05 0.051561277 -0.032875996 -0.0101479525
0.022905735 -0.0016841816 0.0068637654 0.017463107 0.007471847 -0.018400384 0.030502101 0.017084267
0.0063001197 0.0080849 -0.003765512 0.043567784 0.039050765 -0.0030382115 -0.02088008 0.02869236
0.013014618 0.006932916 0.018176349 -0.004155003 0.037029967 0.031050831 -0.027315758 0.0155615145
0.043915883 -0.0143736135 -0.0030166982 0.026281964 0.0022364215 0.03361502 0.031227633 -0.025150217
0.0076605193 0.052641816 -0.02532216 -0.0025755002 0.021900289 -0.003203346 0.017987525 0.023847312
-0.008673973 -0.006754532 0.04106132 0.00080333604 -0.009055774 0.014712519 -0.0060643516 0.020986581

encoder_lin.0.bias f4 [64]
00000000: 4ab2 1e3d 90f8 803d 0e50 a8bd ce96 0000
00000010: 35ba 18a1 a719 e0bc 55f7 2438 ad16 e4bb
00000020: 861a cf3b c734 3ab9 42cd 4a3d 1a4b 0ebd
00000030: 04ef 9e3b 43f3 edb9 b974 c02d 8d8f ee3b
00000040: 2140 c5bc 0f38 0abd 40e0 9a3d c17a 9927
00000050: dd2a d3bc df8e 5a3d f2d6 0828 5280 82bc
00000060: 2980 7ebd 3a57 39bc 3761 b73d 4faf 0300
00000070: 393a 1798 7608 613c 36f3 69bd eae9 943d
00000080: 7c31 ae3c 8ee1 cfbd b0c9 403d fc35 d0bc
00000090: b6e6 57bc 9b90 363c d071 e0bb 4e53 743d
000000a0: d47f 44bc d4cd 613d d086 c1bc 3423 203d
000000b0: 4246 84bc 9275 1eb3 d503 8fbc d9d4 5f3d
000000c0: 3c2d 0700 050b 963b 1a3c 27bc e7a0 b33d
000000d0: 0528 07bc b024 3ebd 491d 5a3d 0a02 1b2d
000000e0: a182 09bc acbb 1bae 69c0 de3c f313 48bc
000000f0: 8e3b 6bbc d89b 12bc 5bf3 9ebb f0ea bfbc
0.03874425 0.062974095 -0.08218394 5.4099e-41 -5.1746046e-19 -0.027355982 3.9330993e-05 -0.006960711
0.0063203005 -0.00017758003 0.049512155 -0.03473959 0.00485027 -0.00045385407 2.1879708e-11 0.007280296
-0.02407843 -0.033744868 0.075623035 4.259912e-15 -0.025777275 0.05335891 7.596125e-15 -0.015930329
-0.06213394 -0.0113123 0.08954089 3.38395e-40 -1.9545688e-24 0.013734927 -0.05711671 0.07271178
0.02126383 -0.10150443 0.047067344 -0.025416367 -0.013177564 0.011142875 -0.006849505 0.059649758
-0.011993367 0.055127934 -0.023623854 0.039096072 -0.016146783 -3.689417e-08 -0.017457882 0.054646347
6.59076e-40 0.0045789503 -0.0102072 0.08770924 -0.0082492875 -0.046421707 0.053250585 8.811183e-12
-0.008392961 -3.5409606e-11 0.027191358 -0.0122117875 -0.014357461 -0.008948289 -0.0048507876 -0.023427457

encoder_lin.2.weight f4 [2, 64]
00000000: 01d3 583d 0c16 ea3d 2807 e83c 5f17 b8a5
00000010: 5b92 e4ba c1f5 2f3d 6a0f 9bbb 470d ed3b
00000020: 3d10 513d 8a58 3ebb 0e5b 12be d669 d03d
00000030: fd35 fdbd f4c2 233d 2cdb cf39 0ff9 8abd
00000040: 8b52 0f3e c470 e8bd b2d8 2ebe baec 093a
00000050: 9ba3 8a3d a059 bfbd b87a ab3a a15e ff3d
00000060: c5da 643b 257c 1e3e cba1 23be f0ed ffa2
00000070: 534e 453a 08a7 cb3e bf57 463e 6524 91bd
00000080: 9120 77bd cecd f03d 4aa3 18be 9081 093e
00000090: d9e8 1a3e 58ab 80bd 21ad f73d d56a 27be
000000a0: da6d 1b3e 4db1 a4bd 71b4 b63d a728 e7be
000000b0: e4f5 683c 347a d336 1468 14bc 11dc d7bd
000000c0: 6062 0880 5b1b 313e 472b 043e 35d7 19be
000000d0: 0235 c8bd 5949 a93d 79b9 ddbd 077e e538
000000e0: 7886 bdbc a8e4 d1ba a5dc e6bd adcf d9bd
000000f0: 11c4 c3bb e0cc 393e f4ad 40bd 4e61 1c3c
00000100: d400 c33d 3784 263e 9a5e 43be 2f07 0580
00000110: dbe6 5b3b 2a08 c4bd 3fb7 2d3c 8911 dfbd
00000120: 375c 1abe f859 c83b 2e06 1d3c 1b3a dfbd
00000130: 4b8b a73e d3a8 00be 34e6 e137 90a3 ddbd
00000140: c9cd 4d3c ee0f b43e 6124 493d 988b 2db9
00000150: cd6e 1cbe 5679 ca3c 77c2 683a d1e5 49bd
00000160: 26e1 1cbe 936e 0f3d 684d d23d 1dd9 260c
00000170: a931 423b 849d 9a3e 39df 0a3e 6584 c33d
00000180: 458d c93c f9d0 ae3e 462c 9c3c fbba bf3b
00000190: 5fd8 5fbd fdad 2dbd d0bb 1ebe 65fe b63c
000001a0: 1965 4fbe 8f26 5b3d a104 f6bd 1672 a8bd
000001b0: a9c1 7abd bfe3 1838 781c f5bd c75c a93c
000001c0: 0608 9c26 0417 88bc 22bd 27be 88ea eb3d
000001d0: ef21 3bbd 5508 04be f651 193d 13f2 8db5
000001e0: 5015 c1bd 97ea 0bbb bb3f a53e 6674 773e
000001f0: 7a99 9bbd 68b1 f9bc 2098 82bd fcdf 70bd
0.052935604 0.11429986 0.028323725 -3.193475e-16 -0.0017438637 0.04295898 -0.004732062 0.007234249
0.051040877 -0.0029044473 -0.14292547 0.101764366 -0.12363813 0.039980844 0.00039645412 -0.067857854
0.13996331 -0.11349633 -0.1707485 0.000526141 0.067694865 -0.093432665 0.0013082838 0.12469221
0.0034920436 0.15477045 -0.15979688 -6.9369815e-18 0.0007526625 0.39775872 0.1936941 -0.0708702
-0.060333792 0.11758004 -0.1490604 0.1342833 0.15127887 -0.06282681 0.120935686 -0.16349347
0.15178624 -0.0804163 0.08921135 -0.45148203 0.014218781 6.3025163e-06 -0.009058017 -0.10540021
-7.69974e-40 0.17295592 0.12907134 -0.15023501 -0.097757354 0.08265943 -0.10826392 0.00010943045
-0.023135409 -0.001601358 -0.11272553 -0.10635314 -0.0059743007 0.1814456 -0.047040895 0.009544684
0.09521642 0.16261373 -0.19079056 -4.61754e-40 0.0033554349 -0.0957187 0.010602771 -0.108920164
-0.1507424 0.0061142407 0.009583993 -0.108997546 0.3272346 -0.12564401 2.6929287e-05 -0.10822213
0.01256127 0.35168403 0.04910696 -0.00016550568 -0.15276642 0.02471606 0.0008879075 -0.049291436
-0.15320262 0.03501756 0.1026867 1.285351e-31 0.002963165 0.301983 0.13561715 0.09546737
0.024603495 0.34143808 0.01906408 0.005851147 -0.054649707 -0.042402256 -0.15501332 0.022338102
-0.2025341 0.05350357 -0.12012602 -0.08224885 -0.061219845 3.645173e-05 -0.119683206 0.020674122
1.0826849e-15 -0.016612537 -0.16380742 0.11519343 -0.04568666 -0.12893803 0.03743168 -1.0575772e-06
-0.09427893 -0.0021349543 0.32275185 0.24165496 -0.07597633 -0.030480102 -0.06376672 -0.05880736

encoder_lin.2.bias f4 [2]
00000000: 4862 62bc d68d 803d
-0.013817377 0.06277053

decoder_lin.0.weight f4 [64, 2]
00000000: 3e07 0cbf 826d 283f 7232 c03d d421 c6be
00000010: 9c01 68be 52ba 343f ab6e 293c c1fd 88be
00000020: caab f9be 0295 e3be 75f8 28be 0627 033f
00000030: abb4 13bf 3c83 e3be ab46 a5be 06f0 163f
00000040: 10e2 98bc 8c2d babd 28c6 23bc dbec 103f
00000050: 8f45 e0be e3af 3f3e 9744 283d 2a55 05bf
00000060: 19bf 023e d339 5cbd 0681 ab3e 0c1f 5abe
00000070: fd8d 0a3f a304 e8bc 3b44 bd3e 8ed2 983e
00000080: 1a9f c1bd 2702 1cbf b241 6f3e 6789 0cbf
00000090: fc3e 19bf cd1e 3b3c 24ee dd3e 12e5 12bc
000000a0: 5c6c 0bbe 3ab8 a5be 8d35 123f 6d40 57be
000000b0: 5b9b 1d3f f766 7cbe 043f 89be a83d a7be
000000c0: b130 c53e ba42 31be 3099 d03e ac54 c4be
000000d0: 26df 323d fad7 82bd c33e 3b3f c40b 8d3e
000000e0: ea76 b73e 3c0a 2cbe e1a7 133d 3a38 00bf
000000f0: 9380 01be 4cd5 ca3e 4cfa b73e 5dbe 0a3f
00000100: 0ee6 c6bb ed4f 2e3b 6c85 febe 59d1 c9be
00000110: 5070 87be 0755 f8be 0042 03bf 9c93 fd3c
00000120: c1c4 69be 7cd8 1abf 0c11 f13e 67d1 c43e
00000130: 6eb6 1b3e 7def 53bd b1a6 e3be 1d86 a8be
00000140: 2f54 8a3e f7e1 2bbf 0819 01bf 556b 833e
00000150: 6c63 403f 2e6f 243e fe76 f13e a39d acbe
00000160: 4665 9cbe fcb2 9f3e 1901 193f 83ad f83e
00000170: a215 de3e 8bb7 98be 8b1c 363d b88d dabe
00000180: c605 11bf faab 2a3d 727e 323f 94e3 353d
00000190: 4736 e43e b8a3 20bf 3363 a0be e28a d3bd
000001a0: 64e8 9b3d 80eb d2bb b2a3 593e fd93 f43e
000001b0: bf9d f2be 440d 163f 9918 87be a0cb 1cbf
000001c0: f406 2dbd 376a 26bd 997e dcbe 4024 b1bd
000001d0: fcee 8abe b8e2 a4be 11d9 5dbe 5309 bbbe
000001e0: d2fb aebd c3d9 24bf e232 ee3e 998a 153f
000001f0: 11b7 bbbe b844 bfbd e9cf e3be c5fa 383e
-0.5469855 0.65792096 0.09384622 -0.38697684 -0.22656864 0.705968 0.010341327 -0.267561
-0.48763877 -0.4444962 -0.16501029 0.5123142 -0.5769755 -0.4443606 -0.32280478 0.58959997
-0.018662483 -0.090907186 -0.009995975 0.5661141 -0.4380307 0.18719439 0.041081037 -0.52083075
0.1276821 -0.053766083 0.33496875 -0.21300906 0.54122907 -0.028322523 0.36966118 0.2984814
-0.09454174 -0.60940784 0.23364905 -0.5489716 -0.5986173 0.011420918 0.4334575 -0.008965747
-0.13615555 -0.32367116 0.5711296 -0.2102067 0.6156518 -0.24648653 -0.2680589 -0.32664227
0.3851371 -0.1731061 0.40741873 -0.3834585 0.043669842 -0.063888505 0.7314264 0.2754804
0.35832912 -0.16800779 0.036048774 -0.50085795 -0.12646703 0.39615858 0.3593315 0.5419672
-0.006069905 0.0026597932 -0.49711168 -0.39417532 -0.26452875 -0.4850237 -0.51272583 0.030954175
-0.22828962 -0.6048658 0.47083318 0.3844101 0.1520631 -0.051742066 -0.44463113 -0.3291482
0.27017352 -0.6714167 -0.5042882 0.25667825 0.75151706 0.16058037 0.47161096 -0.33714017
-0.30546016 0.31191242 0.597673 0.4856988 0.4337588 -0.29827532 0.044460814 -0.42686248
-0.56649435 0.041667916 0.6972419 0.04440649 0.4457266 -0.62749815 -0.31325683 -0.10329224
0.07612684 -0.006436765 0.21253851 0.47769156 -0.47385976 0.5861399 -0.26385954 -0.6124821
-0.04224296 -0.040628638 -0.43065336 -0.08649492 -0.27135456 -0.32204223 -0.21664836 -0.3653055
-0.08544125 -0.6439478 0.46523196 0.5841461 -0.36663106 -0.09339279 -0.4449456 0.18064411

decoder_lin.0.bias f4 [64]
00000000: b215 103e 6347 97be 11c2 68bd 5a2f 193f
00000010: 1bd4 c03e 68ef 66be eb70 a43e 0d43 04bf
00000020: ee88 5cbf 1da1 473e 9431 8a3d c234 c33e
00000030: 0179 493f fee1 0ebe 8761 2c3e b8f4 a7bc
00000040: 50a2 b83d 5c45 713e 0d3a afbd 0eef 023d
00000050: e23c 33bf 7189 863e 7edf 433e 24d5 18bf
00000060: ac54 a0be 9fef b93e b809 363f 221f 6cbe
00000070: 1167 fd3e 9ee0 6e3e 04fb 07be dc9f 1e3e
00000080: 56f4 3a3f 4768 cf3e f415 ca3d 6ea0 2ebe
00000090: 2827 c9bc 57a9 24be 1ef4 bb3d 96fe dc3d
000000a0: 9e97 0f3f 0215 253c 9cf4 143e 5830 dd3e
000000b0: 3d79 d33e 05c8 a03d 4ebf 883e fa8e 3bbf
000000c0: 0dbd 893e 578a 08bd f16f f53e d3c0 3c3f
000000d0: 26b7 ab3e 3c9e cc3e 595c 323e e733 783d
000000e0: 7cca 523f cbe4 4d3d 2816 3b3e 9d74 e9be
000000f0: 29cd e7be 0f26 5bbe b17e 91be 33cf f2be
0.14070776 -0.2954665 -0.0568257 0.5983788 0.37661824 -0.22552264 0.321174 -0.5166481
-0.8614644 0.19495054 0.067477375 0.3812619 0.7870026 -0.13953397 0.16834079 -0.020502433
0.09015334 0.23561615 -0.08555994 0.03196626 -0.70014775 0.26276734 0.19128224 -0.59700227
-0.313146 0.3631563 0.7110858 -0.23058751 0.49492696 0.23327872 -0.13279349 0.15490669
0.7302908 0.40509245 0.098674685 -0.17053387 -0.024554804 -0.16080223 0.09177421 0.10790746
0.56090724 0.010075809 0.14546436 0.43200946 0.41303435 0.07850651 0.26708454 -0.7326504
0.26902047 -0.033335056 0.47936967 0.73731726 0.3353817 0.39964473 0.1741804 0.060596373
0.82340217 0.050267022 0.1827017 -0.4559678 -0.45273712 -0.21401237 -0.2841697 -0.47423705

decoder_lin.2.weight f4 [288, 64]
00000000: b8aa 45aa 8490 3ca3 ba9f 0000 bd11 c2a8
00000010: 8352 a82e b242 0700 6fd5 80ae 949d 0580
00000020: fa73 07a0 bc93 c42e 15e7 0480 8df5 cfb1
00000030: c81f ccae 9490 5faa b1f7 999a 2ae0 940e
00000040: 13f0 80b1 8143 89af 1539 9522 63f6 13ad
00000050: 5087 d59d d0e1 aba8 75c6 f7af 7e7b bb2d
00000060: d5ec d6a8 33fb 37b2 44e5 8aad 9a7a e1aa
00000070: 1423 a3ae 4de0 24af 395a 8894 de53 628e
00000080: 7b9c 162b a986 efac 56ac 52ac c22b 6e80
00000090: 8155 1fb0 c0ee e68d daf7 8cab 4bfd aaab
000000a0: de79 56b2 527c 0595 d17a a5af 2c61 97b2
000000b0: c973 0eaf fefa 8ea9 da71 daaf 87bf 43a6
000000c0: 3864 8888 ec47 0e94 e063 47b2 40a5 a4ad
000000d0: ac4e 2f8f 4e14 97ae 2549 41a3 1bdd 7eb1
000000e0: 7449 2a9f 2c60 2716 3b68 35a8 5cf7 dda4
000000f0: f293 a4b0 76fd 568e ad93 0500 0feb 0180
00000100: d6a2 d4bc 1edd 0bbc 879b 083d 4cd6 99bc
00000110: 4b40 aa3c e90b 5f3d f939 eb3c b366 903c
00000120: 92a5 6a3d f00a 553c 2825 0a3d cdd6 60bc
00000130: 991c 3abd 1ae0 06be 88df 0f3b 41f3 173b
00000140: b24c 43bb da97 d5bc 1602 a23d d2e5 a83a
00000150: d082 d33c 609f 17ba 3ea7 88b8 09c4 ee3c
00000160: 6c91 8a3b 291f 04be 62ee 8fbd d16d 7d3d
00000170: 84ed 8dbd cd3b 743c 0dbd 1e3d eccb 02bd
00000180: df9b a9bd 686f d13c 1e78 a03c 2f3d df3c
00000190: 5a00 083b fcf8 343c ce98 b3b9 4e74 dd3c
000001a0: 07cd 0bbd 7f32 103d 2739 da3c 47cd 46be
000001b0: 433b 9339 c362 193c 4ae2 36be ce93 7c3c
000001c0: ba22 1e3d 3af5 ba3b 280c 8abd 8736 6d3c
000001d0: ac1c 3f3b b76d aabc f9d8 d73c ced2 383c
000001e0: 3a3c 41bd 5205 2a3d b04e 24bc 9200 b93c
000001f0: 24cc 203c 184e 08bd 5c41 553d beda 643d
00000200: 3207 83bc bd6b d8bc 1b84 693c 3aa4 34bb
00000210: cd8e 76b6 2940 6c3c 1e55 4fb7 e913 dcb9
00000220: c426 0800 4754 323d d7bf 17bd fdcf 46bc
00000230: f988 dabb bf5e 4cbd 9b9b 50bc 24e4 a53d
00000240: 1edd f3b5 8071 58bd 7529 61bd 40b5 93bc
00000250: 43b7 a409 21d2 4cbd 86c8 5fbd 297e c993
00000260: e674 43bd 7ab8 77bd f061 86bb 8e0e 493d
00000270: 5680 27bd 8e17 34bc 7385 603c f559 c83d
00000280: ddc5 813c 87f5 a1b7 c235 a687 f34f 4bbd
00000290: 12ee 24aa b7a6 c23d 3bee 8abc 4cf0 36b4
000002a0: 2c4e 8fbd 3b54 18bd 69e7 c33c ed01 7fbd
000002b0: 8e13 b5bc a42b da3d c15b 5ebd 348c a9bb
000002c0: 401e 66bd 4241 fabb 2494 85bd 351f cdbc
000002d0: 0d2a 1e3a f37e b23d 2147 79bc 5936 4aac
000002e0: 8685 333c a5f3 23bd 1257 382b 4102 c204
000002f0: 4e6a 9bb6 8768 e23d 2850 f1bc a2e9 20bd
00000300: b09c e33c 992d f23d 1996 acbc 0132 22bc
00000310: 336d 45bd dc13 37bc e1bf 25bd b831 503d
00000320: 2afb 383d 3488 1ebc a270 963c 7b02 debc
00000330: f5ba 473c a3a2 273d 1312 75bd 7e73 343c
00000340: 93b8 62bd 0ebe 5a3d 3bd0 65bd edac e53d
00000350: 143c af3c 4a42 dc3d 8751 9cbc 9d78 873d
00000360: 5bf8 e23d 90a2 623d a401 0ebb c4ab b0bd
00000370: 1a08 a23d ff83 99bd 7ea9 50bc 8477 eb3b
00000380: 1281 95bd 62f7 553d b0b0 063e 78cd 173c
00000390: 3632 e23d c557 8a3b 3eb2 a03d 3449 2fbd
000003a0: 46ad 79bc 5856 aa3c dcc0 db3c af47 d13d
000003b0: 5ff9 943d 6771 aa3c 1dc0 a1ba 815d ac3d
000003c0: 562a 65bc 4d2e a13d 233f f83d 52fe c83c
000003d0: 9f30 54bd 5e09 a63c fcd1 693c ff24 8d3d
000003e0: 0e00 e0bd 9880 0fbc 11af e33d c9a4 703d
000003f0: 2332 313d 673f 20bb 6b17 1139 cf8b 183d
-1.7556345e-13 -1.0222103e-17 5.7299e-41 -2.154602e-14 7.6544125e-11 6.66774e-40 -5.8586795e-11 -5.15706e-40
-1.1473318e-19 8.939291e-11 -4.50239e-40 -6.052409e-09 -9.2824914e-11 -1.985654e-13 -6.3679484e-23 3.670068e-30
-3.7525836e-09 -2.496812e-10 4.044697e-18 -8.410691e-12 -5.652054e-21 -1.9082744e-14 -4.507005e-10 2.131428e-11
-2.3861482e-14 -1.0709118e-08 -1.5790598e-11 -4.00531e-13 -7.418613e-11 -1.4995401e-10 -1.3768077e-26 -2.7897031e-30
5.3507865e-13 -6.807739e-12 -2.993846e-12 -1.0117602e-38 -5.796537e-10 -1.4232321e-30 -1.0016391e-12 -1.2149529e-12
-1.2484149e-08 -2.6957208e-26 -3.0100591e-10 -1.7622902e-08 -1.295596e-10 -6.349607e-14 -3.9734865e-10 -6.7913784e-16
-8.208764e-34 -7.183352e-27 -1.16060335e-08 -1.8718027e-11 -8.643318e-30 -6.870292e-11 -1.047804e-17 -3.7087549e-09
-3.605966e-20 1.3520499e-25 -1.007012e-14 -9.6262515e-17 -1.1974619e-09 -2.6499574e-30 5.12154e-40 -1.76159e-40
-0.025956552 -0.008536605 0.033351447 -0.018778943 0.02078261 0.054454718 0.028714167 0.017627096
0.057286806 0.013003096 0.03372684 -0.0137230875 -0.04543743 -0.13171425 0.0021953303 0.0023185762
-0.0029800353 -0.026073385 0.07910554 0.0012885875 0.025819212 -0.00057839416 -6.516137e-05 0.029146211
0.0042287614 -0.12902512 -0.0702789 0.061872307 -0.06930068 0.014906836 0.03875451 -0.031932756
-0.08281683 0.025565818 0.019588526 0.027250854 0.0020752163 0.011045691 -0.0003425539 0.027032997
-0.034131076 0.035204407 0.02663858 -0.19414245 0.00028082178 0.009361926 -0.1785976 0.015416099
0.038607337 0.005705503 -0.067406 0.014478332 0.0029161377 -0.02080427 0.026348578 0.0112807285
-0.047176577 0.04150898 -0.010028526 0.02258328 0.009814296 -0.0332776 0.052064285 0.05587267
-0.015994642 -0.026418561 0.014252688 -0.0027563707 -3.6739978e-06 0.014419594 -1.2357979e-05 -0.00041976504
7.4859e-40 0.043537404 -0.037048187 -0.012134549 -0.0066691604 -0.049895044 -0.012732412 0.08100155
-1.8169264e-06 -0.052842617 -0.054971177 -0.018030763 3.9653902e-33 -0.050005082 -0.054634593 -5.0863937e-27
-0.047718905 -0.060478665 -0.0041010305 0.049086146 -0.040893875 -0.010991944 0.013703692 0.09782783
0.015841419 -1.9307028e-05 -2.50085e-34 -0.049636792 -1.4648723e-13 0.095044546 -0.0169593 -1.703749e-07
-0.06997332 -0.037189703 0.023914056 -0.062257696 -0.022104051 0.10652855 -0.054286722 -0.005174184
-0.056181192 -0.007637174 -0.06522396 -0.025039295 0.0006033488 0.0871562 -0.015214712 -2.8736096e-12
0.010957127 -0.04002728 6.5490766e-13 4.561125e-36 -4.6317355e-06 0.11055093 -0.029457167 -0.03928531
0.027784675 0.11825103 -0.021067666 -0.009899617 -0.048199844 -0.011174168 -0.040466193 0.050828665
0.045161404 -0.009676028 0.018364254 -0.027100792 0.01219057 0.040926587 -0.05983169 0.011013864
-0.055351805 0.053403907 -0.056106787 0.112146236 0.021390952 0.10754831 -0.019081844 0.06614802
0.11082526 0.055330813 -0.0021668458 -0.08626512 0.079117015 -0.074958794 -0.012735723 0.007185878
-0.07300009 0.052237876 0.13153338 0.009265296 0.11044733 0.0042218887 0.07846497 -0.04279442
-0.0152390655 0.020793125 0.026825361 0.10218751 0.07274126 0.020806028 -0.0012340579 0.08416272
-0.013987144 0.07870159 0.121214174 0.024535332 -0.05180418 0.020268138 0.014271256 0.06891822
-0.109375104 -0.0087586865 0.11117376 0.0587509 0.043260705 -0.0024451853 0.00013837001 0.037242707

decoder_lin.2.bias f4 [288]
00000000: 4f19 bab0 ee80 f0bd 79dc a93c 9992 94bd
00000010: a758 6bbe 859e c9b7 955d 723d 18fc ee3c
00000020: e2b4 973c 576c b9bd c894 abbd 9cf5 8bb9
00000030: bc3f 5187 696f 1e3d 1a58 74bc 842e e3bc
00000040: 65e3 ec3d a1e6 f3ba 3f81 dc3d 9e10 273e
00000050: b7d7 aaa5 878d 203e ef0f f63d 5d36 bda6
00000060: 0d44 7cbc b94d e63d f98d 4e3e c5c4 923d
00000070: 7096 3eba a137 113e 44dc 06ba ad4e 303e
00000080: fcdc 763e bce1 9eb4 12b5 263d 4578 553e
00000090: ac9a 513d dfdb 673e abce 1e3e 63fc 273d
000000a0: e551 8a3c 75b9 c0ba 9ed2 183e 08bf 50bd
000000b0: 7e3b 12b9 bd09 aa3a 608f 10bc f5bf 94b7
000000c0: 2d6f 583d 95c1 b3bd 701a 073b e20e aebb
000000d0: a904 d3b9 c138 c03a 74d6 dbb6 ccbc 363c
000000e0: 276f 5bbb e2a7 1532 f199 70bd e1d4 51b7
000000f0: 84c9 5304 4369 52b6 8073 20be 1d6a 9bbc
00000100: 81b9 2c3c 4090 063e bb1e f23d 4a6b 063e
00000110: c372 3a33 9381 913d e902 683d e425 cf1f
00000120: 2460 2dbb 28da a8bc 4e14 a33d d7e2 843d
00000130: 9751 f63d bfae 843e ba09 f33d 1159 1c3e
00000140: 6501 92bc 9cb6 64b9 8a4e fcbb c160 76be
00000150: 4281 7dbd ab97 08be e4f7 ef18 461a a93a
00000160: 7556 5b3d 0d01 893d 3e58 7d3d cdbd 093e
00000170: c9f1 1a3e 17a8 ea3d 8e10 80bc 5cae bcbc
00000180: 510b 523d a561 24bc 2d59 313e 0590 19bd
00000190: f281 0dbc d9c5 b13c 6dff aebb bb44 31b4
000001a0: e6c2 90b8 bffe 38bd 55da cf3b 09c2 f43d
000001b0: 9f77 483d 81d4 14bc d2a0 763d 18a8 953c
000001c0: d270 f9bb 7158 993b a9f1 dc3c 1c94 c5b8
000001d0: 5f2a 373a 15ca d63c e0bc 583e 042a 763e
000001e0: 4c3f 1b3d 1a7e 733e fb51 953d b3a7 2f3e
000001f0: b633 15bd 1deb 9d3d d025 83aa f21c 05be
00000200: 1dd5 dab8 713d fcac ae55 ecbd 9720 15be
00000210: 8308 dc3b acee 0abe b7ea 583c c51f 603c
00000220: e315 47b9 8b66 c43d d6e6 103e f46c 703e
00000230: 3376 853c add4 133e 479a 703e 1b62 a03d
00000240: 283e 38b4 e040 05be 57db da18 a717 76bd
00000250: 724e 553b 7e63 243e f7b1 a680 2ade 3fbe
00000260: df38 15bb c1d0 ba3d 1687 f63d 99bb 1a3e
00000270: 9d69 fb3d 14c2 403a 2490 6e38 eca2 353e
00000280: 5656 ab3d ad5b 3d3d e037 58a9 ae9a adbd
00000290: 3b48 1ebd 5b44 a4ba f2dd 98be 4150 3bbe
000002a0: ce48 1dbe 0841 d0bd e0ce 30bd 6eb9 d43c
000002b0: c4a9 63bc ef16 793e 221d 523e cba8 8ab8
000002c0: a962 853e 6e6f 883d 999e 51ba 5c2e bb3d
000002d0: d45a 2c3e c98c e73d 0ccd a23e de2e 62bc
000002e0: b748 093c c76e 933d f876 0a3e eec5 da3d
000002f0: 32f9 2d3d 73bc 4c3e 64d8 3b3e fa4b 143e
00000300: ff81 b33d 4249 90b9 3c70 c53d c9ea e3bc
00000310: 78e1 283d 76cc 8d3e 87b7 f2bb 68b8 36b6
00000320: e7eb 0500 6242 14be 33c1 07be 1305 8b3c
00000330: 822a c3bc 3a78 25bd e682 37b4 15a5 11be
00000340: 9f36 74be fec6 8bbe 7bfb e1bd cad1 40be
00000350: 3a56 6ebe a493 f1bd e13a 23be 69ea 5cbe
00000360: 2245 733b cd48 a4bc c502 b83c e79b 203d
00000370: d4db 57bd 8154 463e 300d 7fa5 4561 71bd
00000380: 382c 3cb9 d321 0abe 8b53 03bd f345 eebd
00000390: 6520 83ac 1796 fdbd b5a3 1bb2 d3b3 853c
000003a0: 169d 2fbe 0f56 5abe 585a 44b7 4ad5 70b6
000003b0: c3dd f9b4 74b6 aabd 7f2a 6fbe 685f 0abd
000003c0: 69d3 503d 3d44 3cbe a292 0780 3b15 119f
000003d0: bbbd 6dbe 73a0 1ebd 527e c7bd 4c81 e5bd
000003e0: b14e 43bd ffaa 2f3d cb10 39be 7748 5f3c
000003f0: abd7 2d3c 8583 0c3d 0c3e 7a8c cbcc f83d
-1.3540474e-09 -0.117433414 0.020735012 -0.07254524 -0.22983037 -2.4034884e-05 0.059171278 0.029172942
0.018518869 -0.09053867 -0.08377987 -0.0002669514 -1.5742142e-34 0.038680468 -0.014913583 -0.027732141
0.115668096 -0.0018608161 0.10766839 0.16314933 -2.9636473e-16 0.15678988 0.12014758 -1.3129245e-15
-0.015397084 0.11245293 0.20171346 0.07166437 -0.0007270342 0.14181377 -0.00051445165 0.17217512
0.24107736 -2.9594037e-07 0.040700026 0.2084666 0.051172897 0.22642468 0.15508525 0.04101218
0.016884753 -0.0014703708 0.14924094 -0.05096343 -0.00013945808 0.0012972873 -0.008823246 -1.7732362e-05
0.0528404 -0.08777157 0.0020615123 -0.0053118328 -0.00040248528 0.0014665351 -6.5516742e-06 0.011153411
-0.0033483 8.711114e-09 -0.05874056 -1.25069355e-05 2.4895462e-36 -3.135371e-06 -0.1566906 -0.018971497
0.010542274 0.13140965 0.118222676 0.13126865 4.3410875e-08 0.071047924 0.0566434 8.7730595e-20
-0.002645501 -0.020611838 0.07962857 0.06488579 0.12027281 0.2591457 0.118670896 0.15268351
-0.01782293 -0.00021811802 -0.0076997923 -0.24060346 -0.061890848 -0.13339107 6.2030358e-24 0.0012901507
0.05354925 0.066896535 0.061851732 0.1345131 0.15131296 0.11457842 -0.015632894 -0.02303236
0.051280323 -0.010033046 0.17319174 -0.037490863 -0.008636938 0.021700786 -0.0053405077 -1.6509414e-07
-6.902758e-05 -0.04516482 0.006343166 0.11951072 0.048942205 -0.009083868 0.060211964 0.01826863
-0.007612326 0.0046797325 0.026970701 -9.4212795e-05 0.000698721 0.026219407 0.211658 0.24039465
0.03790216 0.23778573 0.07291027 0.17153816 -0.03642627 0.0771086 -2.3296512e-13 -0.12999323
-0.000104347455 -7.169092e-12 -0.115397796 -0.14563213 0.006714882 -0.13567609 0.013239554 0.013679449
-0.00018986272 0.09589871 0.14150557 0.23479062 0.016291713 0.14436598 0.23496352 0.07831212
-1.7158948e-07 -0.13013029 5.6573156e-24 -0.06008115 0.0032547978 0.16053578 -1.5308534e-38 -0.18737093
-0.0022769494 0.09121848 0.12037484 0.15110625 0.122760035 0.00073531386 5.6877863e-05 0.17737931
0.08366077 0.046230007 -4.80101e-14 -0.084767684 -0.038643103 -0.0012532579 -0.2985683 -0.18292333
-0.15359804 -0.10168654 -0.04316604 0.025967326 -0.013895456 0.24325155 0.20518926 -6.611793e-05
0.26051834 0.066618785 -0.000799635 0.09139702 0.16831523 0.113061495 0.31797063 -0.013805119
0.008379153 0.071988635 0.13521945 0.10682283 0.04247398 0.19993763 0.18344265 0.14482108
0.08765029 -0.00027520402 0.09640548 -0.027821915 0.04123065 0.27695054 -0.007407132 -2.7227452e-06
5.43803e-40 -0.14478448 -0.13257293 0.016970193 -0.02382398 -0.04039786 -1.7090824e-07 -0.1422313
-0.23848961 -0.27300256 -0.11034294 -0.18830028 -0.2327508 -0.11795738 -0.1594043 -0.21573795
0.0037120064 -0.020054245 0.022462258 0.03921118 -0.05269988 0.19368173 -2.2122192e-16 -0.058930654
-0.0001794555 -0.13489465 -0.032062095 -0.116344355 -3.7268405e-12 -0.12382143 -9.05941e-09 0.016321098
-0.17149767 -0.21321891 -1.1703545e-05 -3.5886937e-06 -4.6541217e-07 -0.083355814 -0.23356055 -0.033782393
0.050982866 -0.18385406 -6.9545e-40 -3.0722506e-20 -0.23216908 -0.038727235 -0.097408906 -0.11206302
-0.047682468 0.042887684 -0.18072812 0.013628117 0.010610501 0.034305114 -1.9277971e-31 0.12148436
