2. Convolutional Autoencoders/models/autoencoder.pth (torch, 203433 bytes, 19 tensors)

encoder_conv.0.weight f4 [8, 1, 3, 3]
000000 50 96 40 3d 65 7f 25 bd ec 17 8a be 87 17 81 bd
       0.04701835 -0.040404696 -0.26971376 -0.063033156
000010 e3 f6 41 3e ab b1 73 3d 84 7e f3 b9 b5 91 50 be
       0.18941836 0.05949561 -0.00046442833 -0.20368083
000020 31 f8 a1 bd dd ad 68 be da 9e e5 bd bb 0e 40 3e
       -0.07908667 -0.22722574 -0.11211939 0.18755619
000030 b8 5e 92 be 69 cd 17 3c d5 9f 98 be bf d9 2f 3d
       -0.2858789 0.009265282 -0.29809442 0.04293227
000040 39 92 86 3e 73 97 df 3b 13 f2 25 3e 28 be 91 bd
       0.26283434 0.006823474 0.16205625 -0.071163476
000050 27 cc 97 3c f7 8d 15 3e 54 16 f1 bd 0b 63 2d 3d
       0.018529965 0.14604937 -0.11771837 0.042330783
000060 c5 5e 10 3e 1c 49 d2 3d 1d bd 70 be 5a 52 95 3e
       0.14098652 0.10267851 -0.23509641 0.29164392
000070 28 93 9a 3e ad 09 37 3b 62 44 ce 3d b5 14 a3 bd
       0.30190396 0.0027929351 0.10071637 -0.07962934
000080 10 9f ac 3e eb 53 ee 3d b9 12 15 be b9 39 53 3e
       0.33715105 0.116371 -0.14557923 0.20627488
000090 35 3b 24 37 a1 4f 64 a9 4d 95 6a 2c e7 d9 99 bd
       9.788947e-06 -5.0695237e-14 3.3336279e-12 -0.07512265
0000a0 96 67 4c b4 6d 00 cf bd 79 66 8a bb e0 ee 4c bd
       -1.9036665e-07 -0.10107503 -0.0042236415 -0.050032496
0000b0 a8 8c 05 bd f5 13 0f 3e 35 67 98 bc 45 84 b5 3e
       -0.032604843 0.13972457 -0.0186039 0.35452476
0000c0 8d b2 2c be 6f ec ff bd 4e 4b 3b bd 3e 98 44 3e
       -0.16864987 -0.12496268 -0.045726113 0.19198701
0000d0 d8 16 0d be 32 2e 06 3e 15 dd 65 be 48 b5 84 3e
       -0.13778245 0.1310356 -0.22447617 0.25919557
0000e0 5c 8f 5f be 32 24 87 bd 40 84 3d bd 05 96 c6 3d
       -0.21832031 -0.065987006 -0.0462687 0.09696583
0000f0 0d d8 92 3e 41 75 7c 3e 71 2d 8f bd 52 af 04 3d
       0.2868046 0.24654104 -0.06991089 0.03239376
000100 23 42 58 3d 70 4f 9e 3c f6 3f aa 3c f3 73 af 3e
       0.052797448 0.019324988 0.020782452 0.3426815
000110 af 01 8c 3e e9 66 45 bc e5 9f 82 bd e1 85 43 be
       0.27345034 -0.0120484615 -0.06378154 -0.1909404

encoder_conv.0.bias f4 [8]
000000 06 44 46 3e 9b 9d a8 3e df b4 be 3d 15 66 06 be
       0.19361886 0.32932743 0.09311842 -0.13124879
000010 d1 88 e8 bd 31 67 7c bd 1e d3 1b 39 12 3b 11 be
       -0.11354221 -0.06162185 0.00014860599 -0.1418269

encoder_conv.2.weight f4 [16, 8, 3, 3]
000000 f3 ff 7c b7 51 b7 71 b8 a7 be 22 a8 59 61 24 28
       -1.5079963e-05 -5.7629604e-05 -9.034148e-15 9.124938e-15
000010 30 dc 31 ba 24 ab 9f 25 4d 05 26 ae 31 29 47 38
       -0.00067848247 2.7698073e-16 -3.7748738e-11 4.748366e-05
000020 9b c0 e2 b9 d9 40 fe 37 fd 36 78 29 9b 95 2e 2b
       -0.0004324958 3.0309357e-05 5.5114757e-14 6.202484e-13
000030 8f 7a 81 b9 26 2e c2 a7 e3 b1 a2 a8 37 ff 72 a8
       -0.0002469611 -5.389585e-15 -1.8062759e-14 -1.34890395e-14
000040 6b 58 23 a8 b5 d0 8a 28 3e d8 80 2f 20 d8 16 b9
       -9.06749e-15 1.541159e-14 2.3436714e-10 -0.00014385628
000050 3f 7e 21 ad 77 ba e0 a8 8f 8e 31 b8 ea b2 29 ba
       -9.179823e-12 -2.4949862e-14 -4.2332857e-05 -0.00064734987
000060 29 f7 21 b7 c1 ac f7 ab e8 6b 7f aa 01 5a 3b aa
       -9.653894e-06 -1.7598354e-12 -2.2685987e-13 -1.6640163e-13
000070 fc d2 3e 3a 7e fd 7d 29 e4 6d c3 b9 ec 63 30 af
       0.0007279364 5.6397154e-14 -0.00037275173 -1.6042606e-10
000080 5f a6 56 ba 26 d1 33 26 71 5f 7c 31 0a ee 29 ac
       -0.00081882434 6.238655e-16 3.6725079e-09 -2.4148483e-12
000090 b0 25 fb 29 58 4d 02 3b c2 d9 30 ad 00 b7 c1 2b
       1.1153177e-13 0.0019882526 -1.0052794e-11 1.3764268e-12
0000a0 17 89 27 aa 5a 8d 2b ab 4f ef 97 a7 3c 8b b5 ad
       -1.4880142e-13 -6.094757e-13 -4.217038e-15 -2.063915e-11
0000b0 f1 be 74 b7 13 43 12 30 d2 4e ba ae a1 60 ac b7
       -1.458799e-05 5.320981e-10 -8.472302e-11 -2.0548994e-05
0000c0 e7 09 87 a9 e8 58 9e 2b ac db a6 3a 8b 01 69 b8
       -5.996922e-14 1.1251252e-12 0.0012730262 -5.5552966e-05
0000d0 1f 89 87 3a 45 f3 8f ba 38 b0 a5 b7 01 84 f8 35
       0.0010340548 -0.0010982534 -1.9751591e-05 1.8515858e-06
0000e0 76 c6 14 bb 78 f4 63 b4 42 55 70 b7 76 24 19 36
       -0.00227013 -2.122996e-07 -1.4324965e-05 2.282e-06
0000f0 97 af ba 34 0d dc 03 b6 54 d4 65 aa 3c 2c cc 37
       3.4772958e-07 -1.9648608e-06 -2.0412952e-13 2.4339293e-05
000100 d0 d4 0f bb d4 b6 30 27 29 a5 b2 25 fb b4 54 ba
       -0.0021946914 2.4524018e-15 3.0989995e-16 -0.00081141264
000110 4d 7b 48 ac e3 c4 a5 38 d4 8a f1 a8 2c 59 3d af
       -2.8490155e-12 7.904486e-05 -2.6816582e-14 -1.722113e-10
000120 a1 00 cf 3d 7b f9 d0 3d d2 47 0e 3d 1e e5 19 3e
       0.10107542 0.102038346 0.034736462 0.15028808
000130 fa ed 94 3d 18 02 17 3e e2 08 db 3d b5 17 6c 3d
       0.07271953 0.14746892 0.10695054 0.057639796
000140 0e 05 27 3d 68 d5 9c 3d f4 b2 6d 3d 8e 66 fa 3d
       0.040776305 0.076578915 0.05803199 0.12226592
000150 53 36 ac 3d 5f 0f e9 3d 42 b9 ea 3d ba b8 9f 3d
       0.08408799 0.11379885 0.114611164 0.07798906
000160 91 16 ba 3d b2 9f 22 3e 98 48 b7 bc e1 c1 bf 3d
       0.090863355 0.15881231 -0.022373483 0.09363151
000170 4b e9 4e 3d 85 a2 a5 3d 1d aa 71 3c aa 25 18 bd
       0.050515454 0.08087639 0.014750031 -0.037145294
000180 c4 d4 3b bd 72 c1 9f 3c 1b 04 ba 3d 81 83 82 bd
       -0.045857206 0.019501422 0.09082814 -0.06372739
000190 9a 74 93 ba 98 1d a4 bd bc 5d 34 3b 3b 3a 8f bd
       -0.001124996 -0.08013457 0.002752169 -0.069935285
0001a0 9b 28 57 3d 40 94 89 3d 43 ec 21 bd 24 e1 0d bb
       0.05252896 0.067177296 -0.039531957 -0.0021649087
0001b0 5f fe a4 a9 5e 2f f4 39 c9 b5 ae a9 94 ab 4c a9
       -7.3271894e-14 0.00046574598 -7.758687e-14 -4.544592e-14
0001c0 92 45 33 2b 32 49 82 29 0f 34 6f 3a 23 79 18 29
       6.3690123e-13 5.785857e-14 0.0009124884 3.385585e-14
0001d0 d2 7b d8 30 b7 f2 d0 3d 41 2e 9b 3c 03 5a f3 3b
       1.575126e-09 0.10202544 0.018942954 0.0074265017
0001e0 b6 46 b5 3c 8f c4 7d bb 4b c9 1b bd 54 e9 d3 bc
       0.022128444 -0.0038721894 -0.038033765 -0.025868095
0001f0 1e 24 89 bd 3d 97 46 bd b7 66 a6 bc 90 e9 dd bd
       -0.06696342 -0.048484076 -0.02031265 -0.10835564
000200 ae b7 55 3c 92 96 94 bd dc 10 3b bd 07 2a 07 bc
       0.013044281 -0.072552815 -0.045670375 -0.008249766
000210 91 48 31 bd af 4c 4c bd 8a c9 d6 3c 42 b8 ab 3d
       -0.043282095 -0.04987782 0.026219148 0.08384754
000220 04 02 f0 bb b7 f1 c4 3d e4 14 e2 bd 7e 4b 09 be
       -0.007324459 0.09616416 -0.11039141 -0.13407704
000230 70 2d 1e bd fe a0 96 3c a0 ee 2e bc ab 0a 59 3d
       -0.03861755 0.018387314 -0.01067701 0.05298869
000240 1f 37 0a 3e c6 6a b0 3d d8 46 eb 3b 6b 99 da 3d
       0.1349759 0.086141154 0.007180076 0.106737934
000250 f0 45 9b 3d 5e 0b 18 3d 60 4d 34 3e 1d 17 c4 3d
       0.07581699 0.037120216 0.17607641 0.09574721
000260 53 64 0b 3e 4c b8 13 3e ec 37 2a 3d 55 79 e9 3d
       0.1361249 0.14425772 0.041557238 0.114000954
000270 b9 e3 54 3b 4e 4c 33 3e 83 ed 16 3e c1 c4 a6 bc
       0.0032484366 0.17509577 0.14739041 -0.020357491
000280 17 d5 0f 3e 5f 92 e7 3d ec 7c b4 3d 3a 78 5d bc
       0.14046131 0.11307215 0.088128895 -0.013517434
000290 03 b6 67 bd 58 9d 5e 3c 5c d8 9f 3c 95 53 d4 bb
       -0.056570064 0.013587318 0.019512348 -0.0064796903
0002a0 7b d6 2e 3d 5f ab d0 3c 44 ff d1 3c 5b b6 50 3d
       0.042685013 0.025472341 0.025634415 0.050955158
0002b0 bf 17 3a bd e5 ed 24 bc 6f 82 33 bd 71 8e 56 bd
       -0.045432802 -0.010066484 -0.043825563 -0.052381936
0002c0 dd 5c ad 3d 52 a0 c7 3d 1a 61 9c bd 01 f7 14 3d
       0.08464978 0.097473755 -0.07635708 0.036368374
0002d0 fd 76 07 aa 1c 14 e2 ad c6 4d 95 b0 59 58 ff 27
       -1.2031691e-13 -2.5702156e-11 -1.0863281e-09 7.0872505e-15
0002e0 23 9c 59 31 ee e5 02 3b ad d2 2b b9 a8 25 97 b8
       3.166641e-09 0.0019973475 -0.00016386314 -7.207255e-05
0002f0 a4 f6 ab a8 ab e3 38 3d fe 14 0a 3c 48 fe b5 3d
       -1.9091777e-14 0.045138996 0.0084278565 0.08886391
000300 9a b0 98 3b 0d 4d 12 bc 1a a3 65 3d 4d f3 ea bd
       0.0046597244 -0.008929503 0.05606375 -0.11472187
000310 1f 1f 2e bd 79 32 49 3c e2 3d b9 bb e0 eb 11 be
       -0.04251015 0.0122801 -0.005653129 -0.14250135
000320 03 3a f5 bd 44 29 31 3d a1 7c 83 bd 06 1d 88 bd
       -0.119739555 0.043252245 -0.064202555 -0.06646161
000330 f3 7e e1 3c c1 5d d9 bd 7d 6d 61 3c 3a 51 88 3d
       0.027526354 -0.10613585 0.013759014 0.06656118
000340 61 97 8c 3b a7 12 38 bc 2d 2f 04 be 02 be 22 be
       0.0042905067 -0.011234916 -0.12908621 -0.15892795
000350 d2 65 47 bd 6e 1a 05 3d 76 c9 f5 bc 99 a2 f0 3c
       -0.048681088 0.03249591 -0.03000329 0.029374408
000360 7a 1c c6 3d d9 6f b8 3d e9 5a a0 3d 91 4a 9c 3c
       0.096734 0.09005708 0.0782984 0.019078525
000370 9d 7f 0a 3e d9 9d e8 3d 7b 53 c2 3d 55 40 e1 3d
       0.13525243 0.11358232 0.09488579 0.109985985
000380 18 9d 8e 3d 6f ff 1e 3e db 94 42 3d 21 ec 50 3c
       0.06963557 0.15527128 0.04750524 0.01275161
000390 f8 a1 21 3d 2b 7e 0e 3e 15 ae 0e 3b 46 cc 99 3d
       0.039461106 0.13915317 0.0021771241 0.07509665
0003a0 c8 f3 45 3d 77 d4 a3 3d 5a dc 81 3d ec 10 13 3d
       0.04832819 0.07999509 0.06340857 0.03590481
0003b0 1f 65 31 3d 16 52 3a 3d bb 00 af 3d 73 52 3e 3d
       0.043309327 0.04548844 0.08545061 0.04646535
0003c0 2a 08 40 3d 4f ab 85 3d ff 01 67 3d 43 96 25 3d
       0.046882786 0.06526815 0.056398388 0.040426504
0003d0 b9 83 57 bd c8 8b a8 3c 5b d2 9e 3c 32 10 87 bc
       -0.052615855 0.020574465 0.019387415 -0.016487215
0003e0 05 9b e0 bc 8f 9c 3d 3d 22 39 f1 bd b4 96 86 3c
       -0.02741767 0.046291884 -0.11778475 0.016429283
0003f0 37 bb 91 ba eb 19 17 b9 60 1c a3 29 1f 53 0b bb
       -0.0011118416 -0.00014410137 7.2435764e-14 -0.002125926

encoder_conv.2.bias f4 [16]
000000 92 ab 05 bb 25 65 18 3e 20 e7 a4 3d af 49 08 3e
       -0.0020396453 0.14882334 0.08051896 0.13309358
000010 13 78 b4 3d c2 12 74 3d 12 13 a1 3d 5a 92 89 3d
       0.08811965 0.0595882 0.078649655 0.067173675
000020 3e d8 57 3d 44 43 a8 3d 5f 4d 07 3c c4 5e 50 3d
       0.05269646 0.08215955 0.008258193 0.050871626
000030 5a 0e 69 3d a9 ef 65 3d 47 41 84 3d ac b6 fc 3d
       0.056898452 0.05613676 0.06457763 0.123395294

encoder_conv.4.weight f4 [32, 16, 3, 3]
000000 88 be ad b5 b8 52 c5 2a 7d d9 a1 ad 09 eb 6c af
       -1.2944956e-06 3.5051627e-13 -1.8400165e-11 -2.1547576e-10
000010 8a 79 54 2a 32 ba 0c ab 23 34 4a b1 15 ea 79 b6
       1.887155e-13 -4.999639e-13 -2.9424505e-09 -3.7240145e-06
000020 49 87 7f a9 8b fd 2f 3d fb 50 7f 3c 4d 35 82 3d
       -5.6738715e-14 0.042966407 0.015583272 0.063578226
000030 89 db 80 3d 3f 3a 49 3d 9c cf 86 3d 08 4e f3 3c
       0.06291873 0.049127813 0.06582567 0.029700294
000040 1d 9b e8 b9 14 8b 91 3d f7 d8 f7 3c d9 6f 8f 3d
       -0.00044366057 0.07106605 0.030254824 0.07003755
000050 ac a5 52 3c 81 89 50 3d 7d 9c a2 3d 5f c0 86 3d
       0.012856882 0.050912384 0.07940004 0.065796606
000060 33 3d e1 3b e0 57 fe 3c 2e 11 8d 3d 67 bc 0c 3d
       0.0068737506 0.031047761 0.068880424 0.034359362
000070 67 2a 47 3d 02 ce ec 3c 1d 00 99 3d c0 97 41 3d
       0.048624422 0.028906826 0.07470725 0.04726386
000080 73 d0 5b bb 8d e3 14 3d 35 e1 68 3c 2a 90 12 3c
       -0.0033540993 0.03634982 0.01421385 0.008945504
000090 a0 d1 08 3d b4 bc 45 3d 9f b8 1f 3d e7 5b c4 3d
       0.03340304 0.048275664 0.038994428 0.095878415
0000a0 08 af 8c 3d b8 1b 76 3d 47 31 4f 3d cc 74 87 3d
       0.06869322 0.06008503 0.050584104 0.06614074
0000b0 87 f7 7b 3d f9 b8 02 3c 91 61 f3 3d 6a a9 d9 3c
       0.061515357 0.007978671 0.11883844 0.02657004
0000c0 ca ed a0 3d 28 59 d5 3d f9 ba d4 3d 12 fa 3f 3d
       0.07857855 0.10417396 0.10387225 0.046869345
0000d0 33 87 4f 3d 77 25 99 3d cf a4 84 3c 6d 79 c1 3d
       0.050666045 0.07477849 0.016191868 0.09446988
0000e0 35 11 2e 3d ae b4 94 3d eb 27 d1 3d 3e fa 9b 3c
       0.04249688 0.072610244 0.10212692 0.019040223
0000f0 29 d0 17 3d 4c be 36 3d d6 b0 5c 3d 79 81 12 3d
       0.03706375 0.044615075 0.05387958 0.035768006
000100 57 17 62 3d 99 35 b0 3d b1 c8 65 3d 32 2d d0 3d
       0.05519804 0.08603973 0.056099597 0.1016487
000110 16 00 74 3d e5 56 37 3d 4a af 88 3d 03 2d 62 3d
       0.059570394 0.044760603 0.06674059 0.055218708
000120 62 86 3f bc 1f c7 5e 3d f5 55 4f 3d ea 36 4a 3d
       -0.011689754 0.054389115 0.050619084 0.049368776
000130 78 81 9d 3c c1 3a bc 3d c0 5e 25 3d 91 c4 35 3c
       0.019226775 0.09190894 0.040373564 0.011094228
000140 8d 0c d5 bb 53 b9 8f 3c 5c e0 ae 3d 19 dc 64 3c
       -0.0065017403 0.017544424 0.08538887 0.013968491
000150 fe b2 95 3c 67 88 3f 3d 36 a6 87 3d ec c4 0e 3d
       0.018273827 0.046760943 0.06623499 0.034855768
000160 2a 0e b4 3d d8 03 54 3d 19 1a 60 bb c4 6f 88 3d
       0.08791764 0.05176148 -0.0034195243 0.066619426
000170 d3 e4 0a 3d ce ec 20 3d 00 fa 00 3e 80 a2 bf 3d
       0.03390963 0.039288335 0.12595367 0.09357166
000180 66 52 3d 3b d2 ca 98 3d 94 0f 00 3c e5 0c 28 3c
       0.0028888225 0.0746056 0.007816214 0.010256981
000190 d3 21 9a 3d f9 ef 43 3c b9 a3 6b 3d 4b 19 8b 3d
       0.07525983 0.011959069 0.057529185 0.067919336
0001a0 94 08 86 3d 62 df 20 3d 5c b6 de 3d ff 88 ba 3d
       0.06544605 0.039275534 0.10874626 0.09108161
0001b0 b8 1b ea 3c c6 c6 e0 bc 08 97 3c bd a2 9b d4 bc
       0.02857767 -0.027438533 -0.046042472 -0.025953118
0001c0 e6 e3 82 bd 99 55 aa bd 50 2d 31 3d 95 27 89 bd
       -0.063911244 -0.08317108 0.043256104 -0.06697003
0001d0 d9 e3 1d bd a5 1c b5 3d d1 01 07 bc 92 cc 5b 3c
       -0.03854737 0.08843354 -0.008240179 0.013415473
0001e0 ce 6e 40 3d 9b e9 0f bd 75 03 04 bd 00 21 a8 3d
       0.04698067 -0.035134893 -0.03222986 0.08209419
0001f0 a3 38 aa bc e4 2c 0e bc 39 f6 02 3d 6a 86 ba 3d
       -0.02077896 -0.008677695 0.031973097 0.09107669
000200 cc e2 b5 3d 7a 71 5a 3c c3 c9 02 3d e9 6d a5 3d
       0.08881149 0.013332719 0.031930696 0.08077604
000210 02 47 6f bc 27 a2 d8 3d fe b8 be 3d a2 c8 8c 3d
       -0.014604332 0.10577803 0.09312628 0.06874205
000220 85 ab 0e 3d 65 52 21 3c af e8 7a 3d 45 5e 63 3d
       0.034831543 0.009846305 0.06125706 0.055509824
000230 be 69 b9 3d 24 6c 52 3d 73 a6 0a 3d 05 e6 8a 3a
       0.09053372 0.051372662 0.033850145 0.0010597116
000240 f8 83 1d 38 b6 30 b2 b3 f4 c7 b9 a8 ea 85 01 36
       3.7554622e-05 -8.2976314e-08 -2.0625842e-14 1.9300446e-06
000250 b5 d3 03 b7 8e e2 0b 2f db a0 c2 29 72 e5 6a 34
       -7.8575e-06 1.2722465e-10 8.6432346e-14 2.187642e-07
000260 e9 17 db a7 e5 09 bf bd 0a e4 3b be 7e 7b 5b bd
       -6.0810634e-15 -0.09328059 -0.18348709 -0.05358457
000270 ac 57 b3 bd b4 1d 73 be 56 22 c1 bd 91 fc e8 bd
       -0.087569565 -0.237418 -0.09430377 -0.11376298
000280 b9 db 7c be 36 70 29 be 07 75 bb bd b1 7f 36 be
       -0.24693193 -0.16546711 -0.091531806 -0.17822148
000290 99 fd da bd e7 71 52 bd ef 4d 55 be f9 90 3b be
       -0.10692901 -0.051378157 -0.2083051 -0.18317021
0002a0 c9 bd 89 bd 71 0f 66 be d4 b5 70 be 56 4f 1c be
       -0.06725652 -0.22466828 -0.23506862 -0.1526464
0002b0 e9 79 49 be b3 37 bf bd a7 ba 0e be 28 51 81 be
       -0.19675411 -0.09336796 -0.1393839 -0.2525723
0002c0 4f 8d 01 be 52 85 1c be 19 c3 81 be 39 8c 48 be
       -0.12651561 -0.15285233 -0.2534416 -0.1958474
0002d0 f5 7c 08 be e6 a3 3a be 09 04 0d be 4c 3a 3b bd
       -0.13328917 -0.18226585 -0.1377107 -0.045709893
0002e0 f1 4e 36 be 65 14 26 be 46 27 b3 bd d1 6f 55 be
       -0.17803551 -0.16218717 -0.08747725 -0.20843436
0002f0 5d 44 76 be 6b 7e 96 bd e9 95 1e be c9 5f dc bd
       -0.24049516 -0.07348331 -0.15486874 -0.10760457
000300 07 7e fb 3b 6c fd 39 be 61 c8 1c be 01 63 3c bd
       0.0076749357 -0.18163079 -0.15310813 -0.045992855
000310 0f d8 4e be f3 ed 84 be 3b cd aa bd 3d 4f 0f bd
       -0.20199607 -0.2596279 -0.08339926 -0.034987677
000320 b7 04 90 bd b8 d9 ab bd e9 6a 85 3c 02 18 ee bd
       -0.07032149 -0.08391136 0.01628633 -0.11625673
000330 09 00 bd bd fd d4 bc bd 75 5d 66 be 14 de 0f be
       -0.09228522 -0.09220312 -0.22496589 -0.1404956
000340 9b 95 4a be db 66 51 bd b2 24 fc bd 63 45 47 be
       -0.19783632 -0.05112348 -0.123116866 -0.19460063
000350 ca 51 a2 bd d0 d1 06 be 53 30 55 be 93 58 35 be
       -0.07925756 -0.13165975 -0.20819215 -0.1770957
000360 6e 21 fc bd ba b6 20 be f1 b1 da bd c6 83 9f bd
       -0.12311064 -0.15694705 -0.10678471 -0.07788806
000370 37 3f 42 be 65 5c 24 be 71 de d6 bd c7 b1 6d be
       -0.18969427 -0.1605087 -0.10491646 -0.23212348
000380 ea a0 86 be 1d 9d b0 bd a3 0a 6e bd ec 7c ce bd
       -0.26294643 -0.08623717 -0.058115613 -0.10082421
000390 cd bc 46 bd 12 e8 a3 3c c7 c8 fa bd 59 33 05 bd
       -0.0485199 0.02000812 -0.122453265 -0.032519672
0003a0 f6 83 57 bd b2 c6 56 be 3e 9b cd bd 53 c5 a2 bb
       -0.052616082 -0.20974234 -0.10039376 -0.0049673705
0003b0 8f b9 a1 bd 92 3e 8a bd f9 1b 8b 3c 76 2a e7 bd
       -0.078967206 -0.067502156 0.016981112 -0.11287396
0003c0 da 4e 24 bd 70 b7 78 bd f0 d9 5c be b6 41 83 bd
       -0.04011426 -0.060721815 -0.21567512 -0.06409018
0003d0 d1 8d 0b bd 1b b8 e2 bd 8c 90 fc bc 79 79 f0 3c
       -0.034070794 -0.110702716 -0.030830644 0.029354798
0003e0 99 17 04 be c9 97 a5 bc 97 d6 26 bd c0 dd 60 be
       -0.12899627 -0.020213978 -0.040731993 -0.21959591
0003f0 f3 50 c6 3d 8c 02 3b 3e fb 5c 08 3e 5c 63 01 3e
       0.096834086 0.1826269 0.13316719 0.12635559

encoder_conv.4.bias f4 [32]
000000 07 c3 c3 3d e4 99 9e 3b 86 42 a8 3d 05 de a3 3c
       0.09558683 0.0048401225 0.08215813 0.020003328
000010 9a 5c de 3d 3e 7a ad 3c b9 92 c2 3d 28 9a ac 3d
       0.10857506 0.021176454 0.095006414 0.084278405
000020 46 c9 9a 3d 0a bd e9 3d 9b da b5 3b ec 87 a2 3d
       0.07557921 0.114130095 0.0055497414 0.07936081
000030 b7 63 ea 3d 9b 50 ce 3d 8c b7 ad 3d 93 f5 fa 3d
       0.114448 0.10073968 0.084822744 0.12253871
000040 c9 c6 3b 3d 23 10 36 3d 9b 1d 86 3d ac 27 33 3d
       0.045843873 0.044448983 0.065486155 0.043739006
000050 77 84 47 3d da 95 28 3e d6 4e 02 3d 32 7a da 3c
       0.048710313 0.16463414 0.031813465 0.026669595
000060 75 12 9c 3c 80 0c a4 3d e9 88 00 bc 6c 95 cf 3d
       0.01905177 0.08010197 -0.007845142 0.10135922
000070 3a b7 0f 3d 11 c7 7f bb c4 73 c5 3c 30 54 52 3d
       0.035086848 -0.0039028565 0.024103053 0.05134982

encoder_lin.0.weight f4 [64, 288]
000000 c5 c1 05 3d 49 c9 58 bd 83 92 1e 3d aa 20 81 3d
       0.032655496 -0.052926335 0.038713943 0.06305058
000010 8c 70 23 3d d4 a5 2c 3d 91 5e 56 3d 88 1b 50 3c
       0.039902255 0.042150334 0.05233628 0.012701876
000020 6a 26 0e 3d 1c 67 24 3d ed 73 22 3e 30 e7 b3 3c
       0.034704603 0.040137395 0.15864535 0.021960825
000030 3c cc c1 bd 17 21 e5 3d 4b 35 ad bd aa a3 07 be
       -0.09462783 0.11187952 -0.084574305 -0.13246027
000040 26 d0 2c 3e b1 a2 08 bd f0 25 cd 3c cd 34 7d bc
       0.16876277 -0.03335828 0.025042504 -0.015454483
000050 b4 35 41 3c 51 cb 84 3d db e8 52 3d f4 71 19 3d
       0.011792589 0.06484092 0.0514916 0.03746219
000060 1f 4a 34 3d a0 4b 0c 3c 8d 91 41 3d 3c 56 37 bc
       0.044016 0.008562952 0.04725795 -0.0111899935
000070 bb 27 25 bd 04 48 28 3c bd 5b 4c 3d eb ea 0a 3c
       -0.040321093 0.010271076 0.049892176 0.00847886
000080 03 c8 c0 3d 5d a7 96 3d d2 4f 0f 3d 19 48 36 3d
       0.09413149 0.07356141 0.034988232 0.04450235
000090 d0 ad 95 3c d2 c8 2d bb 2d 85 11 3d ef 91 86 3d
       0.018271357 -0.0026517403 0.035527397 0.065708034
0000a0 93 31 48 3c cc 45 69 3d fa b8 20 3d d4 91 c1 3c
       0.012218851 0.05695133 0.039238907 0.023629107
0000b0 3f f3 f7 3c a7 0d a3 bc 0f e1 3b bd 8d dd 61 3c
       0.030267356 -0.01990397 -0.04586893 0.013785732
0000c0 6c 32 55 3d 85 44 44 3d 29 65 ea 3d 74 22 35 3d
       0.05205004 0.047916908 0.11445076 0.04422231
0000d0 48 1b 33 3d 86 dd 38 3d 54 55 c3 bc 4a 11 b9 bc
       0.04372719 0.045133136 -0.023844399 -0.022591252
0000e0 e4 d2 94 bb ad 52 9f 3c 95 2a 49 3d ef fa 91 3d
       -0.0045417417 0.019448603 0.049112875 0.0712794
0000f0 f6 7a 37 3d 99 91 a5 bc 41 46 36 3d 74 30 b7 bd
       0.044795 -0.020211028 0.044500593 -0.089447886
000100 ac 1b 94 3c 36 62 e2 bd 88 62 ae bd 9c 0d 87 bd
       0.018079601 -0.110538885 -0.08514887 -0.06594393
000110 c4 73 b1 bd ea 7a cd bd 3f 7b 09 3d 7a 90 3b 3d
       -0.08664659 -0.100332096 0.033564802 0.04579208
000120 fe e5 72 3c 4e c7 11 3d f4 e6 b7 bd 98 9f 20 bb
       0.014825342 0.035590462 -0.08979598 -0.0024509188
000130 51 98 4f bd 27 05 26 be 09 a9 ba 3c f3 4d 11 3e
       -0.05068237 -0.16212903 0.02278568 0.14189892
000140 4e 9e 45 be 9e e5 50 bd 6d a5 59 bc 17 4c 0e be
       -0.1929867 -0.05100023 -0.0132840695 -0.13896213
000150 76 90 a6 bd ba 78 9d bd 21 08 fb bd e9 46 8c bd
       -0.081330225 -0.076890424 -0.1225741 -0.068494625
000160 51 b2 cb 3d 68 a0 87 bd 79 dd af bc fa 01 ac bd
       0.099461205 -0.06622392 -0.021467911 -0.083988145
000170 6b 30 ca ba fc d0 41 3d a6 39 42 3d 72 19 8b 3d
       -0.0015425807 0.047318444 0.04741826 0.06791963
000180 dd 25 82 3d 71 04 34 3a 33 26 16 3d e1 a8 80 bb
       0.06354878 0.0006867117 0.036657523 -0.003926382
000190 43 b2 e4 bb 5a 99 fa ba 97 87 6e 3d 0b 21 56 3d
       -0.0069792583 -0.0019119189 0.058234777 0.052277606
0001a0 2e ca aa 3d 1b 44 8a 3d c8 88 c5 3c 61 04 4d 3d
       0.08339344 0.06751271 0.024113074 0.050053004
0001b0 56 53 81 bd aa 79 e8 bc 6c d5 17 be f8 d4 9c bd
       -0.06314723 -0.028378326 -0.14827508 -0.07657808
0001c0 19 0e 9a bd bf ec df bd 35 65 49 bd 2e cc 09 3e
       -0.0752222 -0.109338276 -0.049168784 0.13456795
0001d0 23 9c da bc 8f 1a a2 bd 62 00 a4 bd 07 2e 0e be
       -0.02668578 -0.07915222 -0.080078855 -0.13884746
0001e0 ce ae 0b bd 6b 04 b8 bd 8e bf 2b bc 39 d7 81 bd
       -0.034102254 -0.08985218 -0.010482682 -0.063398786
0001f0 c8 9c aa 3d b3 cc a9 3d ff 2a 3a bc 39 3d a7 bc
       0.08330685 0.082909964 -0.01136279 -0.020414935
000200 f7 d1 ff 3c 22 c0 79 3d 0a 32 81 3d db 71 a7 3d
       0.031228049 0.060974248 0.06308372 0.08176013
000210 07 d6 ea 3c 22 96 3d 3d 92 77 33 3d 36 8e a9 3c
       0.02866651 0.046285756 0.043815203 0.020697694
000220 c0 33 f5 bb cc 46 fb 3c 5d d1 43 3d d0 ed 0f 3d
       -0.0074829757 0.030673407 0.047807086 0.035138905
000230 66 c7 ac 3d 8d 4c 93 3d af be a9 bb 15 4f 8c 3d
       0.0843647 0.07192335 -0.005180202 0.06851021
000240 2c 91 a1 3c 4d 86 8b 3d ea b4 e5 bd 39 18 bb bc
       0.019722544 0.06812725 -0.11216147 -0.022838699
000250 d5 1b 1b bd be 8c 0a be 69 06 18 bc 98 f9 06 3e
       -0.03786834 -0.13530251 -0.009278872 0.1318115
000260 66 d7 dc bd 04 f2 bc 3c 8d 05 3c 3e 4c 02 6c bc
       -0.107832715 0.02306462 0.18361492 -0.0144048445
000270 58 fc a0 bd 27 61 bf 3d e6 3c 13 be bc e4 62 3c
       -0.07860631 0.09344702 -0.143787 0.01384848
000280 b7 18 21 3e 95 c1 ee bd a4 09 e0 3b 5a 50 f0 bc
       0.15732084 -0.116580166 0.0068370868 -0.02933519
000290 9d 4a 83 bb 3c 64 76 3d 40 fe 2c 3d 84 fe a5 3d
       -0.0040066973 0.060154185 0.04223466 0.08105186
0002a0 e9 4f 81 3d 10 85 6f 3b 58 b5 c9 3c 41 76 68 bb
       0.0631407 0.0036547817 0.024622604 -0.0035470875
0002b0 ce 74 e2 bb 46 ae 00 3d 01 40 a5 3d 70 04 78 3d
       -0.006910897 0.0314162 0.080688484 0.060551107
0002c0 d1 9f a7 3d 71 2e ea 3c a9 7c e9 3c c5 cd 35 3c
       0.081847794 0.028586598 0.028501825 0.011096423
0002d0 5c 83 02 3d dd 48 94 bc 5c 2a 35 3a 4b 32 fd 3c
       0.031863555 -0.01810115 0.0006910914 0.03090777
0002e0 e0 2c 77 3d 24 ea 93 3d 14 2b a7 3c bb 2b de 3c
       0.06034553 0.07222393 0.020406283 0.027120462
0002f0 08 47 3b 3d 2a a1 c8 bd f1 50 16 be a0 ac 76 3d
       0.045722038 -0.097963646 -0.14679314 0.06022322
000300 8d cc 08 bd a2 8d 9e bd 5c f3 dc 3d 68 b3 0f 3c
       -0.0333982 -0.07741858 0.107886046 0.008770801
000310 12 f8 6a be 0f ef 5e 3d 4d 22 b5 3a 41 4e 31 3e
       -0.22946194 0.054427203 0.0013819427 0.17315008
000320 30 23 10 bc c7 83 bb bd f1 c1 cc 3d 15 b5 18 be
       -0.008797452 -0.09155994 0.09997929 -0.14912827
000330 07 4a 93 3c ec b3 21 3e 73 68 08 be 2e e3 9b 3c
       0.017979635 0.15791291 -0.13321094 0.019029226
000340 fc e4 ca bc 18 11 fc 3c 8d ca 7e 3d f1 4e 8a 3d
       -0.024767391 0.03076987 0.062204886 0.06753338
000350 08 ec b2 3d de 97 5a 3d d7 4a 05 3c 26 47 44 3d
       0.08736426 0.053367488 0.008135519 0.047919415
000360 da cf 04 bd 3d 14 73 bd bc 2e 3d 3c 56 64 23 3d
       -0.032424785 -0.059345473 0.011546787 0.03989061
000370 d0 b8 6d 3d e8 ef e4 3d f6 0c b5 3d 7e e8 85 3b
       0.05803758 0.11178571 0.08840363 0.004086553
000380 39 cb ed 3c 47 f2 da bd 6a 6f c4 ba 62 9c fb bd
       0.029027568 -0.10690742 -0.0014986817 -0.12285687
000390 61 d5 03 be ed 84 95 bd 60 e7 0e be da 23 ce bd
       -0.12874366 -0.07300744 -0.1395545 -0.10065432
0003a0 2b 12 6c 3d 08 fe 3f bd ad d8 e7 3b a0 f4 71 3d
       0.057634514 -0.046873122 0.0070753903 0.059071183
0003b0 a5 c7 30 3c ea e0 21 bd 21 1c 39 3c 4b 17 4f bd
       0.010789786 -0.039521135 0.01129821 -0.050559323
0003c0 4a 96 dc bd c8 a0 ee 3d 9c 4b 07 3e b3 88 3a 3c
       -0.10770853 0.1165176 0.13212436 0.011385131
0003d0 36 f5 df bc f3 13 80 3c 80 92 4a 3d b6 1b 53 3d
       -0.027338605 0.015634513 0.04945612 0.0515401
0003e0 2e e3 5b 3d e9 95 61 3d b2 55 09 3c 60 ab 68 3c
       0.053683452 0.055074606 0.008382248 0.014201015
0003f0 ce 6e 51 bc 3d e7 da bc c2 f1 0e 3c dc c1 2e 3d
       -0.012782766 -0.026721591 0.008724632 0.042665347

encoder_lin.0.bias f4 [64]
000000 01 11 51 3d 59 ee f6 bb 4b 8a 7e 3d 95 57 1d 3d
       0.051041607 -0.0075357375 0.062143605 0.038413603
000010 38 6c 92 3d 90 0c da 3c 04 7e 9f 3d 1f e3 a8 3d
       0.07149547 0.026617318 0.077877074 0.08246445
000020 99 30 56 3d 1a 45 63 3d f3 5e 1d 3d 99 b8 57 3c
       0.05229244 0.055485822 0.03842063 0.01316657
000030 28 77 a9 38 d7 f2 2c 3c 8d 22 c7 3b 5c 41 53 b7
       8.0807426e-05 0.010555944 0.006077117 -1.2591798e-05
000040 67 c5 a0 3d 2d aa 3c bb 0f 6e f9 3c 60 4b 0c bb
       0.078501515 -0.0028787956 0.030447988 -0.0021407232
000050 68 fe e9 3c 46 f3 a0 3d 33 de 55 3c e5 64 6f 3d
       0.028563693 0.07858901 0.013053465 0.05844583
000060 cb 78 98 3d 58 65 1a bd 7c 54 dd 3a 74 7d 69 3d
       0.074449144 -0.037694305 0.001688614 0.057004407
000070 87 2c 4d af 93 f5 65 31 86 e9 98 3c 7a cd 50 3d
       -1.866046e-10 3.3463479e-09 0.01866604 0.050977208
000080 e9 ce 85 3d 60 98 d1 3d 48 38 58 3d e5 69 73 3d
       0.065336056 0.10234141 0.05278805 0.05942716
000090 6e f0 77 3d c0 c1 da bc be b9 37 b9 ab bf 42 3d
       0.060532026 -0.026703715 -0.00017521434 0.04754607
0000a0 f5 6c 99 3b b9 17 4b ba ea a5 2c 3d ed 27 cb bb
       0.004682178 -0.00077473704 0.042150415 -0.006199828
0000b0 e2 11 1c 3d 99 67 2c bd 0b e9 26 b9 c4 88 79 3d
       0.038102992 -0.042090986 -0.00015917809 0.060921445
0000c0 52 86 80 b9 35 1a 1f 3d 0b 43 5b 3d 42 03 39 3b
       -0.0002451414 0.038843352 0.053530734 0.0028230702
0000d0 19 ae 70 bc 91 7f 6f 3d 1f cc d2 bb 02 95 52 bd
       -0.014689946 0.058471266 -0.0064330245 -0.051411636
0000e0 c8 94 c2 3d f1 e1 7a bd c1 e6 d5 3d 37 8a fb 3c
       0.09501034 -0.06125063 0.104444034 0.030705554
0000f0 06 e8 2a 3d f5 e8 bb 3d 2a 00 a5 39 52 a8 2d bd
       0.04172518 0.091752924 0.00031471375 -0.04239685

encoder_lin.2.weight f4 [2, 64]
000000 4a ac 43 be 41 d1 90 bd 79 11 c0 bd eb 71 68 3e
       -0.19108692 -0.07071162 -0.09378333 0.22699706
000010 21 8f 0b be 06 1a 1f bc 94 a5 21 be 26 a6 f3 bd
       -0.13628818 -0.009710794 -0.1578582 -0.11896925
000020 29 aa 1d bc f4 be 1b be f2 fe 6c 3c 97 58 5a be
       -0.009623089 -0.15209562 0.014465081 -0.21322857
000030 e6 6e 32 3b 60 ef a8 3d b9 1e c3 bd 37 e4 24 ba
       0.0027226745 0.08248782 -0.09527344 -0.000629011
000040 0b 5e 63 bd f4 9b 08 2e 3e 2a 38 be b5 69 90 b8
       -0.05550961 3.1061334e-11 -0.17984864 -6.8861445e-05
000050 3d 95 95 bd bc 91 8f bd b1 49 d7 bd 5f d7 e5 bd
       -0.073038556 -0.070102185 -0.105121024 -0.112227194
000060 41 f4 e7 bd 4c a7 1f 3e be 5a 57 be 46 2f 49 bc
       -0.113258846 0.15591162 -0.21030709 -0.012279337
000070 0a 04 17 ad ac 97 97 b9 70 74 28 bd 04 d4 3e 3e
       -8.584253e-12 -0.0002891397 -0.04112667 0.18635565
000080 87 00 31 3d 3f 9d 3d be 3c 29 33 3d 98 fd a2 3d
       0.043213394 -0.18517016 0.043740496 0.079585254
000090 38 8a 62 3c 4f f2 0e be 33 31 13 ab 3a cd 2a 3e
       0.013826899 -0.13959621 -5.229317e-13 0.1667985
0000a0 20 2b 42 be cf 2c ff 30 d5 ac 04 be 0b 94 11 bc
       -0.18961763 1.8566427e-09 -0.12956555 -0.008885394
0000b0 d9 66 a6 3b d6 60 68 be 07 9b 0b bb 39 e2 74 3e
       0.0050781784 -0.2269319 -0.002130212 0.23914422
0000c0 d2 c4 b4 3a 42 57 1f bc 17 bd 6e 3e fb 89 3a be
       0.0013791567 -0.009725394 0.2331432 -0.18216698
0000d0 e9 78 7e 3c 92 f1 ab bd 96 d9 93 3d d0 70 cf bd
       0.015531757 -0.08395685 0.072192356 -0.10128939
0000e0 9b 09 0f be ad 06 4d be 77 e4 f9 bd 8a 17 49 bc
       -0.13968508 -0.20022078 -0.12201779 -0.012273679
0000f0 2a 70 27 be b0 b6 9c bd a5 f9 33 be 5f 18 3d be
       -0.16351381 -0.076520324 -0.175757 -0.18466328
000100 6f 31 18 bc 23 3b fd 3d 83 9d b6 bd 08 6f 74 3d
       -0.00928913 0.12364795 -0.08916762 0.0596762
000110 23 7e 1e bd 16 bb 39 3e ec bd 38 bd d5 82 87 bd
       -0.038694512 0.18137774 -0.045103 -0.06616751
000120 fb 6c e1 bd 12 ab 0e be 4b b5 05 be be 7b 72 3d
       -0.110071145 -0.13932446 -0.13057439 0.05920004
000130 a0 61 c0 3a 4a 52 53 3e 56 87 1a be 2c 0c e7 39
       0.0014677532 0.2063686 -0.15090689 0.00044068822
000140 f6 9b e1 bd c1 bf 87 3a b1 de 1e bd 56 21 28 be
       -0.11016075 0.001035683 -0.038786594 -0.16418967
000150 82 c2 27 3e 80 9a 26 be 2d 42 0c 3e 67 94 3b bd
       0.16382793 -0.16269875 0.13697119 -0.045795824
000160 0a 0e 32 be 00 22 09 3e c9 f7 1f bc af 4a 6a 3e
       -0.17388168 0.13391876 -0.009763666 0.22880052
000170 40 60 a3 3a b4 42 14 ba 28 67 9b bd 8f 6d e5 3c
       0.0012464598 -0.00056556915 -0.07588035 0.028006343
000180 77 06 60 3e e0 52 8a bd 6b e7 31 be 8d 12 4d be
       0.21877466 -0.067540884 -0.17373435 -0.20026608
000190 bc 3e 33 be 26 78 10 3e f8 81 5d 3b 10 c1 e9 bd
       -0.175044 0.14108333 0.0033799391 -0.11413777
0001a0 29 62 f5 3d 12 dc c2 3a b5 2e 16 3e fc a6 4b 3d
       0.11981613 0.0014866611 0.14666255 0.049719796
0001b0 4d 8f 45 3e 9c 23 45 3d 19 d8 dc 3a ae f9 fe bb
       0.19292946 0.048129663 0.001684907 -0.007781229
0001c0 04 78 b2 af 1f d4 34 3e 0d 55 42 3d ed a0 43 3c
       -3.2463288e-10 0.17659043 0.047444392 0.011940223
0001d0 e5 ea ae bb 2f e2 08 be fb 75 60 3e be 4f e5 bd
       -0.00533806 -0.13367532 0.21920006 -0.1119685
0001e0 78 f3 be bd c9 48 d1 bd 67 af 39 be fa 97 47 3e
       -0.09323782 -0.10218961 -0.18133317 0.19491568
0001f0 3d 96 3c bd ef a9 fc bd d2 8e 99 3b cc c1 b9 3d
       -0.046041716 -0.123371 0.004686215 0.09070167

encoder_lin.2.bias f4 [2]
000000 58 f7 29 be c3 2d 3c bd
       -0.1659826 -0.04594208

decoder_lin.0.weight f4 [64, 2]
000000 f8 82 f7 3e af 30 38 bd 3c e2 ac 3d fa c9 e1 be
       0.4834211 -0.044968303 0.08441588 -0.44099408
000010 1c a1 2b bf fd 2b bf 3b d6 d4 c7 3c 4d a0 e9 3e
       -0.6704271 0.0058341012 0.02439348 0.45630112
000020 5d f8 d9 bd c5 eb d9 3d c5 6c 03 bc e9 07 f8 3b
       -0.10643075 0.106406726 -0.008021538 0.0075693023
000030 73 2d 09 bf 4f 4a 5d 3e 1d aa e9 be 18 47 31 bf
       -0.53584975 0.21610378 -0.456376 -0.69249105
000040 79 ae 18 be 13 87 5e 3e cb 55 2c be 40 a5 d9 be
       -0.14910306 0.21731214 -0.16829602 -0.42508888
000050 78 a4 ef 3e a8 e2 8d bd 85 09 2f 3f 54 9d 0d 3e
       0.46805167 -0.06927997 0.683739 0.13829547
000060 f7 45 0a 3f 98 d9 ef be 08 0b bc be 63 cd 00 3f
       0.5401301 -0.46845698 -0.36727166 0.50313395
000070 8c d1 0c 3f 49 1f 03 bf cf a4 3a 3e bc db a6 be
       0.55007243 -0.5121961 0.18226932 -0.3258952
000080 37 03 2b bc da 27 0d bf 18 cd 30 bf 5c 74 90 3e
       -0.010437778 -0.55138934 -0.6906295 0.28213775
000090 d0 6d 3b bf 79 55 1d bd 64 64 2c 3f 80 c0 18 bd
       -0.73214436 -0.03841159 0.67340684 -0.037292957
0000a0 0d c4 ee 3e b9 b1 ca be f0 a2 17 bf c8 45 ab be
       0.4663395 -0.39588717 -0.59233 -0.33451676
0000b0 b0 9a 8f 3e 4c 8c 0e bc 9b 43 d9 3d 10 6b 25 3f
       0.28047705 -0.008700442 0.10608598 0.6461649
0000c0 0c 8a 88 be 81 b8 33 bf ab ec d2 3d 3b 57 09 bf
       -0.2666782 -0.70203406 0.10299047 -0.5364873
0000d0 9b ab eb 3d 5c 4e 31 bf da 61 4e 3e e7 74 d7 3e
       0.115073405 -0.6926019 0.20154515 0.42081377
0000e0 fa 68 1b 3f 22 d3 ad bd 28 bc 1e bf 39 45 5f 3e
       0.60707057 -0.08487536 -0.62005854 0.2180375
0000f0 e2 79 8e 3d 77 bd fe 3e e7 6d 83 be dd 6d 2d be
       0.06956841 0.49753925 -0.25669786 -0.16936441
000100 48 96 27 bf 9c c4 2b be 2f ce 39 be 72 d6 a1 be
       -0.65463686 -0.1677422 -0.18145059 -0.3160892
000110 32 e4 16 bf be a1 dd 3e 5e 58 34 bf e8 73 0d 3f
       -0.5894195 0.43287462 -0.7044734 0.55254984
000120 c7 95 a4 be 51 da 2f bf fb da 3c bd 02 a1 54 3e
       -0.3214552 -0.686925 -0.046107274 0.20764545
000130 53 a1 ae 3e c7 6f 06 3e 10 59 22 3f 55 a6 be be
       0.34107456 0.13128577 0.6341715 -0.37236276
000140 2e f9 4e bd 95 b3 04 bf 76 83 df be 68 f0 2a bf
       -0.050530605 -0.5183652 -0.43654984 -0.6677308
000150 4c 29 88 bc fe 66 14 3f 1a 30 af be fe cf 0c bf
       -0.016621254 0.57969654 -0.34216386 -0.5500487
000160 c4 64 3a 3f 79 dc 40 bd 4d a1 55 3d 53 e8 2d 3f
       0.72810006 -0.04708526 0.05215578 0.67932624
000170 10 9d 20 bf 96 5e a1 3d dc 28 8e 3a 4c ea 30 34
       -0.6273966 0.07879369 0.0010845917 1.6476514e-07
000180 ca 61 ad 3e ba f0 92 be 2c 27 10 3f fd d3 cf 3c
       0.3386367 -0.28699285 0.5630977 0.025369639
000190 75 33 b7 3e 6a a7 63 bd aa a8 be be 1e e1 5a 3e
       0.35781446 -0.05557958 -0.37238055 0.21374938
0001a0 85 8a 2f be 32 6b 11 3e 9a 80 90 be 58 ba fc be
       -0.17142685 0.14201048 -0.28223115 -0.4936092
0001b0 86 f7 3a 3f c4 d9 d5 3e c0 ed 22 3f a0 07 c8 ba
       0.7303394 0.41767704 0.6364403 -0.0015261061
0001c0 be a6 31 bf 07 99 05 bf 9d d5 38 bf 5c 8e c1 bd
       -0.69395053 -0.52186626 -0.7220095 -0.09450981
0001d0 e1 73 16 3e 8a 5e 47 3e 00 ab ea 3c 78 a0 9b 3e
       0.14692642 0.19469658 0.028645992 0.30395865
0001e0 7a e3 bb be 17 80 ab 3e 56 a8 4b be 93 df b0 be
       -0.36696988 0.33496162 -0.19888434 -0.34545574
0001f0 d5 97 9b 3e d9 02 ee 3e c5 49 2a bf 37 88 a9 be
       0.30389276 0.46486548 -0.66518813 -0.33111736

decoder_lin.0.bias f4 [64]
000000 05 e6 40 3e 42 13 d1 3e e7 ff f9 be 58 9d f6 be
       0.18837745 0.40835005 -0.4882805 -0.4816692
000010 de 1f 1e be 00 60 e5 3e f6 d8 7d be 64 df 11 be
       -0.15441844 0.44799805 -0.24789795 -0.14245373
000020 a3 7a ee be 45 39 0b 3f 24 6b f3 3e 05 f7 bc 3d
       -0.4657794 0.5438426 0.4754268 0.09226803
000030 c1 1e 11 3e e2 e1 ed be ef 1e 41 bd 68 be 82 3e
       0.14171888 -0.46461397 -0.04714864 0.25535893
000040 9e ca b5 be f3 cd 78 3e b8 dd 81 bc 0f 62 c2 be
       -0.35506147 0.24297313 -0.015852794 -0.37965438
000050 5c 7e 73 be b3 dd 84 be 4e ef 8f be 83 72 b1 3b
       -0.23778671 -0.25950393 -0.28112262 0.005415262
000060 3e 08 77 be 4c 1c 8e 3d b8 3e 61 be 0c 4e 75 be
       -0.24124238 0.06938991 -0.21996582 -0.23955554
000070 3f a5 f4 be 32 be d2 3d 21 b5 07 3f bc 9a 27 3f
       -0.47782323 0.10290183 0.53010756 0.6547048
000080 f2 85 95 be 09 aa 49 3e 33 74 32 3f 79 3a 16 bf
       -0.29203755 0.1969377 0.69708556 -0.5868297
000090 9d 9e 07 3e 36 fc 0b 3e b5 24 1f 3f 09 d0 e3 be
       0.132441 0.1367043 0.62165385 -0.44494656
0000a0 33 11 27 be 88 b0 38 3f 52 b8 92 be 0c 4f 4f 3e
       -0.16315155 0.72144365 -0.2865625 0.20244998
0000b0 a3 bd af 3e 7f ba 5f 3e d1 87 69 be f0 3e 42 be
       0.3432437 0.21848486 -0.22805716 -0.18969321
0000c0 a1 27 de bd 37 9b 2d 3f 40 75 b4 3d ad 5b 59 bd
       -0.10847402 0.67814964 0.08811426 -0.053065944
0000d0 4b 0b 35 3f f3 00 3b 3f 81 27 07 3f f1 d1 b2 be
       0.70720357 0.73048323 0.52794653 -0.34925798
0000e0 fe 74 c5 3e 86 69 29 3f 91 06 da 3e df ef c8 be
       0.3856582 0.6617664 0.42583135 -0.39245507
0000f0 fb b4 9d be bd 01 bb 3e 7f dc a2 3e 60 8c 2f be
       -0.3080214 0.36524764 0.3180885 -0.17143393

decoder_lin.2.weight f4 [288, 64]
000000 6a a4 e7 bd 2d f6 3a bb 32 e8 11 3d 84 a7 81 3c
       -0.11310656 -0.002852808 0.03562183 0.015826948
000010 94 d0 98 3d c7 81 3c bd f4 9d 17 3d 39 47 77 3d
       0.07461658 -0.046022203 0.03701587 0.060370658
000020 55 bf bb 3d b1 1b af bd 82 6d b9 bd ba 28 a5 bd
       0.09167353 -0.085502036 -0.0905409 -0.080644086
000030 96 10 a2 bb 34 9a 8d 3d 48 84 ac 3b 36 39 51 bc
       -0.004945825 0.069141775 0.0052647926 -0.012769988
000040 aa 23 14 3d 6a 6c d8 bc 7c a6 59 3d 8f ff d0 bd
       0.036166824 -0.026418883 0.053137287 -0.10204994
000050 0f 61 c4 bc 11 46 86 3c a7 6d 5c bd 38 23 b1 bc
       -0.023972062 0.016390832 -0.05381551 -0.021623239
000060 61 be 5e 3d 9a d7 cf 3c dc 5f 36 3d 2c 1f 03 3d
       0.05438078 0.025371362 0.044525012 0.03201215
000070 8a c0 b2 bd 9f db 6f 3d 66 34 80 bd 26 4c e0 bb
       -0.0872813 0.058559056 -0.06259994 -0.006845015
000080 64 bf 8a bd b7 42 ac 3d 28 37 97 bd 7d b2 50 3d
       -0.06774786 0.08411162 -0.07383567 0.05095147
000090 e0 ee 7a 3d 08 3f a2 3d 0a 11 37 bd c3 4a 8a bc
       0.061262965 0.079221785 -0.044693984 -0.016881352
0000a0 02 b5 03 3d 50 03 25 3c 13 7f 7b 3c f0 59 d9 3d
       0.032155044 0.010071591 0.015350121 0.10612857
0000b0 5f 0d 0d be f5 2e a2 bc 3e 34 dc 3d 9d b2 fe 34
       -0.13774632 -0.019797781 0.10752152 4.7441145e-07
0000c0 6d f3 ba 3b ef 5a f7 bd 9d 47 b4 bd 22 6a 54 3d
       0.005705288 -0.12077891 -0.08802722 0.05185903
0000d0 ca 30 4e bb 99 bf 8a bb 73 48 4b bd 39 c0 cb bd
       -0.0031462186 -0.004234266 -0.04962964 -0.09948773
0000e0 31 a2 01 3d 16 0e a0 3d 1c c9 aa 3c b2 1f 1e 3d
       0.03164882 0.07815187 0.02084785 0.038604446
0000f0 86 ff 8d 3d 18 55 2a 3c 00 bd c8 3d 25 da 72 bd
       0.06933503 0.0103962645 0.09801674 -0.05929007
000100 2d 83 30 ba c1 aa 92 b9 1a 41 47 3b 39 0f fa 37
       -0.0006733414 -0.00027974512 0.0030403794 2.9809411e-05
000110 62 00 dd 39 25 b4 34 b7 c0 f7 6d 3a 42 9f 87 3a
       0.0004215269 -1.0770779e-05 0.000907775 0.0010347145
000120 b9 ee 28 3b a2 3c a4 ba e7 5d a3 ba 87 e8 c3 ba
       0.0025777055 -0.0012530277 -0.0012463898 -0.0014946618
000130 b0 16 c3 ba 79 0c d1 34 3a f0 bd ba fb 0c 41 bb
       -0.0014884081 3.893836e-07 -0.0014491149 -0.00294572
000140 45 80 0a ba 7c e0 ea b3 f6 06 34 bb 4c 6e 83 ba
       -0.0005283396 -1.09373076e-07 -0.002746997 -0.0010027378
000150 3e 69 9d ba 73 3a 6f b9 22 0e 1f 37 78 23 5d 35
       -0.0012009514 -0.0002281459 9.480429e-06 8.238053e-07
000160 2c 72 ee b6 4f 5f 25 b9 56 4e cb 37 b5 4f 7d b6
       -7.106244e-06 -0.00015771131 2.4235964e-05 -3.7746333e-06
000170 6c 25 9d ba 85 dc f4 29 f7 28 f3 b4 5b 46 b8 b7
       -0.0011989302 1.0874031e-13 -4.5292083e-07 -2.1967271e-05
000180 d5 5f 86 27 f3 13 73 35 77 af 64 ba 10 b3 a2 ba
       3.7296373e-15 9.0553584e-07 -0.0008723656 -0.0012412984
000190 74 fb 53 38 42 5c 94 b5 23 50 aa bb 8a 76 be ba
       5.0540504e-05 -1.105371e-06 -0.0051975413 -0.0014531177
0001a0 86 71 c6 b7 e1 20 c2 3a 0b 8c d2 b5 9b cb 28 bb
       -2.3656303e-05 0.0014810824 -1.5686977e-06 -0.0025756124
0001b0 70 21 ae 3a e2 aa 60 b6 fd 68 42 af f8 2b 67 3b
       0.0013285112 -3.3478068e-06 -1.7681497e-10 0.003527401
0001c0 75 a7 46 3a ba 6b 28 bb 68 bf 06 b9 b1 3f cd 32
       0.00075780536 -0.0025698976 -0.0001285054 2.3894104e-08
0001d0 bb fd a7 b5 72 04 95 35 30 5f b8 39 43 12 65 ba
       -1.2516315e-06 1.1102659e-06 0.00035166135 -0.0008738378
0001e0 02 fd 68 bb b4 ed bf 37 82 c2 51 39 22 21 09 35
       -0.0035551195 2.2879663e-05 0.00020004253 5.108469e-07
0001f0 ff ca 1b b9 ec c3 47 b9 de 72 99 bb 6f e3 c5 3a
       -0.00014857574 -0.00019051105 -0.0046828827 0.0015097688
000200 66 0f 33 3d 47 b5 9a bc 62 e9 b1 bb ca 69 82 bc
       0.043715857 -0.018885268 -0.0054294327 -0.015919585
000210 06 8e c0 bc 1f bd d6 3b 50 92 f8 bb a2 1a 8c 3c
       -0.023505222 0.0065533067 -0.007585801 0.017102543
000220 4f bd 52 bd 7a af 16 bd 74 ce 34 3d fe 7d 62 3d
       -0.05145007 -0.03678844 0.0441422 0.055295937
000230 26 30 43 3c fd 3c a6 bd c3 35 f6 3b f1 00 e3 bc
       0.011913335 -0.08117101 0.007513733 -0.02771041
000240 f7 20 03 bd 60 51 fa bc c2 bc 25 3d ea f2 0d 3d
       -0.03201386 -0.03055638 0.040463217 0.03465549
000250 3f f0 b1 bb 11 d5 ae bc 1d e6 0f 3d 8a f7 54 3c
       -0.005430251 -0.021341832 0.035131563 0.012998471
000260 3c 51 8f 3c 3d 3c 62 bd ca 86 ac bd 49 3e 1f 3d
       0.01749479 -0.05523323 -0.084241465 0.03887776
000270 fd 27 18 3d 90 16 bd bb 49 a8 39 3c 5b 73 61 bb
       0.03714751 -0.005770512 0.011331626 -0.0034401033
000280 e8 01 a9 3c 3e ef ed bb 05 f8 6d bd 3f 79 ba bd
       0.020630792 -0.007261186 -0.058097858 -0.09105157
000290 af f1 28 bd e6 d0 b9 bc 65 3c 5a 3d 9d 45 e5 3c
       -0.041246112 -0.022682618 0.053280253 0.027987296
0002a0 f5 4b bf bb d0 a4 42 bc 12 1f c5 bc cb 7e 5d 3d
       -0.005837912 -0.011880115 -0.024062667 0.054075997
0002b0 ad 01 3f 3d f2 62 92 3a 74 fd 7b 3b a3 a1 10 37
       0.046632458 0.0011168404 0.003845063 8.620703e-06
0002c0 98 a9 39 3c d6 d7 52 3d c6 ed 1e 3d 8a 3e a4 bc
       0.011331938 0.05147537 0.038800977 -0.020049352
0002d0 d5 a5 75 bd 5d 09 69 bd 86 ea 6d 3d e9 37 2e 3d
       -0.059972603 -0.056893695 0.058084987 0.04253379
0002e0 54 a3 44 bc d7 9d 41 3d 8b 9c 4c 3d e5 97 49 bc
       -0.012001831 0.04726967 0.04995398 -0.012304281
0002f0 fe 89 93 bd de b7 a6 bc 4e 5d 5f 3d 51 dd 7e bc
       -0.07204054 -0.020351347 0.05453234 -0.015555696
000300 b3 8d aa b1 8d da aa 3a 66 d9 13 3b 08 50 2a 3b
       -4.9637605e-09 0.0013035104 0.002256 0.0025987644
000310 d8 71 13 b5 4a 4b a9 30 ef 62 a9 b8 2b 4c ff 3b
       -5.492743e-07 1.2317767e-09 -8.076976e-05 0.0077910624
000320 55 64 ac b7 f3 6e 84 b7 6d ec d8 b1 48 aa 13 31
       -2.0550719e-05 -1.5787291e-05 -6.313306e-09 2.148811e-09
000330 19 7a 83 35 3b 2c ce b8 d9 e7 6d 27 bf 43 3e bb
       9.795796e-07 -9.831084e-05 3.3016042e-15 -0.002903208
000340 76 60 1f 3b 56 93 4a ba f6 24 72 bb 83 2e 10 3a
       0.002431897 -0.0007727643 -0.00369483 0.0005500095
000350 05 f6 1c ba 35 6c e3 39 8f 86 da 35 80 89 e9 b8
       -0.00059875875 0.00043377434 1.6281427e-06 -0.00011135917
000360 69 4f 2e ba bd cb 35 3b f0 dd b6 b6 fe 50 96 35
       -0.0006649406 0.0027739846 -5.4498596e-06 1.1199443e-06
000370 1a a9 17 39 16 57 80 b9 2d e2 48 b7 9e 3a 13 b9
       0.00014463477 -0.00024478947 -1.197359e-05 -0.00014040849
000380 be 89 f0 ba 48 7b 3e b6 16 84 d4 b9 8e c5 21 ba
       -0.0018351597 -2.8383965e-06 -0.00040534203 -0.00061711005
000390 7e e3 a3 bb f3 a1 81 ba d6 55 51 34 8d e8 8b 35
       -0.0050014844 -0.0009890184 1.9495869e-07 1.0423988e-06
0003a0 24 a5 c0 b5 13 6c 18 bc c2 e4 a2 b8 88 ad c9 3a
       -1.4353177e-06 -0.009303111 -7.7673714e-05 0.0015386799
0003b0 45 c4 d6 af 5d 0b c6 b9 c0 a1 10 ba 87 d4 b3 ba
       -3.906583e-10 -0.0003777397 -0.00055172667 -0.0013719954
0003c0 c2 f3 6b 33 0e 05 28 bb 30 08 db ba 33 71 b3 34
       5.4936898e-08 -0.0025637778 -0.0016710814 3.3423711e-07
0003d0 a1 21 38 b8 26 e6 8f 37 8f 6c a9 b4 27 69 cc b9
       -4.3900338e-05 1.71541e-05 -3.155769e-07 -0.00038988257
0003e0 f7 76 f1 b9 21 f0 d2 b9 2b 71 41 38 80 27 28 b8
       -0.00046055738 -0.0004023323 4.612018e-05 -4.009111e-05
0003f0 62 9f 2a b7 98 5a 8c 38 9d d1 c6 b8 30 5a 77 b9
       -1.0169899e-05 6.6925946e-05 -9.480419e-05 -0.00023589353

decoder_lin.2.bias f4 [288]
000000 82 e9 1b 3b 0f a9 94 37 24 03 fa 3b b5 5b b9 ba
       0.0023790305 1.7721699e-05 0.007629769 -0.0014141711
000010 f1 d6 25 3d 4c 6b 94 bc f1 d4 fc 3d 6c e8 1b 3e
       0.040488187 -0.01811757 0.12345303 0.1522538
000020 40 24 1f 3e 12 c5 83 3c 28 ed 23 3e 1f 36 37 3e
       0.15541172 0.016085181 0.16008437 0.1789174
000030 e1 52 a8 bd b8 b9 59 b1 0a 32 9e 3d 62 4a 68 bd
       -0.08218933 -3.1683225e-09 0.07724388 -0.056711562
000040 70 c6 20 bc 2a 1b 53 3e e5 f9 25 3e 99 a1 c4 3d
       -0.009812936 0.20615831 0.16208608 0.09601135
000050 e3 26 63 3d 5f ea f6 bc 64 61 c9 bd b4 68 b4 3d
       0.055457007 -0.030141054 -0.09833029 0.08809033
000060 c0 2b da 3d 02 1c 9e ba d0 f5 cf bd 8a 8a 30 3e
       0.10652876 -0.001206279 -0.10154307 0.17240348
000070 60 4c da 3d e0 49 02 3e fe aa 44 3d f6 23 16 3d
       0.106590986 0.12723494 0.048014633 0.03665539
000080 4c 7e b1 3d f6 c8 60 bd 46 78 da bd 1d 47 45 31
       0.08666667 -0.05487915 -0.106674716 2.8707696e-09
000090 ee 4c 2a b9 bf 8c bb 3d 3e fb 13 3e 2d 43 1a bc
       -0.00016241122 0.091577046 0.1445131 -0.00941543
0000a0 94 20 42 3a 6b 11 01 bd ee 8d 1d 3e f2 43 ff b3
       0.0007405367 -0.03151075 0.15386173 -1.1886722e-07
0000b0 23 a3 e8 bd a2 ac 80 3d c6 df 59 bb 5f e5 03 3e
       -0.11359241 0.06282927 -0.0033244952 0.12880467
0000c0 08 0f 8f b3 72 45 b9 3c 61 18 4b bc 94 2b e0 3c
       -6.6616906e-08 0.022616122 -0.012395949 0.02736453
0000d0 11 25 46 bd 96 c7 dd 3d 03 d4 52 3d d9 4d 6c bc
       -0.048375193 0.108290836 0.05147172 -0.014422857
0000e0 e5 23 72 3d a1 09 7c bb d9 0a c3 bc 0b ab 18 ba
       0.059116263 -0.0038457888 -0.023808884 -0.0005823827
0000f0 15 76 eb bd 0f cd 6f bd 69 41 fe 3d 40 1b 3b 3e
       -0.11497132 -0.05854517 0.1241482 0.18272114
000100 2d 93 6d 3d f6 e2 0d b9 8f e8 da 3c 3f 76 d9 3b
       0.058001686 -0.00013531357 0.02672222 0.0066364105
000110 36 73 40 3d 99 13 d1 3c 74 e4 5b 32 dd bc 02 3c
       0.046984874 0.02552204 1.2799422e-08 0.007979599
000120 a5 7f 48 3e 18 dd d9 3d a0 88 03 3b 13 5e 82 ba
       0.19579943 0.106378734 0.0020070449 -0.0009946249
000130 70 5f b8 bc 4a b1 d7 3c ee 35 1d 3d 9c 4d 56 bd
       -0.022506446 0.026329655 0.03838151 -0.052320108
000140 87 a9 93 3d e8 75 92 3d 07 1a b8 b6 d3 c6 38 3e
       0.07210069 0.07151395 -5.4866573e-06 0.18044595
000150 e2 52 88 3b 36 cb 91 bd 87 b5 06 3e e0 b9 83 b4
       0.004160271 -0.071188375 0.13155185 -2.4535893e-07
000160 ad f9 2b b4 2f 99 e7 b8 d0 3d ae 3a 6e 0b 3d be
       -1.6016448e-07 -0.00011043471 0.0013293568 -0.18461391
000170 b2 d7 fb bd 86 d4 ae 3d 6e 88 26 be d3 94 75 bc
       -0.12297 0.085366294 -0.16262981 -0.014989096
000180 ac d4 04 3e 08 6d 8c 3b df d8 9b 3c 2d ee f3 3d
       0.12971753 0.0042854585 0.01902431 0.11910663
000190 c2 3e d4 bd d3 10 a6 b9 a5 95 fd 3d db ef 2d be
       -0.103635326 -0.00031674522 0.12382058 -0.16986029
0001a0 f4 64 27 3d c8 98 30 3e a0 97 66 3c 08 c1 25 3e
       0.04086776 0.17245781 0.014074236 0.16186917
0001b0 c4 69 6b 3c b2 9c 22 3a 52 a6 d5 3d 8d 21 e6 39
       0.014368478 0.0006203159 0.10432114 0.00043894016
0001c0 e9 d9 a4 bd 9e 84 93 3d d8 68 6d 3c 08 61 e1 3a
       -0.080493756 0.07203029 0.014490329 0.0017195055
0001d0 78 0c a4 3d 18 d4 cc b8 f2 51 95 3d 71 47 a3 3b
       0.08010191 -9.7669836e-05 0.072910205 0.0049828817
0001e0 c6 f2 5f bd 8d 9e e2 bd 94 6a 94 bd 58 d9 14 3d
       -0.054674886 -0.110653974 -0.07246891 0.036340088
0001f0 64 c8 d8 35 37 a8 47 3d 22 a6 3e bb d0 00 20 bd
       1.6151575e-06 0.048744407 -0.0029090722 -0.039063275
000200 2e 6d 59 b8 96 c4 36 3d 6d 01 1e bd e5 d3 33 3e
       -5.1838513e-05 0.044621073 -0.03857558 0.175613
000210 76 cc b6 3d 0d 6a 02 bd 81 50 e1 3d e4 65 ed 3d
       0.089257166 -0.03183942 0.11001683 0.115917
000220 5b da 3b bd 58 b7 fe ba d9 38 b5 bd 7a 60 03 be
       -0.045862537 -0.0019433303 -0.088487335 -0.12829772
000230 c5 5e b3 bd 05 fd fa bb 82 8b da 2e 65 e4 cc bc
       -0.0875831 -0.007659557 9.938274e-11 -0.02501125
000240 bb bb 59 3e d3 d9 f4 3d 81 dc a9 3c 71 f7 0d be
       0.2126302 0.11955609 0.020735027 -0.13863923
000250 64 46 27 3e ef 47 63 bd 1b e2 85 a9 f3 4b b8 bb
       0.16335446 -0.055488523 -5.9456095e-14 -0.005624288
000260 b6 e8 05 bd 4a 70 36 3e c0 c9 3c 3a cd 37 c0 3c
       -0.032692634 0.17816272 0.0007201694 0.023464108
000270 01 22 c4 3d 75 3a f4 bb cd 60 d3 3a f8 fd f5 3d
       0.09576798 -0.0074532577 0.0016126871 0.12011331
000280 b0 08 14 3d 9f 83 95 3d b8 69 12 3e 3c b8 79 bd
       0.036141098 0.07300495 0.14298141 -0.060966715
000290 3c c6 c6 3d ae cc 19 3e 77 75 4d bd d0 76 58 bd
       0.09705779 0.15019485 -0.05016085 -0.052847683
0002a0 45 f7 90 3d 10 4c a0 3b a1 e7 6e 3d 09 70 b2 bd
       0.07078413 0.00489188 0.058326367 -0.08712775
0002b0 6c fe 92 bd 59 54 f9 3d cf a0 ff b9 85 1a b9 3c
       -0.07177433 0.12174291 -0.00048757202 0.022595653
0002c0 21 c3 02 3e 4b 99 ef bd a5 fc 5f 3c fa 8f e9 bd
       0.12769748 -0.1169916 0.013671075 -0.114044145
0002d0 4e 41 69 38 1d 12 22 3e ff ea 3b 3e fe a9 8f 26
       5.561235e-05 0.15827222 0.18351363 9.968695e-16
0002e0 03 bf 2e bd d4 26 aa bc 4d 7a 91 bc c2 7a 89 bd
       -0.04266263 -0.020770468 -0.017758513 -0.06712867
0002f0 ad 71 08 bd 8f 29 70 bc fe 87 5f bb d2 f1 6c bb
       -0.033311535 -0.014658346 -0.0034108157 -0.0036154878
000300 2c b9 59 bd 89 0f b7 3c d2 e3 17 3e 1f e3 e2 bd
       -0.05315511 0.022346275 0.14833 -0.11078476
000310 bf a2 82 3d e5 4f 48 3d 59 54 0f 37 9d db 86 3d
       0.063786976 0.04890432 8.543103e-06 0.06584857
000320 5f ef 16 3e 6d c0 da b9 ad 23 bb bc 6c 32 dc 3d
       0.1473975 -0.0004172357 -0.02284416 0.10751805
000330 68 e4 06 bd 70 03 52 bd c4 22 fd 3d 19 a6 b0 3d
       -0.03293267 -0.05127281 0.12360147 0.086254306
000340 58 47 df 3c 0b 23 ca 3c 86 b0 75 3c 70 b9 0d 3d
       0.027255699 0.024674913 0.0149957 0.034600675
000350 b2 5a fb ba f7 6b b4 bd 0a d8 1a be 0a 26 c8 bc
       -0.001917681 -0.08809655 -0.15121475 -0.024432201
000360 1a 33 50 bd 9a 7d 0e bd 13 c8 b5 bd 0e 1d cc 3d
       -0.050829984 -0.03478775 -0.08876052 0.09966479
000370 86 d9 e4 3d b3 48 f1 bd b3 ee d7 3d 57 f3 b8 3d
       0.11174302 -0.117814444 0.10543575 0.090307884
000380 72 1a 75 bd d6 7d ee 3d e9 aa 47 bd 14 d0 8e 3c
       -0.059839673 0.11645095 -0.048746977 0.017433204
000390 84 73 ac 3d e9 78 18 be 38 ce 59 37 3b 27 3a bd
       0.0842047 -0.14889874 1.2982222e-05 -0.04544757
0003a0 07 db f8 bd e6 11 3b b9 c9 19 1e 3a 1b 21 79 bb
       -0.12151151 -0.00017840377 0.0006031064 -0.0038014117
0003b0 98 6a 96 ba 4c 2a ea 3d 90 45 88 3d 1a b6 43 35
       -0.0011475859 0.11433849 0.06653893 7.2908153e-07
0003c0 c5 f6 86 3d 51 85 86 3d 70 75 a0 bb d5 b3 cb bd
       0.06590036 0.06568397 -0.004896812 -0.099464096
0003d0 a0 65 2c bd 36 9f d0 3d 05 14 1e 38 d8 fa eb 3d
       -0.042089105 0.10186617 3.768878e-05 0.11522454
0003e0 8a c6 e7 3d a5 f3 75 3c f1 c0 08 be f9 e1 0b 3e
       0.11317165 0.015011703 -0.13354851 0.1366042
0003f0 ad 85 3d b9 c2 87 8e bc 54 f9 9b 3b 61 e0 0b 3c
       -0.00018074243 -0.017398719 0.004759947 0.008537383
