2. Convolutional Autoencoders/models/autoencoder3d.pth (torch, 203945 bytes, 19 tensors)

encoder_conv.0.weight f4 [8, 1, 3, 3]
0	0x3e5a4617	0.213158
1	0xbd1c51cb	-0.03816394
2	0xbb9674b8	-0.0045915507
3	0xbd9a5520	-0.075357676
4	0xbe1bbe9a	-0.15209427
5	0x3ea108a9	0.3145192
6	0x3e76f00d	0.2411501
7	0xbc70350b	-0.014661084
8	0x3e9608bd	0.29303542
9	0xbdd96541	-0.10615016
10	0xbe331942	-0.17490104
11	0xbdf28eec	-0.118436664
12	0xbe49afab	-0.19695918
13	0x3e32400d	0.17407246
14	0xbde08d87	-0.10964494
15	0xbeb40386	-0.35158938
16	0x3d152961	0.036416415
17	0xbea9f537	-0.33194897
18	0x2cdb278d	6.2287454e-12
19	0xa9656380	-5.0934517e-14
20	0x2a315276	1.5749367e-13
21	0x2c04f421	1.8893847e-12
22	0xabd93cc5	-1.5435644e-12
23	0xaa9459aa	-2.6352298e-13
24	0x2c5319d5	2.9999243e-12
25	0xab031605	-4.657111e-13
26	0x2ae672f1	4.0935964e-13
27	0xbd7c4438	-0.061588496
28	0x3e4c01b7	0.19922529
29	0xbc38e482	-0.011284949
30	0xbdbeace9	-0.09310324
31	0x3e9ed8fa	0.31024915
32	0x3e974589	0.2954524
33	0x3cd66414	0.026170768
34	0xbe25eded	-0.16204043
35	0xbdf1a34c	-0.117987245
36	0x39e49ee2	0.00043605926
37	0xbe4f307e	-0.20233342
38	0x3de7c076	0.11316006
39	0x3e3b2e4b	0.18279378
40	0xbe725819	-0.23666419
41	0xbe1cd973	-0.15317325
42	0xbe188b13	-0.14896803
43	0x3e1c8a96	0.15287241
44	0xbd752246	-0.05984714
45	0xbd978903	-0.0739918
46	0xbce1a286	-0.027543318
47	0xbcb2c2f1	-0.02182147
48	0xbc479ff5	-0.012184133
49	0xbca98065	-0.020691106
50	0xbd11dc2f	-0.035610374
51	0x3bd6f981	0.006560505
52	0x3cafa301	0.021440031
53	0xbcef6bce	-0.02922621
54	0x3bd48e8c	0.0064867195
55	0x3e53ec45	0.20695598
56	0xbc7dfbef	-0.01550196
57	0x3d868fb8	0.06570381
58	0x3ea2982b	0.3175672
59	0x3e06191b	0.13095514
60	0x3d94e39b	0.07269975
61	0x3e9e1274	0.30873454
62	0x3dc500f1	0.0961932
63	0x2b78ca50	8.8388064e-13
64	0x2b8f7c20	1.0195213e-12
65	0x2abdd7dc	3.3722927e-13
66	0xaab99f74	-3.2973244e-13
67	0xab1c2244	-5.5469886e-13
68	0x2a54c52f	1.8897794e-13
69	0x2b87d906	9.652563e-13
70	0xab3175a7	-6.304631e-13
71	0xab7b80c8	-8.9351833e-13

encoder_conv.0.bias f4 [8]
0	0xbe9d3d80	-0.30710983
1	0x3e88fee8	0.26756978
2	0xbc194138	-0.009353928
3	0xbdbef766	-0.09324531
4	0x3ea1313c	0.31482875
5	0xbdab1e9c	-0.08355448
6	0xbda15eff	-0.07879447
7	0xb93598c5	-0.00017318416

encoder_conv.2.weight f4 [16, 8, 3, 3]
0	0xbc1f0a8e	-0.009707106
1	0xbdabbdc6	-0.08385806
2	0x3ccd013a	0.025024999
3	0x3aa38f92	0.00124787
4	0xbd70c886	-0.058784984
5	0x3d7897ef	0.06069177
6	0x3d3397e4	0.043846026
7	0xbddf4ce6	-0.10903339
8	0x3db2a4c0	0.0872283
9	0xbc23a082	-0.0099869985
10	0x3e802bdc	0.25033462
11	0x3dad103d	0.08450363
12	0x3cf65c8f	0.030073432
13	0x3ea1ac1a	0.31576616
14	0x3e2796f8	0.16366184
15	0xbd71bdbc	-0.059018835
16	0x3e8c7eb5	0.2744042
17	0x3cd723d2	0.026262198
18	0x2c12aa38	2.0842338e-12
19	0xabac89a0	-1.2259534e-12
20	0x2bfa6db3	1.7794016e-12
21	0x2bec21ae	1.6778157e-12
22	0xabf65af2	-1.7504594e-12
23	0xab455a42	-7.011372e-13
24	0x2bd9b4e7	1.5468988e-12
25	0x2be76964	1.6442789e-12
26	0x2c05692a	1.8958815e-12
27	0xbcede1cc	-0.029038332
28	0xbd90d4ba	-0.07071824
29	0x3e0141a6	0.12622699
30	0xbd71df69	-0.05905095
31	0xbe03228f	-0.12806152
32	0x3d87a974	0.066241175
33	0xbcd299b2	-0.025708053
34	0xbd8a9848	-0.067673266
35	0x3d96ba82	0.07359792
36	0x3e2b2b13	0.1671565
37	0x3e89cffb	0.2691649
38	0x3d82d483	0.0638819
39	0x3e25b29f	0.1618142
40	0x3eada871	0.33917573
41	0x3e17a9e8	0.14810908
42	0x3e5da01b	0.21643107
43	0x3e88aa2a	0.26692325
44	0x3d9e0b87	0.077170424
45	0xb1bf3b64	-5.5655835e-09
46	0x2d258000	9.407586e-12
47	0x2cb257f2	5.068828e-12
48	0xb1a10eaa	-4.687384e-09
49	0x2d59604c	1.2356404e-11
50	0xad189627	-8.67354e-12
51	0x2f8934bf	2.4957633e-10
52	0xacd0c8bb	-5.934001e-12
53	0x2d0e3bd3	8.085049e-12
54	0x3d9111a8	0.07083446
55	0xbd84c93d	-0.06483696
56	0x3d159ef8	0.036528558
57	0x3d0ff5dd	0.035146583
58	0xbdfe345c	-0.124123305
59	0xbbd048cb	-0.006356334
60	0x3d2eb2f5	0.042651135
61	0xbe2017a0	-0.15634012
62	0x3c92fc8b	0.017942687
63	0xaa042f50	-1.174037e-13
64	0x2abc015d	3.3396455e-13
65	0x2ac374d3	3.4720021e-13
66	0x2ad91f26	3.8568557e-13
67	0xaabac558	-3.3177172e-13
68	0xab16ee17	-5.362112e-13
69	0xaaaaf05d	-3.0364852e-13
70	0x2b5b1bce	7.7843016e-13
71	0x2a4342a2	1.7342597e-13
72	0xbd5e9fca	-0.054351605
73	0xbe00eb80	-0.12589836
74	0xbceaccfc	-0.028662197
75	0xbc814c53	-0.015783465
76	0xbd4e2cac	-0.05033557
77	0xbc2d472c	-0.010576051
78	0xbd30202b	-0.042999428
79	0xbdd2387a	-0.10264678
80	0xbd6c734f	-0.057727154
81	0x3d21e91f	0.039528962
82	0x3d8eadfb	0.06966778
83	0xbbf43e76	-0.007453735
84	0xbc51083d	-0.012758312
85	0x3d6ce95d	0.05783974
86	0x3c46c7e4	0.012132619
87	0xbccb1257	-0.024789019
88	0x3d9157a3	0.070967935
89	0xb9f6b478	-0.00047055236
90	0x2b53b3ec	7.521195e-13
91	0xac0c6ef7	-1.9956794e-12
92	0xabab0de8	-1.215414e-12
93	0xab9a4e1e	-1.096404e-12
94	0x2a8123c3	2.2939818e-13
95	0xac0313b7	-1.8627164e-12
96	0x2bd2ae58	1.4969788e-12
97	0xabf6d1b5	-1.7537557e-12
98	0x29c4f84f	8.747223e-14
99	0xbd706c8e	-0.058697276
100	0xbd9a8412	-0.07544722
101	0xbd8fdd93	-0.07024684
102	0xbd95bc33	-0.07311287
103	0xbdc70ec0	-0.0971961
104	0xbe0e0a34	-0.1387108
105	0xbdaafa66	-0.08348541
106	0xbd532e32	-0.051557727
107	0xbc95f7ac	-0.018306576
108	0x3e4c93ae	0.1997821
109	0x3e182fb7	0.14861952
110	0x3e062248	0.13099015
111	0x3e1083f1	0.14112832
112	0x3e5c0c7a	0.21489134
113	0x3e3edc20	0.18638659
114	0x3e47aae5	0.19498785
115	0x3e1e585c	0.15463394
116	0x3e004e0f	0.12529777
117	0x305b7d06	7.9849405e-10
118	0xac22b16c	-2.3120074e-12
119	0x2c932e33	4.1831204e-12
120	0xb105984b	-1.9440616e-09
121	0xaa755cca	-2.1792564e-13
122	0xaceaf401	-6.67777e-12
123	0x3065a8ae	8.3549423e-10
124	0x2ce0d1b5	6.389745e-12
125	0xacd45327	-6.034634e-12
126	0x3dce2e5b	0.10067435
127	0x3d124003	0.035705578
128	0xbce8a37e	-0.028398272
129	0x3dcce456	0.10004489
130	0x3ca3a19f	0.019974528
131	0xbdc10440	-0.09424639
132	0x3dd1e2b0	0.10248315
133	0x3c6f439d	0.014603523
134	0xbdd65ba7	-0.104667
135	0xab065a10	-4.773135e-13
136	0xaaf2e168	-4.3144243e-13
137	0x299b15ff	6.8871985e-14
138	0x2921d3b3	3.59328e-14
139	0x2ab270ec	3.1697507e-13
140	0x2aee63b4	4.2346476e-13
141	0x2ad321c7	3.7504567e-13
142	0x29180988	3.3759047e-14
143	0x2a5014d2	1.8481335e-13
144	0xbd669239	-0.056291793
145	0xbd3d2e52	-0.046186753
146	0xbd580128	-0.052735478
147	0xbde102c9	-0.10986859
148	0xbe1022eb	-0.1407582
149	0xbce9d0b9	-0.02854191
150	0xbcec923e	-0.028878327
151	0xbd9413a6	-0.0723031
152	0xbd196a73	-0.037455034
153	0xbd37cecd	-0.044874955
154	0x3c8c4716	0.01712374
155	0xbc7759e7	-0.015097118
156	0xbb8197ba	-0.003954855
157	0x3d4a7133	0.04942436
158	0x3e04abbf	0.12956141
159	0xbc80b462	-0.015711013
160	0x3d6cb635	0.057790954
161	0x3d0d97cd	0.034568597
162	0x2b6d9373	8.440394e-13
163	0x2bd55da7	1.5160554e-12
164	0x2b912227	1.0312349e-12
165	0xaba38e9b	-1.1621428e-12
166	0x2b9408df	1.0518495e-12
167	0xab9baa6f	-1.1060717e-12
168	0xaa6f9d9f	-2.128215e-13
169	0x2bb536c4	1.2876024e-12
170	0xab949c55	-1.0559423e-12
171	0xbbcca547	-0.0062452885
172	0xbd678273	-0.05652089
173	0xbd4451f5	-0.047929723
174	0xbd874c9b	-0.06606408
175	0xbd86d11e	-0.06582855
176	0xbd79b189	-0.060960326
177	0xbd417d0c	-0.047238395
178	0xbe0752ec	-0.13215226
179	0xbc220932	-0.009889888
180	0x3e0f02bf	0.13965891
181	0x3d2c3f0f	0.042052325
182	0x3db6370d	0.08897219
183	0x3e171a67	0.14756165
184	0x3e0413b9	0.12898149
185	0x3d57df06	0.052702926
186	0x3e0e3e01	0.1389084
187	0x3e1d7ae4	0.1537891
188	0xbb4cefec	-0.0031270934
189	0x2e7d07d3	5.753249e-11
190	0xac32a0cb	-2.538458e-12
191	0xabc550f1	-1.4020158e-12
192	0xaeaf11f1	-7.961266e-11
193	0xabf7e87b	-1.7614932e-12
194	0x2beae515	1.6690283e-12
195	0xad23753d	-9.291509e-12
196	0x2c21338a	2.2908086e-12
197	0x2cd3e6ea	6.0226173e-12
198	0x3e07e427	0.13270627
199	0x3d3e32b0	0.046435058
200	0x3a37ab1b	0.00070063927
201	0x3db713b2	0.089393035
202	0xbd7c1689	-0.06154493
203	0xbd867cff	-0.0656681
204	0x3dce2444	0.10065511
205	0xbdef65fd	-0.116893746
206	0xbd9ce731	-0.07661284
207	0xab0bf9a2	-4.9729155e-13
208	0xaae5ee2f	-4.0843845e-13
209	0x2af7554a	4.3935195e-13
210	0x2b31c217	6.3152386e-13
211	0x29338e01	3.9869153e-14
212	0xaa13b740	-1.31198e-13
213	0x2a802585	2.2763402e-13
214	0xaae84ce3	-4.126483e-13
215	0xaaf1687d	-4.2882703e-13
216	0xbc6edb30	-0.014578626
217	0xbc9d6848	-0.019214764
218	0x3a81d96c	0.0009906716
219	0xbc465494	-0.012105126
220	0xbccbce86	-0.024878751
221	0xbc6b02ea	-0.0143439565
222	0xbb413d90	-0.0029486157
223	0x3ad02340	0.0015879646
224	0x3b407d16	0.0029371432
225	0xbb42f408	-0.0029747505
226	0xbc3eee96	-0.011653563
227	0xbcb0c9cd	-0.021580601
228	0xbc2669e3	-0.010157081
229	0xbc277e4e	-0.0102229845
230	0xbca8f546	-0.020624768
231	0xbb230587	-0.002487512
232	0xbc5cdc78	-0.013480298
233	0x3af3694f	0.0018570813
234	0x2a405433	1.7082238e-13
235	0x2b06699b	4.775292e-13
236	0xa6b035a8	-1.2226997e-15
237	0xa885867b	-1.4824288e-14
238	0x288224a7	1.4448795e-14
239	0x28f70737	2.7425638e-14
240	0xaa1c3df5	-1.3877079e-13
241	0xaa94b5a4	-2.641612e-13
242	0x291f7a88	3.541137e-14
243	0xbc9cfe49	-0.019164221
244	0xbca93557	-0.020655317
245	0xbc086e0d	-0.008327019
246	0xbc9e48ca	-0.019321818
247	0xbc9c6456	-0.019090813
248	0xbceccb45	-0.02890552
249	0x3bdcf9a4	0.0067436267
250	0xbcfc3597	-0.030787272
251	0x3b5c4c9e	0.0033615003
252	0xaac036e1	-3.414413e-13
253	0x2b141345	5.2606904e-13
254	0x29797acd	5.539562e-14
255	0x2ac548fb	3.504487e-13

encoder_conv.2.bias f4 [16]
0	0x3e5ce88a	0.21573082
1	0x3e2ae207	0.16687785
2	0x3e12f886	0.14352617
3	0xbd820c8a	-0.06350048
4	0x3ddb476d	0.10706983
5	0x3dd48408	0.103767455
6	0x3e374d4c	0.1790058
7	0x3be2b526	0.006918567
8	0x3c861c26	0.016370844
9	0x3e58096d	0.21097346
10	0x3e3eb131	0.1862228
11	0x3ddffba9	0.10936672
12	0x3e3a14b1	0.18171956
13	0x3de0deae	0.10979973
14	0x3d94b203	0.072605155
15	0x3e644356	0.22291312

encoder_conv.4.weight f4 [32, 16, 3, 3]
0	0x311cfd50	2.284498e-09
1	0xb146014e	-2.8813534e-09
2	0x30848ea6	9.644807e-10
3	0x31642a48	3.32024e-09
4	0x30d1814e	1.5243502e-09
5	0xb1864332	-3.9075525e-09
6	0x31779ece	3.60335e-09
7	0x317f2a8d	3.7131571e-09
8	0xb150c068	-3.0377354e-09
9	0x30b83781	1.3403537e-09
10	0xb1a28be7	-4.7307256e-09
11	0xb14070de	-2.8003835e-09
12	0xb085b017	-9.727071e-10
13	0xb1cf144a	-6.0267995e-09
14	0xb214fc25	-8.672065e-09
15	0xb15210b8	-3.0568525e-09
16	0xb209cbd5	-8.020796e-09
17	0xb1d4c732	-6.192658e-09
18	0xb04b01d3	-7.385356e-10
19	0x32087b90	7.944337e-09
20	0x32ac1bcb	2.0036074e-08
21	0x2eb2464c	8.10699e-11
22	0x320f21b5	8.33136e-09
23	0x322fcebf	1.0233349e-08
24	0x30e93bf8	1.6970025e-09
25	0x3215c916	8.718663e-09
26	0x32034e98	7.643074e-09
27	0xa9f63221	-1.09332905e-13
28	0xa7cc1170	-5.664028e-15
29	0xa978c1ff	-5.5235327e-14
30	0xa98e7378	-6.3260974e-14
31	0xa98394d1	-5.843384e-14
32	0xa9a1b13a	-7.18058e-14
33	0xaa889d2f	-2.426752e-13
34	0xa9da2f4d	-9.68935e-14
35	0x281e81cf	8.79891e-15
36	0xb0da9747	-1.5904583e-09
37	0xb1cf36a9	-6.030707e-09
38	0xb219ac87	-8.945e-09
39	0xb0fdf3cb	-1.8477463e-09
40	0xb214f366	-8.670076e-09
41	0xb0b04287	-1.2824594e-09
42	0xb116fa1e	-2.1970048e-09
43	0xb22410d9	-9.549887e-09
44	0xb08ed499	-1.0392284e-09
45	0x32fbc3cb	2.9309282e-08
46	0xb06ef2f0	-8.692913e-10
47	0x33177aea	3.5269217e-08
48	0xb32e34c7	-4.0560533e-08
49	0xb2550adf	-1.2400704e-08
50	0xb2cc07e6	-2.3752317e-08
51	0xb3115248	-3.3835278e-08
52	0xb25740aa	-1.252935e-08
53	0xb1dca15a	-6.4211862e-09
54	0x3146aa0c	2.8909453e-09
55	0xb10162c5	-1.8828115e-09
56	0x2fe3ea17	4.145739e-10
57	0x31257582	2.4077456e-09
58	0x30b53ecb	1.318733e-09
59	0xb206c652	-7.844919e-09
60	0x31564ea5	3.1185803e-09
61	0x3139102d	2.6930238e-09
62	0xb1b0acce	-5.14192e-09
63	0xb0190f3b	-5.568272e-10
64	0x31a0ae47	4.676426e-09
65	0x32bcd74a	2.1983983e-08
66	0x30110860	5.2762594e-10
67	0x31efc964	6.978711e-09
68	0x32196ddf	8.930754e-09
69	0x30277922	6.0926386e-10
70	0x31f5d5f3	7.1547617e-09
71	0x31d3328f	6.146656e-09
72	0x311ab72a	2.2514066e-09
73	0xb03bf6ce	-6.8380934e-10
74	0xb09042c4	-1.0496355e-09
75	0x32682187	1.3511801e-08
76	0x30015289	4.7047216e-10
77	0xb02e8938	-6.349583e-10
78	0xb24b6d17	-1.1840959e-08
79	0xb01e8b3c	-5.767793e-10
80	0x2ec01fd9	8.7368064e-11
81	0x31275b64	2.4353648e-09
82	0xb0fdc1db	-1.846327e-09
83	0x2f1d93c6	1.4331566e-10
84	0x314c8872	2.9763467e-09
85	0x30962d5a	1.0926826e-09
86	0xb1c3f8e4	-5.7035425e-09
87	0x3171f55f	3.5209593e-09
88	0x313df412	2.7641858e-09
89	0xb1a33917	-4.7504147e-09
90	0xb18781fe	-3.9437955e-09
91	0xb1ab03bd	-4.97718e-09
92	0xb193b1bf	-4.2984705e-09
93	0xb1299973	-2.4679963e-09
94	0xb1863da4	-3.906921e-09
95	0x30a624f4	1.2088592e-09
96	0xb11a2ef6	-2.2436644e-09
97	0xb09fb6d5	-1.1620737e-09
98	0xafca9484	-3.6849113e-10
99	0x31440774	2.852599e-09
100	0x2f420f7f	1.7649703e-10
101	0x311f8e59	2.321846e-09
102	0x30b4a6b7	1.3144107e-09
103	0xb10b7da2	-2.0298576e-09
104	0xb25c816b	-1.2835112e-08
105	0x2f5fd7cf	2.0358402e-10
106	0xb133f11b	-2.618498e-09
107	0xb2378096	-1.0681239e-08
108	0x31bc99f7	5.489024e-09
109	0x321518d1	8.678584e-09
110	0x3299792c	1.7866647e-08
111	0x31835157	3.821849e-09
112	0x31da7ec1	6.3590453e-09
113	0xafc43827	-3.569209e-10
114	0x31854c73	3.8795007e-09
115	0x321aca90	9.010037e-09
116	0xb0158b97	-5.4404253e-10
117	0xb1838f29	-3.828877e-09
118	0xb1a0dc61	-4.681667e-09
119	0xb1fe31f0	-7.39805e-09
120	0xb0f6b65f	-1.7950689e-09
121	0xaff52e29	-4.459804e-10
122	0xb023df44	-5.9616334e-10
123	0xb0c074ba	-1.4003014e-09
124	0x310dd0f3	2.0636974e-09
125	0xafd8cf6d	-3.9437556e-10
126	0x300db379	5.1550547e-10
127	0x324f6c47	1.2073605e-08
128	0xb1c0c9f4	-5.610895e-09
129	0x312e402c	2.535681e-09
130	0x32787aa7	1.4463388e-08
131	0x32ccda11	2.384789e-08
132	0x317033a7	3.4953958e-09
133	0x323de5af	1.1053472e-08
134	0x32afbd8d	2.0458879e-08
135	0x319ec35c	4.620615e-09
136	0x328fccb3	1.6740477e-08
137	0x31d6f754	6.2563377e-09
138	0x3196dd4f	4.3907344e-09
139	0x326bc868	1.3724367e-08
140	0x3244b7aa	1.1450462e-08
141	0x318365eb	3.8241885e-09
142	0x316d2176	3.450706e-09
143	0x329e8a31	1.8456463e-08
144	0xbe1ece79	-0.1550845
145	0xbe0da074	-0.1383074
146	0xbd16093d	-0.036629904
147	0xbd7388aa	-0.059456505
148	0xbe5cfab3	-0.21580009
149	0x3dac7a03	0.084217094
150	0xbcbc3d08	-0.02297832
151	0xbea08878	-0.31354117
152	0x3e494d9d	0.19658513
153	0xbe3c858b	-0.18410318
154	0xbe22115b	-0.15826933
155	0xbcc08ab7	-0.023503644
156	0xbe083cc0	-0.13304424
157	0xbe61e492	-0.22059849
158	0x3d5d07fb	0.05396269
159	0xbe0ff1e2	-0.14057115
160	0xbe3bd605	-0.1834336
161	0x3db2848f	0.0871669
162	0xbd133a6e	-0.035944395
163	0xbddb0e11	-0.10696042
164	0xbd1dab0c	-0.0384932
165	0xbc4922e4	-0.012276385
166	0xbe0a9cb0	-0.13536334
167	0x3d56a05d	0.052399028
168	0xbb9a1b98	-0.0047029965
169	0xbdedea51	-0.11616958
170	0x3df929e6	0.121661946
171	0x29f6a734	1.09536e-13
172	0xaa749025	-2.1721564e-13
173	0xaa4918fa	-1.7861052e-13
174	0xaa22d441	-1.4462131e-13
175	0x2a3c5cb1	1.6729913e-13
176	0x2a84e1f9	2.360471e-13
177	0xa9ee6133	-1.05861846e-13
178	0xa9fc7bf0	-1.1212548e-13
179	0xaa781250	-2.2033178e-13
180	0xbba78821	-0.0051126634
181	0x3aefdc56	0.0018299918
182	0x3be13271	0.006872468
183	0xbc71c3ea	-0.014756182
184	0xbd49a841	-0.049232725
185	0x3e0eb310	0.13935494
186	0x3db8c226	0.09021406
187	0xbd0f0665	-0.034918208
188	0x3e7d3096	0.24725565
189	0x3e6b5685	0.22982223
190	0x3e317985	0.17331512
191	0xbb44017d	-0.0029908114
192	0x3e8fe499	0.28104094
193	0x3e8775e5	0.26457134
194	0xbd774873	-0.060371827
195	0x3e1b2e85	0.15154465
196	0x3e8dba13	0.27681026
197	0xbe06798a	-0.13132301
198	0xbe01afac	-0.1266467
199	0xbe07ff68	-0.13281024
200	0xbd63a16c	-0.055573866
201	0xbc96d4fe	-0.01841211
202	0xbe49ad3d	-0.19694991
203	0x3d98bf8b	0.07458409
204	0xbc48e955	-0.012262662
205	0xbe88d4e9	-0.26724938
206	0x3e264bdf	0.1623988
207	0x3b21797a	0.0024639056
208	0x3d8f1b2b	0.06987604
209	0x3d51ee54	0.051252678
210	0xbb9b7adf	-0.004744872
211	0x3d068a5b	0.03284679
212	0x3e0ec118	0.13940847
213	0x3d19ec9c	0.037579164
214	0x3c8d47b2	0.017246101
215	0x3e9f9b8c	0.3117336
216	0x39881838	0.00025957986
217	0x3cd64fd1	0.026161106
218	0xbca6d966	-0.020367336
219	0xbdf02640	-0.117260456
220	0x3ca40557	0.020022077
221	0x3c9f3ebd	0.019439096
222	0xbe327d05	-0.17430504
223	0x3dee331e	0.116308436
224	0xbda75061	-0.08169628
225	0xbe1e32cf	-0.1544907
226	0xbe12fc1d	-0.14353986
227	0xbd1df3e1	-0.03856266
228	0xbe0e2520	-0.1388135
229	0xbe8d5d05	-0.2761003
230	0x3d5fdfa3	0.054656636
231	0xbd20356a	-0.03911344
232	0xbe8f5561	-0.27994826
233	0x3e1dbb87	0.15403567
234	0xbdef7fec	-0.11694321
235	0xbe391fdf	-0.18078564
236	0xbd8fddac	-0.070247024
237	0xbdcc62f9	-0.09979815
238	0xbe2c9018	-0.16851842
239	0x3bf6e2de	0.007534369
240	0xbb842da7	-0.0040337625
241	0xbe272123	-0.16321234
242	0x3d82d135	0.06387559
243	0xbdbf3964	-0.09337118
244	0xbdcb1ff4	-0.09918204
245	0xbd10237f	-0.0351901
246	0x3b94c07c	0.0045395475
247	0xbe087374	-0.13325292
248	0x3da8179d	0.08207629
249	0x39246b8d	0.00015680325
250	0xbe23fec2	-0.16015151
251	0x3e30cf52	0.17266586
252	0xbe0ffb43	-0.14060692
253	0xbe5bc35f	-0.21461247
254	0xbd189b3e	-0.037257425
255	0xbd82ba2e	-0.06383167

encoder_conv.4.bias f4 [32]
0	0xb43f9bc7	-1.7844933e-07
1	0xbd097470	-0.03355831
2	0xbd82a8c9	-0.063798495
3	0xbd889522	-0.0666907
4	0x3e7c6970	0.24649596
5	0xbd25186c	-0.040306494
6	0xbdacbfe8	-0.08435041
7	0x3b88eb0d	0.004178411
8	0xbdb97ea4	-0.09057358
9	0xbd717eba	-0.058958746
10	0xbc7fa92e	-0.0156043
11	0xbda1f5b5	-0.07908193
12	0x3e3e87a0	0.18606424
13	0xbd0371b8	-0.032090873
14	0xbd847db5	-0.06469289
15	0x3e593161	0.21210243
16	0xbd99314e	-0.07480107
17	0xbcdcc20e	-0.026948001
18	0x3e5da11f	0.21643494
19	0xbd5fbf31	-0.054625694
20	0xbbd1a445	-0.0063977563
21	0x3cd2a39a	0.025712777
22	0xbca50fcc	-0.020149134
23	0xbc63cf90	-0.013904467
24	0xbe715eda	-0.23571339
25	0x3d10dffc	0.03536986
26	0xbc81448c	-0.015779756
27	0x3d37c8d1	0.044869248
28	0xbc47495c	-0.012163486
29	0xbdc01abd	-0.093801
30	0xbccf5373	-0.025308346
31	0xbbea6bae	-0.0071539497

encoder_lin.0.weight f4 [64, 288]
0	0x3004c0cc	4.82953e-10
1	0xb06f214d	-8.6995017e-10
2	0x30f46383	1.778162e-09
3	0x300543ed	4.8481646e-10
4	0x311ae7a2	2.2541617e-09
5	0x31f221f8	7.0469888e-09
6	0x2ff1528a	4.3896292e-10
7	0x2fe660c0	4.19055e-10
8	0x2feea16d	4.3406648e-10
9	0xba9aafb8	-0.0011801636
10	0xbd826bee	-0.06368242
11	0xbe2070e1	-0.1566806
12	0x3cfca224	0.030839033
13	0x3dd9d14d	0.10635624
14	0x3e227248	0.15863907
15	0x3cd873d8	0.026422426
16	0xbb99d34d	-0.0046943785
17	0xbd9c3101	-0.07626534
18	0x3d273056	0.04081758
19	0x3d5acc36	0.053417407
20	0x3d832437	0.06403392
21	0x3cc35d65	0.023848245
22	0x3cc1492c	0.023594461
23	0xbd8130cf	-0.063081376
24	0x3dc92537	0.09821551
25	0x3dddbca3	0.10826995
26	0x3c483e80	0.012221932
27	0x3d0cf7d5	0.03441604
28	0x3e1b1896	0.15146098
29	0xbc23a389	-0.00998772
30	0x3d839913	0.06425681
31	0x3cffc588	0.03122212
32	0x3ca8a17b	0.020584812
33	0xbdea02fb	-0.1142635
34	0x3cf11436	0.029428583
35	0x3c6df6da	0.014524186
36	0xbd010705	-0.031500835
37	0xbe3f82b0	-0.18702197
38	0xbdd387e2	-0.10328652
39	0x3bbedd29	0.005824704
40	0x3e41d70e	0.18929693
41	0x3e0af707	0.13570796
42	0xbdb043c9	-0.08606679
43	0xbdb3cdee	-0.08779512
44	0xbe1561e6	-0.14588127
45	0x33116e3a	3.3860694e-08
46	0x341bc940	1.4508714e-07
47	0x33a88efe	7.84912e-08
48	0x33cca487	9.5294176e-08
49	0x34da2a9b	4.0636664e-07
50	0x347f0602	2.3750911e-07
51	0x33d18ab6	9.757552e-08
52	0x34e4c0ea	4.2608673e-07
53	0x3418038b	1.4157392e-07
54	0xbc8b58a1	-0.017010035
55	0x3d88692e	0.066606864
56	0x3daddaf8	0.084890306
57	0x3d154f4c	0.036452577
58	0xbbe14d29	-0.0068756533
59	0xbd870832	-0.0659336
60	0x3d27a2e5	0.040926833
61	0x3cdd5168	0.027016357
62	0xbd2e1454	-0.042499855
63	0xbce35bdf	-0.027753768
64	0x3d7dee88	0.06199506
65	0x3d9068a0	0.07051206
66	0x3c99c658	0.018771335
67	0xbd89cefe	-0.06728934
68	0xbda2b6e6	-0.07945041
69	0x3d0bd8c7	0.03414228
70	0x3da382c2	0.079839244
71	0xbcce3b9b	-0.025174906
72	0x3cd07802	0.02544785
73	0x3d8fc1ea	0.07019408
74	0x3d8394bd	0.06424854
75	0x3d4d4114	0.05011089
76	0x3c9a7bac	0.0188578
77	0xbd256d52	-0.04038746
78	0x3dc1ba1a	0.09459324
79	0x3dd461cd	0.103702165
80	0x3cb457ce	0.022014525
81	0x3cb24d07	0.021765245
82	0x3de8abc3	0.11360886
83	0x3c96505f	0.01834887
84	0x3ca88ccc	0.02057495
85	0x3bde2843	0.006779702
86	0xbc303c4e	-0.010756565
87	0xbc4fe5ca	-0.012689063
88	0x3d27861c	0.04089938
89	0x3cdbf565	0.026850412
90	0x2fe93df7	4.2426482e-10
91	0xb6994341	-4.5675847e-06
92	0xb652240c	-3.131342e-06
93	0xb464a7e9	-2.129524e-07
94	0xb84b68d1	-4.849659e-05
95	0xb7062cb2	-7.997429e-06
96	0xb4617817	-2.0998446e-07
97	0xb8696659	-5.5646848e-05
98	0xb79c9eff	-1.8670687e-05
99	0xbb1e9174	-0.0024195584
100	0x3dad046a	0.084481075
101	0x3db3f30a	0.087865904
102	0x3d6c376d	0.057670046
103	0x3e096aad	0.134196
104	0x3ce22280	0.027604342
105	0xbcfaf6e2	-0.030635301
106	0x3d8bc34b	0.068243586
107	0x3c5cfa0f	0.013487353
108	0xbd9333df	-0.07187628
109	0xbd2082ea	-0.03918735
110	0xbd90583c	-0.07048079
111	0x3e6807ce	0.22659227
112	0x3de773b7	0.11301368
113	0x3e298e8d	0.16558285
114	0xbbc4e068	-0.0060081966
115	0xbd89ee53	-0.0673491
116	0xbd9b4816	-0.07582109
117	0xbc9ec341	-0.019380214
118	0x3d788eaf	0.06068295
119	0x3d3cab50	0.046061814
120	0x3cc26d09	0.023733633
121	0xbd8a00a8	-0.067384064
122	0xbe055305	-0.1301995
123	0x3d0249bf	0.03180861
124	0x3cf2989f	0.029613791
125	0xbd584f7a	-0.05281017
126	0xbd5382c5	-0.051638383
127	0x3d882f94	0.066497
128	0xbd73232c	-0.059359714
129	0xbd47e306	-0.04880049
130	0xbdcf845b	-0.10132667
131	0xbd66088d	-0.0561605
132	0xbdd70a42	-0.105000034
133	0x3d36cb75	0.044627625
134	0xbdcfb906	-0.10142712
135	0xbe6f1935	-0.2334946
136	0xbce6282b	-0.028095325
137	0xbe4f1091	-0.20221163
138	0xbe0477c9	-0.1293632
139	0xbd259542	-0.040425546
140	0xbb96c72b	-0.0046013794
141	0x3d136cd1	0.035992447
142	0x3da99cc7	0.08281856
143	0x3dc87151	0.097872384
144	0x3d0cdb25	0.03438868
145	0xbc27cb51	-0.0102413455
146	0xbd54c058	-0.051941246
147	0xbe30c8e5	-0.17264135
148	0xbcb9489c	-0.02261763
149	0xbde2d7aa	-0.11076291
150	0x3e271d78	0.16319835
151	0x3e64af59	0.22332515
152	0x3d9a26ae	0.07526909
153	0xbc902772	-0.017596934
154	0x3ce1027b	0.027467003
155	0x3ca4c327	0.020112587
156	0x3b82c828	0.0039911456
157	0x3d624a9d	0.055246938
158	0xbc74690d	-0.014917624
159	0x3d6d3a17	0.057916727
160	0x3daf45c0	0.08558226
161	0xbc0379d1	-0.008024649
162	0xbead5c1b	-0.33859333
163	0xbd76d352	-0.060260125
164	0xbe0382a7	-0.12842809
165	0x3d4ea50b	0.050450366
166	0x3dd2fff5	0.10302726
167	0x3d9552a0	0.0729115
168	0xbea34b00	-0.31893158
169	0xbddcef3a	-0.10787816
170	0xbe18899b	-0.14896242
171	0x3bf3ec24	0.0074439216
172	0x3c609f7c	0.013709899
173	0x3c930018	0.01794438
174	0x3ba0c4f4	0.004906291
175	0x3da0a8d4	0.078447014
176	0xb9b86f4c	-0.00035178137
177	0x3db90c1e	0.09035514
178	0x3da9b8a2	0.08287169
179	0xbc573ff7	-0.013137809
180	0x2a144de9	1.3172071e-13
181	0xabf17a3c	-1.7158007e-12
182	0x2b2c1d6c	6.1147506e-13
183	0x2c8ee04c	4.0607847e-12
184	0x2b8b386d	9.892205e-13
185	0x2a24f0e6	1.4649705e-13
186	0x2bfae146	1.7826094e-12
187	0xab9942af	-1.0889812e-12
188	0xab1e0e40	-5.615265e-13
189	0x3ca59ebc	0.020217292
190	0x3d09ebfe	0.033672325
191	0x3d9ddded	0.077083446
192	0xbc6473cd	-0.013943625
193	0xbc162330	-0.009163663
194	0xbd87ab7e	-0.066245064
195	0x3d7a69dd	0.061136115
196	0x3db51053	0.08841004
197	0x3cccd01a	0.025001574
198	0x2cf849cf	7.0567783e-12
199	0xacf16906	-6.861292e-12
200	0x29f3d9ad	1.08291285e-13
201	0xac984c7e	-4.328592e-12
202	0x2d7fb743	1.4535764e-11
203	0x2cd691e0	6.098441e-12
204	0xad182c0d	-8.649981e-12
205	0x2d85009e	1.5120624e-11
206	0x2b4eab0a	7.3423266e-13
207	0x3c644b7a	0.013934011
208	0x3d3c9382	0.046039112
209	0x3d7962f0	0.06088537
210	0x3bbb78a2	0.0057211677
211	0xbd3e1407	-0.04640582
212	0xbdbb0a13	-0.09132781
213	0x3dafa299	0.08575935
214	0x3de10a37	0.109882765
215	0x3c15e3c4	0.009148542
216	0xb9527b88	-0.0002007318
217	0xbb77060d	-0.0037692816
218	0xbbee9dfd	-0.0072820173
219	0xbb808ee0	-0.003923282
220	0xbc4b7194	-0.012417216
221	0xbcad9bf4	-0.021192528
222	0xbbc28a92	-0.005936929
223	0xbbd3bf18	-0.006461989
224	0xbca6e543	-0.020372992
225	0xbd52ddbb	-0.05148099
226	0x3d268ec7	0.040663507
227	0x3d97592b	0.07390054
228	0x3cc1957e	0.023630854
229	0xbd1e4613	-0.038641047
230	0xbd527249	-0.051378522
231	0x3d07e15b	0.0331739
232	0x3d2614e0	0.04054725
233	0xbccd683c	-0.025074117
234	0xad7374a7	-1.3838853e-11
235	0xaec5d113	-8.995662e-11
236	0xaec1a129	-8.805252e-11
237	0xae6fbee6	-5.451186e-11
238	0xaeb68ee5	-8.301785e-11
239	0xaee7b0ef	-1.05360935e-10
240	0xae7c3cb4	-5.735208e-11
241	0xaef65692	-1.1202163e-10
242	0xaec559b1	-8.974455e-11
243	0xbe516958	-0.20450342
244	0x3d9be900	0.076128006
245	0x3d9cfb17	0.07665079
246	0xbd58cc44	-0.052929178
247	0x3da9dcb5	0.0829405
248	0xbe79f8e4	-0.2441135
249	0xbe03b509	-0.12862028
250	0xbe026005	-0.12731941
251	0xbdce9d95	-0.1008865
252	0xaeb0fce6	-8.048477e-11
253	0xb630c33c	-2.6339685e-06
254	0xb6161155	-2.236183e-06
255	0x30e053a6	1.6321919e-09

encoder_lin.0.bias f4 [64]
0	0xbd951027	-0.072784714
1	0xbdbb4465	-0.091439046
2	0xb9dee478	-0.00042513362
3	0xb970cad3	-0.00022963742
4	0x3da7eac6	0.08199076
5	0xbd9e828a	-0.07739742
6	0x3c4f7b38	0.012663655
7	0xbd5a6b77	-0.053325143
8	0x3b412991	0.0029474238
9	0xbd11d1d3	-0.035600495
10	0xb893f26c	-7.054661e-05
11	0xb9dfab17	-0.00042661346
12	0xbb1334f3	-0.002246198
13	0x2d4a66dc	1.150521e-11
14	0xbd401a7f	-0.04690027
15	0x3d222e6a	0.039595045
16	0xbcf86dea	-0.030325849
17	0xbe49d017	-0.19708286
18	0x3c9841ee	0.018586125
19	0x3d07acbc	0.033123717
20	0xbd62cd3e	-0.055371515
21	0xba24d958	-0.000628849
22	0x3d176809	0.03696445
23	0xbb92f294	-0.004484484
24	0xb0f01708	-1.7468844e-09
25	0x31487474	2.9170026e-09
26	0x3d51c358	0.051211685
27	0xbddfc849	-0.10926873
28	0xbe1dcd72	-0.15410402
29	0xbddffe70	-0.10937202
30	0xbd888c8f	-0.066674344
31	0xb492a8d8	-2.731747e-07
32	0xbda47626	-0.080303475
33	0xbbf1268b	-0.007359331
34	0x3b699484	0.00356415
35	0xb55aad63	-8.146364e-07
36	0xbb998030	-0.0046844706
37	0x3cff7f0f	0.031188516
38	0xb91016c1	-0.00013741387
39	0xbdc406f0	-0.09571636
40	0xba52475b	-0.0008021497
41	0x3d709e7d	0.058744896
42	0xbd96a2ee	-0.07355295
43	0xbc265e10	-0.010154262
44	0x39135c46	0.00014053387
45	0xbc1867f7	-0.009302131
46	0xbd734188	-0.059388667
47	0x3c80df71	0.015731545
48	0xb989e578	-0.00026301644
49	0x37d5603e	2.5436395e-05
50	0xbd831cb1	-0.06401957
51	0xbcceed48	-0.025259629
52	0xbd1b1461	-0.03786123
53	0xbe2c23fe	-0.16810605
54	0xb8b9e9ed	-8.8650595e-05
55	0x3d0015fb	0.031270962
56	0x3d09c798	0.033637613
57	0xbe2460ef	-0.16052602
58	0x3c458aab	0.012056987
59	0xbdec1386	-0.11527161
60	0x3d03eace	0.03220635
61	0xbcf6bf60	-0.030120552
62	0xbe27bbf9	-0.163803
63	0xbb5eb4a3	-0.003398218

encoder_lin.2.weight f4 [3, 64]
0	0x3eb330f9	0.349983
1	0x3eb7987f	0.35858533
2	0x3c260b12	0.010134475
3	0x3c63ec6c	0.013911348
4	0x3de33c4c	0.11095485
5	0x3e83bf1e	0.25731748
6	0x3eca6f77	0.39538166
7	0x3eae9da5	0.34104648
8	0xbd32651b	-0.043553453
9	0x3e0a176d	0.13485499
10	0x3a1f0561	0.000606617
11	0x2e14a09e	3.379396e-11
12	0x3c116d5f	0.008876174
13	0xbc62a513	-0.013833302
14	0x3d1c4de6	0.038160227
15	0x3d3b4faf	0.04573029
16	0x3cd7b40e	0.026330974
17	0xbe1b7396	-0.15180811
18	0xbd8a9860	-0.067673445
19	0xbd1c298b	-0.038125556
20	0x3f03167c	0.51206183
21	0x3d40ce72	0.04707188
22	0x3e1460c2	0.14490035
23	0x3d2f4c2a	0.042797245
24	0xbd4983f5	-0.04919811
25	0xba980942	-0.0011599439
26	0x3e316911	0.17325236
27	0xbdb0dfb4	-0.08636418
28	0xbe46fdb8	-0.19432724
29	0xbf20d8ce	-0.6283082
30	0xbe69d26f	-0.2283418
31	0xb863959e	-5.426036e-05
32	0x3e28a6e2	0.1646991
33	0x3c9d33d2	0.019189749
34	0xba2ea4cb	-0.00066621293
35	0xb6377dc9	-2.7342342e-06
36	0x3d95077b	0.072768174
37	0xbe1e7a62	-0.15476373
38	0x3aa4a9b2	0.001256278
39	0x3eaf6ce4	0.34262764
40	0x3d398223	0.045290124
41	0x3ce68166	0.028137874
42	0x3de96078	0.11395353
43	0xbbc7b0b6	-0.0060940636
44	0xbcb1814e	-0.021668103
45	0x3d4a649d	0.04941236
46	0xbe0fca8c	-0.14042109
47	0x3cf04fe7	0.029334975
48	0xbd2f9a68	-0.042871863
49	0xba92133d	-0.001114465
50	0xb9f646fb	-0.0004697366
51	0xbdc669c2	-0.096881405
52	0x3cc9b137	0.024620635
53	0xbe3d0d48	-0.18462098
54	0xbd09ec1b	-0.033672433
55	0xbd9e6953	-0.07734933
56	0x3e834321	0.25637153
57	0xbe9682ef	-0.2939677
58	0xbd9d13f1	-0.07669819
59	0xbe2f83f7	-0.17140184
60	0x3dcc6273	0.09979715
61	0x3e1b8b05	0.1518975
62	0xbf0fcde4	-0.5617354
63	0xbdb6d998	-0.089282215
64	0x3df17953	0.11790719
65	0x3d827a86	0.06371026
66	0x3bf9cae3	0.007623063
67	0xbb7c1d45	-0.0038469594
68	0xbe89e48e	-0.26932186
69	0x3e9e8d6e	0.30967277
70	0x3d6d7702	0.057974823
71	0xbdcc3b19	-0.099722095
72	0x3dc31f77	0.09527486
73	0xbcd8df6e	-0.026473727
74	0xbac401b2	-0.0014954119
75	0xb8f78e57	-0.00011804391
76	0xbb04ca42	-0.0020262157
77	0x3cd85acf	0.026410488
78	0xbef79301	-0.48354343
79	0x3c8ca098	0.01716642
80	0xbbd1491f	-0.0063868905
81	0xbe8c9fea	-0.27465755
82	0x3ecb89f3	0.39753684
83	0xbd829cf0	-0.0637759
84	0xbe839c28	-0.25705075
85	0x3d213a65	0.03936233
86	0x3eeec2b7	0.4663293
87	0x3e091ce6	0.1338993
88	0x3d84c94a	0.06483705
89	0x339cb5a3	7.2973556e-08
90	0x3dbcbe78	0.092160165
91	0x3e0f8087	0.14013873
92	0xbe4223c5	-0.18958957
93	0xbd4d28a8	-0.0500876
94	0xbec5e0a2	-0.38647944
95	0xbad31dac	-0.0016106865
96	0xbdd5de42	-0.10442783
97	0x3ad2047d	0.0016023066
98	0x3bec720b	0.0072157434
99	0xba946eee	-0.0011324564
100	0x3e468ad8	0.19388902
101	0xbd2c46f0	-0.04205984
102	0xbd79b02d	-0.06095903
103	0x3df1f222	0.11813761
104	0xbc048dc1	-0.008090437
105	0x3d3ce845	0.046119947
106	0xbe45bf29	-0.19311203
107	0x3c1082d0	0.008820251
108	0xbc50a50e	-0.012734665
109	0x3d38b56f	0.045094904
110	0xbdbe5529	-0.09293587
111	0x3de4b659	0.111675926
112	0x3ce74c70	0.02823469
113	0xb9cf14c2	-0.00039497582
114	0x3c4c6732	0.012475776
115	0x3f031c12	0.51214707
116	0xbe248165	-0.16064985
117	0x3dbeb006	0.093109176
118	0x3d6021c7	0.054719713
119	0xbc9b3b79	-0.018949257
120	0xbd78e125	-0.06076159
121	0xbd759427	-0.059955742
122	0xbe06a920	-0.13150454
123	0xbd514768	-0.05109349
124	0x3bff492c	0.007790705
125	0x3e47ae5f	0.19500111
126	0x3e3efa2f	0.18650125
127	0x3d29d770	0.041465223
128	0x3dc34b05	0.09535793
129	0x3e2be62f	0.16787027
130	0x3c408764	0.01175103
131	0x3d3f2356	0.04666456
132	0xbcc28f1b	-0.023749879
133	0x3d732dcd	0.05936985
134	0xbe701b23	-0.23447852
135	0x3e7d7c8b	0.2475454
136	0x3df0cea2	0.11758162
137	0x3d1a06c1	0.037604097
138	0x3d34efea	0.044174112
139	0xba17b844	-0.00057876506
140	0x3d146a21	0.036234025
141	0x3c911af5	0.01771305
142	0x3db8bf0f	0.090208165
143	0x3dce9447	0.100868754
144	0x3d6f5f00	0.05844021
145	0x3d57e998	0.052713007
146	0xbe39ae6a	-0.1813294
147	0x3df2238b	0.118231855
148	0xbd0a9347	-0.03383186
149	0x3cb0138c	0.021493696
150	0xbdd5294e	-0.10408269
151	0xbcfec6db	-0.031100681
152	0x3d8ad36c	0.06778607
153	0x3c1fc24c	0.009750914
154	0xbe9a9437	-0.30191204
155	0x3dd30ba5	0.103049554
156	0xbd826597	-0.06367033
157	0x3df34d8c	0.11880025
158	0xbf61560d	-0.8802193
159	0xbc66cea7	-0.014087356
160	0xbb861127	-0.0040914
161	0xbd5405d0	-0.051763356
162	0x3d291bd3	0.0412863
163	0xbbb759ce	-0.0055954223
164	0x3d509196	0.05092009
165	0x3dbd0071	0.092286
166	0x3c4ce1bb	0.01250499
167	0x3e95f93a	0.29291707
168	0x3d816d78	0.06319708
169	0x3de1c680	0.11024189
170	0xbe0012c6	-0.12507161
171	0x3d599bc9	0.053127084
172	0x3c72f69a	0.014829302
173	0x3d93bad1	0.07213367
174	0xbd5f1fde	-0.05447375
175	0x3dcd1b20	0.10014939
176	0x3cedabbc	0.029012553
177	0xbab7ee98	-0.0014032898
178	0x3cdfdb9f	0.027326403
179	0xbbdb4b4b	-0.006692325
180	0x3cb16a3a	0.021657098
181	0x3cba45de	0.022738393
182	0x3d257d77	0.040402856
183	0x3ded23fe	0.115791306
184	0x3d8d78b9	0.06907792
185	0xbd5c2998	-0.053750604
186	0xbcd9aa45	-0.026570449
187	0xbd7db274	-0.061937764
188	0x3d95e93a	0.07319875
189	0xbccf8b2d	-0.025334919
190	0x3e4d3f1a	0.20043603
191	0x3ccf1c90	0.025282174

encoder_lin.2.bias f4 [3]
0	0xbd6cc292	-0.057802744
1	0x3db34ad1	0.087545045
2	0x3df901f0	0.12158573

decoder_lin.0.weight f4 [64, 3]
0	0x3e42b473	0.19014148
1	0x3f00a254	0.50247693
2	0xbec22dee	-0.37925667
3	0xbe676f14	-0.22600967
4	0x3bf90f72	0.007600718
5	0xbe52a2e6	-0.20569953
6	0xbf1601d9	-0.5859657
7	0x3e4c37a8	0.19943106
8	0xbcda6b89	-0.026662605
9	0x3c0861f2	0.008324133
10	0x3e050aa6	0.12992343
11	0x3ebe2570	0.37137938
12	0x3e3ed7a2	0.18636945
13	0x3eac3ec8	0.33641648
14	0xbe584090	-0.21118379
15	0xbe095f83	-0.13415341
16	0x3f20cde9	0.62814194
17	0xbf060415	-0.5234998
18	0x3ebcca25	0.36872974
19	0x3e2c7bcf	0.16844104
20	0x3da0a834	0.07844582
21	0xbe5316f7	-0.20614229
22	0xbe3671bf	-0.17816828
23	0x3e08856a	0.13332143
24	0xbe9903f0	-0.29885817
25	0xbcaddafe	-0.021222588
26	0x3eb14494	0.34622633
27	0xbe0c6940	-0.13712025
28	0x3e611239	0.21979608
29	0x3ef7e8ea	0.48419887
30	0x3ef31f3e	0.47484773
31	0x3e92902f	0.28625628
32	0x3e88cf7a	0.26720792
33	0x3eb521a5	0.3537723
34	0xbe54687a	-0.2074298
35	0xbe92ad07	-0.28647634
36	0x3ea35251	0.3189874
37	0xbd974062	-0.07385327
38	0xbe3133fa	-0.17304984
39	0x3e8a54f9	0.27017954
40	0xbeb54e99	-0.35411528
41	0x3d343eda	0.044005252
42	0x3cb2b45b	0.021814516
43	0xbe3ff44d	-0.18745537
44	0x3e8698f4	0.2628857
45	0xbeb36e79	-0.3504522
46	0x3f2cc722	0.6749135
47	0xbeb4caae	-0.35310882
48	0x3ece3b49	0.40279606
49	0xbefa3726	-0.488702
50	0xbc6575bc	-0.014005121
51	0xbe508403	-0.20362858
52	0xbd551104	-0.05201818
53	0xbee60e09	-0.44932583
54	0xbd4f85b4	-0.05066462
55	0xbeaa7634	-0.33293307
56	0x3f15b555	0.58479816
57	0xbe3e9d51	-0.18614699
58	0x3d9d67d0	0.07685816
59	0x3e3ac3ff	0.18238829
60	0xbd80783e	-0.062729344
61	0xbe5e5c9b	-0.21715014
62	0xbf33081d	-0.69934255
63	0x3ce04f5b	0.02738159
64	0xbf0c33d7	-0.547666
65	0x3eaa9dfe	0.33323663
66	0xbe4eba0d	-0.2018816
67	0xbedfb758	-0.43694568
68	0xbef3dd5e	-0.47629827
69	0x3c3fb974	0.01170193
70	0x3df6d57d	0.120524384
71	0x3e99fa8c	0.30073965
72	0x3e58bc0a	0.21165481
73	0xbe94dec0	-0.29076195
74	0xbf60ab4a	-0.87761366
75	0x3e88c10e	0.2670979
76	0xbe754cc6	-0.23955068
77	0xbed9ea98	-0.42561793
78	0xbe100d1b	-0.140675
79	0xbdf0c33d	-0.11755989
80	0xbf0059ec	-0.5013721
81	0x3f110cf0	0.56660366
82	0xbed10ac0	-0.40828514
83	0x3c36360c	0.011121284
84	0xbe1a8708	-0.15090573
85	0x3d092863	0.03348578
86	0x3ed1a1b0	0.4094367
87	0xbd5482d4	-0.05188258
88	0x3f1f52bf	0.62235636
89	0xbd2eaab1	-0.042643253
90	0xbe41da4e	-0.18930933
91	0x3e24bac2	0.16086867
92	0x3e254981	0.16141321
93	0xbe0b31d3	-0.13593225
94	0x3ec91baf	0.39278933
95	0x3eb230d6	0.34802884
96	0x3e5f6d6c	0.21819085
97	0xbea05481	-0.3131447
98	0x3dca91f7	0.09891122
99	0xbec811f9	-0.39076212
100	0x3f14648a	0.5796591
101	0x3d323525	0.043507714
102	0x3eac1697	0.33610985
103	0xbe761cbc	-0.24034399
104	0xbe3dbf18	-0.18529928
105	0x3de23b19	0.11046428
106	0x3f058dd3	0.5216953
107	0xbcb4df3e	-0.022079106
108	0x3c81ad79	0.015829789
109	0xbcbd76ce	-0.02312794
110	0x3e303321	0.17207004
111	0x3e529854	0.20565921
112	0x3cafd0ae	0.02146181
113	0xbe31c013	-0.17358427
114	0x3e987144	0.29773915
115	0x3ea2e11f	0.3181238
116	0x3ca30d69	0.019903855
117	0xbefedb80	-0.4977684
118	0xbe8ef6c8	-0.27922654
119	0xbe5e47d8	-0.21707094
120	0xbe0bf932	-0.13669279
121	0x3e5ef557	0.21773277
122	0x3e74e15c	0.23914093
123	0x3f2da7c1	0.678341
124	0x3e34bf5f	0.17651127
125	0x3e75d9bf	0.24008845
126	0xbf34d8a3	-0.7064306
127	0x3c663898	0.014051579
128	0x3bee9115	0.0072804787
129	0xbe37c442	-0.1794596
130	0xbe2ecfa9	-0.17071404
131	0xbe9db23a	-0.3080004
132	0xbeb9d7a4	-0.36297333
133	0xbe9b51a7	-0.30335733
134	0xbe571ce4	-0.21007115
135	0x3e96a083	0.29419336
136	0x3f028659	0.5098625
137	0x3dbd4b17	0.09242838
138	0x3ecad1d3	0.39613208
139	0x3e54232e	0.20716545
140	0xbecaae31	-0.39586022
141	0xbe445ba5	-0.19175585
142	0xbf074366	-0.52837217
143	0x3debd869	0.11515886
144	0xbe18cb6b	-0.14921348
145	0x3b9be218	0.004757177
146	0xbec2c511	-0.38040975
147	0x3e853147	0.26014158
148	0x3e750672	0.2392824
149	0x3eaf92ec	0.3429178
150	0xbe5c05bc	-0.21486562
151	0xbe892c6f	-0.26791713
152	0xbf19798d	-0.59951097
153	0xbe4f1e76	-0.20226464
154	0x3f867f34	1.0507569
155	0xbec7d8b6	-0.39032525
156	0xbed5b565	-0.41739956
157	0x3dada770	0.08479202
158	0xbe456c3f	-0.19279574
159	0x3acb1f09	0.001549692
160	0x3d4a5cda	0.049404956
161	0x3e8415e0	0.2579794
162	0x3d868ecc	0.06570205
163	0xbe49db89	-0.19712652
164	0x3b2d42d0	0.0026437528
165	0x3e6bcd14	0.2302745
166	0x3f14cc54	0.5812428
167	0x3da6b43c	0.08139846
168	0xbf115c1d	-0.5678118
169	0x3d10efd8	0.035384983
170	0xbde97d58	-0.114008605
171	0x3edb3e7d	0.42821112
172	0x3ddc667c	0.10761735
173	0x3c991a2b	0.018689236
174	0x3ee88b94	0.4541899
175	0x3e2dc2d6	0.16968855
176	0xbf215858	-0.63025427
177	0xbdfdde81	-0.12395955
178	0xbec89b93	-0.39181194
179	0x3e42ea68	0.19034731
180	0xbeb740de	-0.35791677
181	0x3d600ad2	0.05469782
182	0xbec7aa45	-0.38997093
183	0x3ed7cd9d	0.42149058
184	0x3e5dd37d	0.21662708
185	0x3df01ebd	0.11724613
186	0xbde10c32	-0.10988654
187	0x3f2b5716	0.6692976
188	0x3d4d2a7f	0.050089356
189	0x3cb7fc0f	0.022459058
190	0x3e5555ad	0.20833464
191	0x3ecaf9e6	0.39643782

decoder_lin.0.bias f4 [64]
0	0xbe0018fb	-0.1250953
1	0xbf27a229	-0.6548181
2	0xbe833b4f	-0.25631186
3	0x3ed3e030	0.4138198
4	0x3f2a49de	0.6651896
5	0x3c4de625	0.012567078
6	0x3dc1f3e5	0.09470347
7	0x3f2c1ef1	0.6723471
8	0x3e247a57	0.16062294
9	0x3eec48f3	0.46149406
10	0xbe80263d	-0.25029173
11	0xbf070e12	-0.52755845
12	0x3f648fc0	0.89281845
13	0xbf90c467	-1.1309937
14	0x3e7e9b3c	0.24863905
15	0xbe091ecc	-0.13390654
16	0x3e86c7e7	0.26324388
17	0xbd76f797	-0.060294714
18	0xbed4a617	-0.41532966
19	0xbf340c7d	-0.70331556
20	0x3d8565aa	0.065135315
21	0xbe9ee96f	-0.3103747
22	0x3ed158d2	0.40888077
23	0x3ebcd89c	0.3688401
24	0xbd865c62	-0.065605894
25	0xbf045172	-0.51686776
26	0x3e47303e	0.19451997
27	0x3e73fded	0.23827334
28	0xbedaa6b8	-0.4270532
29	0xbdf3127f	-0.11868762
30	0x3eaebd37	0.34128734
31	0x3eadb337	0.33925793
32	0xbf947db6	-1.1600864
33	0xbf227f2f	-0.63475317
34	0xbf4d3b87	-0.80168957
35	0xbe8b331c	-0.2718743
36	0x3e118cb7	0.14213835
37	0x3f093695	0.5359891
38	0xbf042c06	-0.51629674
39	0x3e823986	0.25434512
40	0x3f42bcc8	0.7606931
41	0xbe50b4f1	-0.20381524
42	0x3b2732ea	0.0025512525
43	0x3f70e909	0.94105583
44	0x3f39f481	0.7263871
45	0xbe193443	-0.14961343
46	0x3f311700	0.6917572
47	0xbf9547cd	-1.1662537
48	0x3eaa4b4b	0.3326057
49	0x3ec8534e	0.39126056
50	0x3efecf29	0.49767426
51	0x3f5fd37b	0.8743207
52	0x3e969c56	0.2941615
53	0x3f8170d0	1.0112553
54	0x3f12df81	0.5737229
55	0xbf23dc73	-0.64008254
56	0xbf86fc34	-1.0545716
57	0x3edcd68f	0.43132445
58	0x3dc7443f	0.09729814
59	0x3e1649cf	0.14676593
60	0x3ecaf2e2	0.3963843
61	0xbf1b34b7	-0.6062731
62	0xbed48ebf	-0.41515157
63	0xbf1ba5d9	-0.6079994

decoder_lin.2.weight f4 [288, 64]
0	0xbdd4c427	-0.103889756
1	0x3d70840b	0.058719676
2	0x3dcb9396	0.09940259
3	0x3dafcef4	0.08584395
4	0x3d89c9d1	0.067279465
5	0xbd592a15	-0.05301865
6	0x3dc8b455	0.098000206
7	0x3d983be8	0.07433301
8	0x3dd13fbb	0.10217234
9	0xbb95744d	-0.0045609833
10	0x3d10a90f	0.035317477
11	0xbd530256	-0.0515159
12	0x3b5d78e9	0.0033793992
13	0x3dd13886	0.10215859
14	0x3d8549c6	0.06508212
15	0xbd408bc9	-0.04700831
16	0x3e1caae2	0.15299562
17	0x3cd1a81a	0.025592852
18	0x3dda9abc	0.106740445
19	0xbcba8951	-0.022770556
20	0x3d5f926f	0.05458301
21	0x3e1cb131	0.15301968
22	0x3d98f8f7	0.07469361
23	0x3d3dd883	0.04634906
24	0xbd801762	-0.0625446
25	0xbd83bbad	-0.06432281
26	0x3c166f2a	0.009181777
27	0x3e347878	0.1762408
28	0x3bf45d68	0.007457424
29	0x3d300252	0.042970963
30	0x3b24b15a	0.0025130124
31	0xbb8e911a	-0.0043507935
32	0x3dbac825	0.09120206
33	0xbd6f17a9	-0.058372173
34	0xbca40ed4	-0.020026602
35	0x3c13c227	0.0090184575
36	0x3cd1794b	0.025570532
37	0xbc417d30	-0.011809632
38	0x3bf71e56	0.007541458
39	0x3e11d5ca	0.1424171
40	0x3db59fd8	0.088683784
41	0x3e0e4aa1	0.13895656
42	0x3d683fa8	0.056701332
43	0xbd4b02c7	-0.049563196
44	0x3e1fa700	0.15591049
45	0x3d77cf31	0.060500327
46	0xbd19eb06	-0.03757765
47	0x3db2d16a	0.08731349
48	0xbc93de8e	-0.018050458
49	0x3d87bd4d	0.06627903
50	0x3a9acb99	0.0011809944
51	0xbddc44e5	-0.10755328
52	0x3b702cf6	0.0036647893
53	0xbbaab73a	-0.0052098306
54	0x3d84c166	0.064822
55	0x3c3d5781	0.011556507
56	0x3d4c380c	0.049858138
57	0x3d251426	0.04030242
58	0xbdeee233	-0.11664238
59	0x3e179bd3	0.14805536
60	0x3b0924bb	0.0020926434
61	0x3d8a94b5	0.06766645
62	0xbc034ad9	-0.008013451
63	0x3c926921	0.017872395
64	0xa95ed49d	-4.9478315e-14
65	0xa9f2e5a8	-1.0786798e-13
66	0xbc280dcb	-0.010257195
67	0xbcb87e2b	-0.0225211
68	0xbc3221f4	-0.010872353
69	0xa9a48250	-7.3056687e-14
70	0xba42b3be	-0.00074272964
71	0xbae61556	-0.0017553966
72	0xbc72c227	-0.014816797
73	0xbcb0bd38	-0.021574602
74	0xbc992eb7	-0.018699033
75	0xa9c053a0	-8.5410195e-14
76	0xae63efb2	-5.1826717e-11
77	0x292048d0	3.559029e-14
78	0xbc122ae4	-0.008921359
79	0xaad8689d	-3.8441898e-13
80	0xa8f57224	-2.7249965e-14
81	0xaa988e26	-2.709926e-13
82	0xb8fb5a73	-0.0001198546
83	0x2a397242	1.6470942e-13
84	0xaad0bfbd	-3.7081267e-13
85	0xab424354	-6.901608e-13
86	0x2864aea0	1.2694408e-14
87	0x3a288e49	0.00064298935
88	0xa8983e08	-1.6902292e-14
89	0xa89dfaa1	-1.7539194e-14
90	0xaa438edc	-1.7369043e-13
91	0xbaf3be1e	-0.0018596088
92	0xb91e7624	-0.00015112065
93	0xbc03a3e7	-0.008034683
94	0xbc96c930	-0.01840648
95	0xbd218876	-0.03943678
96	0x2a52023c	1.8652522e-13
97	0xa90b1879	-3.0885427e-14
98	0xa96eb108	-5.3000166e-14
99	0x2a96161b	2.666069e-13
100	0xba76bec0	-0.0009412579
101	0x2a7fef3a	2.2731548e-13
102	0xaa1d669e	-1.3980004e-13
103	0xaa732658	-2.1596039e-13
104	0xbb37ab6e	-0.0028025764
105	0xa91095e5	-3.2104436e-14
106	0x2a3bf615	1.6694313e-13
107	0xa9d8eaa7	-9.6330326e-14
108	0xa8dc0bae	-2.4429972e-14
109	0xba89faae	-0.0010526979
110	0xa9e77639	-1.0278969e-13
111	0x2ac09b38	3.4213756e-13
112	0xa9209566	-3.565672e-14
113	0xbcccb9a9	-0.024990873
114	0x2a2c36dd	1.5295703e-13
115	0x2ac9b910	3.5833185e-13
116	0xbaf7a71c	-0.0018894407
117	0xbc71cbc2	-0.014758052
118	0x2ed8ffa5	9.8679544e-11
119	0xbca01dd2	-0.01954547
120	0xaa5c7cb0	-1.9583185e-13
121	0x28cb2e87	2.2557705e-14
122	0xa81f518a	-8.843954e-15
123	0xb9a2d68f	-0.00031058906
124	0xaa1b58f9	-1.3797634e-13
125	0xb679ecb0	-3.7241662e-06
126	0xbaf4cb65	-0.0018676339
127	0xbb453709	-0.0030092618
128	0xbd1c904e	-0.038223557
129	0x3c829bc8	0.015943423
130	0x3c18aac6	0.009318059
131	0x3d321699	0.043478582
132	0x3c4159f2	0.01180123
133	0xbd891406	-0.06693272
134	0x3d222285	0.0395837
135	0x3cd2f4c0	0.025751472
136	0x3dcbf7d8	0.09959382
137	0x3da6ab08	0.0813809
138	0x3d82abf2	0.06380452
139	0xbddb342a	-0.10703309
140	0x3d36751b	0.044545274
141	0xbe959d05	-0.2922136
142	0x3cfdca16	0.030980151
143	0xbd42266c	-0.047399923
144	0xbc12d5ce	-0.008962108
145	0xbd1eb40b	-0.03874592
146	0x3e2d6129	0.16931595
147	0x3d7a9f2b	0.06118695
148	0xbd302304	-0.043002144
149	0x3dfe6f62	0.12423588
150	0x3e15fdf4	0.14647657
151	0x3cb66954	0.022267021
152	0x3d6f1bbd	0.058376063
153	0xbd01b400	-0.031665802
154	0x3cc6ef7a	0.024284113
155	0x3cd50115	0.026001493
156	0x3dc98017	0.09838884
157	0xbc93fa32	-0.018063638
158	0x3d0cc220	0.03436482
159	0xbcf9dde4	-0.030501314
160	0xbeaf1b2b	-0.34200415
161	0xbdcedade	-0.10100339
162	0xbe4afb8e	-0.19822523
163	0x3e12be8f	0.14330505
164	0x3a683140	0.00088574365
165	0x3d586f62	0.052840598
166	0x3dc1f990	0.094714284
167	0x3e9eb279	0.3099554
168	0xbdb08750	-0.08619559
169	0x3bae5d54	0.005321184
170	0x3db34ede	0.08755277
171	0xbcf9ef80	-0.03050971
172	0x3e6a8607	0.2290269
173	0x3c9d046b	0.019167146
174	0xbc460ee9	-0.012088516
175	0x3c94302b	0.018089375
176	0xbda82b79	-0.08211417
177	0x3cbfd865	0.023418615
178	0x3d85b110	0.065279126
179	0xbe40c2e8	-0.18824351
180	0xbdce3723	-0.1006911
181	0xbd9094da	-0.07059641
182	0x3dbad256	0.0912215
183	0x3dbdb9e8	0.092639744
184	0x3da014bc	0.07816455
185	0x3d9a72b4	0.07541409
186	0xbca321bb	-0.019913545
187	0x3e1990e1	0.14996673
188	0xbe0bf6e2	-0.13668397
189	0x3d2d9f4c	0.042388245
190	0xbd1b35bd	-0.037893046
191	0xbd2051d2	-0.03914053
192	0x29a19782	7.176119e-14
193	0x2ac82934	3.5555727e-13
194	0xba4a71b3	-0.0007722631
195	0xbc40aeb7	-0.011760405
196	0xbc3a4c76	-0.011370769
197	0x2abbc6e0	3.335587e-13
198	0xbba2d4f1	-0.0049692323
199	0x30f2bcc3	1.7661467e-09
200	0xbb14ca04	-0.0022703419
201	0xbc8bc583	-0.017061954
202	0xbc5f3e7d	-0.013625738
203	0xab09e7e0	-4.899397e-13
204	0xba92e02f	-0.0011205728
205	0xa98bb839	-6.2047976e-14
206	0xbb0f9457	-0.0021908486
207	0x2a0e5107	1.2640246e-13
208	0xaf6a232e	-2.1294674e-10
209	0xaac6c8a8	-3.53111e-13
210	0x2b9f75cd	1.1330326e-12
211	0x2a8a85c2	2.4606538e-13
212	0xaa0f1e97	-1.2711564e-13
213	0xaa293241	-1.502765e-13
214	0xaac16cce	-3.4359185e-13
215	0xbc31b42f	-0.010846182
216	0xaa36b35f	-1.6227079e-13
217	0xaa9f6640	-2.8315024e-13
218	0xaa86e995	-2.3965262e-13
219	0xbb079feb	-0.0020694684
220	0xaa3f31af	-1.6981445e-13
221	0xbab2e613	-0.001364889
222	0xbb5ed7ab	-0.003400306
223	0xbc05592d	-0.008138937
224	0xaac4d522	-3.4964485e-13
225	0x2af2010a	4.2988557e-13
226	0xaac10365	-3.4286042e-13
227	0x2907a8c7	3.0122413e-14
228	0xb9075775	-0.00012907184
229	0xb81dab79	-3.7591413e-05
230	0x2a550f8b	1.8923593e-13
231	0x2919c219	3.4141177e-14
232	0xbc073b7e	-0.00825393
233	0xaacb56b0	-3.6120195e-13
234	0x2988d3b2	6.0763365e-14
235	0x2ac4f238	3.4984667e-13
236	0xa989723e	-6.10384e-14
237	0xbc2926ea	-0.010324219
238	0xbb0aab72	-0.0021159318
239	0xaa9fd444	-2.8391363e-13
240	0x280ca28b	7.806807e-15
241	0xbcd34f8e	-0.02579477
242	0xaafb2592	-4.4612626e-13
243	0xaaccd593	-3.6385876e-13
244	0xb931600f	-0.0001691582
245	0xbbd53905	-0.0065070414
246	0x31d124df	6.0868923e-09
247	0xbba2e183	-0.0049707307
248	0xaa413b89	-1.7162499e-13
249	0xa94a4f2e	-4.4921688e-14
250	0xa97654c0	-5.4696482e-14
251	0xb52f9696	-6.541171e-07
252	0x29c70818	8.838779e-14
253	0xb95257fc	-0.00020059937
254	0xba19576e	-0.0005849515
255	0xba1f79c9	-0.0006083516
