2. Convolutional Autoencoders/models/autoencoder3d.pth (torch, 203945 bytes, 19 tensors)

encoder_conv.0.weight f4 [8, 1, 3, 3]
0	0x3e6522bc	0.22376531
1	0xbced055b	-0.028933218
2	0xbb155a27	-0.002278933
3	0xbd846af1	-0.0646571
4	0xbe123689	-0.14278616
5	0x3ea1997e	0.31562418
6	0x3e800d91	0.2501035
7	0xbc604088	-0.01368726
8	0x3e959ea0	0.29222584
9	0xbdda189c	-0.10649225
10	0xbe191424	-0.1494909
11	0xbdd33bbb	-0.10314127
12	0xbe5e54dc	-0.21712059
13	0x3e3dc6b2	0.18532827
14	0xbdbcb9f5	-0.09215156
15	0xbeb8d799	-0.36101988
16	0x3d76f515	0.060292322
17	0xbe9d4c47	-0.30722257
18	0x2cb5f640	5.1716686e-12
19	0xab1af8db	-5.5057147e-13
20	0x2a22b099	1.444976e-13
21	0x2c4286d4	2.7643903e-12
22	0xac09b4ee	-1.9569307e-12
23	0xaa882bae	-2.4188762e-13
24	0x2bfdfc57	1.804677e-12
25	0xaa6392e8	-2.0212618e-13
26	0x2b3e671f	6.764467e-13
27	0xbd83693b	-0.064165555
28	0x3e465374	0.19367772
29	0xbc669c09	-0.014075288
30	0xbdc912f6	-0.0981807
31	0x3e9b9e1b	0.30394062
32	0x3e950442	0.2910481
33	0x3ce8b1dc	0.028405122
34	0xbe28a188	-0.1646787
35	0xbdf2ffeb	-0.11865219
36	0x3afd68d3	0.0019333608
37	0xbe55ef42	-0.20892051
38	0x3df054e8	0.117349446
39	0x3e408d7f	0.18803976
40	0xbe780c5f	-0.24223469
41	0xbe18b1ed	-0.14911623
42	0xbe1a3a90	-0.15061402
43	0x3e20b2c5	0.15693195
44	0xbd700bcd	-0.058605004
45	0xbd96e3f5	-0.07367698
46	0xbce35ccc	-0.02775421
47	0xbcb6d8cc	-0.022320174
48	0xbc4d20d5	-0.012520035
49	0xbcabb955	-0.020962397
50	0xbd164d6d	-0.036694933
51	0x3bc9ce45	0.0061586224
52	0x3cad6c14	0.0211697
53	0xbcf5e91d	-0.030018384
54	0x3b9870d2	0.004652121
55	0x3e7ab49d	0.24482961
56	0x3c93ba9b	0.018033316
57	0x3d9ca760	0.07649112
58	0x3eb7aa34	0.35872042
59	0x3e3b861d	0.18312879
60	0x3dafedb2	0.08590259
61	0x3eac5209	0.33656338
62	0x3e03b8c7	0.12863456
63	0x3154e759	3.0981566e-09
64	0xae170418	-3.433706e-11
65	0x2a10a1fb	1.2845968e-13
66	0x32540bed	1.2342736e-08
67	0xadac8bce	-1.9616222e-11
68	0x2ba1164e	1.1445929e-12
69	0xb2235d66	-9.509085e-09
70	0x2ab48874	3.2069106e-13
71	0xab51f841	-7.459624e-13

encoder_conv.0.bias f4 [8]
0	0xbe9ca8f6	-0.30597657
1	0x3e83cd1c	0.25742424
2	0xbc1a0c6f	-0.009402378
3	0xbdd47e73	-0.10375681
4	0x3ea05e65	0.31322017
5	0xbdac5b3e	-0.084158406
6	0xbd1b4d35	-0.037915427
7	0xb48cc3d3	-2.6219513e-07

encoder_conv.2.weight f4 [16, 8, 3, 3]
0	0x3c0d8e4a	0.008639881
1	0xbd9d8f44	-0.076933414
2	0x3c655e2e	0.013999505
3	0xbc1d776e	-0.009610994
4	0xbd87d0b3	-0.06631603
5	0x3d0624c8	0.03274992
6	0x3d329cfa	0.043606736
7	0xbde91401	-0.113807686
8	0x3da20287	0.07910638
9	0xbbe166e0	-0.0068787187
10	0x3e5e8b1f	0.21732758
11	0x3d8aaf55	0.06771723
12	0x3ca03f60	0.01956147
13	0x3e7c8d15	0.24663194
14	0x3df36f2a	0.11886437
15	0xbcd4b31f	-0.025964318
16	0x3e75f40c	0.24018878
17	0x3d16e623	0.03684057
18	0x2c138cab	2.0968043e-12
19	0xab9db98d	-1.1207022e-12
20	0x2bfb2cc1	1.7847044e-12
21	0x2bef14b1	1.6987714e-12
22	0xabf456c1	-1.7361322e-12
23	0xab8b08b1	-9.878956e-13
24	0x2bdebda2	1.5826682e-12
25	0x2c00f4d7	1.8325807e-12
26	0x2bff6d39	1.8149155e-12
27	0xbd1ad5a6	-0.037801407
28	0xbd71e44d	-0.059055615
29	0x3df0b2fc	0.117528886
30	0xbd763be7	-0.06011572
31	0xbdc8f464	-0.09812239
32	0x3d873d3d	0.06603477
33	0xbd8076ba	-0.06272645
34	0xbdbb8914	-0.09157005
35	0x3c98997d	0.018627876
36	0x3e36fdcc	0.17870253
37	0x3e85a05b	0.26098904
38	0x3d941c92	0.07232012
39	0x3e3a74ce	0.1820862
40	0x3e9ea4f4	0.30985224
41	0x3e1e490c	0.15457553
42	0x3e7407f9	0.23831166
43	0x3e8a719d	0.27039805
44	0x3db9803b	0.09057661
45	0xb1b5b2dd	-5.2881277e-09
46	0x2d1c0105	8.8678e-12
47	0x2c975d27	4.30202e-12
48	0xb1a7c9f6	-4.8833e-09
49	0x2d5374fa	1.2019935e-11
50	0xad1f7453	-9.063933e-12
51	0x2f95d841	2.72566e-10
52	0xad21e1bb	-9.201913e-12
53	0x2d0d7b7e	8.042343e-12
54	0x3dbac813	0.091201924
55	0xbd7c65ae	-0.061620407
56	0x3d4e66ea	0.050391115
57	0x3cf8e5ad	0.030382955
58	0xbe17e6c9	-0.14834131
59	0xbaab2983	-0.0013058636
60	0x3d459ccc	0.048245236
61	0xbe2447bb	-0.16042988
62	0x3cc10e38	0.02356635
63	0xab23b58d	-5.8161185e-13
64	0x2aaae3cd	3.0356135e-13
65	0x2b2ea3ba	6.2044434e-13
66	0x2abf30bf	3.396224e-13
67	0xab358e77	-6.4501827e-13
68	0xab1d2291	-5.5825575e-13
69	0xaae923fa	-4.1414078e-13
70	0x2a7c8dea	2.2431333e-13
71	0x2a3d65f9	1.6821951e-13
72	0xbd14f30e	-0.036364608
73	0xbdf1356a	-0.11777766
74	0xbcfb9af8	-0.030713543
75	0xbce8755a	-0.02837627
76	0xbd759f17	-0.059966173
77	0xbd2c4c27	-0.042064812
78	0xbd23f60c	-0.04002957
79	0xbde3312d	-0.11093364
80	0xbd95d3d3	-0.07315793
81	0x3d490501	0.049077038
82	0x3d98e13c	0.07464835
83	0xbc353bff	-0.011061667
84	0xbbeccea4	-0.007226782
85	0x3d321893	0.043480467
86	0x3a214c30	0.00061530154
87	0x3c560b3d	0.013064203
88	0x3db1f815	0.08689896
89	0x3cc4c2a4	0.024018593
90	0x2b4c2e37	7.2539495e-13
91	0xac0c912a	-1.9975779e-12
92	0xaba9738b	-1.2040242e-12
93	0xab98ff38	-1.0871087e-12
94	0x2a8c9d18	2.4978001e-13
95	0xac02ebaa	-1.860493e-12
96	0x2bd558c0	1.5159193e-12
97	0xabf8d9bb	-1.7681892e-12
98	0x29d32f2b	9.378465e-14
99	0xbd5f16c1	-0.05446506
100	0xbd8b9416	-0.068153545
101	0xbd8305bc	-0.06397578
102	0xbd985167	-0.07437401
103	0xbda674b3	-0.08127727
104	0xbe09003a	-0.13378993
105	0xbde7c815	-0.113174595
106	0xbd99e4e7	-0.07514363
107	0xbd54da4a	-0.05196599
108	0x3e4ce1dc	0.20008034
109	0x3e172e0f	0.14763664
110	0x3e07f757	0.13277946
111	0x3e19aaca	0.15006557
112	0x3e4c4c6d	0.19951029
113	0x3e4594d9	0.19295062
114	0x3e551973	0.2081049
115	0x3e276390	0.16346574
116	0x3e0f9746	0.1402255
117	0x305f2e79	8.119297e-10
118	0xac2aca6a	-2.4270815e-12
119	0x2c928770	4.164606e-12
120	0xb0e86660	-1.6909318e-09
121	0xaa06901f	-1.1951593e-13
122	0xacf498f7	-6.9518796e-12
123	0x306b1d62	8.553426e-10
124	0x2ce7b318	6.5852983e-12
125	0xacd5d545	-6.0775018e-12
126	0x3e08b0ae	0.13348648
127	0x3d0ae286	0.033907436
128	0xbb89573c	-0.0041913074
129	0x3dd1e899	0.102494426
130	0xbbe27c00	-0.0069117546
131	0xbdaf7424	-0.08567074
132	0x3dd3f2fe	0.103490815
133	0xbc551b32	-0.013006972
134	0xbde246fe	-0.11048697
135	0x2b1a571a	5.483267e-13
136	0xaa9c96bc	-2.781576e-13
137	0x2ae403c8	4.050356e-13
138	0xa86ac5ab	-1.3032472e-14
139	0x2afd4740	4.4991268e-13
140	0x2aca0ff9	3.5893491e-13
141	0xab397fb0	-6.5902405e-13
142	0x291e1ba0	3.510701e-14
143	0x2a4fb089	1.8446541e-13
144	0xbc7d966b	-0.015477757
145	0xbc4927fb	-0.0122775985
146	0xbd0b5788	-0.034019023
147	0xbdd93faf	-0.1060785
148	0xbe0eca53	-0.13944368
149	0xbd060d00	-0.03272724
150	0xbcf9536b	-0.030435285
151	0xbd97a5e3	-0.07404687
152	0xbd351281	-0.0442071
153	0xbc049ed3	-0.008094507
154	0x3d1b814a	0.037965097
155	0xbc2466f6	-0.010034313
156	0x3c9b2fe0	0.018943727
157	0x3d3b22de	0.04568755
158	0x3dff1d89	0.12456805
159	0x3d175052	0.036941834
160	0x3da0e59e	0.07856296
161	0x3d58f0f7	0.052964177
162	0x2b6550f3	8.1469483e-13
163	0x2bd888e3	1.5385717e-12
164	0x2b8afbb4	9.875351e-13
165	0xaba2bf04	-1.156381e-12
166	0x2b9418ed	1.0522951e-12
167	0xaba3d29f	-1.1640306e-12
168	0xaa83ff32	-2.3447352e-13
169	0x2bb728e2	1.3014279e-12
170	0xab9d92b6	-1.1196241e-12
171	0x3b556ea3	0.0032567165
172	0xbd3c303f	-0.04594445
173	0xbd2b8bdf	-0.04188144
174	0xbd5dcd1f	-0.054150697
175	0xbd243dac	-0.040097877
176	0xbd152941	-0.036416296
177	0xbd6bd106	-0.057572387
178	0xbe0639ac	-0.13107938
179	0xbc840a6f	-0.016118256
180	0x3e100b31	0.14066769
181	0x3cf6ae24	0.030112334
182	0x3dbaa6ad	0.09113822
183	0x3e1fb9e0	0.1559825
184	0x3dccb955	0.09996287
185	0x3cae186b	0.021251878
186	0x3e25bca2	0.16185239
187	0x3e1ce078	0.15320003
188	0x3b162862	0.0022912254
189	0x2e814230	5.877998e-11
190	0xac18f6da	-2.173753e-12
191	0xab916917	-1.0332038e-12
192	0xaebcb093	-8.580616e-11
193	0xabf4d78b	-1.7397068e-12
194	0x2beef13a	1.6977871e-12
195	0xad767b4a	-1.4010857e-11
196	0x2bda7a17	1.5523718e-12
197	0x2ce6e068	6.5619073e-12
198	0x3e1dbaac	0.15403241
199	0x3d38a01b	0.045074563
200	0x3c75a692	0.014993327
201	0x3d59b567	0.053151514
202	0xbdfa61e9	-0.12225706
203	0xbd68fef3	-0.056883764
204	0x3d247e13	0.040159296
205	0xbe4b5aa9	-0.19858803
206	0xbde3fdb1	-0.11132372
207	0xab503a02	-7.3976947e-13
208	0x29760ead	5.4635702e-14
209	0x2ad591c2	3.793754e-13
210	0x2b1daa0c	5.601359e-13
211	0x2832c7ad	9.924283e-15
212	0x28c8806e	2.2260158e-14
213	0x2ac711b6	3.536179e-13
214	0xab12a7e3	-5.210261e-13
215	0xaaf506da	-4.3525497e-13
216	0xbc6edacc	-0.014578532
217	0xbc9d6801	-0.019214632
218	0x3a81d951	0.0009906684
219	0xbc465450	-0.012105063
220	0xbccbce36	-0.024878602
221	0xbc6b029d	-0.014343885
222	0xbb413d51	-0.002948601
223	0x3ad022c8	0.0015879506
224	0x3b407cda	0.0029371292
225	0xbb42f386	-0.0029747202
226	0xbc3eee47	-0.011653489
227	0xbcb0c97e	-0.021580454
228	0xbc26699b	-0.010157014
229	0xbc277e07	-0.010222918
230	0xbca8f4fe	-0.020624634
231	0xbb230519	-0.0024874865
232	0xbc5cdc1a	-0.013480211
233	0x3af36905	0.0018570727
234	0x2a405433	1.7082238e-13
235	0x2b06699b	4.775292e-13
236	0xa6b035a8	-1.2226997e-15
237	0xa885867b	-1.4824288e-14
238	0x288224a7	1.4448795e-14
239	0x28f70737	2.7425638e-14
240	0xaa1c3df5	-1.3877079e-13
241	0xaa94b5a4	-2.641612e-13
242	0x291f7a88	3.541137e-14
243	0xbc9cfe18	-0.01916413
244	0xbca9351d	-0.02065521
245	0xbc086de8	-0.008326985
246	0xbc9e4894	-0.019321717
247	0xbc9c6429	-0.019090729
248	0xbceccaff	-0.02890539
249	0x3bdcf971	0.006743603
250	0xbcfc355b	-0.03078716
251	0x3b5c4c9e	0.0033615003
252	0xaac0398c	-3.4145982e-13
253	0x2b141a11	5.2616337e-13
254	0x29797bb2	5.5396395e-14
255	0x2ac54ce3	3.504758e-13

encoder_conv.2.bias f4 [16]
0	0x3e5b5152	0.2141774
1	0x3e2a4d8b	0.16631143
2	0x3dfdefad	0.1239923
3	0xbd820c70	-0.063500285
4	0x3dd201a2	0.10254218
5	0x3db248d3	0.08705296
6	0x3e38c89f	0.18045281
7	0x3cd6a6be	0.026202556
8	0x3c575049	0.0131417
9	0x3e545f34	0.20739442
10	0x3e38ed31	0.18059231
11	0x3dfcc0ed	0.12341485
12	0x3e3d6eaf	0.18499254
13	0x3ddd4632	0.10804404
14	0x3d5e5904	0.05428411
15	0x3e4aaae8	0.19791758

encoder_conv.4.weight f4 [32, 16, 3, 3]
0	0xbd38fb48	-0.045161515
1	0x3e1fdc71	0.15611435
2	0x3dec834d	0.11548481
3	0xbe54c292	-0.20777348
4	0xbd91c27e	-0.071171746
5	0xbe35b832	-0.17746046
6	0xbe1d57e3	-0.15365557
7	0x3d69a34a	0.05704049
8	0xbd7e8db1	-0.062146846
9	0xbd9bfc03	-0.07616427
10	0x3ddde1cb	0.10834082
11	0x3d6a0491	0.05713326
12	0xbe2befbe	-0.16790673
13	0xbdd56367	-0.1041935
14	0xbdf937c6	-0.12168841
15	0xbe0e4461	-0.13893272
16	0x3cf14097	0.029449744
17	0xbd61904d	-0.055069257
18	0xbd3f7309	-0.046740565
19	0x3dd8b18d	0.1058074
20	0x3b5fa04b	0.0034122642
21	0xbdb854e3	-0.09000566
22	0xbd15d735	-0.03658219
23	0xbe2fdf2d	-0.17174979
24	0xbd937586	-0.0720015
25	0x3df8d492	0.121499196
26	0x3d316941	0.04331327
27	0xa9f63070	-1.0932997e-13
28	0xa7cd20fd	-5.6934696e-15
29	0xa978ca5d	-5.5242584e-14
30	0xa98e750c	-6.326371e-14
31	0xa9839190	-5.84282e-14
32	0xa9a1b680	-7.181495e-14
33	0xaa889d29	-2.4267505e-13
34	0xa9da2f37	-9.689335e-14
35	0x281e651e	8.792688e-15
36	0xbd25a56c	-0.04044096
37	0x3e46a0a5	0.19397219
38	0x3c95a534	0.018267252
39	0xbe225f65	-0.15856703
40	0xba1486c5	-0.0005665834
41	0xbe55133d	-0.2080812
42	0xbdc31378	-0.09525198
43	0xbca4ac32	-0.02010164
44	0xbded597a	-0.11589332
45	0x3cdc21d0	0.026871592
46	0x3d7e4f56	0.06208738
47	0x3d2b04e5	0.041752715
48	0x3e90206b	0.28149733
49	0x3e9ebd26	0.31003684
50	0x3e9d5ab9	0.30733278
51	0x3e8feeb9	0.28111818
52	0x3e80e032	0.25171047
53	0x3e4690ff	0.19391249
54	0xbd853e5f	-0.06506037
55	0x3e17a8d2	0.14810494
56	0x3dc0e825	0.09419278
57	0xbe5e0daa	-0.216849
58	0xbd86e324	-0.065862924
59	0xbe430462	-0.1904464
60	0xbe2b1a93	-0.16709356
61	0x3d6c4361	0.057681445
62	0xbd9d37b2	-0.07676639
63	0xbca233c4	-0.019800074
64	0x3e57a4b9	0.2105893
65	0xbbf5a32d	-0.0074962587
66	0xbe195db2	-0.14977148
67	0xbd65cb12	-0.056101866
68	0xbe5e0a37	-0.21683584
69	0xbdd17167	-0.10226708
70	0xbb61ec14	-0.003447299
71	0xbe8b30f1	-0.27185777
72	0x3dafdb94	0.08586803
73	0xbd605d9c	-0.054776773
74	0xbe024754	-0.12722522
75	0xbd02cb94	-0.03193243
76	0xbd0996b7	-0.033591
77	0xbdba9300	-0.09110069
78	0xbe07631a	-0.13221398
79	0xbe13b73b	-0.14425366
80	0xbe6a1137	-0.2285813
81	0xbc04d029	-0.00810627
82	0x3e2c5f0e	0.16833135
83	0x3de2709f	0.11056637
84	0xbe6540ec	-0.22388047
85	0xbdec7056	-0.11544864
86	0xbe13695d	-0.14395662
87	0xbe2a2350	-0.16615033
88	0x3b97ddc1	0.0046345894
89	0xbd74ee41	-0.05979753
90	0xbdb8df66	-0.09026985
91	0x3df71ae9	0.120656796
92	0x3d678f96	0.05653342
93	0xbe2d6dcd	-0.16936417
94	0xbdd31a33	-0.103077315
95	0xbe62f787	-0.22164737
96	0xbe335619	-0.17513312
97	0x3e3e9888	0.18612874
98	0xbccd7de8	-0.02508445
99	0xbdbad799	-0.09123153
100	0x3dc82be5	0.09773997
101	0x3d4a37ac	0.0493695
102	0xbdee6b94	-0.11641613
103	0xbd1955c9	-0.037435327
104	0xbe0797e4	-0.13241535
105	0xbda6a4de	-0.08136915
106	0x3d9e4728	0.07728416
107	0xbc4d6acb	-0.012537668
108	0xbde22baf	-0.11043488
109	0x3c7c0a39	0.015383297
110	0xbd29783c	-0.04137443
111	0xbdbb5171	-0.09146393
112	0xbe2bc000	-0.16772461
113	0xbdefa42d	-0.11701236
114	0xbdd4879c	-0.10377428
115	0x3d5910c8	0.05299452
116	0x3d88329a	0.066502765
117	0x3d23f84d	0.04003172
118	0x3df56c8d	0.11983595
119	0x3dc0ac94	0.09407917
120	0xbddddd3b	-0.10833212
121	0xbe2b118e	-0.16705915
122	0xbe7246cd	-0.23659821
123	0xbe187fec	-0.14892548
124	0xbd0f8beb	-0.035045546
125	0xbe2b92e0	-0.16755247
126	0xbcc6ebc7	-0.02428235
127	0x3df05698	0.117352664
128	0xbd41d15d	-0.047318805
129	0xbda7571c	-0.08170912
130	0xbe26afb1	-0.16277958
131	0xbe086fe2	-0.1332393
132	0xbcba07ce	-0.0227088
133	0x3daabff4	0.083373934
134	0x3d88a1dd	0.06671498
135	0xbc3cbd0e	-0.0115196835
136	0x3daac14f	0.08337652
137	0x3d13490e	0.035958342
138	0xbdf59a25	-0.11992291
139	0xbe1f441d	-0.15553327
140	0x3bac4db0	0.0052582845
141	0xbd80df5c	-0.062926024
142	0xbe413b8d	-0.18870373
143	0xbcf937d4	-0.030422129
144	0xbdf9db47	-0.12200027
145	0xbe01bdc9	-0.12670054
146	0xbc84f782	-0.016231302
147	0xbe0846c4	-0.13308245
148	0xbe804ad4	-0.2505709
149	0x3d9aeb21	0.075643785
150	0xbd7c2737	-0.061560836
151	0xbe86cd04	-0.2632829
152	0x3e305038	0.17218101
153	0xbe2be7ce	-0.16787645
154	0xbe5157bb	-0.20443623
155	0x3cb2124a	0.021737237
156	0xbe05bb6c	-0.13059777
157	0xbe8b202e	-0.2717299
158	0x3d7b4c7d	0.06135224
159	0xbdc4f376	-0.09616749
160	0xbe2b6a5e	-0.16739795
161	0x3d4d9a83	0.050196182
162	0xbd0355ab	-0.03206412
163	0xbd51fad2	-0.05126459
164	0x39ef6b42	0.00045665546
165	0x3cbfbe32	0.023406122
166	0xbdf5be97	-0.11999243
167	0x3db3b317	0.08774393
168	0x3d61e9cd	0.05515461
169	0xbd74a0d3	-0.059723686
170	0x3dd91596	0.1059982
171	0x29f6b8aa	1.0956629e-13
172	0xaa748f6a	-2.172131e-13
173	0xaa49213c	-1.7863917e-13
174	0xaa22ddbd	-1.4465421e-13
175	0x2a3c5178	1.672602e-13
176	0x2a84df19	2.3602715e-13
177	0xa9ee5e72	-1.0585707e-13
178	0xa9fc947b	-1.12168053e-13
179	0xaa780da7	-2.2031561e-13
180	0xbd831da6	-0.06402139
181	0xbbefe995	-0.0073215463
182	0x3d2953ab	0.041339558
183	0xbb7d8d53	-0.0038688972
184	0xbd503df0	-0.05084032
185	0x3de89b1c	0.1135771
186	0x3d8eb76c	0.06968579
187	0xbe100318	-0.1406368
188	0x3e4c4c5c	0.19951004
189	0x3e1760d9	0.14783038
190	0x3e161ed4	0.14660197
191	0xbc819005	-0.015815744
192	0x3e9009a2	0.2813235
193	0x3e915844	0.28387654
194	0xbcfbe908	-0.030750766
195	0x3e3f1df3	0.18663768
196	0x3e6f3ced	0.23363085
197	0xbde1b382	-0.110205665
198	0xbe0eef4c	-0.13958472
199	0xbe106120	-0.1409955
200	0xbd68bca0	-0.05682051
201	0xbe068b6e	-0.13139126
202	0xbe84ddab	-0.2595037
203	0x3ceb09a4	0.02869112
204	0xbd7a6dd3	-0.061139893
205	0xbe62b6f4	-0.22140104
206	0x3dfeda10	0.12443936
207	0xbd3e6aa5	-0.046488423
208	0x3de6add0	0.11263621
209	0x3d053190	0.03251797
210	0xbc25557d	-0.010091183
211	0xbb112536	-0.0022147424
212	0x3b57fa5e	0.0032955627
213	0x3b6cae97	0.0036114806
214	0xbc118477	-0.00888168
215	0x3e405144	0.18781
216	0x3d1ea6b9	0.038733218
217	0xbda4d3f2	-0.08048238
218	0xbd28c164	-0.041200057
219	0xbe2e5843	-0.17025857
220	0xbda0b638	-0.078472555
221	0xbca323a9	-0.019914465
222	0xbda3b4db	-0.0799348
223	0x3d1a30ba	0.037644126
224	0x3c82bc25	0.015958855
225	0xbdc7c736	-0.09754793
226	0xbe135e52	-0.14391449
227	0xbc1d5a58	-0.009604059
228	0xbe4d4f6e	-0.20049831
229	0xbea5f01f	-0.3240976
230	0x3d46abd3	0.048503708
231	0xbd8a5941	-0.06755305
232	0xbe7fe3d5	-0.24989255
233	0x3e0679e9	0.13132443
234	0xbdb84589	-0.08997638
235	0xbe1888f5	-0.14895995
236	0xbd8917e1	-0.06694008
237	0xbce6928a	-0.028146047
238	0xbd956fe7	-0.07296734
239	0xbd07ed3a	-0.03318522
240	0x3d3521e3	0.04422177
241	0xbd0b5ad7	-0.03402218
242	0x3d3ed670	0.046591222
243	0xbe05c16e	-0.13062069
244	0xbe06dd32	-0.13170317
245	0x3bdd5496	0.006754468
246	0xbcf6d6f8	-0.030131802
247	0xbe5a8377	-0.21339212
248	0x3dd36b46	0.10323195
249	0xbd19dbf0	-0.037563264
250	0xbe49f266	-0.19721374
251	0x3dfbbe76	0.12292187
252	0xbe3cc9c6	-0.18436345
253	0xbe8ac4f9	-0.27103403
254	0x3bee163b	0.0072658337
255	0xbd0e76da	-0.034781314

encoder_conv.4.bias f4 [32]
0	0x3d7eabad	0.06217544
1	0xbd31b624	-0.043386593
2	0xbd7b9d00	-0.061429024
3	0xbd4ccd91	-0.05000073
4	0x3e4694b8	0.19392669
5	0xbd2517b6	-0.040305816
6	0xbd9bd44a	-0.0760885
7	0xbb8053e7	-0.003916252
8	0xbdb49737	-0.088179044
9	0xbd36f436	-0.04466649
10	0xbc7faa48	-0.015604563
11	0xbd8777be	-0.06614636
12	0x3e37ca59	0.17948283
13	0xbd027c63	-0.031856906
14	0xbd820a9c	-0.0634968
15	0x3e1732a0	0.14765406
16	0xbdc8e1ec	-0.09808716
17	0xbcd50501	-0.026003363
18	0x3e676f33	0.22601013
19	0xbd53119c	-0.051530465
20	0xbbd16097	-0.0063896882
21	0x3cddaf2a	0.027061064
22	0xbca51006	-0.020149242
23	0xbca624cf	-0.020281224
24	0xbe5ed6fb	-0.21761696
25	0x3d04b113	0.032395434
26	0xbc8144d6	-0.015779894
27	0x3d059b95	0.032619078
28	0xbc4748f7	-0.012163392
29	0xbdb25ace	-0.08708726
30	0xbccf5445	-0.025308738
31	0xb95b7237	-0.00020928016

encoder_lin.0.weight f4 [64, 288]
0	0xbdc9dba3	-0.098563455
1	0xbdfec05a	-0.12439032
2	0x3be89ec9	0.007099007
3	0xbe79e70c	-0.24404544
4	0x3c75e7a8	0.015008844
5	0x3e1d3d90	0.15355515
6	0xbd7c2300	-0.061556816
7	0xbccdf17b	-0.02513956
8	0x3d4f2d12	0.05058009
9	0xb8787195	-5.923359e-05
10	0xbc89daee	-0.016828027
11	0xbe7224cc	-0.2364685
12	0x3d13bce2	0.036068805
13	0x3dc440df	0.09582686
14	0x3e96762b	0.2938703
15	0xbd6d58d8	-0.057946056
16	0xbe5c144d	-0.21492119
17	0x3c52dc25	0.012869869
18	0x3cf0cd37	0.029394729
19	0x3d320ed3	0.04347117
20	0x3cf0d55b	0.02939861
21	0x3cfcc27c	0.030854456
22	0x3cabaa37	0.020955188
23	0xbcf07d4c	-0.029356621
24	0x3d9d90c8	0.076936305
25	0x3df59035	0.11990396
26	0x3c2b6a97	0.010462425
27	0x3d02b741	0.031913046
28	0x3e2a8212	0.1665118
29	0xbc8563cd	-0.01628294
30	0x3d9dc166	0.077029034
31	0x3c339439	0.010960632
32	0xba84d069	-0.0010132912
33	0xbe081c78	-0.1329211
34	0xbab6c6db	-0.0013944762
35	0x3b2e39b5	0.002658469
36	0xbd116b93	-0.03550298
37	0xbdb57f78	-0.08862203
38	0xbd52f0ce	-0.05149918
39	0xba9a4bf2	-0.0011771901
40	0x3dfc830b	0.12329682
41	0x3e2b07c8	0.16702187
42	0xbd5893cb	-0.05287532
43	0x3c589c51	0.0132208625
44	0x3dd74a99	0.10512275
45	0x331174b8	3.38666e-08
46	0x341bd21d	1.4511939e-07
47	0x33a893a6	7.849967e-08
48	0x33ccab00	9.530595e-08
49	0x34da3038	4.0640748e-07
50	0x347f0639	2.375099e-07
51	0x33d1926d	9.7589556e-08
52	0x34e4c580	4.261201e-07
53	0x34180883	1.41592e-07
54	0xbc7fc748	-0.015611477
55	0x3d7faca3	0.0624205
56	0x3d99a4bf	0.07502126
57	0x3d891145	0.06692747
58	0x3d7f48ba	0.062325217
59	0xbd284860	-0.041084647
60	0x3d20711f	0.03917038
61	0x3d2765ba	0.0408685
62	0xbd6c3171	-0.05766434
63	0xbcdf8df4	-0.027289368
64	0x3d653b50	0.055964768
65	0x3d6343b3	0.055484485
66	0x3d4434c2	0.047901876
67	0x3965669b	0.00021877365
68	0xbd728b8b	-0.05921511
69	0x3d27d2b6	0.040972434
70	0x3dcdffef	0.10058581
71	0xbd343e40	-0.04400468
72	0x3ce5d3fa	0.02805518
73	0x3d4ec296	0.05047854
74	0x3d0bc4ae	0.034123115
75	0x3d092b5c	0.033488616
76	0x3c8a9265	0.01691551
77	0xbcd23f39	-0.025664913
78	0x3d7f2893	0.062294554
79	0x3dce546c	0.10074696
80	0x3cf17563	0.02947492
81	0x3cec707b	0.028862229
82	0x3dceb7b5	0.10093633
83	0x3b482084	0.003053696
84	0x3c3aa5aa	0.011392036
85	0x3b8eb157	0.0043546367
86	0xbc2edb0d	-0.010672343
87	0xbcfff582	-0.031244997
88	0x3c94bf69	0.018157678
89	0x3c5286ee	0.012849553
90	0x2fe9f5c3	4.2557077e-10
91	0xb699460b	-4.5679094e-06
92	0xb6522b38	-3.1317595e-06
93	0xb464b6fc	-2.1300724e-07
94	0xb84b6c8e	-4.850007e-05
95	0xb70630b4	-7.998362e-06
96	0xb4618368	-2.1002563e-07
97	0xb8696a66	-5.565062e-05
98	0xb79ca2cc	-1.8672457e-05
99	0x3c80ca30	0.01572141
100	0x3dd7ed57	0.10543316
101	0x3d70c644	0.05878283
102	0x3dee4a9e	0.11635326
103	0x3e39b6e9	0.18136181
104	0x3ccecb69	0.025243478
105	0xbda309b5	-0.07960836
106	0x3bb3df67	0.005489278
107	0xbbf9a514	-0.007618556
108	0xbcfae13e	-0.030624982
109	0xbd7dff84	-0.062011257
110	0xbcb4d63d	-0.022074813
111	0x3e0b7c7d	0.13621707
112	0x3e10f456	0.14155707
113	0x3e75de31	0.2401054
114	0xbd94762c	-0.07249102
115	0x3db60429	0.08887512
116	0x3d2fe688	0.04294446
117	0xbcc037ec	-0.023464166
118	0x3d3f0ecb	0.046644967
119	0x3d19aa77	0.037516084
120	0x3d4f0c68	0.05054894
121	0xbccd9629	-0.025096016
122	0xbdf738e5	-0.12071399
123	0x3d2b6b85	0.041850585
124	0x3cf5c947	0.030003203
125	0xbd966526	-0.07343511
126	0xbd944acd	-0.072408296
127	0x3d3a5877	0.045494523
128	0xbd012021	-0.03152478
129	0xbd5231fe	-0.051317208
130	0xbdfc21ae	-0.123111114
131	0xbdc785a9	-0.097422905
132	0xbdea6ed6	-0.114469215
133	0x3bf42e58	0.0074518137
134	0xbe0ff66a	-0.14058843
135	0xbd87cadd	-0.0663049
136	0xbc50903c	-0.012729701
137	0xbe08c52e	-0.13356468
138	0xbdbe313d	-0.09286735
139	0xbd95f513	-0.07322135
140	0x3c9cf04e	0.019157555
141	0x3d25868a	0.04041151
142	0xbcabe83c	-0.020984761
143	0x3d68c9c1	0.056833033
144	0x3d64a754	0.05582364
145	0x3d0017fc	0.031272873
146	0xbd119229	-0.03553978
147	0xbda116fe	-0.078657135
148	0xbd776253	-0.060396504
149	0xbdc4915f	-0.0959804
150	0x3e4bb39a	0.19892731
151	0x3e6b0622	0.22951558
152	0x3c5f8ce4	0.013644431
153	0xbc57cf2b	-0.013171951
154	0x3d0c721b	0.034288507
155	0x3b3c1293	0.0028697595
156	0x3c1d1f25	0.009589945
157	0x3d94a4a2	0.07257964
158	0xbc58f64c	-0.0132423155
159	0x3d46cdab	0.048535984
160	0x3dbb8c20	0.09157586
161	0xbd03ace3	-0.0321473
162	0xbea43ce1	-0.32077697
163	0xbd2101bb	-0.03930829
164	0xbd39b3c6	-0.04533746
165	0x3c4dd994	0.012564082
166	0x3db31fd9	0.08746309
167	0x3cf5204a	0.029922623
168	0xbec345e4	-0.3813926
169	0xbdd8122d	-0.10550342
170	0xbe549e73	-0.20763569
171	0x3ca79be3	0.020460075
172	0x3d37177e	0.04470014
173	0x3c96ad22	0.018393103
174	0x3ce9bab6	0.028531414
175	0x3dd99f0a	0.106260374
176	0x3a37714a	0.00069977774
177	0x3d9560e3	0.0729387
178	0x3d791501	0.060811047
179	0xbc2cc454	-0.010544855
180	0x2a12acf8	1.3027416e-13
181	0xabf19f04	-1.7168216e-12
182	0x2b2c3b61	6.118908e-13
183	0x2c8edee6	4.0606294e-12
184	0x2b8b4f27	9.898513e-13
185	0x2a27dc04	1.4908913e-13
186	0x2bfaca88	1.7819782e-12
187	0xab9934ce	-1.088596e-12
188	0xab1e07b4	-5.6143566e-13
189	0x3c5cce23	0.013476881
190	0x3cce1dbe	0.025160667
191	0x3d442fa8	0.04789701
192	0xbb854488	-0.0040670075
193	0x3cb3abfe	0.021932598
194	0xbd50de77	-0.05099341
195	0x3d6571b8	0.056016654
196	0x3db0052a	0.08594735
197	0xbb843781	-0.004034937
198	0x2cf84adc	7.056895e-12
199	0xacf15afb	-6.859733e-12
200	0x29f846e3	1.1025709e-13
201	0xac9843e8	-4.327639e-12
202	0x2d7fa95a	1.4532675e-11
203	0x2cd678d6	6.0956613e-12
204	0xad182877	-8.649185e-12
205	0x2d84fefe	1.5119902e-11
206	0x2b4dff4a	7.3184915e-13
207	0x3c0aa124	0.0084612705
208	0x3d0d0b04	0.034434333
209	0x3d257ae7	0.040400412
210	0x3d02dbbf	0.031947847
211	0x3c1fd0b1	0.009754346
212	0xbd8fae7b	-0.070157014
213	0x3db47c24	0.088127404
214	0x3ded77a4	0.11595085
215	0xbc9f0bae	-0.019414749
216	0xb945edb7	-0.0001887594
217	0xbba912a6	-0.005159694
218	0xb986d708	-0.00025718682
219	0xbc01cfc4	-0.00792307
220	0xbd21fb22	-0.03954614
221	0x3c4e01e4	0.012573693
222	0xbc0ea8e7	-0.008707262
223	0xbc6bd817	-0.014394782
224	0xbbd0b1f4	-0.00636887
225	0xbd4ca5d3	-0.04996283
226	0x3cfa8db0	0.03058514
227	0x3d783b9f	0.060603734
228	0x3d516c56	0.051128708
229	0x3c993f58	0.018706962
230	0xbd0b2edd	-0.03398024
231	0x3d318ca1	0.043347005
232	0x3d5e89a4	0.054330483
233	0xbd179ea2	-0.03701652
234	0xad7355cd	-1.3832002e-11
235	0xaec5cd44	-8.994985e-11
236	0xaec19bcc	-8.804299e-11
237	0xae6fb595	-5.4503586e-11
238	0xaeb68d2a	-8.3014776e-11
239	0xaee7af74	-1.05358305e-10
240	0xae7c36d4	-5.7346863e-11
241	0xaef6586f	-1.1202494e-10
242	0xaec55bb9	-8.974816e-11
243	0xbe400766	-0.18752822
244	0x3d910e10	0.0708276
245	0x3d7c33ed	0.061572958
246	0xbce64b50	-0.028112084
247	0x3deb659f	0.11493992
248	0xbe29a867	-0.16568147
249	0xbe00825e	-0.12549731
250	0xbe0f12fc	-0.13972086
251	0xbddc2fbd	-0.10751293
252	0xaeb1097e	-8.050714e-11
253	0xb630c6ba	-2.6341718e-06
254	0xb616150b	-2.236399e-06
255	0x30e05add	1.632397e-09

encoder_lin.0.bias f4 [64]
0	0xbd945515	-0.072427906
1	0xbdb04868	-0.086075604
2	0xb1383229	-2.6804037e-09
3	0xb97ba357	-0.00023998074
4	0x3da92d5e	0.08260606
5	0xbddaa845	-0.10676626
6	0x3c31979a	0.010839367
7	0xbd466b31	-0.04844207
8	0x3badfa88	0.0053094067
9	0xbc9b1ac5	-0.018933663
10	0xb893f17c	-7.054486e-05
11	0xb9de9047	-0.00042450635
12	0xbb12853f	-0.0022357253
13	0xbdd4f47f	-0.103981964
14	0x3cdab4fc	0.026697628
15	0x3ce9149b	0.028452208
16	0xbcf77eb5	-0.030211786
17	0xbe4fc709	-0.2029077
18	0xb01c0ef9	-5.6773747e-10
19	0x3d2780e8	0.04089442
20	0xbd7e24e4	-0.0620469
21	0xbabc4cb4	-0.0014366121
22	0x3df67c19	0.120353885
23	0xbbf59efd	-0.0074957595
24	0x2f443eb6	1.7848376e-10
25	0x3717d5cd	9.050081e-06
26	0x3ce5ff91	0.028075965
27	0xbde6a60f	-0.11262142
28	0xbe204a2a	-0.15653291
29	0xbd4d5a3c	-0.050134882
30	0x3c83bd72	0.016081546
31	0xbd744afa	-0.059641816
32	0xb99cbce2	-0.00029895367
33	0x329a4a7f	1.7961836e-08
34	0x3a1e9e69	0.00060508266
35	0xb55afe3e	-8.15813e-07
36	0xbc7fbb47	-0.015608615
37	0x3cf17881	0.029476406
38	0xb8c10930	-9.2046685e-05
39	0xbdb8112e	-0.08987652
40	0xbd03c44a	-0.032169618
41	0x3d502b0f	0.050822314
42	0x32d8578a	2.5185518e-08
43	0xbc3c25ef	-0.011483653
44	0x398e694a	0.00027162797
45	0xbc181170	-0.009281501
46	0xbd3682ee	-0.044558458
47	0x3bfe0266	0.0077517508
48	0xbc2fbf67	-0.010726786
49	0xb71bad73	-9.279104e-06
50	0xbd044895	-0.032295782
51	0xbd09ac46	-0.03361156
52	0xbd0cd841	-0.034385923
53	0xbe51820f	-0.2045977
54	0xb91c0455	-0.00014878933
55	0x3d1a4459	0.037662838
56	0x3d103e58	0.035215706
57	0xbded1019	-0.11575336
58	0x3d00ef60	0.031478286
59	0xbdfc4381	-0.12317563
60	0x3cf4986e	0.02985784
61	0xbd39becd	-0.045347977
62	0xbe32602c	-0.17419499
63	0xb99f5808	-0.00030392432

encoder_lin.2.weight f4 [3, 64]
0	0x3eb7f8e9	0.3593209
1	0x3eb308da	0.3496769
2	0x37b5a864	2.1655294e-05
3	0x3c63a7d5	0.013894995
4	0x3db96ef1	0.090543635
5	0x3e663808	0.22482312
6	0x3ee7ccd0	0.45273447
7	0x3ea79038	0.32727218
8	0xbd52dc13	-0.05147941
9	0x3df5c4b0	0.12000406
10	0x3a1efecf	0.0006065191
11	0x2e1e0092	3.5925547e-11
12	0x3c0f8ceb	0.008761625
13	0xbe5a887b	-0.21341126
14	0xbdf36938	-0.11885303
15	0x3d22083f	0.039558645
16	0x3cd1a7b4	0.025592662
17	0xbe263ef7	-0.16234957
18	0xbc9591cb	-0.018257996
19	0xbd17dcb5	-0.037075717
20	0x3eef3a6c	0.4672426
21	0xbc722e09	-0.014781483
22	0x3e391dae	0.18077728
23	0x3d439664	0.047750846
24	0xbd1e4f38	-0.038649768
25	0xb99455e5	-0.00028292756
26	0x3e625a40	0.2210474
27	0xbd97da76	-0.07414715
28	0xbe8b7da8	-0.27244306
29	0xbe1cd7d2	-0.15316704
30	0x3e4feb08	0.20304501
31	0x3d91a5ca	0.071117
32	0x3d971875	0.07377712
33	0x3d5bb875	0.05364271
34	0xbaebc2d1	-0.0017987137
35	0xb6373c57	-2.7304247e-06
36	0x3cee64b5	0.029100755
37	0xbe1e192d	-0.15439291
38	0x3b658726	0.0035023182
39	0x3e996a0a	0.29963714
40	0x3e245b70	0.16050506
41	0x3cd9ae8a	0.026572485
42	0x3ad7f977	0.0016477545
43	0xbb84b579	-0.0040499535
44	0xba5a2646	-0.0008321743
45	0x3d455443	0.04817606
46	0xbe133fca	-0.14379802
47	0x3d02ffb4	0.03198214
48	0xbd9b9815	-0.07597367
49	0x3ae8c7ff	0.0017759799
50	0x3d44c208	0.048036605
51	0xbe0270cf	-0.12738346
52	0x3adfca08	0.001707376
53	0xbeab89cc	-0.33503568
54	0xb90fc7ad	-0.00013711928
55	0xbda15be4	-0.07878855
56	0x3e70876b	0.23489158
57	0xbe552766	-0.2081581
58	0xbdc65978	-0.096850336
59	0xbe3768cd	-0.17911072
60	0x3dd3b13d	0.1033654
61	0x3e35fbf7	0.17771898
62	0xbf133343	-0.57500094
63	0x3bfcfc35	0.007720495
64	0x3de660a7	0.11248904
65	0x3ddc4bb6	0.10756628
66	0x3c4547ac	0.012041014
67	0xbb864d51	-0.0040985723
68	0xbe849491	-0.25894597
69	0x3eb1b6cf	0.34709784
70	0x3cc9d3b9	0.02463709
71	0xbe080bf9	-0.13285817
72	0x3dcaee74	0.099087626
73	0xbc9446b4	-0.01810012
74	0xbac412bd	-0.0014959198
75	0xb8f97c7b	-0.000118964315
76	0xbb0a349b	-0.0021088484
77	0xbcc6461b	-0.02420335
78	0xbea573e1	-0.3231497
79	0x3cc5aa9e	0.024129208
80	0xbbebfec2	-0.0072020004
81	0xbe8d2669	-0.27568367
82	0x3b130cb6	0.0022437996
83	0xbd99d032	-0.07510413
84	0xbe997739	-0.29973772
85	0xbb862706	-0.0040940074
86	0x3f0dd1ed	0.55398446
87	0x3e066395	0.13123925
88	0x39ba3134	0.00035513344
89	0xbb6df922	-0.0036311825
90	0x3e2207e2	0.1582332
91	0x3d978484	0.07398322
92	0xbe7c84a5	-0.24659975
93	0x3d66696e	0.05625289
94	0xbe22a28c	-0.15882319
95	0xbd2b2647	-0.04178455
96	0xbd58758e	-0.052846484
97	0xbd2849fb	-0.04108618
98	0x3bce89ae	0.006303034
99	0xba946d4a	-0.0011324075
100	0x3e9092c0	0.2823696
101	0xbd21aaac	-0.039469406
102	0xbd8aa417	-0.06769579
103	0x3e028dfc	0.12749475
104	0x3d8dac3d	0.069176175
105	0x3d791249	0.060808454
106	0xbc55359f	-0.013013273
107	0x3c243582	0.010022523
108	0xbd247d7c	-0.040158734
109	0x3d3e9d52	0.04653675
110	0xbdbf6f5c	-0.09347412
111	0x3e11c11f	0.14233826
112	0xbde703f9	-0.112800546
113	0x3ada9afb	0.0016678268
114	0x3cc9ee3c	0.024649732
115	0x3ef8819d	0.48536387
116	0xbe32e374	-0.17469579
117	0x3dfc4aaf	0.12318932
118	0x3a4321da	0.0007443704
119	0xbc749624	-0.014928374
120	0xbd69bdc6	-0.057065748
121	0x3c84309d	0.016136462
122	0xbe16a457	-0.14711128
123	0xbd9de4dc	-0.07709667
124	0x3c8c616a	0.017136294
125	0x3e5ce1ec	0.21570557
126	0x3e39cb02	0.18143848
127	0xb92cb4c2	-0.00016470536
128	0x3defb43d	0.117042996
129	0x3e3c3fa7	0.18383656
130	0x3cfba424	0.030717917
131	0x3d3ecab5	0.046580035
132	0xbd12c417	-0.035831537
133	0x3da491d3	0.08035626
134	0xbe859956	-0.2609355
135	0x3e869681	0.262867
136	0x3de9d79d	0.11418078
137	0x3d093fb7	0.03350803
138	0x3d34eec9	0.044173036
139	0xba19391f	-0.00058449985
140	0x3d1461d0	0.036226094
141	0xbebe99f4	-0.37226832
142	0x3dd5d52b	0.10441049
143	0x3dd2b41d	0.1028826
144	0x3d75277d	0.059852112
145	0x3daed132	0.085359946
146	0x3c92b24a	0.01790728
147	0x3df945e4	0.12171534
148	0x3d0254dc	0.03181921
149	0x3cd98582	0.02655292
150	0xbe425f6d	-0.18981715
151	0xbcf12588	-0.029436842
152	0x3c7f043d	0.015564975
153	0xbdade524	-0.08490971
154	0xbdd644eb	-0.10462364
155	0x3da47ef0	0.08032024
156	0xbce8916a	-0.028389651
157	0xbc18c1e1	-0.009323568
158	0xbe302ed5	-0.17205365
159	0xbd5e78bc	-0.05431436
160	0xbcf7abc5	-0.030233273
161	0xbd408be0	-0.047008395
162	0x3d1ff0c6	0.03904798
163	0xbbb75bda	-0.0055956664
164	0x3d69e3a4	0.05710186
165	0x3dca46fd	0.09876821
166	0x3c56b847	0.013105459
167	0x3e8748af	0.2642264
168	0x3e2d448a	0.16920677
169	0x3dec62ec	0.11542305
170	0x3cad8924	0.021183558
171	0x3d595a7f	0.05306482
172	0x3b1a424a	0.0023538047
173	0x3d94b485	0.07260994
174	0xbd9530ab	-0.07284673
175	0x3dd1efd0	0.10250819
176	0xbe0f64f6	-0.14003357
177	0x3aa689cb	0.001270586
178	0xbcd62980	-0.026142836
179	0xbdcdb3c8	-0.10044056
180	0x3cddb5d4	0.027064241
181	0x3d4b0733	0.049567413
182	0x3b1e6e52	0.0024174643
183	0x3df82bf2	0.12117757
184	0x3d6c6e97	0.057722654
185	0xbda236c3	-0.07920601
186	0xbd31cdc2	-0.043409117
187	0xbd8a76ac	-0.06760916
188	0x3d9b035f	0.07569002
189	0xbc944e79	-0.018103825
190	0x3e65d167	0.22443162
191	0xbbe3d692	-0.006953069

encoder_lin.2.bias f4 [3]
0	0xbd8fa29c	-0.07013437
1	0x3d5accb7	0.053417888
2	0x3debc620	0.11512399

decoder_lin.0.weight f4 [64, 3]
0	0x3e4ae396	0.1981338
1	0x3ef0a613	0.47001705
2	0xbedaaad6	-0.42708462
3	0xbe87f02f	-0.26550433
4	0xbcde9069	-0.02716847
5	0xbd361bcf	-0.044460114
6	0xbf0d5718	-0.5521102
7	0x3e8546d8	0.26030612
8	0x3d0c1901	0.034203533
9	0x3d1f9783	0.038962852
10	0x3d6c50b3	0.05769415
11	0x3ec5da50	0.38643122
12	0x3e85adbd	0.26109114
13	0x3ebd13bc	0.3692912
14	0xbe40a29f	-0.18812035
15	0xbe2968ba	-0.16543856
16	0x3efa5ca1	0.48898795
17	0xbf22b13d	-0.63551694
18	0x3ea53e78	0.32274222
19	0x3e53d61f	0.2068715
20	0x3dec0b9b	0.11525651
21	0xbe37fb8c	-0.17967051
22	0xbe33dfba	-0.17565814
23	0x3e25cbe1	0.16191055
24	0xbeb0168e	-0.34392208
25	0x3cb42d7e	0.021994349
26	0x3ea9cfa0	0.33166218
27	0xbe5176fd	-0.20455547
28	0x3e4c38a2	0.19943479
29	0x3ef1c959	0.4722393
30	0x3eeeb7a9	0.46624497
31	0x3ebbaad6	0.36653775
32	0x3e388df5	0.18022902
33	0x3ea6cefb	0.3257979
34	0xbe072455	-0.13197453
35	0xbe8c04a3	-0.27347288
36	0x3e96659c	0.29374397
37	0xbdf4f958	-0.11961621
38	0xbe46a058	-0.19397104
39	0x3e877a96	0.26460713
40	0xbea2f54f	-0.3182778
41	0x3daed2c4	0.08536294
42	0x3c94c66f	0.018161027
43	0xbe747b51	-0.23875166
44	0x3e8a01ff	0.26954648
45	0xbea2ea91	-0.31819585
46	0x3f6bf174	0.92165303
47	0xbda62d12	-0.08114065
48	0x3ec66945	0.3875219
49	0xbf1136df	-0.5672435
50	0xbcc7d892	-0.024395261
51	0xbe4864e8	-0.19569743
52	0x3d3f642d	0.046726394
53	0xbed103bd	-0.40823165
54	0xbc385e50	-0.011252955
55	0xbe9b9099	-0.30383757
56	0x3f17da09	0.5931707
57	0xbe706c26	-0.23478755
58	0xbd17a07c	-0.037018284
59	0x3e3fa1fb	0.18714134
60	0x3d0b4ab3	0.034006786
61	0x3d042ee9	0.0322713
62	0xbf1904a6	-0.5977272
63	0x3bb87c06	0.005630019
64	0xbf1c383a	-0.61023295
65	0x3e9e3f6b	0.3090776
66	0xbe758ab1	-0.23978688
67	0xbedbac2a	-0.42904788
68	0xbedbddf6	-0.4294278
69	0x3d5d23f5	0.05398937
70	0x3db6d3ec	0.0892714
71	0x3ea26a7e	0.31721872
72	0x3e40da39	0.18833245
73	0xbdda9b16	-0.106741115
74	0xbf38db4e	-0.7220963
75	0x3e8727ee	0.2639765
76	0xbe42378b	-0.189665
77	0xbeb6562a	-0.35612613
78	0xbe308775	-0.17239173
79	0xbd9b89cc	-0.07594642
80	0xbef897f8	-0.48553443
81	0x3f2a39e0	0.6649456
82	0xbeb7e217	-0.3591468
83	0x3da6d66f	0.08146369
84	0xbe0d0966	-0.13773116
85	0x3d06499e	0.03278505
86	0x3ecfbd8b	0.40574297
87	0xbdbc73ca	-0.092017725
88	0x3f09692e	0.53676116
89	0xbdb8a7d1	-0.090163834
90	0xbe7d1561	-0.24715187
91	0x3e58ebfc	0.21183771
92	0x3de75d9c	0.112971514
93	0xbe075fe6	-0.13220176
94	0x3ec3f891	0.3827558
95	0x3eba7fa8	0.3642552
96	0x3e44d86f	0.19223188
97	0xbe91ca8a	-0.28474838
98	0x3d54b69e	0.05193197
99	0xbf0b9022	-0.54516804
100	0x3f0ac236	0.5420259
101	0x3d6692b3	0.056292247
102	0x3ea66570	0.32499266
103	0xbe1ef315	-0.15522416
104	0xbe10c4d6	-0.14137587
105	0x3de8a189	0.113589354
106	0x3f2c0520	0.6719532
107	0xbd017633	-0.031606864
108	0x3c27daaf	0.010245009
109	0xbd8ff407	-0.070289664
110	0x3e3ad4ab	0.18245189
111	0x3e4f3a84	0.20237166
112	0xbcbe2707	-0.023211969
113	0xbe24c7ff	-0.16091917
114	0x3e9e7aee	0.30953163
115	0x3ec8d82a	0.3922742
116	0xbcee5ba8	-0.02909644
117	0xbed5e703	-0.4177781
118	0xbe8fb4b2	-0.28067547
119	0xbe73fcc3	-0.2382689
120	0xbe31698f	-0.17325424
121	0x3e12be4b	0.14330404
122	0x3e872585	0.26395813
123	0x3f23f2b7	0.6404223
124	0x3e376ca5	0.17912538
125	0x3e78d458	0.24299753
126	0xbf2cdcaf	-0.67524236
127	0xbc192cfc	-0.009349104
128	0x3d339a03	0.04384805
129	0xbe2f2486	-0.17103776
130	0xbd3a4473	-0.045475435
131	0xbead7958	-0.3388164
132	0xbeaa37d3	-0.33245715
133	0xbe2b0283	-0.16700177
134	0xbe338e28	-0.17534697
135	0x3e9cf313	0.306542
136	0x3f05767e	0.5213393
137	0x3d8fc27f	0.07019519
138	0x3ebbd250	0.36683893
139	0x3e84b05c	0.25915802
140	0xbecd79b1	-0.40131906
141	0xbe34ef3b	-0.17669384
142	0xbf17776a	-0.59166586
143	0x3e04b9a3	0.1296144
144	0xbe02655d	-0.1273398
145	0x3ceb9487	0.028757347
146	0xbeb83097	-0.3597457
147	0x3e9ddc67	0.30832216
148	0x3ea8115a	0.32825738
149	0x3ec4784d	0.38373032
150	0xbe812b28	-0.25228238
151	0xbe8e9b0b	-0.27852663
152	0xbf04cfee	-0.51879776
153	0xbdcfd12f	-0.101473205
154	0x3fa82b24	1.3138165
155	0xbef780c2	-0.48340422
156	0xbecbc49d	-0.39798442
157	0x3dcc1935	0.09965745
158	0xbe5b01c4	-0.21387392
159	0xbc87c82f	-0.016574947
160	0x3c9c2c0f	0.019063978
161	0x3e5b184a	0.21395984
162	0x3d35fca8	0.044430405
163	0xbe4a999d	-0.19785161
164	0x3c71a85e	0.0147496145
165	0x3e8ae1d1	0.2712541
166	0x3f1b9b30	0.6078367
167	0x3d989ea9	0.07452137
168	0xbefc38f7	-0.4926221
169	0x3dc16147	0.09442382
170	0x3a83f5e9	0.0010067794
171	0x3ece6b78	0.40316367
172	0x3e2ffa88	0.17185414
173	0x3d9c292f	0.07625043
174	0x3ebce1f2	0.36891133
175	0x3e4c113d	0.19928451
176	0xbf2a5bbc	-0.66546226
177	0xbda83bc1	-0.08214522
178	0xbebb41c1	-0.36573604
179	0x3e579a9b	0.21055071
180	0xbec1fab8	-0.37886596
181	0x3dc29e6c	0.09502873
182	0xbed0d5fd	-0.4078826
183	0x3ed3d553	0.4137369
184	0x3e8a9c58	0.27072406
185	0x3dc93404	0.09824374
186	0xbc8ae204	-0.016953476
187	0x3f14bf6d	0.5810459
188	0x3e1d8996	0.15384516
189	0xbb7015ae	-0.0036634016
190	0x3e633249	0.22187151
191	0x3ec9fc50	0.39450312

decoder_lin.0.bias f4 [64]
0	0xbda186e7	-0.07887059
1	0xbf010641	-0.5040017
2	0xbe8e88f6	-0.27838868
3	0x3eb44c79	0.35214594
4	0x3f1ce837	0.6129183
5	0x3dfcebf2	0.123496905
6	0x3e19ff0b	0.15038697
7	0x3f2d59ce	0.67715156
8	0x3e23b835	0.15988238
9	0x3ee127e5	0.4397575
10	0xbead4dee	-0.33848518
11	0xbf1e587e	-0.6185378
12	0x3f4f1cd2	0.8090335
13	0xbf99bed6	-1.2011364
14	0x3e9e95cb	0.30973658
15	0x3cb0d065	0.021583745
16	0x3e90edeb	0.28306517
17	0x3e147487	0.14497577
18	0xbedf9f84	-0.43676388
19	0xbf2ea67d	-0.6822279
20	0x3e367f64	0.17822033
21	0xbe4a988f	-0.19784759
22	0x3e7ccdae	0.24687836
23	0x3e80f33a	0.25185567
24	0x3dc6391e	0.09678863
25	0xbf238123	-0.6386892
26	0x3e6b8de8	0.23003352
27	0x3de4365b	0.1114318
28	0xbee8e29b	-0.45485386
29	0x3ca3c936	0.019993406
30	0x3e865343	0.262354
31	0x3e859f07	0.2609789
32	0xbf94958a	-1.1608136
33	0xbf489d04	-0.78364587
34	0xbf60a9b5	-0.8775895
35	0xbec81877	-0.39081165
36	0x3e2bd48f	0.16780303
37	0x3ef53d40	0.47898293
38	0xbf004120	-0.5009937
39	0x3e2670d2	0.16253975
40	0x3f4e6681	0.8062516
41	0xbe82327a	-0.25429136
42	0x3d0dcfb0	0.034621894
43	0x3f691933	0.91054076
44	0x3f3c9e1e	0.7367877
45	0xbe4421f9	-0.19153585
46	0x3f199d32	0.60005486
47	0xbf851df6	-1.0399768
48	0x3edb8328	0.42873502
49	0x3ee70899	0.45123747
50	0x3eeda5ae	0.46415466
51	0x3f2f8376	0.6855997
52	0x3e8d1de4	0.27561867
53	0x3f896338	1.0733404
54	0x3f1c7d8e	0.6112908
55	0xbf1f2911	-0.6217204
56	0xbf91bc2e	-1.1385553
57	0x3eadc463	0.33938894
58	0x3e2a5b09	0.1663629
59	0x3e5649d0	0.20926595
60	0x3ec4d103	0.38440713
61	0xbf221109	-0.63307244
62	0xbe9828f3	-0.29718742
63	0xbf173efc	-0.5908048

decoder_lin.2.weight f4 [288, 64]
0	0xbdb1820f	-0.08667385
1	0x3da81143	0.082064174
2	0x3e0eaddf	0.13933514
3	0x3dbf39e7	0.09337216
4	0x3da5015b	0.08056899
5	0xbdad6fc7	-0.084685855
6	0x3dd5cd64	0.10439566
7	0x3d9dca57	0.07704609
8	0x3e0608aa	0.13089243
9	0x3c0c270d	0.008554232
10	0x3d25dc54	0.040493324
11	0xbb5c1070	-0.0033579133
12	0x3d0752de	0.033038013
13	0x3df14bd3	0.117820404
14	0x3d5f96cf	0.05458718
15	0xbdd680a1	-0.10473753
16	0x3ddef80e	0.108871564
17	0xbd58a8f4	-0.0528955
18	0x3df013ad	0.11722503
19	0x3c8862c8	0.016648665
20	0xbd022ca5	-0.031780858
21	0x3e1d1536	0.15340123
22	0x3df77020	0.12081933
23	0x3d522dd9	0.051313255
24	0xbcfbcebb	-0.030738225
25	0xbc9b3fa0	-0.018951237
26	0xbd7c3786	-0.06157639
27	0x3e7eae98	0.2487129
28	0x3d455f1f	0.048186418
29	0xbbaec5f6	-0.0053336574
30	0x3d3a408f	0.045471724
31	0x3cab62df	0.020921169
32	0x3d616d99	0.05503616
33	0xbd510c32	-0.05103702
34	0x3b9d3a62	0.0047982195
35	0x3e405e71	0.18786027
36	0x3cb8bdbf	0.022551415
37	0x3c9ff1fa	0.019524563
38	0x3bca0b8a	0.0061659263
39	0x3e315f0a	0.17321411
40	0x3dcd1c5a	0.10015173
41	0x3e00500a	0.12530532
42	0x3db9144b	0.09037074
43	0xbd9c0b68	-0.07619363
44	0x3e3007f4	0.17190534
45	0x3dbf4db4	0.093409926
46	0xbcedd3a2	-0.029031578
47	0x3e04708b	0.12933557
48	0xbdb9b47d	-0.090676285
49	0x3d57ea5a	0.05271373
50	0xbbeb7c9b	-0.007186485
51	0xbe35ab1c	-0.17741054
52	0x3caa59e8	0.020794824
53	0x3a396518	0.0007072254
54	0x3dc6689e	0.09687923
55	0x3d814458	0.06311864
56	0x3da15cb1	0.078790076
57	0x3d3dfc42	0.04638315
58	0xbd958031	-0.07299841
59	0x3e264bab	0.16239803
60	0xbcafd19c	-0.021462254
61	0x3d556506	0.052098297
62	0xba8e549a	-0.0010858953
63	0x3d67aa11	0.056558672
64	0xa95ed49d	-4.9478315e-14
65	0xa9f2e5a8	-1.0786798e-13
66	0xbc280e23	-0.010257277
67	0xbcb87e82	-0.022521261
68	0xbc322202	-0.010872366
69	0xa9a48250	-7.3056687e-14
70	0xba42b3e9	-0.00074273214
71	0xbae61727	-0.0017554507
72	0xbc72c2b9	-0.014816933
73	0xbcb0bd70	-0.021574706
74	0xbc992eb5	-0.01869903
75	0xa9c053a0	-8.5410195e-14
76	0xae640ec7	-5.1854323e-11
77	0x292048d0	3.559029e-14
78	0xbc122abc	-0.0089213215
79	0xaad8689d	-3.8441898e-13
80	0xa8f57224	-2.7249965e-14
81	0xaa988e26	-2.709926e-13
82	0xb8fb5e19	-0.0001198614
83	0x2a397242	1.6470942e-13
84	0xaad0bfbd	-3.7081267e-13
85	0xab425886	-6.9045496e-13
86	0x2864aea0	1.2694408e-14
87	0x3a288e6b	0.00064299133
88	0xa8983e08	-1.6902292e-14
89	0xa89dfaa1	-1.7539194e-14
90	0xaa438edc	-1.7369043e-13
91	0xbaf3be16	-0.0018596079
92	0xb91e7990	-0.0001511334
93	0xbc03a452	-0.0080347825
94	0xbc96c95d	-0.018406564
95	0xbd2188bb	-0.039437037
96	0x2a52023c	1.8652522e-13
97	0xa90b1879	-3.0885427e-14
98	0xa96eb108	-5.3000166e-14
99	0x2a96161b	2.666069e-13
100	0xba76bffe	-0.00094127643
101	0x2a7fef3a	2.2731548e-13
102	0xaa1d669e	-1.3980004e-13
103	0xaa732658	-2.1596039e-13
104	0xbb37ab87	-0.0028025822
105	0xa91095e5	-3.2104436e-14
106	0x2a3bf615	1.6694313e-13
107	0xa9d8eaa7	-9.6330326e-14
108	0xa8dc0bae	-2.4429972e-14
109	0xba89fad9	-0.0010527029
110	0xa9e65029	-1.02279574e-13
111	0x2ac09b38	3.4213756e-13
112	0xa9209566	-3.565672e-14
113	0xbcccb9ca	-0.024990935
114	0x2a2c36dd	1.5295703e-13
115	0x2ac9b910	3.5833185e-13
116	0xbaf7a873	-0.0018894806
117	0xbc71cc55	-0.014758189
118	0x2ed8f8bd	9.8667276e-11
119	0xbca01dfa	-0.019545544
120	0xaa5c7cb0	-1.9583185e-13
121	0x28cb2e87	2.2557705e-14
122	0xa81f518a	-8.843954e-15
123	0xb9a2d80c	-0.00031060015
124	0xaa1b58f9	-1.3797634e-13
125	0xb679f2a1	-3.724512e-06
126	0xbaf4cc27	-0.0018676565
127	0xbb4537b4	-0.0030093016
128	0x3c946f4f	0.018119482
129	0x3d9cd6e0	0.07658172
130	0x3b858622	0.004074828
131	0xbb3ffd62	-0.0029295315
132	0x3d958fc6	0.07302813
133	0xbd7c402e	-0.061584644
134	0x3d4718ab	0.04860751
135	0x3ccfdbed	0.025373423
136	0x3d9e7db2	0.07738818
137	0x3d05fc26	0.03271117
138	0x3d90a996	0.07063596
139	0xbd9d90f3	-0.076936625
140	0x3d27d79b	0.0409771
141	0xbe98f92a	-0.29877597
142	0x3c4c8365	0.012482499
143	0xbe3eda85	-0.18638046
144	0xbcbfef1a	-0.023429442
145	0xbd743234	-0.05961819
146	0x3e14ef0e	0.14544317
147	0x3d27d416	0.040973745
148	0xbdc431b0	-0.0957979
149	0x3df63e3c	0.12023589
150	0x3e05d650	0.13070035
151	0xbcd5fbfe	-0.026121136
152	0xbd41d6d5	-0.04732402
153	0xbd10f496	-0.035389505
154	0xbcf2eec4	-0.029654868
155	0x3cfbcc5a	0.03073709
156	0x3d8160e4	0.063173085
157	0xbdf7922b	-0.12088426
158	0x3b20a98f	0.0024515127
159	0xbd74f102	-0.059800155
160	0xbeab7246	-0.3348562
161	0xbdd55fe0	-0.10418677
162	0xbe2e0527	-0.16994153
163	0x3e42ca6a	0.19022527
164	0xbcb66e28	-0.022269323
165	0x3d1f65aa	0.038915314
166	0x3e1f7697	0.15572582
167	0x3e9dd029	0.30822876
168	0xbdf46b19	-0.1193449
169	0xbca34b13	-0.01993326
170	0x3d8fc860	0.070206404
171	0xbd99297d	-0.074786164
172	0x3e6f6de2	0.2338176
173	0x3d7500a2	0.059815057
174	0x3d27683a	0.040870883
175	0x3dd85b9b	0.10564347
176	0xbdff158d	-0.12455282
177	0x3c8bc0e6	0.017059755
178	0x3d39d7a1	0.045371655
179	0xbe95f872	-0.2929111
180	0xbe075110	-0.13214517
181	0xbdd7014b	-0.104982935
182	0x3d897ce1	0.06713272
183	0x3e12d77d	0.14340015
184	0x3df5e662	0.12006833
185	0x3d901be2	0.07036568
186	0xbd6a79a0	-0.057244897
187	0x3e1a7ecf	0.15087436
188	0xbe1c298b	-0.15250222
189	0x3d70898f	0.058724936
190	0xbd1ca826	-0.038246296
191	0xbd878b0f	-0.0661832
192	0x29a19782	7.176119e-14
193	0x2ac82934	3.5555727e-13
194	0xba4a748d	-0.0007723056
195	0xbc40ae47	-0.011760301
196	0xbc3a4c0c	-0.01137067
197	0x2abbc6e0	3.335587e-13
198	0xbba2d446	-0.0049691526
199	0x30f2cda5	1.7666265e-09
200	0xbb14cb21	-0.0022704082
201	0xbc8bc56c	-0.017061912
202	0xbc5f3eb3	-0.0136257885
203	0xab09e7e0	-4.899397e-13
204	0xba92ddc0	-0.0011205003
205	0xa98bb839	-6.2047976e-14
206	0xbb0f935c	-0.0021907901
207	0x2a0e5107	1.2640246e-13
208	0xaf69ad30	-2.1252755e-10
209	0xaac6c8a8	-3.53111e-13
210	0x2b9f44b2	1.1316696e-12
211	0x2a8a85c2	2.4606538e-13
212	0xaa0f1e97	-1.2711564e-13
213	0xaa293241	-1.502765e-13
214	0xaac16cce	-3.4359185e-13
215	0xbc31b3bf	-0.010846077
216	0xaa36b35f	-1.6227079e-13
217	0xaa9f6640	-2.8315024e-13
218	0xaa86e995	-2.3965262e-13
219	0xbb079f7a	-0.002069442
220	0xaa464b94	-1.7612154e-13
221	0xbab2e68d	-0.0013649032
222	0xbb5ed76a	-0.0034002909
223	0xbc055929	-0.008138933
224	0xaac4d522	-3.4964485e-13
225	0x2af2010a	4.2988557e-13
226	0xaac10365	-3.4286042e-13
227	0x2907a8c7	3.0122413e-14
228	0xb9075773	-0.0001290718
229	0xb81da5ef	-3.7586255e-05
230	0x2a550f8b	1.8923593e-13
231	0x2919c219	3.4141177e-14
232	0xbc073b45	-0.008253877
233	0xaaccd08e	-3.6382393e-13
234	0x2988d3b2	6.0763365e-14
235	0x2ac4f238	3.4984667e-13
236	0xa989723e	-6.10384e-14
237	0xbc2926bb	-0.0103241755
238	0xbb0aa9ed	-0.0021158413
239	0xaa9fd444	-2.8391363e-13
240	0x280ca28b	7.806807e-15
241	0xbcd34fa9	-0.02579482
242	0xaafb2592	-4.4612626e-13
243	0xaaccd593	-3.6385876e-13
244	0xb9316164	-0.00016916316
245	0xbbd538ec	-0.0065070298
246	0x31d12283	6.086624e-09
247	0xbba2e16a	-0.004970719
248	0xaa413b89	-1.7162499e-13
249	0xa94a4f2e	-4.4921688e-14
250	0xa9736e71	-5.405263e-14
251	0xb52f9646	-6.5411257e-07
252	0x29c70818	8.838779e-14
253	0xb95257cb	-0.00020059866
254	0xba195828	-0.0005849623
255	0xba1f7c60	-0.0006083902
