2. Convolutional Autoencoders/models/autoencoder3d.pth (torch, 203945 bytes, 19 tensors)

encoder_conv.0.weight f4 [8, 1, 3, 3]
0.08573632 0.37273058 0.1456888 0.16441758 0.349137 0.00094204006 0.06166895 0.18441744
0.12634407 0.33042723 0.3154204 0.042242598 0.21560334 0.18320106 -0.01069902 0.04952136
0.3721117 -0.048661772 -0.029109975 0.06079342 0.15421778 -0.14635435 0.30753872 0.4262044
0.1936144 0.19445802 0.23046787 0.0478777 0.14180982 -0.01945505 0.21688944 -0.14088774
-0.089402296 -0.19817194 -0.049006406 -0.054127824 0.027817504 0.12657763 -0.22427726 0.09061753
-0.09999796 -0.07373046 -0.110527776 -0.053960342 -0.08922073 -0.13474505 -0.17348765 -0.17910352
-0.028727548 -0.012720268 0.02486521 -0.22510993 -0.32818723 -0.3227094 0.102949284 0.23146121
-0.16159028 0.19896793 0.2674183 0.08648526 -0.06834703 -0.2514001 0.009737687 0.023958981
0.03484575 0.09155634 -0.21611169 -0.20030226 0.17499946 0.079541326 -0.09980604 -0.1277873
00000000: 8696 af3d 8bd6 be3e 722f 153e 155d 283e
00000010: 16c2 b23e 3df3 763a 9598 7c3d edd7 3c3e
00000020: 5760 013e c22d a93e c87e a13e 9306 2d3d
00000030: 1fc7 5c3e 0f99 3b3e f14a 2fbc e9d6 4a3d
00000040: 6d85 be3e 9151 47bd 0b78 eebc 8502 793d
00000050: 44eb 1d3e eadd 15be b775 9d3e 7737 da3e
00000060: da42 463e 0120 473e c5ff 6b3e 681b 443d
00000070: 9836 113e 3260 9fbc 4418 5e3e e044 10be
00000080: 8d18 b7bd 96ed 4abe f1ba 48bd 23b5 5dbd
00000090: 89e1 e33c 919d 013e f0a8 65be af95 b93d
000000a0: bbcb ccbd ffff 96bd 635c e2bd 8505 5dbd
000000b0: 5cb9 b6bd 9bfa 09be bfa6 31be ea66 37be
000000c0: 0956 ebbc ac68 50bc 20b2 cb3c 3883 66be
000000d0: 2808 a8be 2b3a a5be 13d7 d23d 2b04 6d3e
000000e0: ec77 25be 40be 4b3e 0deb 883e 2f1f b13d
000000f0: 87f9 8bbd 84b7 80be d28a 1f3c a045 c43c
00000100: 6bba 0e3d e481 bb3d 624c 5dbe 091c 4dbe
00000110: 0f33 333e 90e6 a23d 1c67 ccbd adda 02be

encoder_conv.0.bias f4 [8]
-0.109828636 0.14236748 -0.023200423 0.13793637 0.3984843 0.2594604 -0.0027366194 0.25415793
00000000: d6ed e0bd c8c8 113e d00e bebc 313f 0d3e
00000010: 2206 cc3e fed7 843e db58 33bb fd20 823e

encoder_conv.2.weight f4 [16, 8, 3, 3]
-0.18792436 -0.06344299 -0.13216868 -0.09425668 -0.06235622 -0.086641155 -0.06940714 -0.07344989
-0.17836015 -0.11218356 -0.054070845 -0.061033666 -0.094448544 -0.0064258203 0.016622288 -0.11649755
-0.04411336 -0.1203734 -0.13541266 -0.13201655 -0.17218935 -0.10926072 -0.07469877 -0.137874
-0.07610035 -0.09617242 -0.14238597 0.042312454 0.0041814903 -0.014010069 0.07962666 0.043824464
0.07076462 0.077106476 0.035463728 0.06909822 0.15594393 0.09480014 0.06231331 0.13739207
0.12925364 0.0425534 0.08361744 0.12942636 0.064018354 0.15012832 0.13669005 0.13242768
0.130997 0.11247663 0.13115408 0.11970652 0.16757725 0.16986993 -0.14539538 -0.15175931
-0.1553932 0.0035412656 0.036707427 0.02280419 -0.053557996 -0.036478844 -0.04663789 0.1454205
0.027790116 0.08592448 0.124358416 0.07533714 0.080856964 0.06421421 0.030758683 0.049769916
0.032791343 -0.105450995 0.004804844 -0.057733666 -0.12087839 -0.1385419 -0.07035289 -0.16733947
-0.09803079 -0.020228704 -0.036581833 0.0479375 0.032879908 -0.06634735 -0.047220614 -0.0109202815
-0.078192845 -0.054720983 -0.15129986 -0.13475895 0.016191203 -0.069976784 -0.13725524 -0.054186735
-0.095707536 -0.05981186 0.0101624625 0.12453539 0.08470282 0.07553494 0.07351825 0.04604247
0.04089693 0.06292362 0.05268352 0.030220777 0.19470568 0.103635274 0.10935238 0.13750853
0.08037424 0.11320073 0.11623552 0.13838732 0.11863507 0.12021595 0.18247403 0.08465894
0.14495207 0.20143716 0.15939116 0.13304208 0.2366364 0.15054701 0.07951188 -0.02671675
0.01480319 -0.025633225 -0.11252127 -0.08912885 -0.01997375 -0.09047552 -0.06252377 0.10758905
0.10755827 0.11497631 0.09931877 0.08236134 0.13869841 0.0879785 0.12355655 0.11438261
0.088691674 0.120633096 -0.020323163 0.13443345 0.026037646 -0.1408698 0.11838637 0.022991246
-0.19365947 0.05275106 0.035400458 0.05277669 0.114266925 0.09237767 -0.00012571683 0.010683612
0.027197193 -0.14087395 0.056293074 0.039692756 -0.0017999002 0.0036205603 -0.09400431 -0.14181454
0.023802154 -0.0169117 -0.16672224 -0.01622887 -0.019478422 0.01821323 0.11274648 0.08473786
0.05781314 0.046487298 0.09079469 0.11376193 0.03471446 0.119207926 0.083279714 0.013543236
0.008798015 0.16348615 0.060082205 0.027404496 0.21252169 0.0009129722 0.065989144 0.0062308586
0.006369722 0.0932506 0.07711294 0.034811307 0.18412684 0.07583896 0.076799005 0.05220223
-0.002333649 -0.031921424 -0.029196141 -0.08153643 -0.10579522 -0.18096243 -0.20463672 0.007649111
-0.0076514347 0.100565426 0.049863454 0.12971967 0.07807182 0.14391677 0.16742694 0.13006651
-0.026357677 -0.03695497 0.05640606 0.020239472 -0.0390529 -0.08327815 -0.054394763 -0.0032181132
-0.03613965 0.124861374 -0.019623118 0.045948576 0.015607562 0.022999885 0.011214691 0.05950655
0.026331645 0.06012269 0.06554939 -0.017391644 0.015234098 -0.042991407 -0.028070169 -0.0097839935
0.004238868 -0.116989166 -0.0065132705 0.090540744 -0.0074931844 0.013291127 0.019201107 0.07306446
0.09576642 0.040806893 0.07728735 0.026421255 0.11152895 0.010008144 0.102224074 0.08965181
00000000: 3e6f 40be 66ee 81bd 3a57 07be a509 c1bd
00000010: 3c69 7fbd eb70 b1bd 5525 8ebd e56c 96bd
00000020: 0ba4 36be 7fc0 e5bd 6479 5dbd 70fe 79bd
00000030: 3d6e c1bd b08f d2bb 772b 883c 4496 eebd
00000040: 36b0 34bd 5486 f6bd 9ea9 0abe 592f 07be
00000050: 6852 30be 16c4 dfbd abfb 98bd d82e 0dbe
00000060: 80da 9bbd 0cf6 c4bd a1cd 11be d34f 2d3d
00000070: e204 893b 7d8a 65bc 4d13 a33d 4881 333d
00000080: 0bed 903d 00ea 9d3d 6a42 113d 5e83 8d3d
00000090: c4af 1f3e 9326 c23d 3e3c 7f3d 82b0 0c3e
000000a0: 115b 043e 794c 2e3d 9f3f ab3d 5888 043e
000000b0: 0e1c 833d 3dbb 193e 7af8 0b3e 1f9b 073e
000000c0: 1424 063e 265a e63d 414d 063e b128 f53d
000000d0: 5f99 2b3e 62f2 2d3e 87e2 14be cb66 1bbe
000000e0: 651f 1fbe 9414 683b 875a 163d dacf ba3c
000000f0: a15f 5bbd d76a 15bd 5f07 3fbd 1de9 143e
00000100: 19a8 e33c 2cf9 af3d a0af fe3d 5c4a 9a3d
00000110: 5698 a53d bd82 833d a2f9 fb3c 8adb 4b3d
00000120: 3750 063d b1f6 d7bd f471 9d3b 237a 6cbd
00000130: 178f f7bd eedd 0dbe 2d15 90bd 0a5b 2bbe
00000140: 5ec4 c8bd abb6 a5bc d5d6 15bd 1d5a 443d
00000150: 15ad 063d 1fe1 87bd 676a 41bd fbea 32bc
00000160: 9223 a0bd 1c23 60bd 5aee 1abe 40fe 09be
00000170: 6aa3 843c fd4f 8fbd a38c 0cbe e9f2 5dbd
00000180: 5002 c4bd 48fd 74bd 7580 263c 690c ff3d
00000190: ac78 ad3d 10b2 9a3d bc90 963d 0797 3c3d
000001a0: 8a83 273d 19de 803d adca 573d 9091 f73c
000001b0: ed60 473e bb3e d43d 24f4 df3d 09cf 0c3e
000001c0: 409b a43d c9d5 e73d e30c ee3d 68b5 0d3e
000001d0: f2f6 f23d c833 f63d 79da 3a3e ab61 ad3d
000001e0: 516e 143e 8b45 4e3e 7037 233e 2f3c 083e
000001f0: d050 723e ff28 1a3e 20d7 a23d 16dd dabc
00000200: 1489 723c c5fc d1bc 8d71 e6bd 3089 b6bd
00000210: fd9f a3bc 3b4b b9bd 760c 80bd a657 dc3d
00000220: 8347 dc3d b378 eb3d a467 cb3d 10ad a83d
00000230: f506 0e3e 122e b43d 370b fd3d 6e41 ea3d
00000240: fba3 b53d 7c0e f73d c37c a6bc eca8 093e
00000250: e74c d53c 2c40 10be 8e74 f23d 2358 bc3c
00000260: ab4e 46be 7f11 583d 1200 113d 5f2c 583d
00000270: c704 ea3d 8130 bd3d dbd2 03b9 510a 2f3c
00000280: a6cc de3c 4341 10be 9193 663d df94 223d
00000290: a1ea ebba ec46 6d3b 5585 c0bd d537 11be
000002a0: bcfc c23c 688a 8abc 3cb9 2abe 68f2 84bc
000002b0: 3691 9fbc e933 953c a0e7 e63d 0b8b ad3d
000002c0: 79cd 6c3d 7769 3e3d 91f2 b93d 04fc e83d
000002d0: c030 0e3d 4923 f43d 8e8e aa3d 73e4 5d3c
000002e0: 8d25 103c ea68 273e c218 763d 657f e03c
000002f0: 499f 593e 8754 6f3a 5125 873d 3b2c cc3b
00000300: 1ab9 d03b 2cfa be3d 64ed 9d3d 4d96 0e3d
00000310: bf8b 3c3e 7551 9b3d cc48 9d3d 01d2 553d
00000320: 22f0 18bb 0ac0 02bd bf2c efbc 92fc a6bd
00000330: 2aab d8bd 374e 39be 4a8c 51be 65a5 fa3b
00000340: e3b8 fabb 3ff5 cd3d 9f3d 4c3d 3cd5 043e
00000350: 1ee4 9f3d eb5e 133e f871 2b3e 2830 053e
00000360: 0eec d7bc 185e 17bd 0a0a 673d 40cd a53c
00000370: eff5 1fbd bc8d aabd 0bcd 5ebd fbe6 52bb
00000380: 2b07 14bd 52b7 ff3d a9c0 a0bc 9334 3c3d
00000390: dcb6 7f3c 416a bc3c d3bd 373c 24bd 733d
000003a0: 76b5 d73c 3643 763d c23e 863d ec78 8ebc
000003b0: 7098 793c c217 30bd 69f3 e5bc 0b4d 20bc
000003c0: 34e6 8a3b 0498 efbd 466d d5bb 6d6d b93d
000003d0: 6389 f5bb 07c3 593c a44b 9d3c d2a2 953d
000003e0: 2f21 c43d 2125 273d d548 9e3d 6371 d83c
000003f0: 4a69 e43d 33f9 233c db5a d13d 5e9b b73d

encoder_conv.2.bias f4 [16]
0.08891891 0.14668877 0.13779227 0.1520694 0.09768454 0.058253717 0.04517427 -0.1797167
0.11303133 0.078085884 0.040082328 -0.03840316 0.15318525 -1.4761446e-05 0.029426837 0.12501416
00000000: 1e1b b63d 9535 163e 6b19 0d3e 15b8 1b3e
00000010: d50e c83d 739b 6e3d a808 393d a807 38be
00000020: f87c e73d 7eeb 9f3d 5e2d 243d a24c 1dbd
00000030: 98dc 1c3e eea7 77b7 8d10 f13c b603 003e

encoder_conv.4.weight f4 [32, 16, 3, 3]
-0.00822992 -0.0032805759 0.018491741 -0.009085604 0.027551422 0.061672345 -0.02049602 0.026360575
0.043648276 -0.047677916 -0.035217244 0.022193056 -0.04581348 -0.025087148 0.022645567 -0.068000965
0.05475004 0.014972689 -0.018745167 0.004904078 0.041705795 -0.035499293 -0.0073466897 -0.0052149305
0.027639113 0.05009364 0.04146399 -0.012758707 0.016598532 0.040163778 -0.0039748386 0.03557259
0.046126194 0.011183034 0.08148121 0.04192611 -0.044839006 -0.04084524 0.009867421 -0.02188851
-0.012026471 0.07176547 -0.055895377 0.021211475 0.04833396 -0.014909282 0.019764882 -0.018912021
-0.017195448 0.024687858 0.046811353 -0.025466677 0.049198017 -0.009844364 -0.015630836 -0.013398939
-0.030389039 -0.012089463 0.008542748 -0.03426581 -0.013329612 -0.056016885 -0.012088945 0.048816852
0.044835173 -0.0032283508 0.09185237 0.08801989 -0.00618664 0.056724668 0.015615883 0.0886551
-0.0146087315 -0.07625934 -0.028551059 -0.042263765 -0.004552464 0.0016156293 -0.04652138 0.05305753
0.0058062146 0.009317393 0.06684631 0.07740107 -0.028895797 -0.0036900067 0.04331361 -0.02483635
0.09017971 0.07021447 0.018875685 0.050639052 0.05547481 0.04858123 -0.00896884 0.05507446
0.04155089 0.0554114 0.05686657 -0.004411921 -0.044893093 -0.036475927 0.023798807 0.016378088
-0.029587585 -0.020013914 -0.06023838 -0.02089388 0.019705644 0.023614058 0.057125997 0.0026052839
0.024647117 0.048344143 0.05198419 0.06694517 0.041851893 9.419637e-25 4.9062013e-24 2.650536e-25
-1.2162801e-24 -1.3062583e-23 -4.0197595e-24 -4.694212e-24 -2.4424488e-24 4.9654243e-25 -0.031909116 0.0031046462
-0.0023108197 -0.035951376 0.016646894 -0.062333018 -0.011727565 -0.035984214 -0.0040705707 -0.06086331
-0.028950283 0.045284 0.04674347 -0.030462928 0.12204613 -0.035443462 -0.027396895 0.10378893
-0.05845055 0.007630027 -0.00475687 0.032701597 0.05908048 0.06882217 0.010938034 0.066217154
0.056703713 -0.08234027 -0.013292818 0.01928004 -0.033033468 0.03014003 0.040894184 -0.040477354
0.06633106 0.056319617 -0.017016621 -0.022024527 0.035539962 0.029951671 -0.015886357 0.04891656
0.08177231 0.036806557 0.00317407 -0.0050865114 -0.010496746 0.03564023 0.00045608787 0.02620819
0.077707164 0.077170804 0.047775835 0.053212788 -0.028218998 -0.065058455 -0.012699517 0.0054503
0.027093647 0.053493872 0.02190586 0.057503328 0.042109605 -0.049942624 0.030725788 -0.042320628
0.021612994 0.03829044 0.014766449 -0.011986678 0.050327737 0.0014833215 0.0058255005 -0.035830382
-0.05046555 0.012302373 -0.0039865407 -0.032560036 -0.0063946615 -0.045006197 -0.047759444 0.087426014
0.08342489 0.011779697 0.12951027 0.111871555 0.020008503 0.048773248 0.040061295 0.037513506
-0.07107664 -0.03312875 -0.058646064 0.015251629 0.05728614 0.058228258 -0.04511492 0.059866104
0.040386274 0.010661927 0.05762273 0.059672765 0.029044697 0.065161824 0.05267972 0.026422963
0.109800845 0.100339346 -0.020960035 0.024856154 0.03456556 0.013781156 0.023718338 0.06278666
0.06578291 0.018655486 0.08218394 0.02943352 -0.066890724 -0.055629376 0.023782974 -0.07257517
-0.06932016 0.010352209 -0.027789041 -0.05836191 -0.040761486 0.021423806 -0.0022726853 0.0132528655
00000000: c9d6 06bc eefe 56bb fe7b 973c c9db 14bc
00000010: 85b3 e13c 249c 7c3d 45e7 a7bc 22f2 d73c
00000020: 89c8 323d eb49 43bd f53f 10bd 36ce b53c
00000030: eaa6 3bbd 9083 cdbc 3283 b93c 1744 8bbd
00000040: 9441 603d 0250 753c 778f 99bc 63b2 a03b
00000050: b2d3 2a3d b567 11bd 80bc f0bb 02e2 aabb
00000060: 6c6b e23c fd2e 4d3d 25d6 293d e509 51bc
00000070: a5f9 873c c682 243d 5d3f 82bb 90b4 113d
00000080: d2ee 3c3d 0b39 373c 9fdf a63d b6ba 2b3d
00000090: 1ba9 37bd 574d 27bd f7aa 213c 884f b3bc
000000a0: ad0a 45bc c6f9 923d 8df2 64bd b0c3 ad3c
000000b0: d5f9 453d 1046 74bc f6e9 a13c 62ed 9abc
000000c0: 78dd 8cbc 313e ca3c 43bd 3f3d 7e9f d0bc
000000d0: dc83 493d 414a 21bc 3d0c 80bc 3987 5bbc
000000e0: 6ff2 f8bc e212 46bc e2f6 0b3c 4e5a 0cbd
000000f0: 7264 5abc f671 65bd b610 46bc 2ef4 473d
00000100: 16a5 373d bd92 53bb 181d bc3d c643 b43d
00000110: 4cb9 cabb 2058 683d c3d9 7f3c ce90 b53d
00000120: 7659 6fbc db2d 9cbd e9e3 e9bc c51c 2dbd
00000130: d62c 95bb 86c3 d33a 348d 3ebd da52 593d
00000140: 0f42 be3b fba7 183c b8e6 883d 7484 9e3d
00000150: e1b6 ecbc 0ad4 71bb 9d69 313d 9a75 cbbc
00000160: 24b0 b83d 9bcc 8f3d 2ea1 9a3c e56a 4f3d
00000170: 8e39 633d 1dfd 463d 0bf2 12bc c295 613d
00000180: 4431 2a3d 10f7 623d ecec 683d e091 90bb
00000190: d2e1 37bd c867 15bd b7f5 c23c 572b 863c
000001a0: aa61 f2bc 38f4 a3bc 85bc 76bd a429 abbc
000001b0: bb6d a13c 4572 c13c f3fc 693d 69bd 2a3b
000001c0: c0e8 c93c 8204 463d 60ed 543d 8d1a 893d
000001d0: e46c 2b3d 07c3 9117 aacc bd18 6b0f a416
000001e0: d235 bc97 c7aa 7c99 c581 9b98 3999 b598
000001f0: aff9 3c98 25ac 1917 22b3 02bd 5277 4b3b
00000200: 1f71 17bb c041 13bd 115f 883c e850 7fbd
00000210: f924 40bc 2f64 13bd 6c62 85bb ce4b 79bd
00000220: 2529 edbc b77b 393d 1576 3f3d 648d f9bc
00000230: 52f3 f93d 2a2d 11bd 746f e0bc 4a8f d43d
00000240: d869 6fbd 4e05 fa3b 85df 9bbb 1cf2 053d
00000250: 60fe 713d a3f2 8c3d 7135 333c dc9c 873d
00000260: 2742 683d 04a2 a8bd 1fca 59bc 2df1 9d3c
00000270: 1a4e 07bd 39e8 f63c a980 273d 95cb 25bd
00000280: 94d8 873d 66af 663d 7166 8bbc c86c b4bc
00000290: 5a92 113d 355d f53c 1b24 82bc bb5c 483d
000002a0: 3e78 a73d 79c2 163d 0f04 503b c0ac a6bb
000002b0: 8bfa 2bbc 7dfb 113d 141f ef39 8fb2 d63c
000002c0: ef24 9f3d ba0b 9e3d 98b0 433d a7f5 593d
000002d0: 872b e7bc 5e3d 85bd a311 50bc 6e98 b23b
000002e0: 7ff3 dd3c 641c 5b3d eb73 b33c 9c88 6b3d
000002f0: 1f7b 2c3d a390 4cbd a6b4 fb3c 6558 2dbd
00000300: bc0d b13c 70d6 1c3d faee 713c c563 44bc
00000310: 7524 4e3d 036c c23a d7e3 be3b e1c2 12bd
00000320: f7b4 4ebd e48f 493c 87a1 82bb ac5d 05bd
00000330: 4f8a d1bb 6b58 38bd 689f 43bd 690c b33d
00000340: abda aa3d a1ff 403c 579e 043e ea1c e53d
00000350: dfe8 a33c 75c6 473d 5017 243d c3a7 193d
00000360: a190 91bd 03b2 07bd db36 70bd f8e1 793c
00000370: dfa4 6a3d c180 6e3d 6cca 38bd 2936 753d
00000380: 146c 253d 5daf 2e3c d005 6c3d 6e6b 743d
00000390: 25ef ed3c 9073 853d b1c6 573d f874 d83c
000003a0: 44df e03d b77e cd3d 61b4 abbc 229f cb3c
000003b0: 9e94 0d3d 5cca 613c f64c c23c 4b96 803d
000003c0: 31b9 863d 64d3 983c 0e50 a83d 911e f13c
000003d0: 01fe 88bd a1db 63bd 83d4 c23c 4aa2 94bd
000003e0: baf7 8dbd 509c 293c d8a5 e3bc e60c 6fbd
000003f0: 84f5 26bd fa80 af3c 55f1 14bb 8c22 593c

encoder_conv.4.bias f4 [32]
0.038962476 0.07112851 0.013885733 -0.004248013 -0.002802608 0.06159998 0.025864545 0.049054213
0.02954825 -0.109818555 0.004124945 0.10715734 0.05090635 0.003230037 -0.021025583 0.07449136
0.15712945 -0.021536522 0.05866756 0.06430391 0.082300946 -0.016401518 0.01491773 0.03414338
-0.05760919 -0.099096045 0.11622125 -0.032430142 0.13694403 -0.02890628 0.08673535 0.088704154
00000000: 1e97 1f3d d3ab 913d fc80 633c ea32 8bbb
00000010: f6ab 37bb 4350 7c3d e2e1 d33c 12ed 483d
00000020: 2c0f f23c 8de8 e0bd 8c2a 873b 4f75 db3d
00000030: 2d83 503d 07af 533b d83d acbc ed8e 983d
00000040: 8be6 203e 5c6d b0bc 654d 703d c5b1 833d
00000050: 668d a83d 7a5c 86bc 7f69 743c eed9 0b3d
00000060: 9df7 6bbd def2 cabd 6805 ee3d 78d5 04bd
00000070: 0e3b 0c3e ddcc ecbc 4ea2 b13d 86aa b53d

encoder_lin.0.weight f4 [64, 288]
-0.018113084 -0.006387988 -0.035059363 -0.01482592 -0.0007643154 -0.028198034 -0.007910789 -0.0062875226
-0.030355355 -0.02877683 -0.009283022 -0.04992938 -0.021874305 -0.0013179412 -0.046821084 -0.0106669245
-0.012721843 -0.048904195 -0.094948284 -0.1089862 -0.09285744 -0.10522073 -0.11012761 -0.10124505
-0.10258913 -0.110356376 -0.10024824 3.2160516e-26 3.80516e-25 1.7693832e-25 6.929011e-25 1.6166096e-26
6.5331986e-25 -7.844448e-25 3.9665655e-26 8.2074937e-25 -3.3782877e-25 8.856904e-26 -2.8348387e-25 -1.5681921e-25
-1.2890422e-25 -6.4385656e-26 1.8786012e-25 5.3484074e-25 6.3511926e-25 -0.0731165 -0.033976175 -0.022417465
-0.045680203 -0.025323914 -0.0018573462 -0.03139903 -0.0011945242 -0.0013462531 -0.050398078 -0.023219235
-0.016389167 -0.039562374 -0.0028006448 -0.005185672 -0.02422286 -0.004229584 -0.008729867 -0.0151952505
-0.013249617 -0.041202895 -0.0131842075 -0.0064627007 -0.033548195 -0.008455615 -0.0057908953 -0.028938822
-0.062069833 -0.022125892 -0.0071769133 -0.06572919 -0.014660198 -0.0006583877 -0.058959346 -0.0023146542
-0.0028982854 -0.047904138 -0.050890084 -0.06725918 -0.039898366 0.007476757 -0.010720583 -0.020913785
0.00046332038 -0.010837178 -0.048743434 -0.011583362 -0.004468789 -0.055564012 -0.0039081695 -0.0020703177
-0.061888147 -0.06779946 -0.06444926 -0.027141312 -0.040844176 -0.07310771 -0.052816775 -0.05971978
-0.08811462 -0.06943137 -0.07474777 -0.08310181 -0.04108155 -0.0149151115 -0.01710964 -0.03548895
-0.002542509 -0.017649615 -0.02509282 -0.009535336 -0.03457228 -0.08475534 -0.066537224 -0.06434755
-0.095939085 -0.08146491 -0.082490146 -0.08926103 -0.053909875 -0.069840215 -0.07045881 -0.0290167
-0.012627739 -0.06295346 -0.03384485 -0.0009585809 -0.033571433 -0.0133576365 -0.00096820196 -0.009000285
-0.043604318 -0.021236984 -0.011522717 -0.06405153 -0.034323882 -0.013954719 -0.044467352 -0.039973166
-0.05472745 -0.053316433 -0.054047536 -0.053451728 -0.064964436 -0.04218937 -0.04895693 -0.053452905
-0.041602332 -6.6930386e-26 -2.0146842e-25 -2.4529613e-25 -5.7252e-26 -3.9324428e-25 -6.3634347e-25 -1.8912106e-25
-4.932501e-25 1.8421523e-26 -0.08347899 -0.04642532 -0.025899379 -0.06422369 -0.017973015 -0.009535093
-0.05326985 -0.0027111436 -0.018788785 -0.09395074 -0.10357773 -0.086598516 -0.10414719 -0.10503813
-0.09678078 -0.101373956 -0.10520437 -0.09528242 -0.05918104 -0.030675154 -0.03934027 -0.045367755
-0.0028836243 -0.010504408 -0.025169488 -0.004557794 -0.017418735 -0.07086889 -0.034181252 -0.015985677
-0.0735028 -0.024396848 -0.0013516027 -0.0667317 -0.0034733529 -0.0038862135 -0.029522978 -0.014132499
-0.0015428847 -0.058327805 -0.02190566 -0.0050817695 -0.070232436 -0.071234554 -0.04483604 -0.09548323
-0.057095043 -0.026226496 -0.088303305 -0.05538935 -0.007420805 -0.079352096 -0.024362719 -0.018566145
-0.026198173 -0.0012053681 -0.0016043391 -0.02073006 7.538323e-05 -0.00091271376 -0.0029425942 -0.00014854886
-0.0047898423 -0.06388462 -0.014367878 0.004225487 -0.06322429 -0.009994361 0.0005999577 -0.052862827
-0.038238984 -0.032472517 -0.08548736 -0.076798975 -0.005321352 -0.09825902 -0.093172185 -0.062601365
-0.09994517 -0.09625372 -0.08023874 -0.07501312 -0.03238432 0.0008802852 -0.09719992 -0.046996664
5.693134e-05 -0.09731218 -0.00551259 0.00033973 -0.035440918 -0.03707107 -0.018536994 -0.046109367
00000000: e461 94bc 5452 d1bb 689a 0fbd 6ae8 72bc
00000010: 575c 48ba 90ff e6bc 419c 01bc 9007 cebb
00000020: cbab f8bc 63bd ebbc d117 18bc c082 4cbd
00000030: be31 b3bc c5be acba 77c7 3fbd 53c4 2ebc
00000040: 476f 50bc c44f 48bd 3f74 c2bd 2834 dfbd
00000050: 0b2c bebd f77d d7bd 968a e1bd 9159 cfbd
00000060: 401a d2bd 8602 e2bd f34e cdbd 4c40 1f15
00000070: 2b87 eb16 fe09 5b16 4871 5617 ec19 a014
00000080: 5531 4a17 1fc6 7297 316a 4415 7702 7e17
00000090: 1b1b d196 4c49 db15 d077 af96 fe21 4296
000000a0: 6193 1f96 4269 9f95 408f 6816 7386 2517
000000b0: 558f 4417 1bbe 95bd 9a2a 0bbd d5a4 b7bc
000000c0: 2a1b 3bbd 1974 cfbc 3272 f3ba 459c 00bd
000000d0: 9591 9cba c274 b0ba 376e 4ebd 4436 bebc
000000e0: 9342 86bc 280c 22bd 068b 37bb 92ec a9bb
000000f0: 056f c6bc 5298 8abb b707 0fbc 80f5 78bc
00000100: ec14 59bc 5ec4 28bd 9302 58bc 10c5 d3bb
00000110: d569 09bd 6b89 0abc 8dc1 bdbb 1c11 edbc
00000120: f03c 7ebd 5c41 b5bc 502c ebbb 079d 86bd
00000130: 5431 70bc a797 2cba 5b7f 71bd 74b1 17bb
00000140: 29f1 3dbb 2137 44bd 1f72 50bd 2ebf 89bd
00000150: 786c 23bd 95ff f43b 62a5 2fbc 6353 abbc
00000160: cfe9 f239 6b8e 31bc 32a7 47bd 24c8 3dbc
00000170: eb6e 92bb 1797 63bd 1a10 80bb 2bae 07bb
00000180: 6d7e 7dbd 71da 8abd f9fd 83bd 7557 debc
00000190: 394c 27bd 7fb9 95bd 6756 58bd ba9c 74bd
000001a0: 7075 b4bd 0932 8ebd 5c15 99bd 4831 aabd
000001b0: 2145 28bd 835e 74bc 8429 8cbc dc5c 11bd
000001c0: 39a0 26bb ed95 90bc 758f cdbc 193a 1cbc
000001d0: aa9b 0dbd 3594 adbd ab44 88bd a6c8 83bd
000001e0: b67b c4bd 13d7 a6bd 98f0 a8bd 7dce b6bd
000001f0: 9ad0 5cbd 6308 8fbd b54c 90bd 6eb4 edbc
00000200: 94e4 4ebc beed 80bd e6a0 0abd 4649 7bba
00000210: 3382 09bd fdd9 5abc efce 7dba ee75 13bc
00000220: 719a 32bd 2ff9 adbc c7c9 3cbc 732d 83bd
00000230: 3397 0cbd 55a2 64bc 6623 36bd e7ba 23bd
00000240: e429 60bd 5562 5abd f360 5dbd 33f0 5abd
00000250: 130c 85bd c3ce 2cbd 1087 48bd 6ff1 5abd
00000260: 3567 2abd 2cb6 a595 e467 7996 b9d4 9796
00000270: c4bf 8d95 0b68 f396 53f0 4497 db1e 6a96
00000280: 4da7 1897 1c70 b614 08f7 aabd 7a28 3ebd
00000290: ef2a d4bc b687 83bd 253c 93bc 1439 1cbc
000002a0: 7c31 5abd 71ad 31bb f0ea 99bc 3f69 c0bd
000002b0: 9020 d4bd 905a b1bd 1f4b d5bd 3b1e d7bd
000002c0: 0035 c6bd 269d cfbd 6475 d7bd 6e23 c3bd
000002d0: d167 72bd 764a fbbc 4323 21bd 8ad3 39bd
000002e0: 30fb 3cbb ae1a 2cbc 3e30 cebc 8c59 95bb
000002f0: bcb1 8ebc b523 91bd a401 0cbd 65f4 82bc
00000300: a388 96bd e6db c7bc 4328 b1ba a1aa 88bd
00000310: 31a1 63bb d8af 7ebb 2cda f1bc ff8b 67bc
00000320: 9f3a caba 23e9 6ebd 8073 b3bc f984 a6bb
00000330: 06d6 8fbd 6ce3 91bd ffa5 37bd b68c c3bd
00000340: 7edc 69bd f3d8 d6bc 5dd8 b4bd f1df 62bd
00000350: 392a f3bb 5a83 a2bd 5394 c7bc 0718 98bc
00000360: 8d9d d6bc 71fd 9dba b048 d2ba 16d2 a9bc
00000370: 1017 9e38 2f43 6fba 8ad8 40bb c8c3 1bb9
00000380: 1cf4 9cbb f1d5 82bd 4067 6bbc f475 8a3b
00000390: bd7b 81bd 63bf 23bc 7b46 1d3a b186 58bd
000003a0: 7ba0 1cbd e701 05bd ff13 afbd c848 9dbd
000003b0: bc5e aebb 063c c9bd 0fd1 bebd 2535 80bd
000003c0: 0eb0 ccbd ac20 c5bd 3554 a4bd 7ba0 99bd
000003d0: 6ca5 04bd f1c2 663a c010 c7bd 937f 40bd
000003e0: 90c9 6e38 9c4b c7bd f5a2 b4bb ca1d b239
000003f0: 7f2a 11bd d6d7 17bd e5da 97bc 2ddd 3cbd

encoder_lin.0.bias f4 [64]
-0.06244162 0.02449773 -2.5178346e-11 0.0007263798 0.0623373 -0.045052454 -0.0040516704 -0.0039483975
-0.00019289281 0.041827507 -0.007249967 -0.051555954 0.014332942 0.001197598 -0.013037424 -0.064166866
0.021014562 0.028179897 0.031547513 -0.0008341557 -0.0026932824 0.042179435 -0.023433194 -0.05373777
-0.022913383 -2.7173908e-05 -0.08451781 0.008793464 -0.0017895001 0.008722744 0.037501883 0.013747673
0.006980058 -1.0773246e-10 0.034429528 -0.0376042 -0.040569335 0.025042063 -0.0009175253 -5.6757108e-05
-0.00640192 0.0014952605 0.0006023276 -0.011400109 -0.046496574 0.005914096 -0.0482301 -0.00062645995
-0.016953263 -0.0022068373 0.031512007 -3.0278834e-05 0.064283416 -0.018619811 0.041276462 -0.0238951
0.012891003 -0.005964712 0.013154664 0.00571952 -4.30251e-06 0.0069260797 8.2877306e-20 -3.3112017e-05
00000000: c9c2 7fbd 77af c83c 9878 ddad 866a 3e3a
00000010: 6655 7f3d ec88 38bd e0c3 84bb 8f61 81bb
00000020: 4543 4ab9 5253 2b3d 2291 edbb 562c 53bd
00000030: b7d4 6a3c b8f8 9c3a eb9a 55bc eb69 83bd
00000040: bb26 ac3c 87d9 e63c f737 013d 3eab 5aba
00000050: c881 30bb 58c4 2c3d f8f6 bfbc 231c 5cbd
00000060: d9b4 bbbc 86f3 e3b7 ac17 adbd 7612 103c
00000070: a98d eaba d7e9 0e3c 939b 193d eb3d 613c
00000080: f8b8 e43b fce7 ecae fa05 0d3d dd06 1abd
00000090: 082c 26bd 0325 cd3c 1586 70ba 7b0e 6eb8
000000a0: 33c7 d1bb 9efc c33a 85e5 1d3a 86c7 3abc
000000b0: 3173 3ebd 08cb c13b ed8c 45bd 0439 24ba
000000c0: 92e1 8abc 96a0 10bb bc12 013d 4dff fdb7
000000d0: 06a7 833d 9388 98bc 8211 293d a8bf c3bc
000000e0: c934 533c a173 c3bb a986 573c d06a bb3b
000000f0: 485e 90b6 2bf4 e23b 42b0 c31f c2e1 0ab8

encoder_lin.2.weight f4 [3, 64]
0.07155633 0.02909174 0.00095107185 0.027255796 0.096083105 0.22694951 0.15657955 -0.11991891
-0.0029131933 0.00043242428 0.21176982 -0.24668205 0.06579437 -0.07635841 0.4751077 -0.2199839
0.06627302 0.041498866 -0.18426232 0.24208924 -0.078075536 -0.15740432 -0.16811211 0.2874888
0.082619175 0.02514894 -0.09223831 -0.07516607 0.09921549 0.047577363 -0.07680521 0.099864274
-0.10346532 0.008057509 0.106639355 0.030363075 -0.23972447 -0.11340851 0.030869551 -4.3231796e-07
-0.030931143 0.035482332 0.0020191437 0.21194585 -0.12714395 -0.06093713 -0.30847508 0.052400496
0.14943649 -0.018017495 0.020694446 0.03520333 0.12557624 -0.019736422 0.0011763779 -0.11549262
0.08149462 0.18096273 0.18938662 -0.09454105 0.027062189 -0.08291478 4.41054e-05 0.001075236
0.03063872 0.05518508 0.023644146 -0.06285678 0.07203598 -0.5636953 0.039193958 0.028211307
-0.00032799208 0.009216239 -0.02519023 -0.1020726 0.065304205 0.09530934 -0.9022644 -0.20234208
-0.14828683 0.1174109 0.04664371 -0.27676448 0.043443505 0.03753648 -0.019818598 0.53025436
0.22981375 -0.025165718 -0.5797733 -0.062360924 0.18727037 -0.019829398 0.059209324 -0.019080138
0.009582533 -0.0027582406 0.10500798 -0.45289448 0.18187048 0.0052207457 -0.009698077 9.730418e-21
-0.054521006 0.008810612 -0.0022457999 0.066717364 0.5158538 0.028739596 -0.08829723 0.0013389367
0.100183025 0.08824539 -0.013843145 -0.0039102663 0.07882864 -0.56367135 0.077635124 -0.22966102
-0.26708102 -0.2651545 -0.2674307 -0.024048856 0.0020184126 0.15921885 5.809017e-08 -0.001204492
-0.12076329 0.09983184 -0.0032576614 0.05288416 0.08536857 0.504455 -0.10828755 0.03662522
-0.002655424 0.13391782 0.14267437 0.2682374 -0.026317045 -0.020701107 0.10451257 0.48177168
-0.05270784 0.035496008 -0.062599406 -0.18266803 0.008024771 -0.08187115 0.0515763 -0.16028851
0.03248224 0.023774188 -0.12462801 0.18833588 0.27808103 0.018104786 -0.05713428 -0.12488104
0.0047520385 -0.014697162 0.056767616 0.7349692 0.111238115 -0.040761773 0.0022191377 -9.92224e-24
0.07633644 0.005601549 0.00070670736 0.04291584 0.2063009 -0.0040590293 -0.037116013 0.041456584
-0.09352134 0.039023016 0.13098148 0.0041742977 0.07870352 0.3426509 -0.15819894 0.12960625
-0.030563703 -0.113678664 -0.07315424 -0.031308237 0.009424895 0.009236114 -7.5656265e-20 0.00052178913
00000000: 208c 923d cd51 ee3c 5a51 793a 8c47 df3c
00000010: 38c7 c43d 7465 683e 6456 203e 0c98 f5bd
00000020: 46eb 3ebb 01b7 e239 30da 583e 389a 7cbe
00000030: 33bf 863d cc61 9cbd 5141 f33e 7643 61be
00000040: 26ba 873d b7fa 293d 43af 3cbe 3ee6 773e
00000050: 11e6 9fbd 992e 21be 9525 2cbe bb31 933e
00000060: 3e34 a93d 2605 ce3c 70e7 bcbd abf0 99bd
00000070: 7e31 cb3d 7be0 423d 0d4c 9dbd a485 cc3d
00000080: a0e5 d3bd a403 043c bc65 da3d fcbb f83c
00000090: 557a 75be b942 e8bd 24e2 fc3c 5419 e8b4
000000a0: 4f63 fdbc ec55 113d 9c53 043b 5508 593e
000000b0: 0632 02be 3699 79bd 72f0 9dbe e7a1 563d
000000c0: e105 193e 6d99 93bc 6687 a93c 5e31 103d
000000d0: 0f97 003e 47ae a1bc b130 9a3a 6587 ecbd
000000e0: a7e6 a63d 4b4e 393e 91ee 413e bd9e c1bd
000000f0: 86b1 dd3c 39cf a9bd d0fd 3838 efee 8c3a
00000100: 0efe fa3c c009 623d 5eb1 c13c 0ebb 80bd
00000110: 9a87 933d 564e 10bf d889 203d 661b e73c
00000120: 5af6 abb9 b5ff 163c be5b cebc 700b d1bd
00000130: 36be 853d 8b31 c33d cdfa 66bf c332 4fbe
00000140: 81d8 17be 2075 f03d 7a0d 3f3d 13b4 8dbe
00000150: d1f1 313d dabf 193d 9d5a a2bc c0be 073f
00000160: 4c54 6b3e 5628 cebc 066c 14bf 2b6e 7fbd
00000170: cec3 3f3e 4371 a2bc 7a85 723d f34d 9cbc
00000180: 0e00 1d3c 99c3 34bb 6c0e d73d c9e1 e7be
00000190: 413c 3a3e ca12 ab3b afe4 1ebc 6acd 371e
000001a0: 6b51 5fbd 635a 103c 452e 13bb 1da3 883d
000001b0: ff0e 043f 4d6f eb3c 2ed5 b4bd 437f af3a
000001c0: c22c cd3d 00ba b43d 5cce 62bc b121 80bb
000001d0: e970 a13d c44c 10bf 2aff 9e3d 422c 6bbe
000001e0: d8be 88be 55c2 87be adec 88be 1b02 c5bc
000001f0: 5847 043b 440a 233e d17e 7933 0be0 9dba
00000200: be52 f7bd a374 cc3d 7d7e 55bb 109d 583d
00000210: b8d5 ae3d f623 013f ddc5 ddbd 5404 163d
00000220: 9f06 2ebb c121 093e 3b19 123e 6a56 893e
00000230: d896 d7bc 5e95 a9bc b00a d63d c7aa f63e
00000240: 2de4 57bd 4364 113d 1e34 80bd 540d 3bbe
00000250: 547a 033c 10ac a7bd ac41 533d ac22 24be
00000260: 190c 053d 16c2 c23c f83c ffbd 1fdb 403e
00000270: a360 8e3e 7d50 943c a305 6abd a1c1 ffbd
00000280: fdb6 9b3b 5ecc 70bc 2985 683d f126 3c3f
00000290: cfd0 e33d d1f5 26bd f46e 113b 8dec 3f99
000002a0: 4856 9c3d 338d b73b 5442 393a 85c8 2f3d
000002b0: 8b40 533e 9b01 85bb f606 18bd 61ce 293d
000002c0: 1e88 bfbd 99d6 1f3d 0220 063e 8cc8 883b
000002d0: 502f a13d f06f af3e e7fe 21be 80b7 043e
000002e0: bb60 fabc 5cd0 e8bd e4d1 95bd 113d 00bd
000002f0: e06a 1a3c 1253 173c 68a3 b29f adc8 083a

encoder_lin.2.bias f4 [3]
0.08880718 -0.004700962 0.027571
00000000: 8ae0 b53d 870a 9abb 94dc e13c

decoder_lin.0.weight f4 [64, 3]
-0.20151852 -0.27200487 0.24354833 -0.11813715 0.103969134 0.5330844 -0.1463693 -0.2491812
0.45940083 -0.29485333 -0.4494481 0.5350553 0.221698 0.09847491 0.11278232 -0.36565217
-0.10598673 -0.09864678 0.5838336 -0.3326714 0.21843311 0.014809627 0.39650527 -0.055377506
0.21159144 0.024238512 -0.19423707 -0.25614795 -0.15218017 -0.5350476 0.34205782 0.2985715
-0.044337504 0.49287492 -0.28640887 -0.26462325 0.563111 0.014192417 -0.2257257 0.5718631
-0.37822065 0.02943436 0.1641828 -0.45187867 0.38595232 0.3838096 0.3152769 0.057280917
0.31964597 -0.30456275 -0.34232405 0.4732876 -0.71755975 0.16397639 0.3905101 0.31578737
-0.3346801 0.25707942 0.18013535 0.2811596 -0.0067989104 0.46347067 0.007713145 -0.56759214
0.25645822 0.015311818 -0.22386444 -0.17054416 -0.22596495 0.17449072 0.13457467 -0.08342092
0.30956912 -0.051311918 0.3100408 0.54352695 -0.17632511 -0.49665508 -0.19733892 -0.33484575
0.24549897 0.3559099 0.24730982 0.024038212 -0.1995124 -0.14696603 0.1414965 0.1675081
-0.5518938 -0.5414597 0.17190537 0.21211657 -0.5859075 0.0186136 0.2915709 0.42266664
0.121687114 0.44341567 0.42045972 -0.07546821 -0.541433 0.35436904 0.4321061 0.1015689
0.23027284 -0.1936727 0.119619146 -0.1914975 -0.13565972 0.34669015 -0.5297428 0.26717865
-0.10107989 0.29381096 0.2805055 0.22428747 -0.22716863 0.24892214 -0.14224666 0.12891167
-0.28677285 0.49400687 0.07915282 -0.28609112 -0.13972142 -0.071445666 -0.1673592 0.07582435
0.022796405 0.029001525 0.39826134 0.4886173 0.17565514 0.16191922 -0.108614415 -0.35332912
-0.1874798 0.13977866 0.4558453 -0.13912554 -0.06155953 0.00089914387 -0.00022312159 -0.0006451479
0.057610013 -0.39293793 0.40825316 -0.06591187 0.3177724 -0.35846433 -0.004421777 0.06291639
-0.7605756 -0.34654516 0.27796748 0.06563716 -0.044583887 -0.47332823 0.38958362 0.5263851
-0.6683816 -0.12750842 -0.13873449 -0.5080984 -0.37932712 -0.2702733 -0.6096987 -0.007506794
0.085932724 0.12926312 0.50150293 0.48091733 -0.22510044 -0.5897217 0.1511256 0.15760833
-0.33870712 0.15131275 0.42111748 -0.0155228805 0.31816125 0.38109282 -0.4097654 0.38789293
-0.54813707 -0.62605846 0.19253539 0.42003384 -0.2885383 0.49770018 0.08180854 -0.2209266
00000000: df5a 4ebe 3944 8bbe bc64 793e e4f1 f1bd
00000010: c5ed d43d 3878 083f d5e1 15be 5b29 7fbe
00000020: 9636 eb3e 04f7 96be 101e e6be 62f9 083f
00000030: cd04 633e 37ad c93d 6bfa e63d c336 bbbe
00000040: 920f d9bd 5307 cabd 1e76 153f e853 aabe
00000050: eeac 5f3e 14a4 723c bd02 cb3e 86d3 62bd
00000060: 6dab 583e d88f c63c 15e6 46be d325 83be
00000070: 1ed5 1bbe e1f8 08bf 3422 af3e 5dde 983e
00000080: 3e9b 35bd 1a5a fc3e 2fa4 92be b37c 87be
00000090: 0b28 103f 5087 683c a324 67be 9f65 123f
000000a0: 23a6 c1be 5420 f13c 891f 283e a45c e7be
000000b0: 8b9b c53e b182 c43e f96b a13e 659f 6a3d
000000c0: a3a8 a33e a6ef 9bbe 1945 afbe c152 f23e
000000d0: ffb1 37bf 6de9 273e f1f0 c73e e2ae a13e
000000e0: 315b abbe ea9f 833e 6775 383e 27f4 8f3e
000000f0: 65c9 debb 074c ed3e 8dbe fc3b b84d 11bf
00000100: 7e4e 833e 6bde 7a3c b83c 65be 21a3 2ebe
00000110: 5b63 67be b2ad 323e f1cd 093e 96d8 aabd
00000120: d87f 9e3e 722c 52bd abbd 9e3e 9524 0b3f
00000130: 928e 34be 9349 febe 3713 4abe e770 abbe
00000140: 1564 7b3e d339 b63e c93e 7d3e c9eb c43c
00000150: fb4c 4cbe 437e 16be 75e4 103e 3e87 2b3e
00000160: e948 0dbf 1a9d 0abf f607 303e 1635 593e
00000170: 09fe 15bf 8c7b 983c c848 953e c367 d83e
00000180: 1837 f93d 6107 e33e 7f46 d73e 148f 9abd
00000190: 5a9b 0abf dc6f b53e 033d dd3e 5b03 d03d
000001a0: a5cc 6b3e 2352 46be e2fa f43d ec17 44be
000001b0: 62ea 0abe 5f81 b13e 399d 07bf a4cb 883e
000001c0: f902 cfbd 646e 963e 6b9e 8f3e 9dab 653e
000001d0: e59e 68be 72e5 7e3e 1ca9 11be 6c01 043e
000001e0: e4d3 92be 78ee fc3e e01a a23d 897a 92be
000001f0: 2213 0fbe 1b52 92bd 3660 2bbe cc49 9b3d
00000200: 87bf ba3c 9b94 ed3c e9e8 cb3e 0c2c fa3e
00000210: f1de 333e 27ce 253e 3c71 debd 8ee7 b4be
00000220: b4fa 3fbe 2322 0f3e 8e64 e93e ed76 0ebe
00000230: d925 7cbd 86b4 6b3a bff5 69b9 251f 29ba
00000240: 7af8 6b3d 292f c9be 8f06 d13e cdfc 86bd
00000250: 10b3 a23e a388 b7be 8ee4 90bb 4fda 803d
00000260: 15b5 42bf 5e6e b1be c151 8e3e c66c 863d
00000270: 989d 36bd 1458 f2be 8177 c73e 2dc1 063f
00000280: 0e1b 2bbf 9191 02be 6a10 0ebe bd12 02bf
00000290: 2a37 c2be 4361 8abe 3715 1cbf 8dfb f5bb
000002a0: 7ffd af3d 8d5d 043e 7f62 003f cc3a f63e
000002b0: bb80 66be 00f8 16bf abc0 1a3e 1464 213e
000002c0: 056b adbe bbf1 1a3e b69c d73e ae53 7ebc
000002d0: 08e6 a23e 991e c33e c5cc d1be e799 c63e
000002e0: b652 0cbf 5e45 20bf ff27 453e ad0e d73e
000002f0: 4bbb 93be 8fd2 fe3e 3c8b a73d 953a 62be

decoder_lin.0.bias f4 [64]
0.7432223 0.5203214 -0.6393225 -0.18982393 0.7517315 -0.13090865 -0.30175662 -0.3626515
0.050960448 -0.2301656 -0.39070266 0.09173968 -0.5685422 -0.05215653 -0.31453878 -0.425257
0.02863463 -0.16575196 0.25496724 -0.17106459 -0.88239944 0.21569528 0.13790657 0.6289486
0.36182392 0.15119407 0.3528868 0.30081984 -0.6635221 0.41250882 -0.2947967 -0.3960575
-0.15020269 0.19585997 0.18089354 0.7482969 -0.66805965 0.25249168 -0.113919176 0.56011176
-0.90765536 -0.31514797 0.7663038 0.16658786 0.759922 0.5061132 -0.31892172 -0.006683471
-0.5716467 0.22528669 0.46050695 -0.08370371 -0.07248004 -0.19595475 0.14356485 0.122471504
-0.3692044 -0.28489614 0.2858817 0.6050145 0.05801983 -0.29909864 0.2583367 -0.32117262
00000000: d143 3e3f c933 053f a4aa 23bf 3461 42be
00000010: 7a71 403f eb0c 06be d87f 9abe 75ad b9be
00000020: e7bb 503d 88b0 6bbe 2e0a c8be 03e2 bb3d
00000030: fb8b 11bf 16a2 55bd 3a0b a1be 49bb d9be
00000040: 2c93 ea3c e2ba 29be 118b 823e 8e2b 2fbe
00000050: eee4 61bf 39df 5c3e 6137 0d3e c702 213f
00000060: fc40 b93e 9ed2 1a3e 94ad b43e 0f05 9a3e
00000070: 96dc 29bf 5b34 d33e 98ef 96be 0cc8 cabe
00000080: bcce 19be 848f 483e 283c 393e 6390 3f3f
00000090: f505 2bbf 9746 813e 754e e9bd 7c63 0f3f
000000a0: 1a5c 68bf 135b a1be 7c2c 443f 0296 2a3e
000000b0: 408a 423f a290 013f b549 a3be 0501 dbbb
000000c0: 7057 12bf 8eb1 663e 91c7 eb3e da6c abbd
000000d0: 6a70 94bd 5da8 48be aa02 133e 57d2 fa3d
000000e0: 5c08 bdbe e8dd 91be 165f 923e 3be2 1a3f
000000f0: 34a6 6d3d 7523 99be b544 843e bd70 a4be

decoder_lin.2.weight f4 [288, 64]
-0.023539903 -0.07406424 0.054116935 -0.04978894 -0.05404268 0.03689125 -0.05653581 -0.046652686
0.022778092 0.0015430844 -0.03108763 -0.05132046 0.10318773 -0.05898989 0.05276791 -0.045728207
-0.0055730576 0.009326763 0.03260638 -0.042413637 -0.022301393 -0.089900434 0.018772386 -0.04117773
-0.033650193 -0.028811783 -0.05424933 -0.07159724 -0.0022741198 0.20605086 0.16337466 -0.022170456
-0.03244003 -0.022101162 -0.02942532 -0.06862366 0.16189285 -0.043559853 0.038761325 -0.033302724
-0.118979506 0.0026447729 -0.065176465 -0.032278318 -0.058894064 0.010797989 -0.0047202106 0.00020460496
0.12064173 0.10802571 -0.02132865 -0.035208423 -0.026311321 -0.04917957 0.21207657 0.074705355
0.012685131 0.005135576 0.10710099 -0.16501158 0.04472368 0.018302359 -0.07277142 0.101716556
0.0877472 0.09656984 0.040028732 0.020474985 0.03341297 0.013466823 -0.07833486 -0.03595953
-0.018833349 0.05765058 -0.009240217 0.017774617 -0.0068742186 -0.1264862 -0.03228582 -0.008265706
-0.07647184 -0.12363653 -0.023051007 -0.047614515 0.0026910636 0.0020319703 0.0024832105 0.049670618
-0.031145642 -0.025848322 0.12530427 0.015054058 0.044007674 -0.14356641 0.065346844 -0.11824209
-0.06503631 0.09833831 -0.059538923 0.009469167 -0.11975485 0.020888656 -0.013637818 -0.13701573
-0.42265582 0.050945047 -0.01844172 -0.05484308 0.07333962 0.16970141 0.02427472 0.00015416593
-0.021965524 -0.12769112 0.100575 0.004305362 0.0015644949 -0.18679707 0.047515538 0.16831852
-0.009879266 -0.007859813 0.002968543 0.08837165 -0.05049182 -0.13062772 -0.0002936847 -0.008159559
0.06789868 0.019900346 0.020562656 0.03227293 0.06361732 0.17393984 -0.0445954 -0.19476864
0.014326756 0.15668583 -0.070768915 0.081315294 0.10879062 -0.13607994 -0.010639817 -0.07597257
0.102416195 0.017999703 0.039644636 -0.050904434 -0.3312144 -0.005374535 0.15284343 0.03367192
-0.009770242 0.093756825 0.022044871 -0.008250462 0.03817726 0.30313972 0.045400776 -0.14379385
-0.08342986 0.031076886 -0.0258309 0.06492348 0.039701045 -0.031604405 -0.006276188 0.030846499
-0.26166245 0.11113105 0.082906045 -0.0728398 0.030004177 0.13178658 0.0094647715 -0.00050193426
0.07332226 0.025593443 0.07445828 -0.022045761 0.03300689 -0.09334365 0.28855383 0.14624457
-0.110222474 0.09959561 0.032368265 -0.16512424 -0.0072371834 0.09787117 -0.112785235 0.115099266
-0.032609064 -0.04339519 -0.11144352 -0.14810888 -0.017291093 0.05359856 -0.014548895 -0.0032769379
0.031193983 0.09185021 -0.016138108 0.015362512 0.02182933 0.03454806 -0.09765045 -0.03585592
0.043318547 -0.19067226 0.06589379 -0.06664612 -0.06301701 0.066322014 0.019006742 0.0536276
0.014467719 0.039538722 -0.071912274 -0.047130648 -0.033913027 0.0011724511 0.12175185 -0.09987107
-0.12954481 -0.06365713 0.0060281116 0.047836974 0.07195193 -0.0043325177 0.020563634 0.022323217
-0.0104270205 0.002216684 0.017406275 -0.112485036 0.03955431 0.034259308 0.014985205 0.00023688705
-0.041212816 0.0025011513 0.2020028 -0.04734705 -0.05381801 -0.08680048 -0.04600663 -0.02294028
-0.06305336 0.047214862 0.09063931 -0.048850916 0.015837543 0.0569051 -0.011861652 0.06851591
00000000: c1d6 c0bc feae 97bd b8a9 5d3d 7def 4bbd
00000010: db5b 5dbd 481b 173d 1892 67bd e316 3fbd
00000020: 1f99 ba3c 5241 ca3a 7cab febc 6735 52bd
00000030: 1754 d33d 629f 71bd 2a23 583d 804d 3bbd
00000040: 329e b6bb 48cf 183c 448e 053d ecb9 2dbd
00000050: 69b1 b6bc b81d b8bd 8cc8 993c fba9 28bd
00000060: c9d4 09bd b006 ecbc 8c34 5ebd 93a1 92bd
00000070: 6609 15bb fffe 523e b04b 273e d19e b5bc
00000080: d6df 04bd 7f0d b5bc 5e0d f1bc 908a 8cbd
00000090: 3dc7 253e d16b 32bd 32c4 1e3d 7068 08bd
000000a0: 87ab f3bd ed53 2d3b 3d7b 85bd 4536 04bd
000000b0: e73a 71bd 0cea 303c ffab 9abb 3a8b 5639
000000c0: 0313 f73d 953c dd3d 6cb9 aebc b536 10bd
000000d0: d78a d7bc 8470 49bd 9a2a 593e 1fff 983d
000000e0: 4cd5 4f3c 5548 a83b c457 db3d ccf8 28be
000000f0: 2d30 373d d4ee 953c 2f09 95bd c550 d03d
00000100: ceb4 b33d 69c6 c53d 2bf5 233d 28bb a73c
00000110: 0adc 083d f3a3 5c3c 076e a0bd 4d4a 13bd
00000120: 6548 9abc 0423 6c3d 4764 17bc 139c 913c
00000130: 2041 e1bb 9985 01be 233e 04bd e26c 07bc
00000140: 459d 9cbd 2635 fdbd 77d5 bcbc 7007 43bd
00000150: 8e5c 303b ce2a 053b 5cbd 223b 6b73 4b3d
00000160: 2525 ffbc dcbf d3bc c34f 003e 4ca5 763c
00000170: 6441 343d 1303 13be 91d4 853d e928 f2bd
00000180: c231 85bd 9965 c93d 16df 73bd 9124 1b3c
00000190: 0842 f5bd b01e ab3c 2871 5fbc da4d 0cbe
000001a0: 5866 d8be c1ab 503d 1713 97bc 23a3 60bd
000001b0: 1533 963d 35c6 2d3e c7db c63c 9aa7 2139
000001c0: 0bf1 b3bc 76c1 02be 44fa cd3d fe13 8d3b
000001d0: bd0f cd3a bb47 3fbe a79f 423d b15b 2c3e
000001e0: a5dc 21bc 72c6 00bc e38b 423b 32fc b43d
000001f0: 83d0 4ebd 46c3 05be b1f9 99b9 acaf 05bc
00000200: 770e 8b3d 0d06 a33c 0473 a83c 9f30 043d
00000210: cc49 823d 491d 323e aba9 36bd 6e71 47be
00000220: c5ba 6a3c 4072 203e 4bef 90bd a288 a63d
00000230: 9ecd de3d 8a58 0bbe a152 2ebc 8297 9bbd
00000240: 95bf d13d 1d74 933c 6a62 223d 2b81 50bd
00000250: ef94 a9be de1c b0bb fd82 1c3e 91eb 093d
00000260: 5d13 20bc 9403 c03d 7297 b43c f22c 07bc
00000270: c25f 1c3d 2135 9b3e 2af6 393d b23e 13be
00000280: 46dd aabd f494 fe3c 539b d3bc 9af6 843d
00000290: 909d 223d 9f73 01bd 7ba8 cdbb ccb1 fc3c
000002a0: 9ff8 85be ad98 e33d a5ca a93d 082d 95bd
000002b0: 52cb f53c 10f3 063e 2112 1b3c 3d94 03ba
000002c0: fb29 963d 57a9 d13c 957d 983d 5099 b4bc
000002d0: 3c32 073d f52a bfbd 54bd 933e 23c1 153e
000002e0: 52bc e1bd c8f8 cb3d 9694 043d 5416 29be
000002f0: e525 edbb ae70 c83d f2fb e6bd 2ab9 eb3d
00000300: 1591 05bd 28bf 31bd 803c e4bd dba9 17be
00000310: 0da6 8dbc 2a8a 5b3d 7d5e 6ebc e5c1 56bb
00000320: 868a ff3c f71b bc3d 1134 84bc 0cb3 7b3c
00000330: 6cd3 b23c 4482 0d3d f6fc c7bd a8dd 12bd
00000340: ca6e 313d 973f 43be 53f3 863d c37d 88bd
00000350: 100f 81bd d6d3 873d 07b4 9b3c 9da8 5b3d
00000360: 030a 6d3c 5bf3 213d be46 93bd 110c 41bd
00000370: 63e8 0abd eeac 993a 0959 f93d 3489 ccbd
00000380: 65a7 04be ab5e 82bd 7787 c53b b4f0 433d
00000390: 895b 933d cbf7 8dbb 1175 a83c 2edf b63c
000003a0: 18d6 2abc c945 113b 9b97 8e3c 8e5e e6bd
000003b0: b303 223d 7d53 0c3d 8184 753c e264 7839
000003c0: c5ce 28bd 5bea 233b d2d9 4e3e fbee 41bd
000003d0: 4670 5cbd 73c4 b1bd 7371 3cbd 41ed bbbc
000003e0: 1f22 81bd 5f64 413d 1aa1 b93d e617 48bd
000003f0: bcbd 813c 5215 693d 6057 42bc 1252 8c3d

decoder_lin.2.bias f4 [288]
-0.08440348 -0.032712944 0.16765332 -0.025241569 -0.21631065 -0.42535746 0.008718265 -0.008254819
-0.027781619 -0.0014915833 -0.085509 -0.08143424 0.01544308 -0.025666973 0.03850753 9.914914e-11
0.011872387 0.061848424 0.10964766 0.0058517884 0.012249402 0.17730758 -0.0007022645 0.14572437
0.18278354 -1.5931111e-05 0.31544358 0.101098 -0.028966265 -2.3659253e-05 0.033387918 -0.21396424
3.2800491e-09 0.045302395 0.01392239 -0.0009637236 1.5557158e-05 0.018477447 0.22472829 -0.002249867
0.00019568291 0.047839936 3.1430698e-18 5.4313123e-08 0.26435986 0.17168616 -0.101415806 -0.00081891223
0.017133994 -0.015171966 -0.14549834 -0.024226472 -0.20053153 -0.0755937 -0.17647532 -0.12517554
0.24674772 -0.0074721845 -0.009730575 -0.0002742295 0.11019999 0.47677317 0.43042594 0.08367441
0.14188454 0.12941444 -0.008315315 -1.1232924e-15 -0.024270987 0.025959348 -0.07789696 0.04755455
0.058393743 -0.030679952 0.023223577 0.17599559 -2.2717182e-15 -0.002602634 0.041737463 -0.019991592
0.17191924 0.16635276 -0.004194969 3.953423e-12 0.105711535 -0.0001935166 -0.023067642 0.14687747
0.06362642 -4.8023236e-07 0.023608547 0.029927263 0.03793508 -0.025710322 -0.012841966 0.03247187
-0.017057927 -6.7080396e-06 0.012730711 0.09353416 0.025759343 -0.02493304 -0.013170099 -0.16691509
-0.022196233 0.048150104 -0.07296779 -0.0635106 0.01151016 0.43419573 0.20200226 0.0141766565
0.076811865 -0.00052459823 -0.000113568305 -0.0011873902 -0.29111162 -1.2428158e-05 -0.0016700907 0.085171916
-0.0027436647 -0.018387118 0.09758597 -1.1268019e-20 -0.06683895 0.19287574 0.008770439 0.041981358
0.051839605 -0.043421388 -0.0062221484 0.015075382 0.012663767 -1.3954119e-07 0.19172344 -1.077247e-06
0.009204849 -1.3894916e-07 0.14482255 0.05649457 -5.104289e-06 0.13326085 0.023511248 -3.8933443e-13
-0.0016637048 -0.092254445 0.029458134 0.0031420311 -0.06519978 -0.10783545 0.21593073 0.1090404
0.01741219 0.066474155 0.03616739 -0.0010349893 -0.1839461 -0.001124028 -0.012362189 -0.029974647
-0.003980362 -5.545529e-11 0.06920967 -0.14797592 -0.122221366 0.0011872737 -0.19548528 -0.13446829
-0.16387731 -0.31361088 -0.04385053 0.0111227725 -3.7479265e-05 0.05450081 -0.15605432 -9.951361e-08
-0.008233007 0.08159908 -0.008202966 0.17414565 -0.006689974 -0.0025326617 -0.027673973 4.274259e-19
0.0066161915 0.12290127 -0.08614742 -0.03640532 -0.028120661 -0.09271545 -5.3174204e-05 0.19859676
-9.761218e-09 0.2872625 0.22462551 -0.09716977 0.23128402 -9.213959e-21 -2.6502263e-05 -3.0089614e-06
-0.00036171442 0.13580869 -0.010020947 -0.00029704336 0.12501162 -0.004343985 -1.3872617e-09 -0.07849729
0.2783274 -0.001789356 0.0647884 -0.0015362019 -0.029225947 0.01783496 -9.240941e-17 -2.8932242e-05
-0.08906102 0.03106744 0.012498936 0.057938095 -0.010991456 0.111600846 0.30458596 0.15868822
0.11359188 -0.0030934839 0.0033079162 0.024800796 -1.4955837e-07 -0.0012029719 1.8788944e-23 0.12721111
-0.05089204 -0.24765193 0.057431 0.19610167 0.17523432 -4.1189674e-06 -0.004190325 0.06674849
7.083567e-21 0.03516161 -9.021008e-12 0.024518257 -0.012556166 -0.030139225 0.15735927 -0.46825624
0.007971744 0.08370337 -0.01908608 -9.10108e-19 0.0118239 0.18371843 -0.0975973 -0.00789786
00000000: bbdb acbd 02fe 05bd 50ad 2b3e 68c7 cebc
00000010: 8a80 5dbe 74c8 d9be 0ed7 0e3c 383f 07bc
00000020: 4796 e3bc 3b81 c3ba 581f afbd ffc6 a6bd
00000030: f904 7d3c 8b43 d2bc 12ba 1d3d 0108 da2e
00000040: 6684 423c c654 7d3d f48e e03d 5cc0 bf3b
00000050: b7b1 483c 1e90 353e 2c18 38ba c538 153e
00000060: 9c2b 3b3e cda3 85b7 d281 a13e 780c cf3d
00000070: a94a edbc dc77 c6b7 c5c1 083d 7119 5bbe
00000080: 3c67 6131 018f 393d bc1a 643c 65a2 7cba
00000090: be80 8237 045e 973c 2c1f 663e 8172 13bb
000000a0: 3b30 4d39 cff3 433d e9ea 6722 e945 6933
000000b0: 2d5a 873e 7fce 2f3e 17b3 cfbd 45ac 56ba
000000c0: 975c 8c3c d693 78bc 84fd 14be 9876 c6bc
000000d0: 2358 4dbe dfd0 9abd f2b5 34be 042e 00be
000000e0: 6fab 7c3e 3ad9 f4bb fd6c 1fbc 76c6 8fb9
000000f0: 88b0 e13d 9d1b f43e ca60 dc3e 7d5d ab3d
00000100: 2e4a 113e 3885 043e f53c 08bc 2de2 a1a6
00000110: f3d3 c6bc b3a8 d43c 7188 9fbd 8fc8 423d
00000120: 472e 6f3d 8654 fbbc 5f3f be3c 3038 343e
00000130: ceb1 23a7 f490 2abb e7f4 2a3d 68c5 a3bc
00000140: 990b 303e 6158 2a3e f375 89bb 4519 8b2c
00000150: 4a7f d83d b7ea 4ab9 5af8 bcbc 0c67 163e
00000160: 924e 823d 51e9 00b5 b666 c13c 052a f53c
00000170: d061 1b3d 749e d2bc 1c67 52bc 3901 053d
00000180: 11bd 8bbc 9f15 e1b6 7994 503c d68e bf3d
00000190: 4205 d33c 6040 ccbc 66c7 57bc caeb 2abe
000001a0: e0d4 b5bc 0b39 453d 2370 95bd d811 82bd
000001b0: 1c95 3c3c e74e de3e aed9 4e3e 3545 683c
000001c0: 8a4f 9d3d 3185 09ba 852b eeb8 34a2 9bba
000001d0: 950c 95be 8882 50b7 f2e6 daba 9d6e ae3d
000001e0: 0ecf 33bb 95a0 96bc 27db c73d ccd8 549e
000001f0: dce2 88bd 3881 453e e3b1 0f3c a5f4 2b3d
00000200: c455 543d a0da 31bd 2ae3 cbbb bcfe 763c
00000210: b07b 4f3c cad4 15b4 2653 443e ed95 90b5
00000220: efcf 163c 0e32 15b4 5d4c 143e da66 673d
00000230: 8245 abb6 8875 083e a99a c03c 012d dbaa
00000240: ab10 daba e6ef bcbd 2f52 f13c 89ea 4d3b
00000250: 7687 85bd d5d8 dcbd f21c 5d3e 9350 df3d
00000260: 02a4 8e3c 9a23 883d 4224 143d 7aa8 87ba
00000270: 5e5c 3cbe 1f54 93ba c78a 4abc 648d f5bc
00000280: b26d 82bb 1be5 73ae cdbd 8d3d 0087 17be
00000290: 324f fabd 4b9e 9b3a 4b2d 48be 0eb2 09be
000002a0: 74cf 27be 9b91 a0be 9d9c 33bd 4a3c 363c
000002b0: 0e33 1db8 3e3c 5f3d b4cc 1fbe 30b4 d5b3
000002c0: bce3 06bc 6b1d a73d bc65 06bc 3d53 323e
000002d0: 9237 dbbb 03fb 25bb 87b4 e2bc c74e fc20
000002e0: a3cc d83b a9b3 fb3d 0f6e b0bd bf1d 15bd
000002f0: 4d5d e6bc 99e1 bdbd 5e07 5fb8 f35c 4b3e
00000300: 4ab2 27b2 1214 933e 3b04 663e f200 c7bd
00000310: b8d5 6c3e f90b 2e9e 2d51 deb7 90ed 49b6
00000320: 7da4 bdb9 6f11 0b3e e62e 24bc 7cbc 9bb9
00000330: 0c03 003e fd57 8ebb efa9 beb0 30c3 a0bd
00000340: ee80 8e3e d388 eaba c8af 843d 625a c9ba
00000350: 416b efbc 9f1a 923c e314 d5a4 84b3 f2b7
00000360: a065 b6bd 2581 fe3c 56c8 4c3c 7f50 6d3d
00000370: 8215 34bc fc8e e43d b1f2 9b3e 2a7f 223e
00000380: dca2 e83d 0cbc 4abb a0c9 583b 0a2b cb3c
00000390: 4b96 20b4 0aad 9dba 2cb7 b519 a143 023e
000003a0: 2c74 50bd 7898 7dbe c53c 6b3d e0ce 483e
000003b0: a070 333e a935 8ab6 fe4e 89bb 6fb3 883d
000003c0: 07ce 051e 9f05 103d 02b3 1ead 83da c83c
000003d0: 61b8 4dbc 89e6 f6bc ca22 213e 48bf efbe
000003e0: eb9b 023c ac6c ab3d 695a 9cbc e84e 86a1
000003f0: 08b9 413c af20 3c3e 18e1 c7bd 0766 01bc
