2. Convolutional Autoencoders/models/autoencoder.pth (torch, 203433 bytes, 19 tensors)

encoder_conv.0.weight f4 [8, 1, 3, 3]
0.06253863 -0.022784209 -0.25702524 -0.049179472 0.20424293 0.068361744 0.015892435 -0.18489583
-0.06664205 -0.23166543 -0.11389651 0.18620372 -0.2905438 0.00685478 -0.30065727 0.03914386
0.26095402 0.0041654427 0.16105531 -0.072123736 0.017248536 0.14476573 -0.118737034 0.0408059
0.13946941 0.10150392 -0.23657918 0.29535204 0.30565232 0.008221575 0.10340476 -0.07692036
0.3414378 0.11534306 -0.14608473 0.20793457 9.788947e-06 -5.0695237e-14 3.3336279e-12 -0.07512265
-1.9036665e-07 -0.10107503 -0.0042236415 -0.050032496 -0.032604843 0.13135868 -0.02359566 0.3568967
-0.18508478 -0.1224896 -0.03540229 0.21855503 -0.09981197 0.1502437 -0.23076251 0.24868779
-0.22770391 -0.06518024 -0.050045487 0.0961583 0.28955695 0.24522443 -0.06694272 0.049851842
0.06291693 0.029254219 0.0433418 0.3566946 0.2868322 0.01811829 -0.044071827 -0.17086075
00000000: 4114 803d f3a5 babc d098 83be 6a70 49bd
00000010: 0f25 513e 3e01 8c3d da30 823c 5555 3dbe
00000020: a17b 88bd b439 6dbe 9342 e9bd 30ac 3e3e
00000030: 28c2 94be 109e e03b c0ef 99be 5055 203d
00000040: c49b 853e 447e 883b afeb 243e 9cb5 93bd
00000050: cd4c 8d3c 783d 143e 672c f3bd 1624 273d
00000060: 12d1 0e3e 4ae1 cf3d d041 72be 6238 973e
00000070: 767e 9c3e c9b3 063c e0c5 d33d 6c88 9dbd
00000080: efd0 ae3e fb38 ec3d 3c97 15be cdec 543e
00000090: 353b 2437 a14f 64a9 4d95 6a2c e7d9 99bd
000000a0: 9667 4cb4 6d00 cfbd 7966 8abb e0ee 4cbd
000000b0: a88c 05bd e482 063e b04b c1bc 2abb b63e
000000c0: dd86 3dbe d4db fabd fe01 11bd e4cc 5f3e
000000d0: 386a ccbd 7cd9 193e 024d 6cbe 03a8 7e3e
000000e0: 372b 69be 387d 85bd 7ffc 4cbd a5ee c43d
000000f0: cf40 943e 1d1c 7b3e 4419 89bd 7231 4c3d
00000100: 97da 803d 8ba6 ef3c 2c87 313d ada0 b63e
00000110: acdb 923e cf6c 943c a984 34bd 1ff6 2ebe

encoder_conv.0.bias f4 [8]
0.20086104 0.3261273 0.09104047 -0.1231379 -0.11354221 -0.041388817 -0.00011741735 -0.13163596
00000000: 84ae 4d3e 28fa a63e 6d73 ba3d b92f fcbd
00000010: d188 e8bd 5287 29bd f63d f6b8 94cb 06be

encoder_conv.2.weight f4 [16, 8, 3, 3]
-1.5079963e-05 -5.7629604e-05 -9.034148e-15 9.124938e-15 -0.00067848247 2.7698073e-16 -3.7748738e-11 4.748366e-05
-0.0004324958 3.0309357e-05 5.5114757e-14 6.202484e-13 -0.0002469611 -5.389585e-15 -1.8062759e-14 -1.34890395e-14
-9.06749e-15 1.541159e-14 2.3436714e-10 -0.00014385628 -9.179823e-12 -2.4949862e-14 -4.2332857e-05 -0.00064734987
-9.653894e-06 -1.7598354e-12 -2.2685987e-13 -1.6640163e-13 0.0007279364 5.6397154e-14 -0.00037275173 -1.6042606e-10
-0.00081882434 6.238655e-16 3.6725079e-09 -2.4148483e-12 1.1153177e-13 0.0019882526 -1.0052794e-11 1.3764268e-12
-1.4880142e-13 -6.094757e-13 -4.217038e-15 -2.063915e-11 -1.458799e-05 5.320981e-10 -8.472302e-11 -2.0548994e-05
-5.996922e-14 1.1251252e-12 0.0012730262 -5.5552966e-05 0.0010340548 -0.0010982534 -1.9751591e-05 1.8515858e-06
-0.00227013 -2.122996e-07 -1.4324965e-05 2.282e-06 3.4772958e-07 -1.9648608e-06 -2.0412952e-13 2.4339293e-05
-0.0021946914 2.4524018e-15 3.0989995e-16 -0.00081141264 -2.8490155e-12 7.904486e-05 -2.6816582e-14 -1.722113e-10
0.103407666 0.103521764 0.03707202 0.1492903 0.07259556 0.1480562 0.1105641 0.060501106
0.04476432 0.078593835 0.05779822 0.122339256 0.0848871 0.11221645 0.11412546 0.080726765
0.091651596 0.15983468 -0.029684328 0.09244232 0.04716468 0.07560565 0.014390923 -0.038603757
-0.052170876 0.017931843 0.0878305 -0.07087531 -0.005690278 -0.08428176 -0.0036206206 -0.072775275
0.047119446 0.05680278 -0.047617175 -0.011597484 -7.3271894e-14 0.00046574598 -7.758687e-14 -4.544592e-14
6.3690123e-13 5.785857e-14 0.0009124884 3.385585e-14 1.575126e-09 0.08775974 0.022071926 0.017696705
0.053993385 0.012396825 -0.010492039 0.0045688157 -0.057982787 -0.013770445 -0.03415614 -0.11021032
-0.000819339 -0.06654601 -0.024235047 -0.00497943 -0.06466657 -0.0420969 0.011492044 0.10154734
-0.0005456326 0.115009 -0.08239243 -0.12035677 -0.018335499 0.0077610337 -0.013490174 0.03690182
0.13746212 0.08749259 0.009723996 0.104653664 0.07389766 0.037324462 0.17965552 0.09809559
0.14185981 0.1460331 0.042262703 0.11492918 0.0024350146 0.17301925 0.14675218 -0.01804974
0.14166903 0.11500385 0.08282998 -0.013805749 -0.058576044 0.010979188 0.021099517 -0.005200412
0.03834241 0.025210118 0.024362205 0.045253303 -0.050403427 -0.014414845 -0.045372162 -0.052711904
0.075871795 0.08875315 -0.08599283 0.021441067 -1.2031691e-13 -2.5702156e-11 -1.0863281e-09 7.0872505e-15
3.166641e-09 0.0019973475 -0.00016386314 -7.207255e-05 -1.9091777e-14 0.020278327 0.0101185255 0.08469916
0.043297768 0.016257899 0.08416872 -0.09008329 -0.028176617 0.032935522 -0.0031806263 -0.13943484
-0.12402539 0.058018424 -0.037247606 -0.04696615 0.016348174 -0.10159043 0.007488029 0.0856357
0.0052330648 0.0017069838 -0.082412794 -0.13710621 -0.026443701 0.027293555 -0.035848152 0.010150205
0.09865477 0.09280376 0.08149894 0.01669501 0.13545775 0.11418183 0.098919846 0.11508553
0.07550524 0.15550959 0.045009684 0.013074505 0.03819914 0.1348999 0.00124929 0.07675004
0.04771629 0.08197704 0.05558304 0.03703671 0.038322557 0.040117223 0.08828175 0.04382984
0.040257152 0.06647696 0.051301345 0.041084744 -0.05344162 0.017105352 0.0215406 -0.016138677
-0.033526655 0.04146975 -0.12622324 0.0037275858 -0.0011118416 -0.00014410137 7.2435764e-14 -0.002125926
00000000: f3ff 7cb7 51b7 71b8 a7be 22a8 5961 2428
00000010: 30dc 31ba 24ab 9f25 4d05 26ae 3129 4738
00000020: 9bc0 e2b9 d940 fe37 fd36 7829 9b95 2e2b
00000030: 8f7a 81b9 262e c2a7 e3b1 a2a8 37ff 72a8
00000040: 6b58 23a8 b5d0 8a28 3ed8 802f 20d8 16b9
00000050: 3f7e 21ad 77ba e0a8 8f8e 31b8 eab2 29ba
00000060: 29f7 21b7 c1ac f7ab e86b 7faa 015a 3baa
00000070: fcd2 3e3a 7efd 7d29 e46d c3b9 ec63 30af
00000080: 5fa6 56ba 26d1 3326 715f 7c31 0aee 29ac
00000090: b025 fb29 584d 023b c2d9 30ad 00b7 c12b
000000a0: 1789 27aa 5a8d 2bab 4fef 97a7 3c8b b5ad
000000b0: f1be 74b7 1343 1230 d24e baae a160 acb7
000000c0: e709 87a9 e858 9e2b acdb a63a 8b01 69b8
000000d0: 1f89 873a 45f3 8fba 38b0 a5b7 0184 f835
000000e0: 76c6 14bb 78f4 63b4 4255 70b7 7624 1936
000000f0: 97af ba34 0ddc 03b6 54d4 65aa 3c2c cc37
00000100: d0d4 0fbb d4b6 3027 29a5 b225 fbb4 54ba
00000110: 4d7b 48ac e3c4 a538 d48a f1a8 2c59 3daf
00000120: 66c7 d33d 3803 d43d d5d8 173d 8edf 183e
00000130: fbac 943d 0b9c 173e 6e6f e23d 02d0 773d
00000140: cb5a 373d cef5 a03d d4bd 6c3d 018d fa3d
00000150: 4ad9 ad3d bdd1 e53d 9cba e93d 1354 a53d
00000160: d5b3 bb3d b4ab 233e 8c2c f3bc 6652 bd3d
00000170: c02f 413d 23d7 9a3d e8c7 6b3c f91e 1ebd
00000180: 21b1 55bd cde5 923c 7ae0 b33d 1327 91bd
00000190: 8375 babb ea9b acbd ef47 6dbb 340b 95bd
000001a0: 5200 413d 08aa 683d 3a0a 43bd 6003 3ebc
000001b0: 5ffe a4a9 5e2f f439 c9b5 aea9 94ab 4ca9
000001c0: 9245 332b 3249 8229 0f34 6f3a 2379 1829
000001d0: d27b d830 61bb b33d 2fd0 b43c aef8 903c
000001e0: 2b28 5d3d 0d1c 4b3c cde6 2bbc 01b6 953b
000001f0: 5c7f 6dbd 6f9d 61bc 4fe7 0bbd f3b5 e1bd
00000200: e9c8 56ba 4649 88bd 9488 c6bc 7d2a a3bb
00000210: e86f 84bd cd6d 2cbd 2049 3c3c 0df8 cf3d
00000220: c908 0fba d789 eb3d 5dbd a8bd 9c7d f6bd
00000230: 5434 96bc 4550 fe3b e405 5dbc 5d26 173d
00000240: dfc2 0c3e 512f b33d 6551 1f3c a954 d63d
00000250: a857 973d 89e1 183d 9ef7 373e 57e6 c83d
00000260: b343 113e b389 153e a81b 2d3d fd5f eb3d
00000270: c494 1f3b f52b 313e 3446 163e 0cdd 93bc
00000280: b011 113e 2387 eb3d c4a2 a93d 8231 62bc
00000290: 6fed 6fbd 0de2 333c e5d8 ac3c 3868 aabb
000002a0: ee0c 1d3d 7385 ce3c 3f93 c73c 875b 393d
000002b0: d373 4ebd 3e2c 6cbc 29d8 39bd 70e8 57bd
000002c0: ac62 9b3d 36c4 b53d 021d b0bd 2da5 af3c
000002d0: fd76 07aa 1c14 e2ad c64d 95b0 5958 ff27
000002e0: 239c 5931 eee5 023b add2 2bb9 a825 97b8
000002f0: a4f6 aba8 bc1e a63c 2cc8 253c c176 ad3d
00000300: 0059 313d 492f 853c a660 ac3d 977d b8bd
00000310: a6d2 e6bc 66e7 063d 0e72 50bb 02c8 0ebe
00000320: 0601 febd baa4 6d3d f290 18bd 945f 40bd
00000330: 9bec 853c a50e d0bd 245e f53b c561 af3d
00000340: 217a ab3b dfbc df3a 0ac8 a8bd 9265 0cbe
00000350: 76a0 d8bc bc96 df3c 83d5 12bd 0c4d 263c
00000360: 830b ca3d e60f be3d ebe8 a63d f9c3 883c
00000370: 70b5 0a3e 2ad8 e93d 7d96 ca3d f6b1 eb3d
00000380: 7ea2 9a3d e83d 1f3e 135c 383d 7336 563c
00000390: b476 1c3d 3323 0a3e 37bf a33a 202f 9d3d
000003a0: 2872 433d 94e3 a73d 0bab 633d ceb3 173d
000003b0: 1df8 1c3d f551 243d 10cd b43d eb86 333d
000003c0: afe4 243d 1325 883d 5c21 523d 7a48 283d
000003d0: 9ae5 5abd 8620 8c3c ea75 b03c 4235 84bc
000003e0: 3f53 09bd 2fdc 293d aa40 01be 834a 743b
000003f0: 37bb 91ba eb19 17b9 601c a329 1f53 0bbb

encoder_conv.2.bias f4 [16]
-0.0020396453 0.14654627 0.07946546 0.12971981 0.08899908 0.058456477 0.08202483 0.06508327
0.050611507 0.08413888 0.008584601 0.047862697 0.059383012 0.06154353 0.06184803 0.12228525
00000000: 92ab 05bb 3a10 163e c9be a23d 45d5 043e
00000010: 2645 b63d 0f70 6f3d a2fc a73d 614a 853d
00000020: 034e 4f3d 0151 ac3d 6da6 0c3c ad0b 443d
00000030: 9a3b 733d 1215 7c3d 5c54 7d3d b070 fa3d

encoder_conv.4.weight f4 [32, 16, 3, 3]
-1.2944956e-06 3.5051627e-13 -1.8400165e-11 -2.1547576e-10 1.887155e-13 -4.999639e-13 -2.9424505e-09 -3.7240145e-06
-5.6738715e-14 0.045392502 0.01806544 0.064736135 0.064833865 0.051220167 0.0663373 0.03120887
0.0012422864 0.07008047 0.03415262 0.07253713 0.015176502 0.05375448 0.080923885 0.06765734
0.009392342 0.031966615 0.06858103 0.036155324 0.051710457 0.029564913 0.07764812 0.050522942
-0.0025395157 0.03765824 0.016386384 0.007914056 0.037370253 0.0513783 0.04025101 0.09842776
0.07249084 0.06250492 0.051775545 0.067874245 0.061072778 0.023227876 0.12302511 0.033827506
0.08620167 0.106908694 0.10757485 0.053487148 0.050152633 0.07269953 0.023921223 0.10143533
0.044274688 0.07508271 0.102734014 0.017660523 0.038613517 0.045956053 0.0518149 0.03802507
0.05931541 0.08607879 0.05921205 0.10603168 0.059459273 0.045433447 0.069629736 0.05259087
-0.0067099514 0.058755405 0.055174824 0.053950187 0.023697179 0.096410595 0.043759663 0.0127940755
-0.005949935 0.029187413 0.09637344 0.015797367 0.023232793 0.04983177 0.065016195 0.039178483
0.090777755 0.04780475 0.00563436 0.073124126 0.036608167 0.042695515 0.12902619 0.09258152
0.007402427 0.07604371 0.0045893537 0.027100468 0.07670669 0.019073946 0.064601704 0.070177495
0.06705053 0.051710386 0.11125199 0.08531545 0.026269505 -0.029821934 -0.04268224 -0.026590332
-0.06451359 -0.074129656 0.04326403 -0.06543993 -0.026271416 0.08203359 -0.016725544 0.013049875
0.04438224 -0.038603477 -0.023713762 0.08248526 -0.019020654 0.007454522 0.040201098 0.09339373
0.094630115 0.018517733 0.033453282 0.083182395 -0.00996097 0.10633374 0.09165021 0.07152805
0.037091248 0.011965071 0.06286646 0.057373285 0.09292456 0.05289757 0.03525587 0.0016021983
3.7554622e-05 -8.2976314e-08 -2.0625842e-14 1.9300446e-06 -7.8575e-06 1.2722465e-10 8.6432346e-14 2.187642e-07
-6.0810634e-15 -0.048601203 -0.13016857 -0.01581133 -0.07149135 -0.23602472 -0.08492972 -0.08773261
-0.24050105 -0.13774541 -0.06925474 -0.124808714 -0.08022626 -0.061524134 -0.22006814 -0.18023667
-0.048085213 -0.22733386 -0.21240166 -0.11873373 -0.146399 -0.062217556 -0.1325374 -0.2545766
-0.11384938 -0.12961893 -0.24033773 -0.17323546 -0.11438702 -0.12913823 -0.10659145 -0.06268429
-0.21358417 -0.16524684 -0.085766464 -0.21206217 -0.21903375 -0.04764283 -0.09520884 -0.07824374
0.0042416574 -0.19571045 -0.15228106 -0.010180361 -0.18810403 -0.22261563 -0.06721944 0.014236735
-0.043495838 -0.09802115 0.005393624 -0.11142138 -0.05258498 -0.007624562 -0.19431639 -0.11960963
-0.1315538 -0.020969106 -0.12577356 -0.19856955 -0.066364 -0.12004035 -0.17869145 -0.1475891
-0.08252707 -0.105231866 -0.081038356 -0.077738285 -0.19775411 -0.157833 -0.07676352 -0.21428251
-0.23290993 -0.076586895 -0.027133513 -0.08105974 -0.05447659 0.00941395 -0.116077825 -0.0012445922
0.00028518806 -0.17770706 -0.08283961 0.026061961 -0.05554919 -0.06286285 -0.0068522026 -0.10878285
0.0012456691 0.014796825 -0.16008498 -0.04535042 0.0021612851 -0.09191415 -0.02387022 -0.010974715
-0.12779784 0.028474102 -0.0047233603 -0.15142965 0.07268869 0.16651958 0.13004379 0.12059671
00000000: 88be adb5 b852 c52a 7dd9 a1ad 09eb 6caf
00000010: 8a79 542a 32ba 0cab 2334 4ab1 15ea 79b6
00000020: 4987 7fa9 7ded 393d f9fd 933c 6194 843d
00000030: 9ec7 843d 3dcc 513d dadb 873d bea9 ff3c
00000040: 37d4 a23a 5986 8f3d 9ee3 0b3d 598e 943d
00000050: dda6 783c a82d 5c3d 6cbb a53d ee8f 8a3d
00000060: 56e2 193c 6def 023d 3674 8c3d 9b17 143d
00000070: 58ce 533d 1e32 f23c fa05 9f3d 25f1 4e3d
00000080: 016e 26bb 873f 1a3d bd3c 863c f5a9 013c
00000090: 8d11 193d 0d72 523d 3ede 243d 7e94 c93d
000000a0: 1476 943d 9402 803d 9812 543d a701 8b3d
000000b0: 7327 7a3d 6348 be3c 97f4 fb3d b68e 0a3d
000000c0: 808a b03d f2f2 da3d 3450 dc3d 5715 5b3d
000000d0: d96c 4d3d 7ee3 943d 71f6 c33c 54bd cf3d
000000e0: 6059 353d f7c4 993d 3666 d23d cdac 903c
000000f0: 3529 1e3d 6a3c 3c3d dc3b 543d 2dc0 1b3d
00000100: b7f4 723d 144a b03d 5688 723d 2327 d93d
00000110: 918b 733d 6c18 3a3d 099a 8e3d 8669 573d
00000120: 27df dbbb 82a9 703d fffe 613d dffa 5c3d
00000130: 9620 c23c eb72 c53d 553d 333d 3e9e 513c
00000140: acf7 c2bb 711a ef3c 705f c53d 7b69 813c
00000150: b352 be3c 661c 4c3d 3627 853d 9e79 203d
00000160: b0e9 b93d eace 433d 70a0 b83b 1ac2 953d
00000170: 72f2 153d 7ee1 2e3d 711f 043e 619b bd3d
00000180: 0f90 f23b cebc 9b3d 4a62 963b cd01 de3c
00000190: 6618 9d3d f740 9c3c e64d 843d 38b9 8f3d
000001a0: ca51 893d 45ce 533d 15d8 e33d deb9 ae3d
000001b0: 2533 d73c 214d f4bc 93d3 2ebd f8d3 d9bc
000001c0: b31f 84bd 4ad1 97bd a035 313d 5f05 86bd
000001d0: 2737 d7bc 3a01 a83d 0204 89bc 25cf 553c
000001e0: 27ca 353d ae1e 1ebd 5d43 c2bc 08ee a83d
000001f0: 34d1 9bbc 1045 f43b e8a9 243d 3645 bf3d
00000200: 6fcd c13d 80b2 973c 4f06 093d 885b aa3d
00000210: 5633 23bc 81c5 d93d 1bb3 bb3d 4c7d 923d
00000220: feec 173d 2509 443c 21c0 803d 4000 6b3d
00000230: 3b4f be3d 1fab 583d 7668 103d db00 d23a
00000240: f883 1d38 b630 b2b3 f4c7 b9a8 ea85 0136
00000250: b5d3 03b7 8ee2 0b2f dba0 c229 72e5 6a34
00000260: e917 dba7 0e12 47bd e94a 05be c386 81bc
00000270: 0f6a 92bd 77b0 71be a2ef adbd 28ad b3bd
00000280: e845 76be 220d 0dbe 6ed5 8dbd b69b ffbd
00000290: aa4d a4bd bb00 7cbd 8b59 61be f68f 38be
000002a0: 00f5 44bd 35ca 68be d27f 59be ab2a f3bd
000002b0: 9fe9 15be d6d7 7ebd e2b7 07be dd57 82be
000002c0: dd29 e9bd d3ba 04be 181b 76be a364 31be
000002d0: be43 eabd d03c 04be 9e4c dabd 9f60 80bd
000002e0: cfb5 5abe 7836 29be 54a6 afbd d326 59be
000002f0: 624a 60be 2125 43bd dafc c2bd 413e a0bd
00000300: 9afd 8a3b 5268 48be 91ef 1bbe 87cb 26bc
00000310: 589e 40be 5af5 63be 59aa 89bd 3241 693c
00000320: b128 32bd 50bf c8bd ffbc b03b e430 e4bd
00000330: 5963 57bd 76d7 f9bb e0fa 46be e5f5 f4bd
00000340: 0ab6 06be 67c7 abbc c9ca 00be d155 4bbe
00000350: d9e9 87bd b7d7 f5bd e4fa 36be 9921 17be
00000360: f403 a9bd ce83 d7bd 70f7 a5bd 4035 9fbd
00000370: 0e80 4abe f99e 21be 3136 9dbd e06c 5bbe
00000380: f17f 6ebe 97d9 9cbd 1a47 debc a602 a6bd
00000390: d822 5fbd f83c 1a3c 36ba edbd 9621 a3ba
000003a0: 4b85 9539 d7f8 35be d0a7 a9bd e57f d53c
000003b0: 8c87 63bd 3dbe 80bd 7188 e0bb 8bc9 debd
000003c0: b845 a33a 626e 723c 51ed 23be 5dc1 39bd
000003d0: 59a4 0d3b 7c3d bcbd 7b8b c3bc 4bcf 33bc
000003e0: 70dd 02be 8542 e93c 6bc6 9abb 6010 1bbe
000003f0: cfdd 943d 1c84 2a3e 332a 053e 68fb f63d

encoder_conv.4.bias f4 [32]
0.09598933 0.018934112 0.082676925 0.02140046 0.10896727 0.02061993 0.09510464 0.08108152
0.08299243 0.11052238 0.006536387 0.07984899 0.11108383 0.0960956 0.08576196 0.12270856
0.08312637 0.07573432 0.06606526 0.043312836 0.049019203 0.13854323 0.04419357 0.025728183
0.021150487 0.003762324 -0.018613717 0.09896048 0.034752805 -0.0052918247 0.024911385 0.051767096
00000000: 0e96 c43d b61b 9b3c 8552 a93d 0450 af3c
00000010: 3b2a df3d 21eb a83c 39c6 c23d 110e a63d
00000020: eff7 a93d 8f59 e23d 302f d63b de87 a33d
00000030: eb7f e33d c5cd c43d f7a3 af3d a04e fb3d
00000040: 293e aa3d 981a 9b3d 394d 873d cd68 313d
00000050: 5cc8 483d 47de 0d3e 5104 353d e9c3 d23c
00000060: c943 ad3c 5391 763b cb7b 98bc cbab ca3d
00000070: f558 0e3d 0b67 adbb f612 cc3c bc09 543d

encoder_lin.0.weight f4 [64, 288]
0.029566528 -0.050843507 0.045845125 0.056370538 0.04112311 0.04079667 0.05471032 0.024750808
0.034663286 0.025273208 0.18347253 -0.027853496 -0.11649692 0.121454135 -0.091783345 -0.064848356
0.14686729 0.0061402507 0.023435144 -0.013302517 0.015603623 0.06188577 0.05335299 0.03356161
0.048249446 0.022932492 0.049560726 -0.012692082 -0.039216187 0.017062984 0.044973664 0.009276097
0.089068994 0.07652724 0.04933201 0.04694839 0.016834758 -0.0008475005 0.04008574 0.062373016
0.014991489 0.053962316 0.042705283 0.0371658 0.03167926 -0.020094804 -0.043289352 0.017419277
0.043663498 0.046881735 0.1031912 0.045260232 0.048610225 0.053915665 -0.026357945 -0.019733954
0.00095861603 0.014507024 0.052388463 0.06930271 0.0479571 -0.0030092606 0.045622874 -0.07999792
0.025190478 -0.109216176 -0.07383567 -0.051257685 -0.080862895 -0.10083005 0.021838399 0.04451501
0.020907054 0.025804874 -0.119159766 0.012459963 -0.05524726 -0.1467577 0.014289197 0.112425454
-0.15201911 -0.0365559 -0.018874008 -0.13846639 -0.06704584 -0.0661571 -0.109273046 -0.07654608
0.074246846 -0.060815282 -0.02183005 -0.08234492 0.0066136685 0.041733813 0.046431392 0.05726567
0.06899917 0.023308482 0.042342447 -0.0068517406 -0.005602584 0.0039675944 0.05288712 0.05346717
0.08325524 0.06988873 0.034943573 0.05116873 -0.04784073 -0.035305463 -0.14837663 -0.05958728
-0.063227214 -0.09675856 -0.06319356 0.10214667 -0.026685834 -0.073282965 -0.082353175 -0.13357656
-0.023235109 -0.07197137 -0.007875423 -0.07498498 0.062306553 0.08176604 -0.012968419 -0.020118175
0.03247659 0.053324055 0.059100352 0.074453734 0.029253839 0.05174711 0.049664292 0.018770125
-0.0053590764 0.035018943 0.044368315 0.03809009 0.082538486 0.07528677 0.007911822 0.06955449
-0.025308363 0.031450454 -0.12850192 -0.041854456 -0.04192973 -0.061640516 -0.042157076 0.10745368
-0.012232437 -0.024557354 0.19232263 -0.07347742 -0.052446965 0.086489856 -0.15809411 0.056605626
0.13068609 -0.06534772 0.0033127372 -0.027029986 0.0029365749 0.05241165 0.04356866 0.07963469
0.06514709 0.015568755 0.024486199 -0.004258019 -0.0053282524 0.03215641 0.07597971 0.058987018
0.076032735 0.030725747 0.032620765 0.017061498 0.030818442 -0.016092852 0.0041799634 0.02756119
0.061388694 0.066016674 0.024686227 0.039728805 0.050447643 -0.114551745 -0.122469045 0.06780955
-0.071850635 -0.06261471 0.10555974 0.0067741154 -0.19481853 0.03081745 -0.05232044 0.17681645
-0.06420519 -0.09157484 0.09292854 -0.17646271 0.030116046 0.1306347 -0.08802712 0.01903023
-0.022722127 0.03286505 0.058949906 0.0658813 0.08094043 0.056683794 0.013483563 0.055239026
-0.03292777 -0.060834866 0.019314015 0.03389313 0.048111793 0.096130215 0.09269375 0.025247168
0.0388881 -0.007348579 0.029440578 -0.02845002 -0.07168462 -0.02447246 -0.018585112 -0.11000551
0.043646164 0.1403574 -0.023030113 0.031191852 0.031008573 -0.048440937 0.012502438 0.015652116
-0.061033826 0.07236843 0.15428449 0.011106665 -0.021576203 0.019097993 0.04656349 0.056435507
0.04881993 0.060743507 0.022476966 0.02339197 -0.012725207 -0.025804618 0.010155123 0.038812827
00000000: 8135 f23c 4841 50bd 19c8 3b3d cbe4 663d
00000010: b570 283d 691a 273d ee17 603d 35c2 ca3c
00000020: 17fb 0d3d c209 cf3c 39e0 3b3e 042d e4bc
00000030: f095 eebd f2bc f83d e8f8 bbbd 37cf 84bd
00000040: 6164 163e 2834 c93b 0ffb bf3c cdf2 59bc
00000050: 57a6 7f3c ef7b 7d3d aa88 5a3d e677 093d
00000060: 36a1 453d ecdc bb3c 3000 4b3d 73f2 4fbc
00000070: 27a1 20bd acc7 8b3c 4e36 383d c5fa 173c
00000080: ce69 b63d 50ba 9c3d 5d10 4a3d f44c 403d
00000090: 0ce9 893c cc2a 5eba f230 243d d97a 7f3d
000000a0: dd9e 753c 9707 5d3d bceb 2e3d 2a3b 183d
000000b0: 1dc2 013d dc9d a4bc 2d50 31bd dfb2 8e3c
000000c0: 7fd8 323d 1007 403d e855 d33d cb62 393d
000000d0: 841b 473d acd6 5c3d 9eec d7bc 1aa9 a1bc
000000e0: a24b 7b3a deae 6d3c 4995 563d 94ee 8d3d
000000f0: aa6e 443d 0437 45bb 0ddf 3a3d f3d5 a3bd
00000100: 435c ce3c bbac dfbd 2837 97bd 94f3 51bd
00000110: 729b a5bd fc7f cebd 71e6 b23c 5f55 363d
00000120: 4545 ab3c be64 d33c 090a f4bd df24 4c3c
00000130: f34a 62bd a747 16be 3c1d 6a3c 513f e63d
00000140: e6aa 1bbe a4bb 15bd aa9d 9abc 22ca 0dbe
00000150: 544f 89bd 607d 87bd 8cca dfbd 31c4 9cbd
00000160: bb0e 983d 7219 79bd efd4 b2bc 74a4 a8bd
00000170: 79b7 d83b 13f1 2a3d d82e 3e3d 688f 6a3d
00000180: 704f 8d3d 6ef1 be3c 466f 2d3d 9184 e0bb
00000190: e295 b7bb 9802 823b 2aa0 583d 6400 5b3d
000001a0: b981 aa3d d321 8f3d fe20 0f3d 4d96 513d
000001b0: a4f4 43bd 769c 10bd 0bf0 17be cb11 74bd
000001c0: 457d 81bd 5a29 c6bd a06b 81bd 4632 d13d
000001d0: 409c dabc 6115 96bd c8a8 a8bd 4bc8 08be
000001e0: 8e57 bebc ba65 93bd eb07 01bc ba91 99bd
000001f0: 2835 7f3d f474 a73d 7e79 54bc dfce a4bc
00000200: 2c06 053d 536a 5a3d 3613 723d 337b 983d
00000210: bfa5 ef3c c7f4 533d c96c 4b3d cec3 993c
00000220: 319b afbb 0670 0f3d 8dbb 353d 5b04 1c3d
00000230: f009 a93d f32f 9a3d 96a0 013c 9672 8e3d
00000240: 7c53 cfbc 31d2 003d 0296 03be 946f 2bbd
00000250: 82be 2bbd c47a 7cbd e6ac 2cbd ad10 dc3d
00000260: 8f6a 48bc 812c c9bc 39f0 443e 547b 96bd
00000270: a1d2 56bd 9821 b13d 6ce3 21be 4ddb 673d
00000280: 93d2 053e 07d5 85bd 821a 593b fd6d ddbc
00000290: 8d73 403b 99ad 563d 0d75 323d 8317 a33d
000002a0: d66b 853d 1714 7f3c 4897 c83c da86 8bbb
000002b0: 9f98 aebb 71b6 033d 409b 9b3d 5f9c 713d
000002c0: 0db7 9b3d 90b4 fb3c 5a9d 053d 8ec4 8b3c
000002d0: f576 fc3c 28d5 83bc 13f8 883b 01c8 e13c
000002e0: b672 7b3d c033 873d c53a ca3c acba 223d
000002f0: 30a2 4e3d 1b9a eabd 0dd1 fabd bcdf 8a3d
00000300: 6d26 93bd 243c 80bd b42f d83d 66f9 dd3b
00000310: 827e 47be e074 fc3c f54d 56bd 5f0f 353e
00000320: 037e 83bd 978b bbbd 5251 be3d a4b2 34be
00000330: edb5 f63c 1ac5 053e 9047 b4bd 49e5 9b3c
00000340: c123 babc 819d 063d 7575 713d c6ec 863d
00000350: 19c4 a53d 442d 683d 2aea 5c3c 5142 623d
00000360: 45df 06bd fb2d 79bd 6d38 9e3c 86d3 0a3d
00000370: df10 453d ebdf c43d 39d6 bd3d 26d3 ce3c
00000380: 2149 1f3d 59cc f0bb 5e2d f13c 0410 e9bc
00000390: 63cf 92bd 787a c8bc ce3f 98bc 924a e1bd
000003a0: 52c6 323d dab9 0f3e a6a9 bcbc 0e86 ff3c
000003b0: b105 fe3c 016a 46bd 07d7 4c3c de38 803c
000003c0: 9bfe 79bd e635 943d c1fc 1d3e bbf8 353c
000003d0: 94c0 b0bc 6573 9c3c 5cb9 3e3d eb28 673d
000003e0: 68f7 473d 2fce 783d 9d21 b83c 84a0 bf3c
000003f0: 637d 50bc 3564 d3bc ac61 263c 33fa 1e3d

encoder_lin.0.bias f4 [64]
0.051271155 -2.8551344e-09 0.062182162 0.041253757 0.07086392 0.022889622 0.078414805 0.083161466
0.05280267 0.055420004 0.04013797 0.013346775 -0.016771689 0.0035495118 0.0059255557 -0.056300428
0.07825779 0.0034249446 0.030370418 -0.0013076372 0.019890685 0.078439675 0.035233364 0.058956042
0.07417698 -0.015550488 -0.00032338043 0.0564019 -2.825811e-10 -0.05264399 0.018783132 0.062317185
0.063812554 0.10272161 0.054393083 0.061676715 0.06308734 -0.023814278 -0.00016006915 -0.0003156881
-0.010165388 -0.00082549703 0.043313257 -0.00861592 0.03651655 -0.044801142 -1.0053041e-05 0.06763383
-0.0002264003 0.03652575 0.05968237 0.00026593075 -0.015006135 0.05819686 -0.0018095854 -0.04596138
0.09514721 -0.06552877 0.10413469 -0.009774097 0.04154196 0.09147136 -0.00187575 -0.011221543
00000000: b401 523d 0e34 44b1 b9b2 7e3d b3f9 283d
00000010: 1a21 913d 0483 bb3c f197 a03d 8f50 aa3d
00000020: 9d47 583d 1600 633d b667 243d 6fac 5a3c
00000030: c864 89bc ed9e 683b 2a2b c23b 479b 66bd
00000040: 9f45 a03d 0975 603b 62cb f83c 0665 abba
00000050: caf1 a23c fba4 a03d dc50 103d e47b 713d
00000060: 1aea 973d 79c7 7ebc 638b a9b9 ae05 673d
00000070: c159 9baf 39a1 57bd 15df 993c 4e40 7f3d
00000080: 28b0 823d b55f d23d 48cb 5e3d b9a0 7c3d
00000090: ef33 813d 2916 c3bc 3cd8 27b9 f182 a5b9
000000a0: ba8c 26bc 2b66 58ba 3e69 313d ca29 0dbc
000000b0: 6192 153d 6781 37bd 7ba9 28b7 9b83 8a3d
000000c0: de65 6db9 069c 153d 8075 743d 9f6c 8b39
000000d0: 4bdc 75bc d55f 6e3d 9c2f edba 0042 3cbd
000000e0: 8adc c23d f333 86bd 9144 d53d 8923 20bc
000000f0: e727 2a3d 5655 bb3d badb f5ba 90da 37bc

encoder_lin.2.weight f4 [2, 64]
-0.18334617 0.000918968 -0.0914109 0.22401261 -0.13221674 0.0052021393 -0.15111227 -0.11608314
-0.008271119 -0.15051498 0.01435703 -0.2051029 -0.15728556 -0.037744284 -0.09403314 -0.15355773
-0.053989075 -0.100596905 -0.17344506 -0.0004076404 -0.029154746 -0.06911916 -0.10330254 -0.11049004
-0.11257183 0.16484319 -0.21291785 0.0023474947 -3.921068e-11 -0.28889525 -0.037920553 0.19139245
0.05891321 -0.18241462 0.041496683 0.07484877 0.012978948 -0.13028538 -1.718624e-11 0.00038833098
-0.18851988 1.6341465e-09 -0.119652264 1.4626052e-11 0.021552196 -0.22232077 9.262364e-10 0.2421581
0.0013660301 0.006884535 0.23689792 -0.17911321 0.016331268 -0.08300193 0.07309432 -0.099808455
-0.13722244 -0.20782183 -0.12112461 0.118105605 -0.15939246 -0.07502361 -0.17645401 -0.2377648
-0.011789005 7.653678e-11 -0.09016858 0.060450897 -0.040944006 0.17756116 -0.046426583 -0.067959085
-0.11227021 -0.14037828 -0.13336751 0.05475609 0.11626606 0.21588387 -0.1507381 0.12198708
-0.11169248 0.13129123 -0.04265799 -0.16626826 0.1760635 -0.16362746 0.16170281 -0.04767929
-0.17502457 0.10208367 -0.025451213 0.22586772 0.0012454389 -0.086972624 -0.077595934 0.021896183
0.2079814 -0.069744974 -0.17736237 -0.2071632 -0.17691442 0.13312982 0.003379787 -1.9196767e-08
0.11803915 0.0014826399 0.15961213 0.00092716486 0.1854474 0.03952365 -0.0018910205 -0.009464309
-2.714513e-10 0.17050907 0.042313103 -0.0025972715 -0.0057593565 -0.13443363 0.22115241 -0.13312162
-0.09467193 -0.12510493 -0.18234386 0.26906836 -0.048218522 -0.12428686 -0.010634844 0.0304962
00000000: 19bf 3bbe e6e6 703a a335 bbbd 9063 653e
00000010: d363 07be b576 aa3b 2dbd 1abe ffbc edbd
00000020: 9683 07bc 9920 1abe c039 6b3c 7f06 52be
00000030: 770f 21be c099 1abd 7294 c0bd 3d3e 1dbe
00000040: a623 5dbd c005 cebd 959b 31be 91b8 d5b9
00000050: efd5 eebc 598e 8dbd 4890 d3bd 9a48 e2bd
00000060: 0f8c e6bd a7cc 283e 2307 5abe 6dd8 193b
00000070: 4d73 2cae 14ea 93be 9552 1bbd 62fc 433e
00000080: fa4e 713d e6ca 3abe 6df8 293d 504a 993d
00000090: a7a5 543c 8869 05be f92b 97ad e798 cb39
000000a0: 5b0b 41be 6b98 e030 3f0c f5bd f1a6 802d
000000b0: 3b8e b03c 0ea8 63be 189a 7e30 4bf8 773e
000000c0: 5d0c b33a aa97 e13b 5e95 723e 7469 37be
000000d0: 27c9 853c eafc a9bd 7ab2 953d 6068 ccbd
000000e0: 0a84 0cbe 3fcf 54be 2e10 f8bd 5ae1 f13d
000000f0: c737 23be faa5 99bd 5cb0 34be 9e78 73be
00000100: ac26 41bc 604e a82e 4eaa b8bd 5c9b 773d
00000110: e7b4 27bd 98d2 353e cd29 3ebd 222e 8bbd
00000120: eded e5bd 53bf 0fbe 7e91 08be ec47 603d
00000130: e61c ee3d a910 5d3e 175b 1abe 5dd4 f93d
00000140: 07bf e4bd 3571 063e 25ba 2ebd 3a42 2abe
00000150: fd49 343e f58d 27be 6c95 253e 5c4b 43bd
00000160: a439 33be 3e11 d13d 107f d0bc de49 673e
00000170: ff3d a33a b41e b2bd 9eea 9ebd a05f b33c
00000180: 13f9 543e 74d6 8ebd 7b9e 35be 9722 54be
00000190: 0e29 35be 2f53 083e 6b7f 5d3b 23e6 a4b2
000001a0: 83be f13d 2455 c23a 5d71 233e fb0c 733a
000001b0: ece5 3d3e 8de3 213d 1edc f7ba 3010 1bbc
000001c0: 603b 95af ee99 2e3e 8150 2d3d fc36 2abb
000001d0: fcb8 bcbb f8a8 09be c775 623e 0951 08be
000001e0: 5be3 c1bd 821b 00be 59b8 3abe 54c3 893e
000001f0: c980 45bd 1c8a febd c53d 2ebc 2bd3 f93c

encoder_lin.2.bias f4 [2]
-0.16464569 -0.046668287
00000000: e198 28be 3f27 3fbd

decoder_lin.0.weight f4 [64, 2]
0.47687954 -0.02986545 0.090476625 -0.44190767 -0.6763553 -0.0067494595 0.026197273 0.4837658
-0.10480198 0.09974117 -0.0089983605 0.007995877 -0.53900856 0.21440902 -0.49200368 -0.6555118
-0.15114275 0.2112305 -0.15676925 -0.43743995 0.45148012 -0.06912237 0.6686993 0.1367199
0.53122073 -0.46693784 -0.3677284 0.49440435 0.5408742 -0.50635654 0.18823907 -0.32485947
-0.014864358 -0.55193406 -0.69213563 0.28207234 -0.7303979 -0.043921996 0.6597397 -0.02141354
0.46261868 -0.38708282 -0.5997617 -0.32670647 0.26970762 -0.0037166213 0.09276038 0.6701854
-0.25869688 -0.70963436 0.10350409 -0.53903455 0.120468624 -0.69191563 0.20764282 0.43701014
0.5998044 -0.08781664 -0.6138486 0.21490341 0.06358959 0.5043605 -0.26101148 -0.16562916
-0.6541701 -0.18737973 -0.16436629 -0.32097334 -0.5823903 0.43609047 -0.7047751 0.55056083
-0.30242223 -0.6923646 -0.059190087 0.21459073 0.34079316 0.103938535 0.6470305 -0.35398546
-0.06878489 -0.51579297 -0.44224524 -0.66201943 -0.011466455 0.59963804 -0.34421945 -0.55135643
0.72348255 -0.02924956 0.051360264 0.6988779 -0.64018285 0.04940876 0.0012568327 3.7497773e-07
0.32801238 -0.2841337 0.5556577 0.05834962 0.3507332 -0.05722841 -0.37036115 0.21558982
-0.16928509 0.13405679 -0.26782238 -0.5034437 0.7075062 0.39332828 0.62218446 0.022785343
-0.7122974 -0.49747443 -0.71508926 -0.12368943 0.20299631 0.123216294 0.027780823 0.3362438
-0.36178115 0.32464525 -0.19927585 -0.3421419 0.33107725 0.47304243 -0.65769476 -0.34068525
00000000: 8e29 f43e 63a8 f4bc cf4b b93d b941 e2be
00000010: 9f25 2dbf 922a ddbb aa9b d63c 27b0 f73e
00000020: 6ca2 d6bd 1945 cc3d dc6d 13bc 2401 033c
00000030: 77fc 09bf 0a8e 5b3e e8e7 fbbe 9fcf 27bf
00000040: 2ac5 1abe cf4c 583e 1e88 20be 21f8 dfbe
00000050: 6728 e73e 0790 8dbd e12f 2b3f 4d00 0c3e
00000060: 15fe 073f 7a12 efbe e646 bcbe 9122 fd3e
00000070: bb76 0a3f 95a0 01bf bec1 403e fb53 a6be
00000080: a389 73bc 8d4b 0dbf cd2f 31bf c96b 903e
00000090: 5bfb 3abf 8de7 33bd b3e4 283f 736b afbc
000000a0: 5bdc ec3e b82f c6be fc89 19bf 1246 a7be
000000b0: 1e17 8a3e 8f92 73bb 27f9 bd3d 4591 2b3f
000000c0: eb73 84be 99aa 35bf f4f9 d33d 2bfe 09bf
000000d0: 41b8 f63d 6221 31bf 52a0 543e cbbf df3e
000000e0: c88c 193f 36d9 b3bd 2f25 1dbf a40f 5c3e
000000f0: 423b 823d c51d 013f 4ca3 85be b19a 29be
00000100: b177 27bf 79e0 3fbe a34f 28be 9e56 a4be
00000110: 8817 15bf 4047 df3e 246c 34bf 8ef1 0c3f
00000120: 16d7 9abe ce3e 31bf 4e71 72bd acbd 5b3e
00000130: 717c ae3e badd d43d caa3 253f 953d b5be
00000140: 18df 8cbd 020b 04bf f86d e2be 1b7a 29bf
00000150: ccdd 3bbc e181 193f 883d b0be b225 0dbf
00000160: 2736 393f c69c efbc 245f 523d a9e9 323f
00000170: 06e3 23bf d760 4a3d 4fbc a43a 8c50 c934
00000180: 3df1 a73e f979 91be 953f 0e3f 0300 6f3d
00000190: 4d93 b33e 5668 6abd fa9f bdbe 94c3 5c3e
000001a0: 1259 2dbe 2f46 093e 0420 89be b0e1 00bf
000001b0: 201f 353f 5362 c93e 7b47 1f3f 54a8 ba3c
000001c0: 1f59 36bf f8b4 febe 1710 37bf e250 fdbd
000001d0: 44de 4f3e d358 fc3d 9c94 e33c 2628 ac3e
000001e0: 613b b9be e737 a63e f80e 4cbe 392d afbe
000001f0: f582 a93e 9e32 f23e af5e 28bf 4c6e aebe

decoder_lin.0.bias f4 [64]
0.20645723 0.41814035 -0.4922041 -0.45762864 -0.18243946 0.46809724 -0.30019328 -0.16008975
-0.4877418 0.5512051 0.4846672 0.09411452 0.18980487 -0.46525168 0.01959067 0.2578924
-0.36348316 0.24471903 -0.0036011047 -0.4507081 -0.21321201 -0.27095422 -0.41585732 0.01728068
-0.2512653 0.06547674 -0.22731814 -0.23380974 -0.54489714 0.09992277 0.5231661 0.6623174
-0.30828145 0.20531203 0.70011127 -0.6169205 0.13488886 0.14274226 0.63774663 -0.46397927
-0.17325354 0.7221234 -0.27401638 0.19896732 0.35405877 0.21655594 -0.22933204 -0.18968934
-0.079695344 0.6873295 0.05336483 -0.06698577 0.7106122 0.7346702 0.5404502 -0.431217
0.38829044 0.6624723 0.43189374 -0.36310273 -0.35219827 0.36705756 0.2728739 -0.20271724
00000000: 8669 533e 7e16 d63e 2d02 fcbe 4d4e eabe
00000010: 69d1 3abe 71aa ef3e efb2 99be 91ee 23be
00000020: 4bb9 f9be c71b 0d3f 4d26 f83e 1dbf c03d
00000030: 355c 423e 7835 eebe 9d7c a03c 790a 843e
00000040: 771a babe a097 7a3e 8300 6cbb 36c3 e6be
00000050: 4054 5abe 83ba 8abe 40eb d4be 3690 8d3c
00000060: d8a5 80be ab18 863d 16c6 68be d26b 6fbe
00000070: 617e 0bbf 4fa4 cc3d 37ee 053f a28d 293f
00000080: 11d7 9dbe 513d 523e 7e3a 333f 80ee 1dbf
00000090: 4e20 0a3e 072b 123e 5d43 233f b18e edbe
000000a0: 6069 31be 14dd 383f e04b 8cbe 17be 4b3e
000000b0: 3147 b53e d7c0 5d3e 05d6 6abe ec3d 42be
000000c0: 5037 a3bd d3f4 2f3f 1495 5a3d d62f 89bd
000000d0: aeea 353f 5913 3c3f f25a 0a3f 7ac8 dcbe
000000e0: 01ce c63e c997 293f 2d21 dd3e 9ae8 b9be
000000f0: 5553 b4be f8ee bb3e 21b6 8b3e 1c95 4fbe

decoder_lin.2.weight f4 [288, 64]
-0.11527618 0.0008365364 0.032302164 0.038792416 0.061508115 -0.056476247 0.027689721 0.05971763
0.09201723 -0.081883535 -0.096367314 -0.042982094 -0.017175576 0.06542069 -0.0013478954 -0.01843683
0.045342598 -0.037132435 0.049396556 -0.102372214 -0.026111389 0.019053657 -0.0477253 0.00086485344
0.06246749 0.030539142 0.050904833 0.07578957 -0.096144065 0.048119847 -0.060135223 -0.0084051965
-0.06689649 0.08439908 -0.087845005 0.04368858 0.06538058 0.07778739 -0.024810469 -0.023111906
0.04115785 0.007954402 0.023411436 0.10564643 -0.1387209 -0.016263014 0.10182916 4.7441145e-07
0.004978137 -0.112359196 -0.09413681 0.040400535 -0.018090304 -0.005566856 -0.00800977 -0.08967209
0.03223881 0.07446686 -0.014039025 0.06947425 0.08911111 0.009241732 0.08093136 -0.057305697
-0.031034077 0.016110148 0.014723487 0.010704693 0.006988033 -0.07822827 0.0073195933 0.026703913
0.01881762 -0.010043328 -0.0343602 -0.004637886 -0.021207 0.0046537346 -0.019621443 -0.011426042
0.012239923 6.0231847e-05 -0.002265217 -0.017176712 -0.019194752 0.015546285 -0.005134492 -0.007674345
0.014285951 0.024292251 0.02953447 0.012058373 -0.016952472 0.0011653327 -0.021537775 -0.0037918177
0.011161884 0.0074592214 -0.008177676 0.0004456617 0.007936608 0.0010520882 -0.0110129295 -0.019438624
0.0027556329 0.014336717 0.008942281 0.007233657 -0.028562604 -0.007998112 0.0051298034 0.003527401
-0.0158047 -0.03653104 -0.024577783 0.0017435174 -0.017977301 -0.0013914022 0.04503737 -0.013400975
0.0061679794 0.0013507789 0.038671482 0.0093754055 0.003185975 0.004755982 0.021364208 0.017071303
0.042183567 -0.031078482 -0.0054229796 -0.04901489 -0.0039365874 -0.030602636 0.0022642263 0.0081799645
-0.0027648984 -0.064115256 0.028355401 0.062038224 0.015878588 -0.014982438 0.01743206 -0.026235187
-0.05376344 -0.024845833 0.04044922 0.051235497 0.008653022 -0.02163532 0.059179906 -0.07369811
-0.011526982 -0.06372416 -0.09069864 0.0071882685 0.055378832 -0.0019054335 -0.07737031 -0.0056126416
0.020625148 -0.025048003 -0.040978305 -0.0023107412 -0.065322936 -0.02820031 0.028210241 0.045439783
-0.032095898 -0.02481796 -0.0637508 0.040923912 0.044210374 -0.08490801 0.0038428118 8.620703e-06
0.020774547 0.03691256 0.038437102 -0.003348897 -0.05676039 -0.07595657 0.06024427 0.06134446
-0.012340004 0.04719097 0.02492586 -0.034779593 -0.0033660692 -0.03680316 0.05730057 -0.015578199
0.06297281 0.02669481 -0.02275865 0.041101668 0.0056764255 -0.0113991685 -0.0107618505 -0.011057201
0.012636186 -0.008594831 0.058838688 0.06950585 0.048025656 0.015892508 0.04763057 0.01950739
0.018047262 -0.01025561 -0.040114485 0.07105565 0.04301032 -0.0685708 0.05720006 0.043760143
-0.016975721 0.029950185 0.018809559 0.061311632 0.06528609 -0.011650818 0.032359146 -0.03190602
-0.08310956 -0.02042293 0.004737016 0.0034261975 -0.03204024 0.015074477 0.054205056 0.055004604
0.0038488174 -0.04646878 0.03641424 -0.01857544 0.06676176 0.037763774 -0.026944127 -0.0013719345
0.04683313 0.05392524 0.045442685 -0.0017382824 -0.0016490722 -0.020052811 0.06938639 0.064012095
-0.0506467 -0.058346443 0.027871244 0.034156796 0.007213055 -0.01923271 0.07433432 -0.07873582
00000000: eb15 ecbd 024b 5b3a 464f 043d cce4 1e3d
00000010: efef 7b3d a353 67bd 8ed5 e23c 799a 743d
00000020: 8873 bc3d 8eb2 a7bd 3a5c c5bd fe0d 30bd
00000030: cbb3 8cbc 48fb 853d ddab b0ba d608 97bc
00000040: 29b9 393d 2e18 18bd 0b54 4a3d 86a8 d1bd
00000050: 8de7 d5bc 6a16 9c3c 9b7b 43bd 55b7 623a
00000060: e9dd 7f3d 392d fa3c 9681 503d 9037 9b3d
00000070: 2ee7 c4bd 5119 453d 5a50 76bd f3b5 09bc
00000080: 0701 89bd 6dd9 ac3d 15e8 b3bd ccf2 323d
00000090: 41e6 853d ff4e 9f3d 533f cbbc 2e55 bdbc
000000a0: 2295 283d 2e53 023c 57c9 bf3c 285d d83d
000000b0: da0c 0ebe 033a 85bc ce8b d03d 9db2 fe34
000000c0: a41f a33b 941c e6bd cdca c0bd 087b 253d
000000d0: 1e32 94bc 2c6a b6bb 693b 03bc 00a6 b7bd
000000e0: d80c 043d 1582 983d f003 66bc 8448 8e3d
000000f0: e37f b63d a26a 173c 57bf a53d 61b9 6abd
00000100: 2d3b febc 6ef9 833c c83a 713c bd62 2f3c
00000110: dffb e43b 2536 a0bd 33d9 ef3b 2ac2 da3c
00000120: 6927 9a3c c58c 24bc 48bd 0cbd 68f9 97bb
00000130: 4dba adbc 5b7e 983b 26bd a0bc 4b34 3bbc
00000140: f589 483c 74a1 7c38 0974 14bb 2db6 8cbc
00000150: 503e 9dbc d8b5 7e3c 3e3f a8bb 1279 fbbb
00000160: 9f0f 6a3c 8b00 c73c 46f2 f13c 7b90 453c
00000170: e9df 8abc 14be 983a fd6f b0bc 2580 78bb
00000180: 56e0 363c 7c6c f43b a9fb 05bc b3a7 e939
00000190: 8c08 023c 39e6 893a 936f 34bc c03d 9fbc
000001a0: d997 343b 8de4 6a3c a582 123c 5008 ed3b
000001b0: 1ffc e9bc 830a 03bc e917 a83b f82b 673b
000001c0: dc78 81bc 92a1 15bd 5957 c9bc bc86 e43a
000001d0: 2245 93bc b65f b6ba 1b79 383d c38f 5bbc
000001e0: c31c ca3b 9e0c b13a fd65 1e3d 4d9b 193c
000001f0: cacb 503b 12d8 9b3b fe03 af3c 1ed9 8b3c
00000200: adc8 2c3d 4d98 febc 40b3 b1bb d6c3 48bd
00000210: 7dfe 80bb 61b2 fabc 6a63 143b 4205 063c
00000220: 4c33 35bb dc4e 83bd 9649 e83c cb1b 7e3d
00000230: d013 823c e678 75bc aecd 8e3c 2deb d6bc
00000240: 0e37 5cbd 7d89 cbbc 15ae 253d 50dc 513d
00000250: 68c5 0d3c 8e3c b1bc a166 723d 09ef 96bd
00000260: abdb 3cbc d081 82bd 35c0 b9bd 918b eb3b
00000270: ead4 623d bdbf f9ba 5374 9ebd 40ea b7bb
00000280: 12f6 a83c 7831 cdbc ded8 27bd ce6f 17bb
00000290: 08c8 85bd 5604 e7bc 2a19 e73c 111f 3a3d
000002a0: fd76 03bd 094f cbbc c88f 82bd d59f 273d
000002b0: f015 353d 40e4 adbd afd7 7b3b a3a1 1037
000002c0: 622f aa3c a031 173d 3970 1d3d 2b79 5bbb
000002d0: 957d 68bd 1e8f 9bbd b2c2 763d 5444 7b3d
000002e0: ba2d 4abc 524b 413d 5131 cc3c 0c75 0ebd
000002f0: 4599 5cbb e9be 16bd 01b4 6a3d b43b 7fbc
00000300: e3f7 803d 13af da3c 5970 babc 395a 283d
00000310: 4f01 ba3b 94c3 3abc 7952 30bc 4329 35bc
00000320: 0108 4f3c 56d1 0cbc d600 713d 1559 8e3d
00000330: 8db6 443d 0131 823c 4618 433d f6cd 9f3c
00000340: dad7 933c 2507 28bc 164f 24bd a085 913d
00000350: 972b 303d d96e 8cbd 9c4a 6a3d d63d 333d
00000360: ab10 8bbc 175a f53c 8116 9a3c e821 7b3d
00000370: b7b4 853d 13e3 3ebc 068b 043d e3af 02bd
00000380: 5835 aabd fd4d a7bc f838 9b3b 0e8a 603b
00000390: a03c 03bd f0fa 763c 1f06 5e3d 824c 613d
000003a0: 713c 7c3b 0c56 3ebd 1927 153d 852b 98bc
000003b0: 64ba 883d 30ae 1a3d eeb9 dcbc 7cd2 b3ba
000003c0: 19d4 3f3d b6e0 5c3d 1c22 3a3d 14d7 e3ba
000003d0: ae25 d8ba cb45 a4bc 741a 8e3d c618 833d
000003e0: ea72 4fbd aefc 6ebd 3c52 e43c ffe7 0b3d
000003f0: 7e5b ec3b eb8d 9dbc 983c 983d 3f40 a1bd

decoder_lin.2.bias f4 [288]
-0.008454285 -0.11143529 -0.039028384 -0.008940667 -0.0039677867 -0.032694455 0.12415088 0.12725136
0.1526544 -0.047731955 0.13620703 0.18026854 -0.054154005 -3.1683225e-09 0.065568104 -0.14935562
-0.0018395478 0.24902777 0.16496032 0.10396183 0.060737535 -0.03147819 -0.11003421 0.088085316
0.101405956 -0.0012351497 -0.1704246 0.17397228 0.11203825 0.13188815 -0.19180255 -0.030845514
-0.024187231 -0.29924583 -0.1064634 -1.4473487e-09 -0.0017106329 0.08923098 0.21216501 -0.009417626
-0.12736563 -0.041874208 0.05917325 -1.1886722e-07 -0.12789002 0.06621021 -0.003263507 0.1351657
4.771734e-06 0.09654446 -0.02249702 -0.022313058 -0.11763998 0.073168814 0.017420705 0.14329924
0.077047676 -8.199021e-05 -0.023339307 0.0025040603 -0.00067318534 0.029554974 0.16195923 0.17976832
0.04464459 -0.00013647707 0.022770455 0.0037218037 -4.384133e-05 0.018738296 1.2799422e-08 0.006201567
0.05544724 0.10464302 -0.00019338967 -0.0009946249 -0.022317497 0.019793116 0.030603718 -0.051830593
8.990215e-05 0.067878716 -5.4866573e-06 0.18272313 -0.007959113 -0.07119882 0.13723126 0.00020665179
-0.15599649 -0.004639242 0.0014874426 -0.15009062 -0.16479257 0.08618908 -0.06774971 -0.029197985
0.11222844 -0.023137623 -0.012717497 0.12002911 -0.12758777 -0.16842599 0.19683138 -0.16116485
0.055068344 0.2031412 0.047012366 0.20991917 0.011476605 -0.008930699 0.00018212048 -0.02043853
-0.0578688 0.07177673 0.0023426393 0.0014861285 0.0796203 0.0005005158 -0.014888922 0.007043269
-0.059258357 -0.15091482 -0.07237376 0.016396714 -0.17223097 -0.01194209 -0.0026777158 -0.039192956
-7.970976e-05 0.10076869 -0.048081025 0.18434697 0.077635825 -0.022545768 0.12306188 0.13815312
-0.046099037 -0.00036742678 -0.1070166 -0.17710933 -0.09053379 -0.059437364 1.09984795e-08 -0.025633886
0.1897374 0.12593317 0.02203889 -0.14585266 0.14647672 -0.045721784 -5.9456095e-14 0.0006180895
-0.018245114 0.1738494 -0.0807594 0.010027181 0.09652237 -0.16291055 0.0017314828 0.1132547
-0.02020446 0.06878981 0.1257354 -0.03818851 0.10334733 0.15046053 -0.05038958 -0.053159423
0.06200995 0.11878866 0.017010104 -0.08505193 -0.062683895 0.12192094 -0.00046937267 0.021235926
0.12260472 -0.12644993 0.012878638 -0.13676943 0.0017875839 0.15261216 0.21945022 9.968695e-16
-0.04385395 -0.06996734 -0.13380376 -0.067155786 -0.09112833 -0.0148891015 0.011127875 0.009063821
-0.0771401 0.022712352 0.14639321 -0.001566084 0.0079237 0.05068733 -0.001100386 0.05474656
0.148 -0.0003860659 -0.08320994 0.12640935 -0.042647656 -0.05228896 0.08512886 0.090731725
0.026545228 0.052338608 -0.001160774 0.034528777 -0.0010271189 -0.09176081 -0.2573051 -0.15142883
-0.03226657 -0.034432065 -0.11245442 0.105473146 0.13380648 -0.10903664 0.15669999 0.16481733
0.05248432 0.11552333 -0.048750166 -0.006902982 0.079088025 -0.20098343 -2.9482119e-06 -0.051758163
0.055846844 -0.00016410252 -0.0035323792 -0.12288597 -0.0009151082 0.1260229 0.067042224 1.5462491e-07
0.06942557 -9.232824e-10 -0.0049441117 -0.09803199 -0.026208062 0.10782109 -0.07230156 2.7631052e-07
0.127796 0.014998954 -0.049672317 0.17401001 -1.7400054e-06 -0.03258469 -0.000237204 -0.005537142
00000000: d783 0abc 2f38 e4bd 3adc 1fbd e07b 12bc
00000010: 3504 82bb 9fea 05bd d142 fe3d 2e4e 023e
00000020: 6f51 1c3e 9582 43bd db79 0b3e 5198 383e
00000030: 97d0 5dbd b8b9 59b1 9248 863d aef0 18be
00000040: fb1c f1ba 2301 7f3e 5ceb 283e f1e9 d43d
00000050: ecc7 783d 46ef 00bd 9e59 e1bd 1366 b43d
00000060: edad cf3d bfe4 a1ba c983 2ebe ca25 323e
00000070: 4f74 e53d b00d 073e e367 44be bbaf fcbc
00000080: 4d24 c6bc c036 99be 7c09 dabd 0eec c6b0
00000090: 5137 e0ba bbbe b63d c941 593e 634c 1abc
000000a0: 236c 02be 4a84 2bbd a65f 723d f243 ffb3
000000b0: 9af5 02be 3899 873d 90e0 55bb e168 0a3e
000000c0: e21c a036 1ab9 c53d ac4b b8bc e0c9 b6bc
000000d0: 3bed f0bd 88d9 953d deb5 8e3c 09bd 123e
000000e0: 2ccb 9d3d 29f2 abb8 1332 bfbc 291b 243b
000000f0: b478 30ba 461d f23c a4d8 253e 3015 383e
00000100: 3fdd 363d 491b 0fb9 1b89 ba3c 81e9 733b
00000110: 45e2 37b8 0e81 993c 74e4 5b32 8436 cb3b
00000120: a51c 633d 144f d63d a5c8 4ab9 135e 82ba
00000130: 2fd3 b6bc 2c25 a23c a6b4 fa3c 514c 54bd
00000140: d989 bc38 ff03 8b3d 071a b8b6 c61b 3b3e
00000150: f166 02bc b0d0 91bd 5a86 0c3e abb0 5839
00000160: 8bbd 1fbe c804 98bb 4bf6 c23a 5bb1 19be
00000170: 62bf 28be e683 b03d 5cc0 8abd 9d30 efbc
00000180: 06d8 e53d 1d8b bdbc 0c5d 50bc d2d1 f53d
00000190: 5ea6 02be dd77 2cbe 2a8e 493e 6608 25be
000001a0: 588f 613d 3f04 503e 0a90 403d 0df5 563e
000001b0: 5f08 3c3c 1152 12bc 98f7 3e39 b46e a7bc
000001c0: d607 6dbd aeff 923d f786 193b 33ca c23a
000001d0: f80f a33d 0c35 033a aaf0 73bc 39cb e63b
000001e0: e4b8 72bd 6a89 1abe b238 94bd 6752 863c
000001f0: 515d 30be c1a8 43bc 9e7c 2fbb cb88 20bd
00000200: da29 a7b8 d15f ce3d 9cf0 44bd 74c5 3c3e
00000210: 88ff 9e3d e7b1 b8bc de07 fc3d 0378 0d3e
00000220: 58d2 3cbd 30a3 c0b9 852b dbbd 265c 35be
00000230: c869 b9bd 9874 73bd d3f3 3c32 28fe d1bc
00000240: 854a 423e a0f4 003e e78a b43c 665a 15be
00000250: fefd 153e c446 3bbd 1be2 85a9 4907 223a
00000260: c776 95bc 9405 323e 2f65 a5bd 0c49 243c
00000270: 85ad c53d 06d2 26be ecf2 e23a 15f2 e73d
00000280: d383 a5bc ace1 8c3d c8c0 003e 8e6b 1cbd
00000290: c4a7 d33d 5312 1a3e 4e65 4ebd b2bd 59bd
000002a0: 25fe 7d3d 7847 f33d c658 8b3c b52f aebd
000002b0: 6a60 80bd b0b1 f93d 2216 f6b9 f7f6 ad3c
000002c0: 2f18 fb3d 177c 01be ec00 533c 490d 0cbe
000002d0: 5d4d ea3a 5d46 1c3e 8fb7 603e fea9 8f26
000002e0: 33a0 33bd 094b 8fbd da03 09be f988 89bd
000002f0: 7da1 babd 6bf1 73bc b151 363c 6c80 143c
00000300: a1fb 9dbd 410f ba3c 1ae8 153e 0f45 cdba
00000310: 68d2 013c 859d 4f3d d43a 90ba ee3d 603d
00000320: 508d 173e e368 cab9 f969 aabd 7471 013e
00000330: 4faf 2ebd f32c 56bd 0a58 ae3d 8ed1 b93d
00000340: 6175 d93c 0261 563d 1d25 98ba 0c6e 0d3d
00000350: 64a0 86ba 17ed bbbd 7ebd 83be 2910 1bbe
00000360: f329 04bd a308 0dbd 814e e6bd 4e02 d83d
00000370: 9104 093e 9a4e dfbd f675 203e e0c5 283e
00000380: ccf9 563d 7f97 ec3d 41ae 47bd 6932 e2bb
00000390: e7f8 a13d 9ace 4dbe e5d9 45b6 5e00 54bd
000003a0: a9bf 643d ef12 2cb9 7d7f 67bb a4ab fbbd
000003b0: dfe3 6fba 260c 013e 6f4d 893d f906 2634
000003c0: fe2e 8e3d 39ca 7db0 3702 a2bb ffc4 c8bd
000003d0: 4ab2 d6bc 4ed1 dc3d d712 94bd d457 9434
000003e0: f4dc 023e 2cbe 753c 3375 4bbd ae2f 323e
000003f0: 218a e9b5 8677 05bd f7b9 78b9 ea70 b5bb
