2. Convolutional Autoencoders/models/autoencoder.pth (torch, 203177 bytes, 19 tensors)

encoder_conv.0.weight f4 [8, 1, 3, 3]
0	0x3d0fef9a	0.03514061
1	0x3d8fbb69	0.070181675
2	0xbce6a89d	-0.028156573
3	0xbd0fd751	-0.03511745
4	0xbebad5d1	-0.36491254
5	0x3e5d3396	0.2160171
6	0x3d9312e9	0.07181341
7	0xbd10a5cc	-0.035314366
8	0xbdde9182	-0.10867597
9	0x3cc569f0	0.024098366
10	0xbe6e41ad	-0.23267241
11	0x3e7a0b3c	0.24418348
12	0x3cecaf40	0.02889216
13	0x3e018cf2	0.12651423
14	0xbd098c6d	-0.033581186
15	0x3d4409f9	0.047861073
16	0xbea4aa39	-0.3216112
17	0xbd2f2c23	-0.0427667
18	0x3ed6061d	0.4180154
19	0x3ebc0fca	0.36730796
20	0x3e7f9ec7	0.24962912
21	0xbdf04749	-0.117323466
22	0x3ea3575f	0.31902596
23	0x3e0c4748	0.13699067
24	0x3e18b563	0.14912944
25	0x3e89e160	0.2692976
26	0xbd37f87b	-0.044914704
27	0xbb2ad489	-0.0026066622
28	0xbcf8bddf	-0.030363975
29	0xbe0922ad	-0.13392134
30	0xbde3f421	-0.11130548
31	0xbe413ed3	-0.18871622
32	0x3e8e7b46	0.27828425
33	0xbe2113ff	-0.15730284
34	0xb9e76426	-0.0004413437
35	0x3d8418e6	0.064500615
36	0x3ed68425	0.41897693
37	0x3e3c2e55	0.1837705
38	0x3cfd7ca9	0.030943232
39	0x3ed044fc	0.4067763
40	0x3da48921	0.08033968
41	0x3ea9d984	0.33173764
42	0x3e10ee1f	0.14153336
43	0x3e0bd1b1	0.1365421
44	0xbe371af5	-0.17881377
45	0xbbb579b8	-0.0055381916
46	0xbbc616a1	-0.006045178
47	0xbbd340d8	-0.006446939
48	0xbbde7cb7	-0.0067897695
49	0xbbc681ba	-0.006057945
50	0xbbd58801	-0.006516457
51	0xbbd3190b	-0.0064421943
52	0xbbdb56cf	-0.006693698
53	0xbbd73388	-0.0065674223
54	0xbda31bac	-0.07964262
55	0x3e191e4e	0.14952967
56	0x3e870990	0.26374483
57	0xbe841860	-0.25799847
58	0x3d7a8561	0.061162356
59	0x3e58216c	0.211065
60	0xbd8637a8	-0.06553584
61	0x3e9341f7	0.28761265
62	0x3e50e1a7	0.2039858
63	0x3e49a006	0.1968995
64	0x3dc1b323	0.09457996
65	0x3e6eecf7	0.23332582
66	0xbde322f5	-0.11090652
67	0xbe342247	-0.17591201
68	0xbea16954	-0.3152567
69	0xbc35385a	-0.011060799
70	0x3e7832f2	0.24238184
71	0xbe7096fa	-0.23495093

encoder_conv.0.bias f4 [8]
0	0x3e6895a8	0.2271334
1	0x3e55e989	0.20889868
2	0xbb795d18	-0.0038049873
3	0x3ea710a2	0.32629877
4	0xbc6eedda	-0.014583075
5	0xbc48cb06	-0.012255436
6	0x3ea4a957	0.32160446
7	0x3eb6887d	0.35651007

encoder_conv.2.weight f4 [16, 8, 3, 3]
0	0x3d9419e7	0.07231503
1	0x3d0c380e	0.034233145
2	0xbe16fa94	-0.14744025
3	0x3d7b1998	0.061303705
4	0x3cfb8988	0.030705228
5	0xbcc0d066	-0.023536872
6	0x3df989d0	0.12184489
7	0x3d984656	0.074352905
8	0xb9837a34	-0.00025077316
9	0x3e21033d	0.15723892
10	0x3da62e2f	0.081142776
11	0xbddd0a7a	-0.10793014
12	0x3df8e34f	0.12152731
13	0x3c58ffa8	0.013244547
14	0xbd801a02	-0.062549606
15	0x3df18852	0.11793579
16	0x3dac8e53	0.08425584
17	0xbcd83bc3	-0.026395684
18	0xbdeef936	-0.11668627
19	0x3d700730	0.058600605
20	0x3e1a6d39	0.15080728
21	0xbd13a129	-0.036042366
22	0xbbbf0adb	-0.0058301515
23	0x3e0283cc	0.12745589
24	0xbe1a3f8a	-0.150633
25	0xbde892ed	-0.11356149
26	0x3c583fd2	0.01319881
27	0xbcf30718	-0.029666469
28	0x3d7897a5	0.060691494
29	0x3cb6ba34	0.022305585
30	0x3cb96115	0.0226293
31	0x3bdec0aa	0.0067978697
32	0x3d617b9e	0.05504953
33	0x3dd7dfbd	0.105407216
34	0x3db0e0e4	0.086366445
35	0x3d5a9c6e	0.05337184
36	0x3d32098f	0.043466147
37	0x3cee2584	0.029070623
38	0x3e0daf25	0.13836344
39	0xbd0ce098	-0.034393877
40	0xbd4a7b02	-0.049433716
41	0x3d814583	0.063120864
42	0xbd353724	-0.04424204
43	0x3d01240a	0.03152851
44	0x3d8908bd	0.0669112
45	0xb975fb3c	-0.00023458613
46	0xb9643a24	-0.00021765433
47	0xb9676cff	-0.00022070481
48	0xb9b03b40	-0.0003361348
49	0xb98b3d10	-0.0002655764
50	0xb9a6ad4d	-0.00031791106
51	0xb9502821	-0.00019851375
52	0xb910f938	-0.00013825751
53	0xb91bb136	-0.00014847968
54	0x3c8d076b	0.017215451
55	0xbbb788a1	-0.005601004
56	0x3cf66f5d	0.030082399
57	0x3d629d35	0.055325706
58	0x3df2f1aa	0.118625
59	0x3deb1f74	0.114806086
60	0x3dba3c71	0.090935595
61	0x3daee29f	0.08539318
62	0x3d2303e0	0.039798617
63	0x3dbcd9cd	0.0922123
64	0xbcbd7dff	-0.023131369
65	0x3d0434dc	0.032276973
66	0x3d1662e7	0.036715414
67	0x3bd5402a	0.006507893
68	0x3d691657	0.05690607
69	0x3d11aa59	0.035562847
70	0x3dc9a580	0.0984602
71	0x3dee5f7c	0.11639306
72	0x3d4b1a74	0.049585775
73	0xbd82ad2d	-0.06380687
74	0x3ccaee2b	0.02477177
75	0xbdb34813	-0.087539814
76	0xbcde1a4a	-0.027112145
77	0xbd7adc73	-0.061245393
78	0xbd2e6f16	-0.04258641
79	0xbc5588af	-0.013033076
80	0x3cf2cce5	0.029638717
81	0x3c8fbe76	0.017546874
82	0xbd179beb	-0.03701393
83	0x3cdcf151	0.026970537
84	0x3cf57570	0.029963225
85	0xbceef211	-0.02916816
86	0xbd383994	-0.044976786
87	0x3c90bcc8	0.017668143
88	0x3d32c1a0	0.043641686
89	0xbced07fb	-0.02893447
90	0x3e0e3ae4	0.13889652
91	0x3e3e3857	0.1857618
92	0x3e32316e	0.17401668
93	0x3dc77cd0	0.09740603
94	0x3e53653c	0.20644087
95	0x3dd76d5a	0.10518904
96	0x3d895fff	0.06707763
97	0x3d913be3	0.070915006
98	0x3dcd1675	0.10014049
99	0x3d02def5	0.03195091
100	0x3e073a9b	0.1320595
101	0x3d64c0a2	0.05584777
102	0x3dc86e3a	0.09786649
103	0x3b9b1ff6	0.0047340347
104	0xbbdab601	-0.0066745286
105	0x3e4a0579	0.1972865
106	0x3d8f3bd3	0.069938324
107	0x3e0c82f8	0.13721836
108	0x3e2d8288	0.16944325
109	0x3de6d405	0.11270908
110	0x3e7e133b	0.24812023
111	0x3e3255d1	0.17415549
112	0x3e0f3239	0.13984002
113	0x3e9ca294	0.30592787
114	0x3db3bdfd	0.08776472
115	0x3da0d732	0.07853545
116	0x3e1788b0	0.14798236
117	0xbace0b12	-0.0015719852
118	0xbac28a5b	-0.0014842259
119	0xbad3c38d	-0.0016156301
120	0xbad07e48	-0.0015906775
121	0xbac7df9b	-0.0015249135
122	0xbae9e106	-0.0017843551
123	0xbae7431a	-0.0017643899
124	0xbac5febc	-0.0015105824
125	0xbaf954ec	-0.0019022501
126	0x3e090cdf	0.13383816
127	0x3e258f5d	0.1616797
128	0x3d93c6d8	0.07215661
129	0x3e01985b	0.12655775
130	0x3db4ae94	0.08822361
131	0x3dd4b8f8	0.103868425
132	0x3d8ba14e	0.06817876
133	0xbd335a9f	-0.043787595
134	0x3cfca292	0.030839238
135	0x3d2f5672	0.04280705
136	0xbd7e8289	-0.062136207
137	0x3d0158a9	0.031578694
138	0xbc54bfe1	-0.012985201
139	0x3c95e216	0.018296283
140	0x3d3ba425	0.045810837
141	0xbcb0e4d5	-0.02159349
142	0x3d3cb748	0.046073228
143	0x3e18f890	0.14938569
144	0x3d727e01	0.059202198
145	0x3deb3238	0.11484188
146	0xbd7c33d4	-0.061572865
147	0x3db4506b	0.08804401
148	0x3e3c96b4	0.18416864
149	0x3c8561c1	0.016281964
150	0x3dafc2d5	0.08582083
151	0x3e21401e	0.15747115
152	0x3d0b00d9	0.033936355
153	0x3e02d47b	0.12776367
154	0x3e5954e4	0.2122379
155	0x3ca00e34	0.019538023
156	0x3d2efece	0.04272347
157	0x3d984fc4	0.07437089
158	0x3d00944f	0.031391438
159	0x3d86797f	0.06566142
160	0x3e2d4134	0.16919404
161	0x3c77274a	0.015085051
162	0x3d44cb42	0.048045404
163	0xbd57d7f0	-0.05269617
164	0x3a5b2b95	0.0008360681
165	0xbdf496b3	-0.11942806
166	0xbd65d66d	-0.056112695
167	0xbd30eaad	-0.043192554
168	0xbdb0e61d	-0.086376406
169	0xbdb1adc3	-0.086757205
170	0xbb9f266d	-0.0048568756
171	0x3d54b1d7	0.051927414
172	0x3df4055c	0.11915085
173	0x3d8a0b57	0.06740444
174	0x3d63ec19	0.055645082
175	0x3e1aceff	0.15118025
176	0x3ddefe4c	0.10888347
177	0x3dafd203	0.085849784
178	0x3e0cf4c5	0.13765247
179	0x3df3ab1b	0.1189787
180	0x3dcc90a5	0.09988526
181	0xbcd6033a	-0.026124585
182	0x3cde1084	0.027107485
183	0xbd45c9a6	-0.04828801
184	0xbdd48b28	-0.103781044
185	0xbd51cddd	-0.051221717
186	0x3d009334	0.031390384
187	0xbd839bf9	-0.06426234
188	0x3d8c2cea	0.06844504
189	0xb70762b2	-8.069606e-06
190	0xb7785a74	-1.4803012e-05
191	0xb723e609	-9.769116e-06
192	0xb814bf8c	-3.546434e-05
193	0xb88adcb2	-6.6214605e-05
194	0xb827cffa	-4.0009596e-05
195	0xb76af381	-1.4004182e-05
196	0xb7cb3ae1	-2.4226903e-05
197	0xb64c919d	-3.0483127e-06
198	0xbbdb2749	-0.0066880328
199	0x3b3d4837	0.0028882155
200	0x3d9dd629	0.077068634
201	0xbd540f25	-0.051772255
202	0x3d9514b0	0.072793365
203	0x3ca5d852	0.020244751
204	0x3cf5f955	0.030026117
205	0x3db1a50e	0.0867406
206	0x3dcb92ec	0.099401325
207	0x3e17704d	0.14788933
208	0x3dbe6d73	0.092982195
209	0x3e05da94	0.13071662
210	0x3de89d77	0.11358159
211	0x3c94fc4d	0.018186713
212	0x3d9ea4bb	0.077462636
213	0x3de78170	0.11303985
214	0x3ddacb9f	0.10683369
215	0x3daaeb30	0.0834564
216	0x3d5d95ca	0.054097928
217	0x3d04493f	0.032296415
218	0xbdb241d5	-0.08703963
219	0x3e00b95a	0.12570706
220	0x3e0e4524	0.13893563
221	0x3cebbe1f	0.02877718
222	0x3cbe072b	0.023196777
223	0x3cc508ea	0.024052102
224	0x3cc08a60	0.023503482
225	0x3e176578	0.14784801
226	0x3dd2a6ed	0.10285745
227	0xbb35efee	-0.0027761417
228	0x3e1be3cb	0.15223615
229	0xbd95d07a	-0.073151544
230	0x3d1efe4a	0.038816728
231	0x3d31a680	0.043371677
232	0x3c89c262	0.016816322
233	0x3caabd7a	0.020842303
234	0xbe3f2aba	-0.18668643
235	0xbca23865	-0.019802282
236	0x3cd54790	0.0260351
237	0xbe42a9b3	-0.19010048
238	0xbbdd6e07	-0.006757501
239	0x3e2962db	0.16541617
240	0xbe5803f7	-0.21095262
241	0xbba597e1	-0.0050535058
242	0x3dd37948	0.10325867
243	0x3e461404	0.19343573
244	0x3db28751	0.08717216
245	0x3a10fcd4	0.00055308384
246	0x3e049be8	0.12950099
247	0x3d536422	0.051609166
248	0x3d1f4494	0.03888376
249	0x3e37ad29	0.17937149
250	0x3e07d265	0.13263853
251	0xbcac6c8c	-0.021047853
252	0xbdb789cc	-0.089618295
253	0xbd40d162	-0.047074683
254	0xbb895e47	-0.004192147
255	0xbe215766	-0.15755996

encoder_conv.2.bias f4 [16]
0	0x3d85f0cf	0.06540071
1	0x3c02854f	0.007966354
2	0x3d49716c	0.049180433
3	0x3e31fd2e	0.17381737
4	0x3dcbe3f8	0.09955591
5	0x3dc6a6f2	0.09699811
6	0x3db611fd	0.0889015
7	0x3c9e71d7	0.019341392
8	0x3e1b51cb	0.1516792
9	0x3abd3333	0.0014434814
10	0x3e2d9998	0.16953123
11	0x3d661538	0.05617258
12	0x3d91e825	0.07124356
13	0x3e25599e	0.16147467
14	0x3dd54134	0.10412827
15	0x3d2b7888	0.041862994

encoder_conv.4.weight f4 [32, 16, 3, 3]
0	0x3ba2ae91	0.0049646576
1	0x3db29a37	0.087208204
2	0x3c39015f	0.011291831
3	0x3d55cf32	0.05219955
4	0x3d9a9406	0.075477645
5	0x3c7db415	0.015484829
6	0x3de2b7fa	0.11070247
7	0x3da46fbe	0.08029126
8	0x3c477af9	0.012175315
9	0x3cee1eac	0.02906736
10	0x3d134382	0.035953052
11	0x3d441da4	0.04787983
12	0x3d4d3f38	0.05010912
13	0x3cb933ce	0.02260771
14	0xbcb865d2	-0.02250949
15	0x3d353e8c	0.044249102
16	0x3c362b37	0.011118702
17	0xbd311447	-0.04323223
18	0x3da3dd73	0.080012225
19	0x3c475bae	0.012167854
20	0xbd187ec3	-0.037230264
21	0x3df9fc1a	0.12206288
22	0x3d2e7ef3	0.042601537
23	0x3d5b7f4b	0.053588193
24	0x3e0af9b9	0.13571824
25	0x3cadce3f	0.02121651
26	0x3d1abd97	0.037778463
27	0x3b501644	0.0031751553
28	0x3dae20f1	0.08502377
29	0xbdae628d	-0.08514891
30	0x3d73f3bf	0.059558626
31	0x3d98d4f5	0.07462493
32	0xbd364bf7	-0.04450604
33	0x3d828855	0.063736595
34	0x3df23410	0.118263364
35	0xbd37c558	-0.044865936
36	0xbcd8db46	-0.026471745
37	0xbd29055b	-0.041264873
38	0xbcf0701b	-0.029350331
39	0xbd43f737	-0.047843184
40	0xbdad0b15	-0.08449379
41	0xbe1101f7	-0.14160906
42	0xbd5fd608	-0.054647475
43	0xbd5455c3	-0.0518396
44	0xbdf5ab6e	-0.11995588
45	0xbd5be2ed	-0.05368321
46	0x3e098921	0.13431217
47	0xbb10fab9	-0.0022122099
48	0x3b6c59b3	0.0036064207
49	0x3e180114	0.14844161
50	0xbc1faf66	-0.009746408
51	0x3dcd898c	0.100360006
52	0x3e5a5f00	0.21325302
53	0x3c595c9c	0.013266709
54	0x3da27948	0.07933289
55	0x3caa66c6	0.02080096
56	0xbd1e269d	-0.038611043
57	0x3dc7624f	0.09735548
58	0x3d5e8507	0.054326084
59	0x3cdaa482	0.026689772
60	0x3d9041b1	0.0704378
61	0x3ca530ed	0.020164931
62	0x3c08c538	0.008347802
63	0x3d58bc6a	0.05291406
64	0x3d90441f	0.07044243
65	0xbcedb33c	-0.02901613
66	0x3ddf0f9d	0.1089165
67	0x3db6314e	0.08896123
68	0x3d426eb4	0.047468856
69	0x3de0eb8d	0.10982428
70	0x3d6bf636	0.057607852
71	0x3bf80e23	0.0075700446
72	0xbd0110ea	-0.03151027
73	0xbc0bcbcd	-0.008532477
74	0xbd5238f5	-0.05132385
75	0x3d2c163c	0.04201339
76	0xbcea61d6	-0.028611105
77	0x3c93c012	0.018035922
78	0x3d57fd46	0.052731775
79	0xbda39400	-0.07987213
80	0x3d9ce28f	0.076604
81	0x3d810de7	0.0630148
82	0x3d25ec5d	0.040508617
83	0xbce2b0bd	-0.027672166
84	0x3e02a8c3	0.1275969
85	0x3d918d6d	0.07107053
86	0x3d510aae	0.051035576
87	0x3df49e2f	0.119442336
88	0x3d28876b	0.04114477
89	0x3d538319	0.051638696
90	0x3d83e7c6	0.06440692
91	0x3dd49e83	0.10381796
92	0x3c8d5374	0.017251708
93	0x3dec8aca	0.115499094
94	0x3db1f2c5	0.08688883
95	0x3d851cde	0.064996466
96	0x3de50710	0.11182988
97	0x3dc60771	0.09669388
98	0x3dae2004	0.085022
99	0x3d8970e1	0.06710983
100	0xbd41c767	-0.047309306
101	0x3c788e74	0.015170682
102	0x3deb13a1	0.11478353
103	0x3d7eca3d	0.06220459
104	0x3da1f651	0.07908309
105	0x3dfa0390	0.12207711
106	0x3c85cc6b	0.016332826
107	0x3c942f99	0.018089103
108	0x3d278c4c	0.040905282
109	0x3defcad1	0.11708606
110	0x3cf4a0b8	0.029861793
111	0xbc24b247	-0.01005227
112	0x3e70d574	0.23518926
113	0xbac0de1a	-0.0014714629
114	0xbda4ca41	-0.08046389
115	0x3e41ffec	0.18945283
116	0x3d2f4092	0.04278619
117	0x3dedeacf	0.11617052
118	0xbc532203	-0.012886527
119	0xbaf22bed	-0.0018476226
120	0x3da4faf7	0.0805568
121	0x3d1a3d1c	0.037655935
122	0x3db67dfe	0.0891075
123	0x3d8e74fa	0.06955905
124	0xbba81ccf	-0.0051303874
125	0x3d9a849b	0.07544824
126	0x3d16c2d5	0.0368069
127	0x3de953bb	0.113929234
128	0xbd826ae6	-0.063680455
129	0x3d8fad09	0.07015426
130	0x3dd9cf46	0.106352374
131	0xbb628fb7	-0.0034570524
132	0x3d5ea009	0.05435184
133	0x3db1dcf1	0.08684719
134	0x3c6721f2	0.014107214
135	0x3d808a2e	0.06276356
136	0x3ce25481	0.027628185
137	0xbd45652f	-0.0481922
138	0x3dba80e9	0.09106619
139	0x3d52efc2	0.051498182
140	0x3c5fffe2	0.013671847
141	0x3dbe8953	0.09303536
142	0x3ba4c21a	0.0050280215
143	0xbc3c25f9	-0.011483663
144	0xbc8dbee5	-0.01730294
145	0x3d81c09b	0.06335565
146	0x3ca8f343	0.020623809
147	0x3c57fc14	0.013182659
148	0x3d5ea579	0.054357026
149	0x3b9bf66f	0.004759602
150	0x3d023a40	0.031793833
151	0x3d4c02f4	0.049807504
152	0x3c95eb02	0.018300537
153	0x3d293c17	0.04131707
154	0x3cc29a1b	0.023755124
155	0x3d6a3e5a	0.05718837
156	0x3dab1c09	0.08354957
157	0x3da9ff7b	0.08300682
158	0xbc71e34b	-0.0147636635
159	0x3c7138d5	0.0147230225
160	0xbd3df49d	-0.04637586
161	0x3cc7cb01	0.024388792
162	0xbc959b1e	-0.018262442
163	0x3d48ac2a	0.048992313
164	0xbd92c13c	-0.07165763
165	0x3c977838	0.018489942
166	0xbcba12c2	-0.022714023
167	0x3b8ff3bf	0.0043930705
168	0x3d482813	0.048866343
169	0x3db3d0a2	0.08780028
170	0x3d13cd85	0.03608467
171	0x3cb4c7bf	0.022067903
172	0x3d81329b	0.0630848
173	0xbd06cb95	-0.032908995
174	0x3c66ab08	0.014078863
175	0x3cfaca86	0.030614149
176	0x3cf75e0e	0.030196216
177	0xbc7c6ea9	-0.015407243
178	0x3db864d8	0.090036094
179	0x3d8a88ec	0.06764397
180	0xbd591462	-0.052997954
181	0xbcd239e8	-0.025662377
182	0x3d0bff42	0.03417898
183	0xbd63dd62	-0.05563105
184	0xbc886308	-0.016648784
185	0xbcc676dd	-0.0242266
186	0xbe166ee9	-0.14690746
187	0xbdf085f4	-0.117442995
188	0xbd86e08e	-0.06585799
189	0xbcfb0c47	-0.030645503
190	0x3bf82c7a	0.0075736614
191	0x3c93e891	0.018055232
192	0xbc37c2a6	-0.011215841
193	0xbc4d9166	-0.012546873
194	0x3da0252a	0.078195885
195	0xbd2f051e	-0.04272949
196	0x3d85caaa	0.06532796
197	0x3dce862d	0.10084186
198	0x3c919d52	0.017775211
199	0xb959352b	-0.0002071454
200	0xbd05ad2b	-0.03263585
201	0x3cabd7ea	0.02097698
202	0x3cd1cf58	0.025611565
203	0x3d459e13	0.048246454
204	0x3d17f9a4	0.03710331
205	0x3d69e324	0.057101384
206	0x3d1f34d4	0.03886874
207	0xbc0f0cd0	-0.008731082
208	0x3d5399c2	0.051660307
209	0xbcf39af8	-0.02973698
210	0x3cc72153	0.024307882
211	0x3d611a00	0.054956436
212	0x3d03cf4d	0.03218012
213	0x3d9ec256	0.077519104
214	0x3d9e6de0	0.07735801
215	0x3cf6e5dd	0.030138904
216	0xbcaa3368	-0.020776466
217	0xbd04d4a9	-0.03242937
218	0xbe0895f1	-0.13338448
219	0x3ccf974b	0.025340697
220	0x3ce2cb13	0.027684724
221	0x3c2c4c02	0.010516169
222	0x3d2e7b1c	0.042597875
223	0x3da1e16a	0.079043224
224	0x3c49a832	0.012308167
225	0xbc97cfe0	-0.01853174
226	0xbb5b9edc	-0.0033511436
227	0xbd534b13	-0.05158527
228	0x3d6a26ed	0.05716603
229	0xbc0a58b0	-0.008443996
230	0xbd006939	-0.03135035
231	0x3d3540c8	0.044251233
232	0x3d133740	0.035941362
233	0x3d94ebb1	0.07271517
234	0x3d310d38	0.043225497
235	0x3d4f51dc	0.050615177
236	0xbcac6b5f	-0.021047292
237	0x3d0ddda9	0.03463522
238	0x3cf11281	0.029427769
239	0x3ccdfdef	0.025145499
240	0x3bb47c82	0.0055080066
241	0x3d658840	0.05603814
242	0x3c9f7c5d	0.01946848
243	0x3cf74b64	0.030187316
244	0xbc4462e3	-0.011986467
245	0x3c4d961e	0.012547998
246	0x3d16fc96	0.03686198
247	0x3b73b60d	0.0037187368
248	0x3cd4b2f5	0.02596424
249	0x3dc15596	0.09440152
250	0x3d82f747	0.06394821
251	0x3d2984f5	0.041386563
252	0x3ce4a318	0.0279098
253	0xbca9d30b	-0.020730516
254	0xbba2e528	-0.004971165
255	0x3bc88e01	0.006120444

encoder_conv.4.bias f4 [32]
0	0x3d907e3a	0.07055326
1	0x3da13a66	0.07872467
2	0x3d81e9f1	0.06343449
3	0xb8184de1	-3.6312154e-05
4	0x3c9a1649	0.018809455
5	0x3de0c696	0.10975377
6	0x3c8cf72c	0.017207704
7	0x3d893ef0	0.067014575
8	0x3c88c6fd	0.016696448
9	0x3d8ccef5	0.068754114
10	0x3d8bb9df	0.068225615
11	0x3d079189	0.033097778
12	0x3b1f0423	0.002426394
13	0x3dc3687c	0.09541413
14	0x3db2ee9f	0.087369196
15	0x3d77601e	0.0603944
16	0x3d90ba38	0.070667684
17	0x3c7a6ce7	0.015284753
18	0xbc87264a	-0.01649775
19	0x3cc00707	0.02344085
20	0xbc0e34ba	-0.008679563
21	0xa0452cd9	-1.6701388e-19
22	0x3d8bacea	0.0682009
23	0x3ce001ac	0.027344547
24	0x3caf79a6	0.021420311
25	0x016894e6	4.27185e-38
26	0x3da78320	0.08179307
27	0x3bcc9bad	0.006244144
28	0x3b150127	0.0022736283
29	0x3d55010a	0.052002944
30	0x3d965f1a	0.07342358
31	0x3d1a1115	0.037613947

encoder_lin.0.weight f4 [64, 288]
0	0xbd24487e	-0.040108196
1	0xbdb4e84c	-0.088333696
2	0x3ca4ecc7	0.020132435
3	0xbdc27486	-0.09494881
4	0xbdf4fd23	-0.119623445
5	0xbcaa7f57	-0.020812673
6	0x3a8e4244	0.0010853489
7	0x3d97a1d3	0.074039124
8	0x3d10f4a5	0.03538956
9	0x3ca08900	0.019596577
10	0xbd012df9	-0.031537984
11	0x3d3b8cb1	0.04578847
12	0xbd96bcde	-0.07360242
13	0xbb3ee401	-0.00291276
14	0x3d020630	0.031744182
15	0x3ceb4858	0.02872102
16	0x3d950701	0.072767265
17	0x3dbd685f	0.09248423
18	0x3c9034f5	0.017603377
19	0xbd2f176b	-0.042746942
20	0x3d6d0fb2	0.057876296
21	0xbe0245f7	-0.12722002
22	0xbd139504	-0.036030784
23	0x3dcaa802	0.09895326
24	0x3d7c8ad2	0.061655827
25	0x3d7a0a8f	0.061045226
26	0x3dbd42ea	0.092412785
27	0x2310952b	7.837843e-18
28	0xa286260d	-3.636106e-18
29	0x23073aa6	7.330784e-18
30	0xa33277ce	-9.674769e-18
31	0xa1f032fa	-1.6276526e-18
32	0x229c3ad5	4.2346176e-18
33	0x2329f4f5	9.21338e-18
34	0x231469f9	8.045537e-18
35	0x233901d7	1.002926e-17
36	0x3c89ae20	0.016806662
37	0xbd4fd4ed	-0.05074017
38	0x3dbccb32	0.09218444
39	0xbdd3794b	-0.10325869
40	0xbd33abfb	-0.043865185
41	0x3cde263b	0.02711784
42	0x3dd00054	0.101563126
43	0x3dd76062	0.105164304
44	0x3d924e91	0.071438916
45	0x3d479a03	0.04873086
46	0x3e1d34b6	0.15352139
47	0x3d5d5149	0.054032598
48	0xbdf676bd	-0.12034366
49	0x3d1893b8	0.03725025
50	0xbcd29d6d	-0.025709832
51	0xbda86171	-0.082217105
52	0xbe1005cc	-0.14064711
53	0xbdd7cbb7	-0.105369024
54	0xbd9bef1a	-0.076139644
55	0x3dc4efbb	0.096160375
56	0xbe41103a	-0.18853846
57	0xbd743371	-0.05961937
58	0x3c72440c	0.014786731
59	0xbdfec7a9	-0.12440426
60	0xbe3423f5	-0.17591842
61	0xbccf5333	-0.025308227
62	0xbe3264a7	-0.17421208
63	0xbd2eeae8	-0.042704493
64	0xbdd03f54	-0.10168329
65	0x3cf181ee	0.0294809
66	0xbdaf70f1	-0.08566464
67	0xbe0852f9	-0.13312902
68	0xbc395f75	-0.011314263
69	0x3c2eaabc	0.010660823
70	0x3d81af44	0.063322574
71	0x3d6dbaad	0.058039356
72	0x3cb3d4a3	0.021951979
73	0xbc68c7f4	-0.014207829
74	0x3c753880	0.014967084
75	0xbd8ef246	-0.06979804
76	0xbd00c30d	-0.031436015
77	0x3d5b7762	0.05358065
78	0x3d3605a1	0.044438962
79	0x3dd6008f	0.10449325
80	0x3d7e40fc	0.062073693
81	0x3bb921d2	0.0056497836
82	0xbd4b185e	-0.049583785
83	0x3d266738	0.04062578
84	0xbd49a3cb	-0.04922847
85	0xbc5800c7	-0.013183779
86	0x3d740cea	0.05958263
87	0x3d1131b4	0.03544779
88	0x3d9e0d8b	0.07717427
89	0x3dc1ce8c	0.09463224
90	0xbd337015	-0.04380806
91	0xbcac21ed	-0.02101227
92	0xbd0e4590	-0.03473431
93	0xbdaf8ef7	-0.0857219
94	0xbd4b9458	-0.04970202
95	0x3da333b1	0.07968844
96	0xbdf17ec2	-0.11791755
97	0x3b3efe6c	0.0029143346
98	0x3dbf74af	0.093484275
99	0x3b028455	0.0019915302
100	0xbda65ff5	-0.08123771
101	0x3d5fda8f	0.054651793
102	0xbd7eb848	-0.062187463
103	0xbd3f2f78	-0.04667613
104	0x3cdd1e6f	0.02699205
105	0x3d73a873	0.059486818
106	0x3dcf8b2d	0.101339675
107	0x3e08410c	0.13306063
108	0x3cf4c3fb	0.029878607
109	0xbd161905	-0.036644954
110	0x3d87aea0	0.06625104
111	0xbdc88323	-0.09790637
112	0x3c0b4f28	0.008502759
113	0x3d1d78dd	0.038445342
114	0x3d68f3b4	0.05687304
115	0x3d991b49	0.07475907
116	0x3deaf04c	0.11471614
117	0x3c023470	0.007947072
118	0x3d90b7fa	0.07066341
119	0xbd825777	-0.06364339
120	0xbd1a7780	-0.03771162
121	0xbc75587d	-0.0149747105
122	0xbcfda57b	-0.030962696
123	0xbdf847f4	-0.12123099
124	0xbddd7afa	-0.108144715
125	0xbdd28d9b	-0.10280915
126	0xbd6eab1c	-0.05826865
127	0x3d9aa626	0.075512215
128	0xbe5297d3	-0.20565729
129	0x3cd09e5a	0.025466133
130	0x3b0e629c	0.0021726256
131	0xbd8b2673	-0.06794443
132	0xbe46cc80	-0.19413948
133	0xbd0f43d3	-0.03497679
134	0xbe0e1c76	-0.13878044
135	0x3d2d0280	0.042238712
136	0xbdbc73cc	-0.09201774
137	0xbbb10bfa	-0.005403039
138	0x3b83f77e	0.004027306
139	0x3cc4ab7c	0.024007551
140	0xbdafad1c	-0.0857794
141	0x3db3774e	0.0876299
142	0xbdea1a0b	-0.114307486
143	0xbdaa286c	-0.08308491
144	0x3c6cc5cb	0.014451454
145	0xbc451c21	-0.012030632
146	0x3d575651	0.052572552
147	0xbdddfc83	-0.108391784
148	0xbbddef76	-0.0067729307
149	0x3d8133b8	0.06308693
150	0x3d05dc36	0.032680713
151	0x3d8c8c10	0.06862652
152	0x3da2ce87	0.07949548
153	0x3c5b11bd	0.013370928
154	0xbccd2fe0	-0.025047243
155	0x3db4a2f1	0.08820141
156	0xbdccf1f2	-0.10007085
157	0xbc0d7859	-0.00863465
158	0x3d2c8976	0.04212328
159	0x3dd95be7	0.10613232
160	0x3de94fed	0.11392198
161	0x3dd6dccb	0.10491332
162	0x3bfeb7a9	0.007773359
163	0xbd9f2556	-0.07770793
164	0x3d3dbb51	0.046321217
165	0xbda9994a	-0.08281191
166	0xbcd4c7f8	-0.025974259
167	0x3ca66843	0.020313388
168	0x3dcb954f	0.09940588
169	0x3cf2d72c	0.029643618
170	0x3e14d399	0.14533843
171	0xbb77a054	-0.0037784772
172	0xbd5ff717	-0.054679003
173	0x3d44e42c	0.048069164
174	0xbd5de386	-0.05417206
175	0xbcc87abc	-0.024472587
176	0x3d646c81	0.05576754
177	0x3d75c738	0.060004443
178	0x3e06c196	0.13159785
179	0x3de982da	0.11401911
180	0x3ce71674	0.028208949
181	0xbd480bef	-0.048839506
182	0x3d9ee19b	0.077578746
183	0xbdb41644	-0.08793309
184	0xbced1a12	-0.028943095
185	0x3d569019	0.052383516
186	0x3d6b5aae	0.057459526
187	0x3da20adf	0.0791223
188	0x3dd1ba7d	0.10240648
189	0x81248bd0	-3.0222353e-38
190	0x01cf17e0	7.607405e-38
191	0x015ec165	4.0913714e-38
192	0x820c2008	-1.0294768e-37
193	0x003a9872	5.381146e-39
194	0x0185d866	4.9167e-38
195	0x81491128	-3.6930178e-38
196	0x817a2cd8	-4.5949922e-38
197	0x82304cdc	-1.2952495e-37
198	0xbd773007	-0.060348537
199	0x3aece302	0.0018073025
200	0xbe3baafa	-0.18326941
201	0x3c85f9eb	0.016354522
202	0xbd14de16	-0.03634461
203	0x3c9f7482	0.019464735
204	0xbe5b9200	-0.21442413
205	0xbcba150f	-0.02271512
206	0xbc5a1ecb	-0.013313006
207	0xbca96203	-0.020676618
208	0xbd43841c	-0.04773341
209	0x3c6993d3	0.014256435
210	0xbcfc0f60	-0.03076905
211	0xb880713e	-6.1246086e-05
212	0x3cca934d	0.024728442
213	0x3d400ed4	0.04688914
214	0x3d9e60ae	0.07733284
215	0x3e0e99e8	0.13925898
216	0xbd00c71f	-0.031439897
217	0xbdeaa862	-0.11457898
218	0x3d5b08a1	0.053475026
219	0xbd19e81a	-0.037574865
220	0xbe413935	-0.18869479
221	0x3d14583a	0.036216952
222	0x3d6f19f4	0.05837436
223	0x3d1bf93d	0.03807949
224	0x3daed6b1	0.08537043
225	0x816d770e	-4.3615443e-38
226	0x8214b571	-1.0925394e-37
227	0x82026804	-9.580743e-38
228	0x02196162	1.1268612e-37
229	0x808193c5	-1.1899789e-38
230	0x81ab03ec	-6.2821107e-38
231	0x01bcb70f	6.932297e-38
232	0x0225ab73	1.2171489e-37
233	0x0103407a	2.410716e-38
234	0x3d173ade	0.036921374
235	0xbc8be5da	-0.017077375
236	0x3dab3be7	0.08361035
237	0xbdd99aa8	-0.106252015
238	0xbc125869	-0.008932211
239	0x3d272087	0.040802505
240	0x3da33c77	0.07970517
241	0x3d94e90d	0.072710134
242	0x3db59a7b	0.088673554
243	0x3cb7cd27	0.022436691
244	0xbd12b4ee	-0.03581708
245	0x3d98122e	0.074253425
246	0xbdb5a9a9	-0.08870251
247	0xbc3503a6	-0.011048233
248	0x3d03897e	0.032113545
249	0x3dae1b4c	0.085013
250	0x3d87b445	0.066261806
251	0x3d9f3ab2	0.07774867
252	0x3c709cd0	0.0146858245
253	0xbd33837a	-0.043826558
254	0x3d975f2e	0.07391201
255	0xbde05f21	-0.109556444

encoder_lin.0.bias f4 [64]
0	0xbc0d968f	-0.008641853
1	0xbba041b8	-0.004890647
2	0xbc06cbec	-0.00822733
3	0x1f9808fa	6.4389354e-20
4	0x3baf8403	0.005356313
5	0xbabff65b	-0.0014645563
6	0x238eab48	1.5468211e-17
7	0x3ca9af31	0.02071342
8	0xbc18f978	-0.009336822
9	0xbbee36c7	-0.0072697136
10	0x37dc98f6	2.6297272e-05
11	0x1b55a2b8	1.7671524e-22
12	0x3d39bdf5	0.045347173
13	0x01e6e908	8.482304e-38
14	0x3d0d8bbd	0.034557093
15	0xba9bf42c	-0.001189833
16	0x82125548	-1.075086e-37
17	0x3c361b4a	0.011114905
18	0x09b3ef67	4.3317815e-33
19	0x81be548c	-6.9916296e-38
20	0x3d74b84c	0.05974607
21	0x206c4c14	2.001515e-19
22	0x3ccab615	0.024745027
23	0x3b7a7b33	0.0038220405
24	0x80499006	-6.755657e-39
25	0xbca4e6a6	-0.020129513
26	0x3ad9536a	0.0016580645
27	0x8041ad8d	-6.031566e-39
28	0x3d3749b7	0.044748034
29	0xbb24f11e	-0.002516813
30	0x3d31d99b	0.043420415
31	0x3bfb6c50	0.007672824
32	0x3d3cafbd	0.046066035
33	0xbc448487	-0.011994488
34	0xa21196eb	-1.973106e-18
35	0x3b8df5c6	0.004332277
36	0x81ee9434	-8.7640053e-38
37	0x3c20ebca	0.0098218415
38	0xaf1c8aa6	-1.4237375e-10
39	0x3ce608cd	0.028080368
40	0x3c7fb0ac	0.015606087
41	0x3d1a736e	0.03770774
42	0xb2e0e3a7	-2.6180556e-08
43	0xaa3156ad	-1.575083e-13
44	0x2f7c82b4	2.2965702e-10
45	0x021b0f55	1.1392002e-37
46	0x3c13d1c9	0.009022185
47	0x3a7cb7ae	0.00096404075
48	0x18906f9c	3.7335824e-24
49	0xba414bf6	-0.0007373685
50	0x3d35a119	0.044343088
51	0x0224ad4f	1.2098554e-37
52	0x3d3698f6	0.04457947
53	0x3b36be50	0.0027884431
54	0x80389794	-5.197164e-39
55	0x3c79c5e9	0.015244939
56	0x00ea7fec	2.1535396e-38
57	0xbd0afef5	-0.033934552
58	0x3cc47504	0.023981579
59	0x3d612d9f	0.05497515
60	0x3b48cb97	0.0030638927
61	0xbcb52f0d	-0.022117162
62	0x1525556d	3.3388874e-26
63	0xb71c943d	-9.332839e-06

encoder_lin.2.weight f4 [2, 64]
0	0xbe396311	-0.18104197
1	0xbe43cc20	-0.19120836
2	0xbeb26133	-0.34839782
3	0x384f1073	4.9367965e-05
4	0x3d235e86	0.039885066
5	0x3d8c6a6a	0.06856234
6	0xb9081d28	-0.00012980832
7	0xbd5d1d9b	-0.053983312
8	0xbe9a754a	-0.3016761
9	0xbec6fcca	-0.38864738
10	0xba87433c	-0.001031972
11	0x3bb85f52	0.0056265974
12	0xbde483db	-0.11157962
13	0x3a36ea72	0.0006977684
14	0xbdfaa019	-0.122375675
15	0xbacdd83e	-0.0015704704
16	0x3bbe0351	0.005798735
17	0xbe9726cf	-0.29521796
18	0xbbef2014	-0.007297525
19	0x36f180be	7.1973473e-06
20	0xbe099e5e	-0.13439319
21	0xbb0ac977	-0.0021177211
22	0xbd1f7ef5	-0.038939435
23	0x3b4a30f5	0.0030851935
24	0xbb648981	-0.0034871998
25	0xbf2d210f	-0.6762857
26	0x39ea5342	0.0004469399
27	0x37552e3f	1.2706557e-05
28	0x3df841a3	0.12121894
29	0x3d71781e	0.058952443
30	0xbdd526ec	-0.104078144
31	0xbda13d7b	-0.078730546
32	0xbd467c25	-0.048458237
33	0xbec94b99	-0.3931549
34	0x3c310cf9	0.010806316
35	0x3d8984b7	0.067147665
36	0xbb4419f9	-0.0029922707
37	0x3c431d34	0.011908818
38	0xbb63d0f0	-0.0034761988
39	0xbd6af391	-0.05736119
40	0x3df37592	0.11887659
41	0xbe8e42f1	-0.27785447
42	0x3bc8308a	0.006109302
43	0x3c4a41fb	0.0123448325
44	0x3bb2055e	0.0054327687
45	0xbb483605	-0.0030549776
46	0x3d69d22c	0.0570852
47	0x3e07d1c7	0.13263617
48	0xba46c71d	-0.0007582771
49	0x3e196c9d	0.14982839
50	0xbdb10fc0	-0.08645582
51	0xbb14e9ab	-0.0022722285
52	0xbda44683	-0.080212615
53	0x3cafee72	0.021476004
54	0xb864b19e	-5.4524855e-05
55	0x3da6e660	0.08149409
56	0x3c012c25	0.00788406
57	0xbe57a1cf	-0.21057819
58	0xbdf01e6e	-0.11724554
59	0x3e0e366c	0.13887948
60	0xbc9f2b35	-0.019429782
61	0xbf1280cf	-0.57227796
62	0xbb11a374	-0.002222267
63	0x3add18af	0.0016868318
64	0xbeb8d56f	-0.36100337
65	0x3ecbf549	0.39835575
66	0xbf05b183	-0.52223986
67	0xbab86195	-0.0014067168
68	0xbe103751	-0.14083602
69	0xbdb70e6f	-0.089383
70	0xbb0eb780	-0.0021776855
71	0xbd3313dd	-0.043720115
72	0xbec4bc42	-0.3842488
73	0xbea38e14	-0.31944335
74	0x37803ec6	1.528802e-05
75	0xbae49d19	-0.0017441838
76	0xbd8c73b3	-0.068580054
77	0x3b236b3d	0.0024935745
78	0x3d5e7455	0.05431016
79	0x3e0adb20	0.13560152
80	0xb9b2dd90	-0.00034115883
81	0x3e8a09e6	0.26960677
82	0x3c178615	0.009248276
83	0xb7abdcee	-2.0487667e-05
84	0xbd986871	-0.074417956
85	0xbbcbd4ef	-0.006220452
86	0x3d9fe4aa	0.07807286
87	0x3ec5278e	0.3850674
88	0xbbe2d1ae	-0.0069219684
89	0x3e1ba664	0.15200192
90	0x3bb5b704	0.005545499
91	0x3b5ce589	0.003370615
92	0x3dd307cc	0.103042215
93	0x3c94db2c	0.018170916
94	0x3d9978a9	0.07493717
95	0x3d15d054	0.03657563
96	0x3dfea2a0	0.12433362
97	0x3e7e2602	0.24819186
98	0x3c67cb16	0.014147541
99	0xbdb3ca0c	-0.08778772
100	0xbc438220	-0.01193288
101	0x3e1c28a9	0.15249886
102	0x3ba9cdcc	0.0051820036
103	0xbd6dd76a	-0.058066763
104	0xbdcafb49	-0.0991121
105	0x3ee44898	0.44586635
106	0x3c78260a	0.015145788
107	0xbc31cf7b	-0.01085269
108	0x3bfa71fe	0.0076429835
109	0x39ae8114	0.00033284037
110	0xbdc800df	-0.09765791
111	0xbdcc9efa	-0.0999126
112	0xb9176487	-0.00014437932
113	0x3e2d4a18	0.16922796
114	0xbd843d7c	-0.0645704
115	0xbaf77c71	-0.0018881691
116	0x3d2c5667	0.042074587
117	0xbe06a09e	-0.13147208
118	0x36383430	2.7448514e-06
119	0xbe000716	-0.12502703
120	0x3b084e60	0.0020798668
121	0xbf11edbb	-0.5700337
122	0x3d432894	0.04764612
123	0x3db77d8e	0.089594945
124	0x3d613eb1	0.054991428
125	0x3ea70767	0.32622835
126	0x3a01d2c3	0.00049523654
127	0xbb8ef954	-0.0043632183

encoder_lin.2.bias f4 [2]
0	0xbc254a78	-0.0100885555
1	0xbd892668	-0.066967785

decoder_lin.0.weight f4 [64, 2]
0	0x3ef416c6	0.47673625
1	0xbef60679	-0.48051813
2	0xbe0cd2a2	-0.13752225
3	0xbe9d5a2b	-0.30732855
4	0xbeb87445	-0.36026207
5	0xbf2257b8	-0.634151
6	0xbf2c8bde	-0.6740092
7	0x3de85499	0.11344261
8	0x3eb256a5	0.3483173
9	0xbf1ebc87	-0.6200642
10	0xbe8ffe97	-0.28123924
11	0xbda0118e	-0.07815848
12	0xbf01f41d	-0.5076311
13	0x3ea9aec5	0.3314115
14	0xbcbd342e	-0.02309617
15	0x3e09dd0b	0.13463227
16	0x01aac451	6.272984e-38
17	0x013c38aa	3.45708e-38
18	0xbf1b4294	-0.60648465
19	0x3ecd0e82	0.4005013
20	0x3f1ffba3	0.6249334
21	0xbe4881ab	-0.19580714
22	0x3f21be61	0.6318112
23	0x3ce288e8	0.027653173
24	0xbda9d960	-0.08293414
25	0xbf3143c1	-0.6924401
26	0x3e34e381	0.17664911
27	0x3e9fe28e	0.31227535
28	0xbb1bf68c	-0.0023798076
29	0xbf3b9d59	-0.7328697
30	0x3e0b5c1e	0.13609359
31	0x3e911e2a	0.28343326
32	0x3f2ccd2a	0.67500556
33	0xbd186805	-0.037208576
34	0xbe091249	-0.13385881
35	0x3e8c9831	0.27459863
36	0x3f113914	0.5672772
37	0xbe778455	-0.24171574
38	0x3c7d0ecf	0.015445425
39	0x3f205982	0.6263658
40	0xbf140855	-0.57825214
41	0xbed6a8c1	-0.41925624
42	0xbde39aff	-0.111135475
43	0xbe16c041	-0.14721777
44	0xbe91d2d8	-0.28481174
45	0x3d19c533	0.03754158
46	0xbefd850b	-0.49515566
47	0xbe001e69	-0.125116
48	0xbea1a182	-0.31568533
49	0x3f1336b0	0.5750532
50	0xbecae96d	-0.39631215
51	0x3e8cf42a	0.27530032
52	0xbc4d5b64	-0.012533996
53	0xbed9a6e8	-0.42510152
54	0xbe03467c	-0.12819856
55	0x3ea45442	0.32095534
56	0xbeedb0ce	-0.46423954
57	0x3ddb0503	0.10694315
58	0x3e6eefe2	0.23333696
59	0x3ed84050	0.42236567
60	0xbed9e0d4	-0.42554343
61	0x3eb26999	0.3484619
62	0xbf227824	-0.6346457
63	0x3e8e3c96	0.27780598
64	0xbea18d09	-0.31552914
65	0x3ef8206b	0.48462233
66	0xbe5e2ed1	-0.21697547
67	0x3eafc8ea	0.34332973
68	0xbed1fb54	-0.4101206
69	0xbe9e576c	-0.30926073
70	0xbe3331e5	-0.17499502
71	0xbc93b95b	-0.01803272
72	0x3ec2c454	0.3804041
73	0xbf294ee5	-0.6613601
74	0xbc3ef268	-0.011654474
75	0xbf36a588	-0.7134633
76	0xbd854605	-0.06507496
77	0xbf3d52b7	-0.7395434
78	0xbf20042b	-0.6250636
79	0xbe3a425d	-0.18189378
80	0xbec212d5	-0.37904993
81	0x3f23e0c9	0.6401487
82	0xbe694f51	-0.22784163
83	0xbf2002c3	-0.62504214
84	0x3acf610b	0.0015821768
85	0x3f0df541	0.5545235
86	0x3d25b331	0.040454093
87	0x3ecc1ee7	0.39867327
88	0xbdc0a8ce	-0.09407197
89	0x3efdf540	0.49601173
90	0x3f154cfe	0.58320606
91	0xbf0d1759	-0.5511375
92	0xbe424b40	-0.18974018
93	0x3ee4d084	0.44690335
94	0xbee7b8e2	-0.45258242
95	0xbea2daea	-0.31807643
96	0xbd35b17c	-0.044358715
97	0x3e5dd4fc	0.21663278
98	0xbf205d61	-0.62642485
99	0x3e403f67	0.18774186
100	0x3f0e690a	0.55629027
101	0xbf02a201	-0.5102845
102	0xbd48e390	-0.049045146
103	0xbcb28846	-0.021793496
104	0x3ebdc8e2	0.37067324
105	0x3e865f92	0.2624479
106	0xbe1f64a5	-0.15565737
107	0x3e21548c	0.15754908
108	0x3c7022bc	0.014656719
109	0xbf1359af	-0.5755872
110	0x3b0b22d5	0.0021230478
111	0xbad90131	-0.0016556141
112	0x3dc8a13a	0.097963765
113	0x3ec5c1a8	0.3862431
114	0xbe16d345	-0.1472903
115	0x3e85a374	0.26101267
116	0x3f088362	0.53325474
117	0x3e07d15d	0.1326346
118	0xbf1cdb46	-0.61272085
119	0x3bc3b96b	0.0059730313
120	0xbedbdb8e	-0.42940944
121	0x3dad504b	0.0846258
122	0x3e43c1c8	0.1911689
123	0xbe52dcac	-0.20591992
124	0xbf376607	-0.71640056
125	0xbe66a623	-0.22524314
126	0xbe8a3f82	-0.27001578
127	0x3ecd1895	0.40057817

decoder_lin.0.bias f4 [64]
0	0x3e7f2bdc	0.24919075
1	0x3e0235ee	0.12715885
2	0x3ee0d4f8	0.43912482
3	0xbe85e017	-0.2614753
4	0xbd954827	-0.072891526
5	0x3c89aba9	0.016805487
6	0x3ef3b5bf	0.475996
7	0xbf0e6f42	-0.55638516
8	0xa5194aa8	-1.3295929e-16
9	0xbdd91d7b	-0.10601326
10	0x3c48710e	0.012233986
11	0xbf01eec4	-0.5075495
12	0x3ed006e1	0.40630248
13	0xbe630f6a	-0.22173849
14	0xbee00df6	-0.4376065
15	0x3f4fd776	0.8118814
16	0xbeee3f50	-0.4653268
17	0xbe4f5a85	-0.20249374
18	0xbd31fd4d	-0.043454457
19	0xbd2f05dd	-0.0427302
20	0xbec45381	-0.38344958
21	0x3f22b982	0.6356431
22	0xbed7c2f5	-0.42140928
23	0xbeca50a6	-0.39514655
24	0x3e9fdce5	0.31223217
25	0x3f19e063	0.6010801
26	0xbe145729	-0.14486374
27	0xbf09a11d	-0.53761464
28	0xbee1d448	-0.4410727
29	0x3cc3c52a	0.023897726
30	0x3e90eb60	0.28304577
31	0xbe93a7a3	-0.28838834
32	0x3e9d7711	0.30754903
33	0x3e2d0655	0.16896947
34	0xbe0ffb31	-0.14060666
35	0xbf32592c	-0.69667315
36	0xbe03379f	-0.12814187
37	0xbeba7ebc	-0.36424816
38	0x3e6fe1b0	0.23425937
39	0x3b7a82a2	0.0038224836
40	0x3d9d2e74	0.07674876
41	0x3eb2c70c	0.34917486
42	0x3eb57c86	0.35446566
43	0xbed5fce3	-0.417945
44	0x3edc2966	0.43000335
45	0x3ef21918	0.4728477
46	0xbf12c67c	-0.57334113
47	0xbf053bcb	-0.5204436
48	0xbf4f4816	-0.8096937
49	0xbebd80ec	-0.37012422
50	0x3c8354de	0.016031679
51	0x3faaf490	1.3355885
52	0x3e9b518a	0.30335647
53	0xbe522def	-0.20525335
54	0xbef9f84e	-0.48822254
55	0xbd1567ad	-0.036475826
56	0x3e8eeda9	0.27915695
57	0xbd2df7e2	-0.042472728
58	0x3eec9b0a	0.46212035
59	0xbdafe38f	-0.08588325
60	0xbea4bc34	-0.32174838
61	0x3ea5d105	0.32386032
62	0x3f1284c6	0.57233846
63	0x3e6fbfc1	0.23412992

decoder_lin.2.weight f4 [288, 64]
0	0xbae11c38	-0.0017174548
1	0xbc9121cb	-0.017716309
2	0xbd32f1eb	-0.043687742
3	0x3db6fd4a	0.0893503
4	0x3c825697	0.01591043
5	0x3dae6ce3	0.08516862
6	0x3cc25f71	0.02372715
7	0x3d187966	0.03722515
8	0x01c482e5	7.2186853e-38
9	0x3d1a324c	0.037645623
10	0x3cc4cd13	0.024023568
11	0x3cfde881	0.030994656
12	0xbc86a547	-0.016436232
13	0xbdd120b2	-0.10211314
14	0x3c3928e1	0.01130125
15	0xbe298af1	-0.16556908
16	0x3d121884	0.03566791
17	0xbac9965d	-0.0015379895
18	0x3cbb8b4a	0.022893567
19	0xbcac31e4	-0.021019883
20	0xbd748753	-0.059699368
21	0xbbad7794	-0.005293796
22	0x3db9400b	0.09045418
23	0x3e11c3ad	0.142348
24	0x3c92437d	0.017854447
25	0x3c14d8eb	0.00908492
26	0xba603b54	-0.00085537625
27	0x3d814c5e	0.06313394
28	0x3dad7f37	0.0847153
29	0xbdd2f519	-0.10300655
30	0x3c214c5d	0.009844867
31	0x3d4fa832	0.050697513
32	0xbc4ddddc	-0.012565102
33	0x3bcd54ad	0.0062661977
34	0xbd4c698d	-0.04990535
35	0x3d960e80	0.073269844
36	0x3c0c5507	0.008565194
37	0x3c5040f1	0.012710796
38	0x3bdc2d62	0.0067192772
39	0x3de40877	0.11134427
40	0xbc2c70a3	-0.010524902
41	0xbd06fd02	-0.03295613
42	0xbd942ecd	-0.07235489
43	0xbc2d354b	-0.010571788
44	0xbcb4edfd	-0.022086138
45	0xbaeee156	-0.0018225114
46	0x3d23b145	0.03996398
47	0xbd41c3bd	-0.04730581
48	0x3d9bf24b	0.07614573
49	0x3de594ae	0.11209999
50	0x3b894666	0.0041893004
51	0xbdb6edc7	-0.08932071
52	0xbe6dcde0	-0.23223066
53	0x3d0c4cbb	0.034252863
54	0x3af366f0	0.0018570106
55	0x3ad961d3	0.001658494
56	0xbdd060ef	-0.101747386
57	0x3d1c0ba3	0.038097035
58	0x3b89e602	0.0042083273
59	0x3da1e6b5	0.07905332
60	0x3d4cf3b4	0.0500371
61	0x3b18624b	0.0023251947
62	0x3daa199d	0.083056666
63	0xbba4cf2c	-0.0050295796
64	0x99c6038a	-2.047415e-23
65	0xa34d4e85	-1.11296994e-17
66	0xb3f870f0	-1.1568943e-07
67	0xb610e3a7	-2.1590183e-06
68	0xa694123c	-1.0274505e-15
69	0xa6f622fc	-1.7079162e-15
70	0xb71461bb	-8.844242e-06
71	0x9b146934	-1.2276266e-22
72	0x8208b9b7	-1.0045e-37
73	0xb78e0bad	-1.6933156e-05
74	0x9f70c424	-5.098422e-20
75	0xa6a1c15f	-1.1224033e-15
76	0xacd3516f	-6.0060216e-12
77	0xa89c1dbc	-1.7332374e-14
78	0xab474d90	-7.080664e-13
79	0xa955a7fe	-4.744121e-14
80	0xa4fa9ed8	-1.0868931e-16
81	0xb25db69f	-1.2905416e-08
82	0x98e85a8c	-6.0062023e-24
83	0xb60158d6	-1.9274207e-06
84	0xb32a59f4	-3.966302e-08
85	0x8020c9b4	-3.011093e-39
86	0xa8948d0a	-1.6492467e-14
87	0xafa89952	-3.0667963e-10
88	0xb77796de	-1.4757474e-05
89	0xb5b2c57f	-1.3319512e-06
90	0x92f16c71	-1.5235971e-27
91	0xb10fccec	-2.0925723e-09
92	0xb24f6710	-1.20724195e-08
93	0xaf311ed5	-1.610901e-10
94	0xb6295d05	-2.5237107e-06
95	0xb70fcc9b	-8.571103e-06
96	0xb6955e31	-4.4515114e-06
97	0xb4561d56	-1.9940975e-07
98	0xae4f4555	-4.712793e-11
99	0x8ebf331a	-4.7134344e-30
100	0xa56762e4	-2.0069562e-16
101	0xab67ca8a	-8.2348765e-13
102	0xac929ced	-4.166992e-12
103	0xb3be548f	-8.8629456e-08
104	0xb7e63e49	-2.744714e-05
105	0xafaeab58	-3.1772163e-10
106	0xb6159146	-2.228729e-06
107	0xb16f65fc	-3.4837049e-09
108	0xb5ed7356	-1.7691443e-06
109	0x9c822545	-8.612312e-22
110	0xb4587766	-2.0160005e-07
111	0xafcaa866	-3.686324e-10
112	0xa6887440	-9.468405e-16
113	0xb56401a8	-8.493903e-07
114	0x982a1907	-2.198462e-24
115	0x8031ed99	-4.585173e-39
116	0xa9150596	-3.308949e-14
117	0xae0fecb9	-3.2724688e-11
118	0xa0eaf3f4	-3.9802577e-19
119	0x0238aec8	1.3568345e-37
120	0xb2f4510c	-2.8442194e-08
121	0xb3005ceb	-2.988683e-08
122	0xa93344d8	-3.9805697e-14
123	0xb556fccb	-8.0089075e-07
124	0xb1b32d5d	-5.214743e-09
125	0x012a4bc0	3.1278417e-38
126	0xb54c9bdd	-7.6222733e-07
127	0xb5a3b942	-1.2198363e-06
128	0xbaf2394e	-0.0018480213
129	0xbbddf08d	-0.0067730607
130	0xbc005e2b	-0.007834951
131	0xbbead789	-0.007166807
132	0xbbb8ac21	-0.0056357537
133	0xba6da265	-0.0009065031
134	0xbb182b35	-0.0023219113
135	0xb9cf1caf	-0.00039503488
136	0x820c622d	-1.0313751e-37
137	0xbb72bc71	-0.003703859
138	0xbb2c071c	-0.0026249355
139	0xb9e11416	-0.0004293031
140	0xbc231d74	-0.009955753
141	0xbbdbb5f8	-0.006705042
142	0xbc3be50c	-0.011468183
143	0xbb6bb4cb	-0.0035965915
144	0xbb4fe9a0	-0.0031724945
145	0xbb52da1d	-0.0032173463
146	0xb9c035b3	-0.00036661103
147	0xbc959af9	-0.018262373
148	0xbb48992e	-0.003060888
149	0xbbb48b69	-0.005509783
150	0xbac6ddd2	-0.0015172309
151	0x39ef25be	0.00045613752
152	0xbc0c5517	-0.008565209
153	0xbafd5829	-0.0019328642
154	0xbc2830cf	-0.010265543
155	0xbb6ba20a	-0.0035954737
156	0xbb3ae02a	-0.002851496
157	0xbbed3268	-0.007238675
158	0xbb80d91e	-0.0039321324
159	0xbaa0a3e2	-0.0012255872
160	0xbbcd569c	-0.006266428
161	0xbb948938	-0.0045329593
162	0xbb708714	-0.0036701607
163	0xb91ebec5	-0.00015139121
164	0xbbba3fb5	-0.005683864
165	0xbc3a7307	-0.011379964
166	0xbc292716	-0.01032426
167	0xbab2fe4b	-0.0013656107
168	0xbbfb8c89	-0.007676665
169	0xbbf30f3c	-0.0074175876
170	0xbc8e0f4e	-0.017341282
171	0xbc5a8b15	-0.013338824
172	0xbc7e6074	-0.015525926
173	0xba337676	-0.000684596
174	0xbb9f9490	-0.004870005
175	0xbaf62495	-0.0018779213
176	0xbab84bc1	-0.0014060662
177	0xbb6aedad	-0.0035847232
178	0xba82c536	-0.0009976986
179	0xba213d36	-0.0006150784
180	0xb9595a1e	-0.00020728304
181	0xba0e7494	-0.00054342416
182	0xbc397b29	-0.011320868
183	0x12214ab8	5.089474e-28
184	0xbc25d311	-0.010121123
185	0xbb4e8f21	-0.0031518417
186	0x3aab5895	0.0013072664
187	0xbb5075ee	-0.0031808573
188	0xbb6ded84	-0.00363049
189	0xba5cd7cf	-0.0008424492
190	0xbb041fc4	-0.0020160535
191	0xbbb1c5d1	-0.005425193
192	0x3da05cef	0.07830226
193	0xbc009eb3	-0.007850337
194	0xbcdcda95	-0.026959697
195	0xbb7c25f8	-0.003847478
196	0x3cfeb3ab	0.031091532
197	0xbc7825b0	-0.015145704
198	0xbd3ab9d3	-0.045587372
199	0xbca50412	-0.020143542
200	0x01df5459	8.2038296e-38
201	0xbd90f965	-0.07078818
202	0x3daeb06e	0.08529745
203	0x3d812295	0.06305424
204	0x3d0b898a	0.034066714
205	0x3b42beca	0.002971577
206	0x3d5601f0	0.05224794
207	0xbdab417f	-0.08362102
208	0x3d8d128a	0.06888302
209	0xbd8b36a7	-0.067975335
210	0x3d9a3f6f	0.0753163
211	0x3dc3756d	0.095438816
212	0xbcdf1833	-0.027233219
213	0x3d1e01d1	0.03857595
214	0x3c3c3d11	0.011489169
215	0xbce0c9d9	-0.027439998
216	0xbb4727ab	-0.0030388634
217	0xbd33be8e	-0.0438829
218	0x3d30b5a1	0.043141965
219	0xbd7baa14	-0.061441496
220	0x3c9a8463	0.018861955
221	0xbc6f7bab	-0.014616887
222	0xbda9b05a	-0.082855895
223	0xbcd36929	-0.02580698
224	0xbd9105d5	-0.070811905
225	0xbd850fa5	-0.064971246
226	0xbcafba11	-0.021451028
227	0x3c25912b	0.0101054115
228	0x3d837851	0.06419433
229	0x3d5d2b53	0.053996395
230	0x3d407820	0.04698956
231	0xbaf90eb1	-0.0019001571
232	0xbde94391	-0.113898404
233	0x3b678ff2	0.00353336
234	0x3dbef491	0.09323991
235	0x3d4665d5	0.04843696
236	0x3d972978	0.073809564
237	0x3db345d5	0.08753554
238	0xbd35b985	-0.04436638
239	0xbcf785ec	-0.030215226
240	0xbd291d2c	-0.041287586
241	0x3c842bd0	0.016134173
242	0x3dabee24	0.08395031
243	0x3d41b89c	0.047295198
244	0xbd4038d6	-0.046929203
245	0xbc0c1d3d	-0.008551893
246	0x3d4a64f4	0.049412683
247	0x3ac98385	0.0015374279
248	0x3d26d191	0.0407272
249	0xbd5cf6ba	-0.053946234
250	0xbcd0eab3	-0.025502538
251	0xbcb3aecd	-0.021933937
252	0x3c1dbf84	0.00962818
253	0x3d8bdc96	0.06829183
254	0x3d58601f	0.052826043
255	0xbd9977f5	-0.07493583

decoder_lin.2.bias f4 [288]
0	0xbdd0564b	-0.10172709
1	0x01d41e61	7.792009e-38
2	0x3a93309a	0.0011229694
3	0x3d1827a1	0.037147168
4	0x3e5e2532	0.21693876
5	0x3e180727	0.14846478
6	0x3df63886	0.120225
7	0xbcd9fcc1	-0.02660978
8	0x3d7c1859	0.061546657
9	0x3d4802fc	0.04883097
10	0x3d5d2959	0.05399451
11	0x007f1564	1.1670782e-38
12	0x3d34d61d	0.044149507
13	0x3dbbb657	0.09165638
14	0xbe0192e6	-0.12653694
15	0xbc654dc8	-0.013995595
16	0xbdf73e5b	-0.1207244
17	0xb9a0cb08	-0.00030668848
18	0xbc09c70b	-0.008409272
19	0x3d85a738	0.06526035
20	0x3e7b5e2a	0.2454764
21	0xba5a13a8	-0.0008318969
22	0x3d97a545	0.074045695
23	0xbc54c34f	-0.012986018
24	0x3d66e1e4	0.05636777
25	0x3dbc6150	0.091982484
26	0x3e149cb8	0.14512908
27	0xbd90ece4	-0.07076433
28	0xad884079	-1.5490042e-11
29	0x3e1499d3	0.14511804
30	0xbd6c23e9	-0.057651434
31	0x3bb80280	0.0056155324
32	0x3eb9ff06	0.3632738
33	0xbd17afba	-0.03703282
34	0xbde19266	-0.110142514
35	0x3ebe376b	0.37151656
36	0xbd886afa	-0.06661029
37	0x3d8cde93	0.0687839
38	0x3dc52ff8	0.0962829
39	0xbd2567cd	-0.040382195
40	0x3d04ec2d	0.032451797
41	0x3d7cafeb	0.061691206
42	0xbcdde643	-0.027087336
43	0xbd34495a	-0.044015266
44	0x008d0bb3	1.2953002e-38
45	0xbba9ad05	-0.0051780962
46	0xa7691b11	-3.2349918e-15
47	0xbe07c1c3	-0.13257508
48	0xbe01bc8a	-0.12669578
49	0x3d7f2f98	0.06230125
50	0xbc8bcbe9	-0.017065005
51	0xbe0422a7	-0.12903844
52	0xbcbd74bf	-0.023126958
53	0xbe346960	-0.17618322
54	0x3df93f4d	0.12170277
55	0xbd604f86	-0.05476334
56	0x00ace0b1	1.587631e-38
57	0x3d6a6ab4	0.057230666
58	0xbe16ef6f	-0.14739774
59	0x3e2c50a0	0.16827631
60	0x3e36f8da	0.17868367
61	0x3b9ee2c9	0.0048488122
62	0xa9da5ce2	-9.6972574e-14
63	0x3ddc0ccb	0.107446276
64	0xbbd9ee31	-0.006650709
65	0x3e4d70cc	0.2006256
66	0x3d49061c	0.049078092
67	0x3e7ba543	0.24574761
68	0xa531aaf4	-1.5410224e-16
69	0xace9400f	-6.6293702e-12
70	0x815a0793	-4.004571e-38
71	0xbd27442c	-0.0408365
72	0x3d6139dd	0.054986823
73	0x3da0a5da	0.07844134
74	0x3e5446a3	0.20730071
75	0x3e576948	0.21036255
76	0xbb277910	-0.0025554337
77	0xbc3a4a0d	-0.011370194
78	0x010c0915	2.5720455e-38
79	0x3cb5b6f9	0.022181975
80	0x8196ca9f	-5.5392045e-38
81	0xbc9a40aa	-0.018829662
82	0x3df1375b	0.11778136
83	0xbd2353eb	-0.039874952
84	0xbd5cbea4	-0.053892747
85	0x3d79c91d	0.060982812
86	0x3d7c7c1c	0.061641797
87	0xbd77e02e	-0.06051653
88	0xbd234095	-0.039856512
89	0xbd0acb06	-0.033885024
90	0x3dc73ad0	0.097280145
91	0x3c9fe1fa	0.019516934
92	0x3e74a15a	0.23889676
93	0xa11932b3	-5.1905516e-19
94	0x3cb62ca2	0.02223808
95	0xb0236537	-5.944289e-10
96	0x3e6bd1b0	0.23029208
97	0x3e6f00c5	0.23340137
98	0x3e9b6f3d	0.30358306
99	0x3d426cdd	0.0474671
100	0x01b8abfc	6.783771e-38
101	0xbdbcc854	-0.09217897
102	0x3dbdab53	0.09261193
103	0x3c1c4164	0.009537075
104	0x3da3996d	0.07988248
105	0xbd0d5294	-0.03450258
106	0x3d006aca	0.031351842
107	0x3d92acda	0.07161875
108	0xbc85cade	-0.016332086
109	0x3d3a1e40	0.045439005
110	0x3e838b1a	0.25692064
111	0x3ccc8ee6	0.024970483
112	0x3ea4ff1a	0.32225877
113	0x3daf5586	0.08561234
114	0x3ea3f4c3	0.32022676
115	0x3cea50c6	0.028602969
116	0x3db541b4	0.088504225
117	0x3e00b6f2	0.12569788
118	0x3ea5eb5c	0.32406127
119	0x3e15882d	0.14602728
120	0x3e5c55cb	0.21517102
121	0x817fa07c	-4.6951245e-38
122	0x3d536af4	0.05161567
123	0x3e579b42	0.2105532
124	0xb25df681	-1.2919942e-08
125	0x9954a26f	-1.0992946e-23
126	0xbcd92c68	-0.026510432
127	0xbb9c231c	-0.0047649276
128	0x9450aae7	-1.0535021e-26
129	0x3d28de41	0.041227583
130	0x3cf2a025	0.029617378
131	0x81a88cfa	-6.1915745e-38
132	0x3de95000	0.11392212
133	0xbdf31d0d	-0.11870775
134	0x3dd8a018	0.105774105
135	0xbca08ed2	-0.019599352
136	0xbe1e5073	-0.15460376
137	0xbde7e7d9	-0.11323518
138	0x3cf78827	0.03021629
139	0xbf0266c9	-0.5093809
140	0xbe3bdfbe	-0.1834707
141	0x3d07b5e9	0.033132467
142	0xbd8a5345	-0.06754164
143	0x3e856c10	0.26059008
144	0x3dd993b2	0.10623874
145	0x3d213004	0.039352432
146	0x3d12a5d0	0.035802662
147	0x3e524507	0.20534144
148	0x3dddddf0	0.10833347
149	0xbdf8269a	-0.12116738
150	0x3d1feca0	0.039044023
151	0xbcda7d19	-0.02667098
152	0xbe3a095a	-0.1816763
153	0x3d4a72a2	0.04942573
154	0xbe411be4	-0.18858296
155	0xbd8ce9e6	-0.0688055
156	0x3d19095b	0.037362438
157	0xbe9a748a	-0.30167037
158	0xbd6b1ca8	-0.057400376
159	0x3ea7a8e2	0.32746035
160	0x3d09257a	0.033483006
161	0xbe16998b	-0.1470701
162	0xa3f5b997	-2.6641554e-17
163	0x3d97e245	0.07416204
164	0xbcc6118c	-0.024178289
165	0xbcfffcf4	-0.031248547
166	0xbe4b435c	-0.19849914
167	0xbe20e611	-0.15712763
168	0x3d026d9f	0.031842824
169	0x3dc31505	0.095254935
170	0xbdb0e226	-0.086368844
171	0x3da99586	0.082804725
172	0xb9ddea30	-0.00042326888
173	0x3e8d006f	0.27539393
174	0x3b4b60a9	0.0031032956
175	0xb4a14c49	-3.0044092e-07
176	0xadb307c7	-2.0353398e-11
177	0x3ca42f80	0.020042181
178	0xbcc95ef1	-0.024581404
179	0xbe0ed666	-0.13948974
180	0x3d342c6a	0.04398767
181	0xa384add2	-1.4385084e-17
182	0xb7fb7e68	-2.9980394e-05
183	0x01887167	5.0121234e-38
184	0xbd19f30a	-0.037585296
185	0x3e6e2204	0.23255163
186	0x3dee8e8f	0.11648285
187	0x0196d485	5.540625e-38
188	0xbc016f86	-0.007900124
189	0x9f00dd46	-2.7288087e-20
190	0xba517f52	-0.00079916895
191	0x3deb02c9	0.114751406
192	0x2cf29012	6.8940487e-12
193	0x3e2bbe54	0.16771823
194	0x3db734fd	0.089456536
195	0x3d22b4c0	0.039723158
196	0x3e0e49ee	0.1389539
197	0xbd75666b	-0.059912127
198	0x3ab1ab89	0.001355515
199	0x01f71c1c	9.0773805e-38
200	0xb0fa3275	-1.8204235e-09
201	0x3dd00622	0.1015742
202	0x3d9ea707	0.07746702
203	0xbbcc1f8f	-0.006229348
204	0x3cef5d62	0.029219333
205	0x3cf48146	0.029846799
206	0x3d1e5ff4	0.038665727
207	0x3da76055	0.08172671
208	0x3cc26769	0.02373095
209	0x3e5d1e7f	0.21593665
210	0x3dbe7a16	0.0930063
211	0x3d2f654e	0.04282122
212	0x3db8a666	0.09016113
213	0xbc7e1c02	-0.015509607
214	0x817158d2	-4.4328435e-38
215	0xbe22baa3	-0.15891509
216	0xbacc29ee	-0.0015576461
217	0xbe181feb	-0.14855926
218	0x3eb37915	0.35053316
219	0x3d24d6d3	0.040243935
220	0xbe8e93fb	-0.27847275
221	0xbdcbf83b	-0.099594556
222	0x3df2d9ab	0.11857923
223	0xbd4003b2	-0.046878524
224	0xbe1679eb	-0.14694946
225	0x3c4e0372	0.012574064
226	0xbc776b36	-0.015101245
227	0x92351b51	-5.71472e-28
228	0x3dc0bdce	0.09411202
229	0xbdb56155	-0.08856455
230	0x96dd8431	-3.57879e-25
231	0x3d4a5d5e	0.04940545
232	0xbe81edf0	-0.25376844
233	0x81980cb5	-5.5854215e-38
234	0x3c093e7d	0.008376715
235	0xbc4fb193	-0.012676614
236	0xbc3643be	-0.011124549
237	0xbe0a9b34	-0.13535768
238	0xbe3ba36f	-0.18324064
239	0xbb9d1bd3	-0.0047945767
240	0xbdfca414	-0.12335983
241	0xbc78216f	-0.01514469
242	0xbe299133	-0.16559295
243	0xbdb73337	-0.08945315
244	0xbdb84172	-0.08996858
245	0x3c1c504f	0.009540631
246	0xbd4ae9bd	-0.049539316
247	0xbc227694	-0.009915967
248	0x3de46c1f	0.11153435
249	0xbd4d5bb4	-0.050136283
250	0x3dce6a89	0.10078914
251	0x3eab63d5	0.33474603
252	0x3ca2c0f4	0.019867398
253	0xa030c933	-1.4974351e-19
254	0x3dc2f958	0.09520215
255	0x3e11b179	0.14227857
