2. Convolutional Autoencoders/models/autoencoder.pth (torch, 203433 bytes, 19 tensors)

encoder_conv.0.weight f4 [8, 1, 3, 3]
00000000: d6b6 803d fb00 bebc 6f4e 85be a65d 47bd
00000010: 5e84 503e 6926 853d 1232 843c 4b0a 3ebe
00000020: 8c87 8fbd ad44 72be f261 eebd 3cf2 3b3e
00000030: f4e4 96be abd1 a33b 0823 9bbe 05f3 0d3d
00000040: 718d 843e 636a d13a 1cda 233e 119c 95bd
00000050: fbc9 813c 2afb 123e a07b f5bd ee7e 203d
00000060: b371 0d3e 0c57 cd3d a213 74be 7197 963e
00000070: cac1 9b3e a0bd ea3b b65e d03d d79e a1bd
00000080: c905 ae3e 7b81 e83d ab8e 17be 62a8 533e
00000090: 353b 2437 a14f 64a9 4d95 6a2c e7d9 99bd
000000a0: 9667 4cb4 6d00 cfbd 7966 8abb e0ee 4cbd
000000b0: a88c 05bd 0ee8 013e e318 01bd 5f9a b73e
000000c0: 0fa3 38be 47ba 00be 2156 03bd c04c 5c3e
000000d0: 0adc d9bd f8e9 193e 33a0 6cbe bde3 7c3e
000000e0: 00b1 66be cd43 82bd e976 4fbd 3ced cc3d
000000f0: 5823 943e fffe 783e e923 85bd 3f03 4f3d
00000100: 13cc 7c3d 7147 ec3c 2380 303d b775 b53e
00000110: bf6f 913e 2938 ad3c dafd 34bd f8a1 30be
0.06284873 -0.023193827 -0.26036403 -0.048673294 0.20362994 0.06501467 0.016137157 -0.18558614
-0.070082754 -0.2365901 -0.11639775 0.18354124 -0.29471552 0.0049993596 -0.30300164 0.03465559
0.2588916 0.001597714 0.16001171 -0.07305158 0.015843382 0.14353624 -0.1198647 0.03918355
0.13812904 0.100263685 -0.23835614 0.29412416 0.30421287 0.0071637183 0.10174315 -0.078916244
0.3398879 0.113528214 -0.14800517 0.20669702 9.788947e-06 -5.0695237e-14 3.3336279e-12 -0.07512265
-1.9036665e-07 -0.10107503 -0.0042236415 -0.050032496 -0.032604843 0.12686178 -0.031517874 0.35859963
-0.18030952 -0.12571059 -0.03206456 0.21513653 -0.10637672 0.15030658 -0.23107986 0.2469625
-0.22528458 -0.06360588 -0.05065051 0.10006186 0.28933215 0.24316023 -0.0650099 0.050540205
0.061718058 0.02884266 0.04309095 0.35441372 0.28405568 0.021144943 -0.044187404 -0.17249286

encoder_conv.0.bias f4 [8]
00000000: 2950 4c3e 0c8f a43e 01b5 b63d cb40 00be
00000010: d188 e8bd 2083 27bd aeab 9d38 464a 0cbe
0.19952454 0.32140386 0.089212425 -0.12524717 -0.11354221 -0.040896535 7.518321e-05 -0.13700208

encoder_conv.2.weight f4 [16, 8, 3, 3]
00000000: f3ff 7cb7 51b7 71b8 a7be 22a8 5961 2428
00000010: 30dc 31ba 24ab 9f25 4d05 26ae 3129 4738
00000020: 9bc0 e2b9 d940 fe37 fd36 7829 9b95 2e2b
00000030: 8f7a 81b9 262e c2a7 e3b1 a2a8 37ff 72a8
00000040: 6b58 23a8 b5d0 8a28 3ed8 802f 20d8 16b9
00000050: 3f7e 21ad 77ba e0a8 8f8e 31b8 eab2 29ba
00000060: 29f7 21b7 c1ac f7ab e86b 7faa 015a 3baa
00000070: fcd2 3e3a 7efd 7d29 e46d c3b9 ec63 30af
00000080: 5fa6 56ba 26d1 3326 715f 7c31 0aee 29ac
00000090: b025 fb29 584d 023b c2d9 30ad 00b7 c12b
000000a0: 1789 27aa 5a8d 2bab 4fef 97a7 3c8b b5ad
000000b0: f1be 74b7 1343 1230 d24e baae a160 acb7
000000c0: e709 87a9 e858 9e2b acdb a63a 8b01 69b8
000000d0: 1f89 873a 45f3 8fba 38b0 a5b7 0184 f835
000000e0: 76c6 14bb 78f4 63b4 4255 70b7 7624 1936
000000f0: 97af ba34 0ddc 03b6 54d4 65aa 3c2c cc37
00000100: d0d4 0fbb d4b6 3027 29a5 b225 fbb4 54ba
00000110: 4d7b 48ac e3c4 a538 d48a f1a8 2c59 3daf
00000120: 1452 d33d a86d d73d f9c3 1b3d 2dcf 183e
00000130: a889 963d d555 183e 1454 e23d 0c5b 7a3d
00000140: deed 393d cf89 a23d a88b 6e3d 2e83 fc3d
00000150: cfe3 ac3d 1c39 e43d a770 e83d 5df0 a53d
00000160: cf9a bb3d 82b1 233e 6600 f7bc 5532 bd3d
00000170: 68e0 403d 8af1 993d f669 6e3c bd5f 1dbd
00000180: 067f 57bd 88fc 903c 842f b43d 28ca 93bd
00000190: f957 f5bb c893 b6bd 24eb 8cbb feec 96bd
000001a0: 2aaf 323d a9bb 5d3d 9b63 4ebd e25a 85bc
000001b0: 5ffe a4a9 5e2f f439 c9b5 aea9 94ab 4ca9
000001c0: 9245 332b 3249 8229 0f34 6f3a 2379 1829
000001d0: d27b d830 6d09 d93d 13be 853c 910c b03c
000001e0: 48e6 7b3d e79b f13b adc7 8ebc 48e1 a23c
000001f0: eb05 6ebd f8cc 80bb a6bc f4bc 6dcc e0bd
00000200: 0427 603b e780 7cbd 5749 adbc e40d 00bb
00000210: 68ea 8dbd 5845 43bd c645 473c 02b2 d83d
00000220: 09bd a2b8 6887 dc3d acf0 98bd 7167 f3bd
00000230: c58c b9bc 1b49 673c 945b 33bc 2bba 173d
00000240: bd92 0c3e e634 b63d 1a05 2a3c 7283 d53d
00000250: 6d65 983d f674 1a3d 5fb6 373e e890 c93d
00000260: 8055 113e 6077 163e e165 2f3d 26d3 ed3d
00000270: f8cc a03a a6ec 2f3e e707 153e 879b 95bc
00000280: a6ab 103e 0312 eb3d eb5d a73d 916c 70bc
00000290: 30b3 72bd 6449 293c 805f aa3c 4675 b6bb
000002a0: 86c5 193d bc44 c93c 5bdf c33c 12d2 293d
000002b0: 33d7 65bd f3f7 babc ba36 3abd 117b 5ebd
000002c0: 9fa1 943d d7b5 b13d ae02 b7bd 8aea 8b3c
000002d0: fd76 07aa 1c14 e2ad c64d 95b0 5958 ff27
000002e0: 239c 5931 eee5 023b add2 2bb9 a825 97b8
000002f0: a4f6 aba8 8db0 543c 3556 163c 60fc b33d
00000300: 4613 ec3c 9075 823c f027 ad3d 7024 b6bd
00000310: 09fa b9bc 1503 483d 03ff 233c fa78 08be
00000320: 0abf eebd 8ffb 873d adba 03bd 9ece 2abd
00000330: 1396 933c d121 d4bd 3aba 363c 305d c03d
00000340: fa30 163b 8f62 08bc f12d 70bd 8494 05be
00000350: c28d c8bc bd6b 233d fea8 f4bc 0d13 603c
00000360: 4d06 ca3d 1b3d c23d 9ddb a83d 32d1 873c
00000370: c6f0 0b3e 8692 eb3d e27a ca3d 3ade ed3d
00000380: affc 9b3d 6a6c 203e 6a09 3b3d 6c27 6d3c
00000390: 7709 1b3d e60c 093e ed7f ea39 8760 9e3d
000003a0: 15e7 423d 0aa3 a83d 1737 5f3d 0991 173d
000003b0: c48a 1b3d c966 203d 2cf1 b53d 790e 333d
000003c0: bfb4 203d f28b 883d 12e7 503d ed67 1f3d
000003d0: cdd5 66bd 02ea 343c 79b0 aa3c 272a 8bbc
000003e0: 1835 16bd 6a7e 1e3d f5e3 04be b823 deba
000003f0: 37bb 91ba eb19 17b9 601c a329 1f53 0bbb
-1.5079963e-05 -5.7629604e-05 -9.034148e-15 9.124938e-15 -0.00067848247 2.7698073e-16 -3.7748738e-11 4.748366e-05
-0.0004324958 3.0309357e-05 5.5114757e-14 6.202484e-13 -0.0002469611 -5.389585e-15 -1.8062759e-14 -1.34890395e-14
-9.06749e-15 1.541159e-14 2.3436714e-10 -0.00014385628 -9.179823e-12 -2.4949862e-14 -4.2332857e-05 -0.00064734987
-9.653894e-06 -1.7598354e-12 -2.2685987e-13 -1.6640163e-13 0.0007279364 5.6397154e-14 -0.00037275173 -1.6042606e-10
-0.00081882434 6.238655e-16 3.6725079e-09 -2.4148483e-12 1.1153177e-13 0.0019882526 -1.0052794e-11 1.3764268e-12
-1.4880142e-13 -6.094757e-13 -4.217038e-15 -2.063915e-11 -1.458799e-05 5.320981e-10 -8.472302e-11 -2.0548994e-05
-5.996922e-14 1.1251252e-12 0.0012730262 -5.5552966e-05 0.0010340548 -0.0010982534 -1.9751591e-05 1.8515858e-06
-0.00227013 -2.122996e-07 -1.4324965e-05 2.282e-06 3.4772958e-07 -1.9648608e-06 -2.0412952e-13 2.4339293e-05
-0.0021946914 2.4524018e-15 3.0989995e-16 -0.00081141264 -2.8490155e-12 7.904486e-05 -2.6816582e-14 -1.722113e-10
0.103183895 0.10518962 0.03802869 0.14922781 0.073504746 0.14876492 0.11051193 0.061121985
0.045392863 0.07936441 0.058238655 0.12329708 0.084418885 0.11143705 0.11349612 0.08102486
0.09160387 0.15985683 -0.030151557 0.09238116 0.04708901 0.07516773 0.01455163 -0.03842138
-0.052611373 0.017698541 0.087981254 -0.072162926 -0.007487294 -0.08914906 -0.004300492 -0.073694214
0.04362408 0.054134045 -0.05038796 -0.016278688 -7.3271894e-14 0.00046574598 -7.758687e-14 -4.544592e-14
6.3690123e-13 5.785857e-14 0.0009124884 3.385585e-14 1.575126e-09 0.10597501 0.016325986 0.021490367
0.06149891 0.0073733213 -0.017429197 0.019882813 -0.058111113 -0.003930684 -0.02987511 -0.10976491
0.0034202943 -0.06164637 -0.021153135 -0.001953953 -0.06929475 -0.047673553 0.012162631 0.10580827
-7.7599725e-05 0.10768014 -0.074677795 -0.11884964 -0.022650132 0.014116551 -0.010947127 0.037042778
0.13727851 0.08896808 0.010377193 0.10425462 0.074412204 0.0377092 0.17940663 0.09842092
0.14192772 0.14693975 0.04282177 0.11612539 0.0012268117 0.17180118 0.14553796 -0.018262638
0.14127979 0.11478045 0.0817221 -0.014674322 -0.059252918 0.010332439 0.020797491 -0.0055681793
0.03754189 0.024568908 0.023910215 0.041460104 -0.056113433 -0.02282331 -0.045462348 -0.054316584
0.07257389 0.08677261 -0.08936058 0.01707961 -1.2031691e-13 -2.5702156e-11 -1.0863281e-09 7.0872505e-15
3.166641e-09 0.0019973475 -0.00016386314 -7.207255e-05 -1.9091777e-14 0.012981546 0.009175827 0.08788371
0.028817784 0.015925199 0.08454883 -0.08893669 -0.022702234 0.048831064 0.01000953 -0.13327399
-0.116575316 0.06639778 -0.03216045 -0.04170095 0.018015897 -0.103580125 0.011152798 0.09392774
0.0022917376 -0.008324279 -0.058637563 -0.13044935 -0.024481658 0.03989767 -0.029865738 0.013676417
0.09864483 0.09484311 0.08245013 0.016579244 0.13666067 0.115025565 0.09886719 0.11614652
0.07616555 0.15666357 0.045663275 0.014474731 0.037850823 0.13383827 0.0004472727 0.07733255
0.04758366 0.08234222 0.054495897 0.03700355 0.037974134 0.039160524 0.088838905 0.043714974
0.039234873 0.066673175 0.051001616 0.03891747 -0.05635624 0.01104212 0.020836102 -0.016987873
-0.036671728 0.038694777 -0.12977584 -0.0016947901 -0.0011118416 -0.00014410137 7.2435764e-14 -0.002125926

encoder_conv.2.bias f4 [16]
00000000: 92ab 05bb e6bb 153e 903c a03d fd88 043e
00000010: 436e b43d f776 633d f51a a73d ace4 833d
00000020: 74b5 4b3d 85b4 ac3d 691d 073c 1222 483d
00000030: 2f4f 713d f84d 7b3d 6f3c 753d cacd f93d
-0.0020396453 0.14622459 0.078240514 0.12942882 0.08810093 0.055533376 0.081594385 0.064401
0.049733594 0.08432869 0.008246758 0.048860617 0.058913406 0.061353654 0.059872087 0.12197454

encoder_conv.4.weight f4 [32, 16, 3, 3]
00000000: 88be adb5 b852 c52a 7dd9 a1ad 09eb 6caf
00000010: 8a79 542a 32ba 0cab 2334 4ab1 15ea 79b6
00000020: 4987 7fa9 59fa 393d e90d 913c 4d16 843d
00000030: 8188 863d 23ca 513d 39fd 883d 2293 013d
00000040: 6744 393a 518d 8e3d 6516 0d3d ad2f 943d
00000050: 79c7 713c 955e 603d 11c2 a43d aca6 8a3d
00000060: 31c5 1f3c d5a0 fc3c 56a5 893d fabc 133d
00000070: 93fe 523d 4116 ed3c dfb5 a13d cbe5 4f3d
00000080: 4722 fcba 7057 1b3d 7432 813c f7c7 db3b
00000090: f895 193d 9308 523d 1c45 223d 58b8 cb3d
000000a0: 025d 943d 6c0b 803d 0342 543d fa4a 883d
000000b0: f674 733d 52f0 cd3c 5ea9 fb3d ccf4 0e3d
000000c0: 592e b83d eea5 d93d f65c de3d 4cf8 5b3d
000000d0: cd05 3f3d 74f3 8e3d ac9a bc3c 9392 ce3d
000000e0: b583 343d 5120 9a3d d048 d33d 4722 973c
000000f0: 6e68 163d 796f 383d 6536 4b3d 03a1 1a3d
00000100: 1c4d 713d 91f2 ae3d 5ed6 773d 73f6 d93d
00000110: 4eb3 763d 4330 383d 4af8 8b3d 5228 513d
00000120: a4e8 dbbb ac4f 703d 5378 5f3d ab66 633d
00000130: de79 c23c 0c76 c63d d06b 323d cdd3 303c
00000140: af72 08bc a0af ec3c bce5 c43d 87b2 883c
00000150: 6fa8 c13c 7c34 4d3d 3550 893d 07e2 193d
00000160: 4d8c b63d 2929 383d 6434 813b 4a76 933d
00000170: 3918 193d 227d 313d 4b76 053e c814 c23d
00000180: 3dc4 c93b 1160 983d 9aee df3a b777 d33c
00000190: b420 9a3d 80ff a73c d4a1 853d e635 903d
000001a0: b9fe 8d3d 1394 4c3d 72b4 df3d abee a83d
000001b0: 42d4 d13c 7d75 e0bc 87b2 32bd ac9b f0bc
000001c0: 404d 82bd b96c 9cbd 7ee5 253d 8db9 83bd
000001d0: 1571 d9bc 0809 a83d 4139 68bc d48f 393c
000001e0: 3500 2d3d db27 18bd 70fe ddbc 7cad a43d
000001f0: dca5 8bbc 7391 e63b ba14 283d c76d be3d
00000200: 2d90 c13d 968b ab3c cb90 073d f819 ab3d
00000210: de2a 1abc 1517 d63d 4cbe b63d 7b48 933d
00000220: 2537 173d e865 433c 919c 813d 77fc 693d
00000230: d284 be3d 9ffe 5a3d 9f6b 0e3d 263d a13a
00000240: f883 1d38 b630 b2b3 f4c7 b9a8 ea85 0136
00000250: b5d3 03b7 8ee2 0b2f dba0 c229 72e5 6a34
00000260: e917 dba7 2879 a2bd 5eab 1cbe c9b1 d8bc
00000270: 3ef4 b9bd 1854 79be 4ae1 c1bd 81e3 cbbd
00000280: b891 73be a00c 13be 8482 c6bd d36a 0bbe
00000290: b768 b8bd e832 9fbd 5fff 5abe c7c2 3bbe
000002a0: a5dc 5abd b391 53be a899 59be 4bca 17be
000002b0: 0dbb 28be 66b8 97bd ce0f 1bbe f48a 84be
000002c0: f56c febd 7628 10be 545e 72be 39d1 35be
000002d0: 11ac 13be cada 17be c0cd f2bd 472e a6bd
000002e0: 968c 5cbe 4c84 31be 22f6 c1bd 71df 4cbe
000002f0: 136f 62be dfad 95bd e8cb d2bd d67c a8bd
00000300: d01e 99bb a59e 39be 33d6 1bbe 7964 65bb
00000310: cb56 1cbe af50 5abe 1725 b7bd dfe8 263c
00000320: 85d1 35bd 12ed eabd e541 2abb 4beb ecbd
00000330: 5d0f 73bd beba 09bc 38d4 46be 3c88 14be
00000340: 6a65 1abe f7c6 fabc 1098 16be 0552 4dbe
00000350: da83 9abd 309e 02be 19ec 25be 90b8 1abe
00000360: 4007 e7bd b7fe 02be cb0b bbbd 42f7 c7bd
00000370: 883a 4fbe 8acf 2abe 8ec1 acbd d5e3 55be
00000380: 6cc1 72be 7352 cebd 97c7 0ebd fa0c adbd
00000390: d7ea 98bd 2c4e c53b ea1c f2bd 60e8 2ebc
000003a0: 74df 9c3a 1d8d 34be 625a c9bd 4b87 f93c
000003b0: 7ff6 6abd 437d a1bd 4e85 14bc a061 dfbd
000003c0: fa8e 99bb 150a 963c f5d8 1ebe 9d5d 7ebd
000003d0: dc7a 9b3b a905 c2bd 087e 29bd 490c 1fbc
000003e0: 7e3e 00be e8f3 b43c 51d6 3d3b f692 17be
000003f0: 46a2 a13d eb35 2c3e 6a62 043e cbff 013e
-1.2944956e-06 3.5051627e-13 -1.8400165e-11 -2.1547576e-10 1.887155e-13 -4.999639e-13 -2.9424505e-09 -3.7240145e-06
-5.6738715e-14 0.045404766 0.017706828 0.06449566 0.06569005 0.051218163 0.066889234 0.031634457
0.00070673827 0.06960548 0.034445185 0.07235656 0.014757031 0.0547777 0.08044828 0.067700714
0.009751604 0.03083841 0.067209885 0.036068894 0.051512312 0.028941276 0.07896017 0.050756257
-0.001923629 0.037925184 0.015771128 0.0067071873 0.037496537 0.05127771 0.03961669 0.0994727
0.07244302 0.062521785 0.051820766 0.06654926 0.059437715 0.025139008 0.122881636 0.034901425
0.08993215 0.10627352 0.10857575 0.05370359 0.04663639 0.06980029 0.023022972 0.100865506
0.044070918 0.07525695 0.10316622 0.018448962 0.036720686 0.045028184 0.04961242 0.03775121
0.058911428 0.085423596 0.06050717 0.106427096 0.060229592 0.0449679 0.06834467 0.051063843
-0.0067110825 0.05866973 0.05455811 0.055517834 0.023739751 0.096904844 0.04355985 0.010792685
-0.008328124 0.028892338 0.09614131 0.016686691 0.023639886 0.05009888 0.067047514 0.037569072
0.08913479 0.04496113 0.003943013 0.07200296 0.037376616 0.043332227 0.13033406 0.0947662
0.0061574266 0.07440198 0.0017084659 0.02581392 0.07525769 0.020507574 0.06525007 0.0704153
0.0693335 0.049945902 0.10923089 0.08248647 0.025613908 -0.027399773 -0.04362729 -0.029371105
-0.063623905 -0.07637925 0.040502064 -0.064318754 -0.02654318 0.082048476 -0.014173807 0.011325795
0.042236526 -0.037147384 -0.027098864 0.08040902 -0.017046861 0.007036382 0.04103539 0.09298282
0.094513275 0.020940583 0.03309707 0.083545625 -0.009409634 0.10453621 0.08923015 0.07191559
0.036917824 0.011926152 0.06328691 0.057125535 0.09302677 0.05346548 0.034770604 0.0012301549
3.7554622e-05 -8.2976314e-08 -2.0625842e-14 1.9300446e-06 -7.8575e-06 1.2722465e-10 8.6432346e-14 2.187642e-07
-6.0810634e-15 -0.07933265 -0.15299746 -0.026451962 -0.090797886 -0.24348485 -0.094667986 -0.09955502
-0.23786056 -0.14360285 -0.09692863 -0.13614969 -0.09004348 -0.077733815 -0.21386479 -0.1833602
-0.05343308 -0.20661049 -0.21250021 -0.14823262 -0.16477604 -0.07408218 -0.15142748 -0.25887263
-0.12423126 -0.14077935 -0.23668796 -0.17755593 -0.14421107 -0.14829555 -0.1185565 -0.081142955
-0.21538004 -0.17335624 -0.09470774 -0.20007111 -0.22112684 -0.07308554 -0.10292798 -0.082269356
-0.0046728626 -0.18126924 -0.1521843 -0.0035002513 -0.15267484 -0.21319841 -0.08942621 0.010187357
-0.044389267 -0.11470999 -0.0025979218 -0.11568316 -0.059340823 -0.008406339 -0.19416893 -0.14505094
-0.15077749 -0.030612452 -0.14706445 -0.20050819 -0.0754468 -0.12755656 -0.16203345 -0.15109468
-0.1128068 -0.12792479 -0.09133109 -0.097639576 -0.20237172 -0.16680732 -0.08435355 -0.20887692
-0.23706597 -0.1007432 -0.034858312 -0.08449741 -0.07466667 0.0060212817 -0.11821921 -0.01067552
0.001196845 -0.17631955 -0.09831692 0.03046002 -0.057363983 -0.0788522 -0.009064985 -0.10907292
-0.0046862336 0.018315354 -0.1551245 -0.062100995 0.0047448706 -0.09473736 -0.04137996 -0.009707519
-0.12523839 0.02208896 0.0028966854 -0.14802155 0.07892279 0.16817443 0.12928167 0.12695234

encoder_conv.4.bias f4 [32]
00000000: 33bf c43d 4637 133c 2e00 a93d d1cb aa3c
00000010: b2ef de3d 53aa 953c 1998 c23d b428 a03d
00000020: 7914 9f3d 1910 db3d ceb4 be3b d44d a33d
00000030: 1fdd d93d a7fe bb3d 7c03 af3d 2b19 fb3d
00000040: e4bf ba3d a53d 893d e076 873d 588d 313d
00000050: 0728 453d faf7 0d3e af07 293d 648e cc3c
00000060: c202 a93c d8c5 333d 0451 dabc 95de c83d
00000070: 02e2 0c3d 3551 d9bb 57ec c63c 59f5 513d
0.09606781 0.008985346 0.082519874 0.02084914 0.10885562 0.018269693 0.095016666 0.078202635
0.07767577 0.1069643 0.0058198934 0.07973829 0.106378786 0.091794305 0.085455865 0.1226066
0.091186315 0.06701211 0.066144705 0.043347687 0.048133876 0.13864127 0.041267093 0.02497024
0.020631198 0.04388985 -0.02664996 0.09808079 0.034395225 -0.006631995 0.024282617 0.051259372

encoder_lin.0.weight f4 [64, 288]
00000000: e472 f13c 3d3f 4bbd 5cdf 4a3d aefc 623d
00000010: aa9b 2a3d 5b00 383d 7ab4 693d fea2 d33c
00000020: 8029 1a3d 0a14 2d3d b859 313e f8cb a6bc
00000030: 62d9 07be 1359 f13d 632e d3bd d571 9ebd
00000040: bdd4 153e a56f bfba 0fc1 c13c 2830 4bbc
00000050: 7c66 9a3c d5f9 7b3d 3fc3 593d 7e96 193d
00000060: 6d0b 503d 35e1 c73c a64d 553d fb26 47bc
00000070: dcea 1bbd aa64 b43c 6142 353d e784 1e3c
00000080: 7490 c03d a12a a33d b452 543d 7a64 503d
00000090: 8008 8c3c 75cc 12b9 cad3 313d df66 7d3d
000000a0: 259a 763c 589c 6c3d e603 393d d972 1e3d
000000b0: 302b 0c3d 2c0a 9dbc 72fa 22bd 91d3 c03c
000000c0: 47f9 253d 4762 473d c796 e13d 8eab 3e3d
000000d0: e812 463d 9993 723d 773a d5bc c296 9abc
000000e0: 6367 9f3b 874b 663c 2695 583d 3062 973d
000000f0: 4c36 4f3d 0a82 9dba bbaa 453d 8754 9abd
00000100: 508a 023d 18c1 dabd aafc 9cbd 7b03 46bd
00000110: 79e1 a8bd 1c2b debd 9ab1 a03c 1794 323d
00000120: e81b cd3c 976b b73c 7e50 e1bd 2c1d 603c
00000130: 2190 7cbd 98c2 16be 6c75 513c 015c e33d
00000140: 364c 21be 3138 dcbc 1408 8cbc 3531 0cbe
00000150: cdb6 73bd 08af 89bd c5bb e6bd c183 a1bd
00000160: 9afb 913d c6ef 6fbd 01a6 b1bc a8af a5bd
00000170: 7507 583c 8e91 253d 04f5 3d3d d13f 823d
00000180: c998 953d 00ce d53c 289a 433d 1587 dfbb
00000190: eab1 94bb b319 ed3b cfa8 543d b53a 5c3d
000001a0: 75d9 b13d 8630 933d 10f6 133d a55b 5c3d
000001b0: 0976 1abd 2456 0ebd 074c 14be 91bd 5ebd
000001c0: 2aae 85bd 5514 ccbd ed15 87bd a3c4 c73d
000001d0: fa8d c6bc ff88 88bd c2e5 9fbd 489f 01be
000001e0: f448 cdbc 7ceb 95bd ec77 80bb c4a3 9cbd
000001f0: 22c9 733d 53a8 b33d 529d 4fbc e961 99bc
00000200: 0d89 183d 09f7 543d a0e7 6d3d f922 a13d
00000210: 74da 003d 3d4e 573d 1d77 583d 0673 9b3c
00000220: 8454 94bb d6d1 1b3d cd19 343d 1bca 1d3d
00000230: 5cf6 b03d 7db8 9e3d 66a6 173c ca88 933d
00000240: 4d09 8bbc ad3e 8e3c 2948 ddbd 0eaa 2ebd
00000250: 571b 40bd 8e79 87bd 0ba8 75bd d5ae e23d
00000260: 4b5f 37bc 0ca7 56bc 66cb 3f3e ea16 89bd
00000270: c754 74bd 80c6 a93d 6cc2 2dbe 4190 6f3d
00000280: a760 063e 7bc3 9abd d41b 553b dbf5 d1bc
00000290: 8d25 db3b 866f 523d 9ee4 353d fac6 ab3d
000002a0: 5766 8a3d 3238 8b3c d3f7 e13c 93c0 8cbb
000002b0: 964c 88bb 5b1c 143d 7f72 993d 4285 6c3d
000002c0: f058 a23d 8295 063d 8100 093d 0aa5 9c3c
000002d0: c1eb ff3c cb2c 70bc c83c fb3b b1ff df3c
000002e0: ad7b 7a3d 6a57 8e3d 5fa5 e23c 4557 283d
000002f0: ed3c 5a3d a43d e8bd dd77 f1bd a148 9f3d
00000300: ced1 9fbd 70f3 73bd ffad e63d baa5 323c
00000310: 0fbe 45be 2045 2f3d 8480 49bd b3f1 313e
00000320: fdab 77bd 59e1 c0bd 6476 bc3d 1e80 3dbe
00000330: b386 2f3d 20e7 0a3e a0ba b4bd 3afc 9f3c
00000340: 4d55 acbc 31d7 163d 2410 6f3d 418b 853d
00000350: b39d ad3d e1fc 713d 5238 613c a1f8 6c3d
00000360: a773 07bd c7be 75bd c8a1 d73c 355d 033d
00000370: 2db0 3c3d 03d7 d33d 31e1 c53d 5177 e73c
00000380: 35b3 343d b1d2 42bd 77a6 803c a481 6bbd
00000390: dc20 49bd dc46 bdbc 5626 0ebd c6d1 b9bd
000003a0: 4733 303d dcb8 b23d 3503 0ebd 3007 8a3c
000003b0: 8bed 2c3d 5cda 41bd 35ab c63b 89bf 673d
000003c0: c1cd 5cbd 03e9 7c3d 117f 293e bedf 3e3c
000003d0: f1b7 9bbc 619a bd3c a825 3b3d 976e 663d
000003e0: 5870 5b3d 1629 813d 6ece b83c 38af d83c
000003f0: f224 4abc 7932 c9bc bc69 703c baf2 1b3d
0.02947373 -0.049620856 0.04952942 0.055416755 0.04165236 0.044922214 0.05705688 0.025834557
0.037637234 0.04225544 0.17319381 -0.020360932 -0.13266519 0.11784568 -0.10311582 -0.077365555
0.14631934 -0.0014605416 0.023651628 -0.012401618 0.018847696 0.061517555 0.053164717 0.037497036
0.050792146 0.02439938 0.052076004 -0.01215529 -0.038065776 0.022020657 0.044252757 0.009675241
0.09402552 0.07967115 0.051836684 0.050877072 0.017093897 -0.00013999811 0.04341487 0.061865684
0.015051399 0.05776629 0.045169733 0.038683746 0.034220874 -0.01916989 -0.039789625 0.023538383
0.040520933 0.04867771 0.110150866 0.046550326 0.048357874 0.05922279 -0.026028855 -0.018870715
0.0048646196 0.014056093 0.052876614 0.07391775 0.05058889 -0.0012016904 0.048258524 -0.075356536
0.031870186 -0.10681361 -0.07665379 -0.048343163 -0.082461305 -0.10848066 0.019615937 0.04359826
0.02503772 0.02239017 -0.11001681 0.01367883 -0.06166089 -0.14722669 0.012784343 0.11101533
-0.15751728 -0.026882263 -0.017093696 -0.13690646 -0.059500504 -0.06722838 -0.11266283 -0.07886458
0.07128067 -0.058578275 -0.021685602 -0.080901444 0.013185372 0.040422015 0.046376243 0.06359828
0.07304532 0.026099205 0.047754437 -0.006821523 -0.0045378106 0.0072357296 0.0519188 0.053766925
0.08684055 0.071869895 0.036123335 0.053798337 -0.037710223 -0.03475012 -0.14482127 -0.054380003
-0.0652736 -0.099648155 -0.06595979 0.09754302 -0.024237622 -0.06666755 -0.07807495 -0.12658417
-0.0250592 -0.07320306 -0.003920546 -0.07648423 0.059517987 0.0877234 -0.012671785 -0.018723445
0.037240077 0.051993404 0.058082223 0.07867999 0.031458333 0.05256485 0.05284797 0.018975746
-0.0045266766 0.038041912 0.043969918 0.03852282 0.08640739 0.07750032 0.009255981 0.07203825
-0.016972208 0.01736387 -0.10804779 -0.042642646 -0.046901073 -0.066149816 -0.05997471 0.11068503
-0.011192153 -0.0131013505 0.18729934 -0.06693824 -0.059651162 0.08289814 -0.16968697 0.05848718
0.13122807 -0.07556816 0.0032517808 -0.025629928 0.006687826 0.05137589 0.04440748 0.08387561
0.06757801 0.01699457 0.027583992 -0.0042954176 -0.0041595204 0.036159854 0.074925415 0.057744272
0.0792712 0.032857426 0.033447746 0.019121666 0.031240346 -0.014659117 0.007667158 0.027343603
0.061153103 0.06950267 0.027666746 0.04109885 0.05328076 -0.11339882 -0.1179044 0.07777525
-0.07803689 -0.059558332 0.11263656 0.01090377 -0.19310783 0.042790532 -0.049194828 0.17377357
-0.060466755 -0.09417982 0.09202269 -0.18505904 0.04285307 0.1356473 -0.088246584 0.01952945
-0.021036768 0.036826316 0.058365002 0.06520701 0.08477344 0.059079055 0.013746338 0.0578543
-0.03306928 -0.059996393 0.02632226 0.03207131 0.04606645 0.103437446 0.096620925 0.028255137
0.044116218 -0.047564212 0.015704377 -0.05749668 -0.049103603 -0.023105077 -0.03470453 -0.09073214
0.043017652 0.087266654 -0.034671027 0.01684913 0.042218726 -0.047327384 0.00606289 0.056579147
-0.05390716 0.061745655 0.16552378 0.011650024 -0.019008609 0.023144903 0.04569021 0.05625781
0.053573936 0.06306665 0.02255937 0.026450738 -0.01233791 -0.0245602 0.014673647 0.03807328

encoder_lin.0.bias f4 [64]
00000000: 26fe 533d 4f7b 89b6 11f1 7f3d 4370 fe3c
00000010: a4d6 913d d8ef a63c 7de8 a03d 7df5 aa3d
00000020: b442 593d a02c 643d 87d5 263d 2f72 613c
00000030: 6ba5 c838 43d6 d9bb a83d c93b 9396 06b4
00000040: 7bb1 a03d 45bd 2cbb 3858 fc3c adb7 5bba
00000050: e82f 903c 7610 a13d dc77 fe3c c5a5 753d
00000060: 555f 983d 6d0e 47bd 3ac5 ea39 4379 5d3d
00000070: b979 91af 9c8e 3731 7053 9b3c f004 593d
00000080: 806e 773d 4bfc d13d cab6 663d 6954 7e3d
00000090: 67e4 843d aa80 f2bc 9034 30b9 43bd 623d
000000a0: 32dc 31bc 5ef1 4aba bab1 1a3d bce7 0cbc
000000b0: 3b83 083d 804a 34bd 9349 933d e9a5 823d
000000c0: f548 75b9 3435 093d d06f 593d 2700 94ba
000000d0: 00cb 75bc 6f39 6f3d 53ad 4939 91c8 2fbd
000000e0: 677c c33d 9061 82bd adb5 d53d 9b60 923b
000000f0: 2538 2b3d e3c5 bb3d 0c68 f7ba 5496 24bd
0.051756047 -4.097273e-06 0.06248576 0.03105939 0.071210176 0.020378038 0.078568436 0.083476044
0.05304213 0.05570662 0.04073098 0.013760134 9.567555e-05 -0.0066478564 0.006141383 -1.2534501e-07
0.07846352 -0.002635793 0.030803785 -0.0008381557 0.017600968 0.07864468 0.031063013 0.059972543
0.07440058 -0.048597742 0.00044778903 0.054070722 -2.6461836e-10 2.671107e-09 0.018960685 0.052983224
0.060408115 0.10253199 0.056326665 0.06209222 0.06488877 -0.029602367 -0.00016804249 0.055356275
-0.010855721 -0.0007741655 0.03776715 -0.008600172 0.033328276 -0.04401636 0.071917675 0.06379301
-0.000233922 0.033498004 0.05308515 -0.0011291549 -0.015002012 0.058404382 0.00019233422 -0.042915884
0.09545212 -0.06366265 0.104350425 0.0044670827 0.04180159 0.09168603 -0.0018875613 -0.040182427

encoder_lin.2.weight f4 [2, 64]
00000000: cc55 3ebe 0490 703a 6325 c2bd ed66 6b3e
00000010: e707 0bbe 795e d839 65be 1ebe b72f f3bd
00000020: e969 58bc d4ec 1cbe 8c3d 2b3c 475d 53be
00000030: 8804 6fbb b476 103c f9f0 c8bd 7d43 25b8
00000040: 65a8 6dbd 83bf d3bd 129a 34be b7e2 8abb
00000050: 61b9 0cbd 2f7b 94bd 2a94 e1bd 63a5 e0bd
00000060: 05a3 ecbd 9bad 0e3e ceff 5ebe 90c9 11bb
00000070: 7871 462f 0b8e 88b9 e327 32bd 5784 3d3e
00000080: 062c 623d b7af 3dbe fbab 233d ba5f 963d
00000090: 0b00 253c 45b0 0cbe fc48 6aad 1216 1e3e
000000a0: 054e 44be 15ab e630 e5c9 00be 4462 a82b
000000b0: 3428 8e3c b222 63be f6fb 103e 77f0 733e
000000c0: 13fb b43a ef97 b23a fcdb 6c3e 06aa 48be
000000d0: d9e2 853c 86ae b0bd cbd4 153a 652c e4bd
000000e0: be38 0fbe d5cd 58be 2208 febd d518 833c
000000f0: 2ae2 26be cdec a0bd dd86 3ebe 3774 49be
00000100: 407c 48bc 5979 ce34 2421 b4bd c32c db3d
00000110: 9a01 29bd 438b 353e 5823 3fbd 2025 89bd
00000120: 0114 debd f197 0dbe 1433 05be 7c53 633d
00000130: 3dec 12bb 106c 053e 5ee1 15be 5df7 8036
00000140: 1e98 debd ed23 053e 5893 2ebd adad 26be
00000150: daa0 323e 1e38 24be 0e9f 233e 1a02 3cbd
00000160: 3692 30be 89d1 383e 9bd2 cabc 0019 663e
00000170: 416c a33a 3abd 13ba b1e2 97bd 0387 cb3c
00000180: a09a 543e 10d4 8dbd 518b 31be a23d 51be
00000190: 9c16 32be bdf4 073e 5480 5d3b bc7d f2bd
000001a0: 93e5 f23d f2c7 c23a 0e66 213e c49f 613a
000001b0: 8773 3d3e 4329 323d eeca 18be 5a96 09bc
000001c0: 6aa7 b4af 54d0 2f3e b345 363d dad9 3ebc
000001d0: 11ec bcbb a8e2 06be b1c1 3e39 1210 0dbe
000001e0: 95f8 bebd aa61 00be 9d08 38be 1d54 3f3e
000001f0: 056c 47bd bdf6 f8bd 4205 62bc 15e3 a13d
-0.18587416 0.00091767334 -0.09479787 0.22988482 -0.13577233 0.00041269118 -0.15502317 -0.11874335
-0.013208845 -0.15324718 0.010451686 -0.20641051 -0.0036471207 0.0088173635 -0.09811587 -3.940192e-05
-0.05802192 -0.10339262 -0.17636898 -0.0042384523 -0.03435648 -0.07250058 -0.11014588 -0.10969045
-0.11554531 0.13933413 -0.21777269 -0.0022245385 1.8048307e-10 -0.00026045772 -0.04349507 0.18507515
0.055217765 -0.18524061 0.039958935 0.07342477 0.010070811 -0.13739116 -1.3317566e-11 0.15438107
-0.19170387 1.6783327e-09 -0.12577017 1.1964392e-12 0.017353155 -0.22181204 0.14158615 0.23822199
0.0013807736 0.0013625602 0.23130792 -0.19596109 0.016343521 -0.08627038 0.00057156075 -0.1114128
-0.13986489 -0.21172269 -0.12403895 0.016003052 -0.16297212 -0.07857666 -0.18606134 -0.19673239
-0.012236655 3.8458782e-07 -0.087953836 0.10701897 -0.041261293 0.17728905 -0.046664566 -0.06696534
-0.10843659 -0.13827492 -0.13007766 0.05549954 -0.002241864 0.13029504 -0.14636752 3.843494e-06
-0.10868858 0.13001986 -0.042620987 -0.1627719 0.17444173 -0.16037032 0.15978643 -0.04590044
-0.17243275 0.18048681 -0.024758628 0.22470474 0.0012468175 -0.0005635802 -0.07416285 0.024844652
0.2076211 -0.06925213 -0.17338301 -0.20433667 -0.17391437 0.13276954 0.0033798413 -0.11840388
0.11860194 0.0014860614 0.15761587 0.0008606876 0.18501101 0.04349638 -0.14921162 -0.008397663
-3.2860764e-10 0.17169315 0.044500064 -0.01164862 -0.005765446 -0.131724 0.00018191968 -0.13775662
-0.09324757 -0.12537256 -0.17972036 0.1868443 -0.048687 -0.121564366 -0.013795199 0.079046406

encoder_lin.2.bias f4 [2]
00000000: 2805 29be 9c6a 3fbd
-0.16505873 -0.04673253

decoder_lin.0.weight f4 [64, 2]
00000000: 8f2b f53e a7a2 1abd d0c2 bd3d 7cc8 e1be
00000010: 5f6d 2dbf efc2 9cbb a668 b23c df45 f83e
00000020: e707 d1bd 2139 b73d e9d7 fabb 63b1 043c
00000030: 785b 0abf 2b9e 4f3e 7ce4 f6be 89bd 28bf
00000040: e7ff 19be ed53 6d3e c56c 1cbe 5bb9 dcbe
00000050: dec0 e83e 69f2 b6bd 1cb4 2a3f d583 213e
00000060: 55e9 073f 6d5b f5be 5902 b9be 8adf 033f
00000070: f09b 0a3f f274 06bf 2748 433e 8fad a6be
00000080: 1bd1 37bc 98a4 0dbf 4a32 31bf d7dc 8c3e
00000090: 1aea 3abf dc1b 2ebd ed32 293f 273e 9ebc
000000a0: 0854 eb3e 0a49 d2be a094 1bbf e44a a7be
000000b0: cc28 8d3e 2ac2 d63a 5da6 b73d 0735 2b3f
000000c0: 8837 83be f43b 36bf 9be8 e03d 5473 09bf
000000d0: bb9e 033e 809b 31bf 7b41 523e b3be d73e
000000e0: ead0 193f ec1d c5bd 1e21 1ebf 30a8 613e
000000f0: 655e 673d c903 003f 1ce7 86be a033 24be
00000100: fe00 27bf d53c 45be aadc 2abe f3c2 9dbe
00000110: be56 15bf 0cf0 dd3e 0950 34bf 4cfa 0b3f
00000120: ccfc 9dbe cb0f 31bf 425d b1bd f980 5b3e
00000130: 1f55 ad3e f07b d23d 45ef 253f 848d bcbe
00000140: 7543 4ebd c986 04bf fd27 e1be aa8b 28bf
00000150: b072 e6bc 7431 193f 3d92 b2be 8c9d 0abf
00000160: 9ab9 393f a160 17bd 0b26 213d 8a9f 323f
00000170: 68f2 23bf c042 823d 1a35 a03a aa95 fbb3
00000180: c9ac a93e ce99 9abe c053 0e3f 10cb 4d3d
00000190: 37e1 b43e 3839 8bbd 15e5 bebe b3d4 543e
000001a0: 3595 2abe 078b 093e 229d 8cbe a37f fbbe
000001b0: 28e6 303f 0616 d53e d9d0 1f3f cfe1 013d
000001c0: 9351 38bf 8448 f7be 003e 37bf 34de f3bd
000001d0: 4d90 4c3e ddf7 163e ce2d 363c a843 ae3e
000001e0: 5f35 b6be bf5e a63e 0cc6 43be d56b adbe
000001f0: 3f13 b43e ad70 eb3e 9c66 2bbf e475 a8be
0.47884795 -0.037752774 0.09265673 -0.4409827 -0.6774501 -0.00478398 0.021778416 0.48490807
-0.102065854 0.08946443 -0.007655133 0.008098933 -0.5404582 0.2027518 -0.48221195 -0.6591421
-0.15039025 0.23176546 -0.15275867 -0.43110165 0.45459646 -0.08932955 0.66681075 0.15772946
0.5309041 -0.47921315 -0.36134604 0.5151297 0.5414419 -0.52522194 0.19070493 -0.3255429
-0.011219288 -0.55329275 -0.6921736 0.27512237 -0.7301346 -0.042507038 0.6609333 -0.019316746
0.45962548 -0.4107135 -0.6077366 -0.32674325 0.27570188 0.001638477 0.08967278 0.6687779
-0.25628304 -0.7118523 0.10981866 -0.536916 0.1285352 -0.693779 0.20532791 0.4213768
0.600844 -0.09624848 -0.6176928 0.22036815 0.056486506 0.50005776 -0.26348197 -0.16035318
-0.6523589 -0.19261487 -0.16685739 -0.30812797 -0.58335483 0.43347204 -0.70434624 0.546788
-0.3085693 -0.69164723 -0.08660366 0.21435918 0.33854005 0.102775455 0.6481822 -0.36826718
-0.0503573 -0.51768166 -0.4397582 -0.6583811 -0.02813086 0.59841084 -0.34877196 -0.5414665
0.7254883 -0.036957387 0.03934292 0.6977469 -0.6404176 0.06360388 0.0012222857 -1.1715322e-07
0.33139637 -0.3019547 0.5559654 0.050242484 0.35328075 -0.06798023 -0.3728415 0.20784263
-0.1665848 0.13431941 -0.27463633 -0.49120817 0.6910119 0.41618365 0.6242805 0.03170949
-0.7199947 -0.48297513 -0.7157898 -0.11907616 0.19976921 0.1474299 0.011119319 0.34035993
-0.35587594 0.3249416 -0.19118518 -0.33871332 0.35170934 0.45984402 -0.66953444 -0.32902443

decoder_lin.0.bias f4 [64]
00000000: 1d79 4e3e f560 d53e 7ab6 febe 7a6c ebbe
00000010: 0f84 3bbe 4e90 ef3e 70f0 94be 5afc 24be
00000020: ba06 f0be 2383 0c3f 0ab2 f63e 4468 893d
00000030: cab7 443e 291b e9be 3bf6 d53c b2a4 813e
00000040: 8138 bbbe a550 783e 41fa f2ba d1d5 e0be
00000050: 6b52 5abe 1830 8bbe 7815 ccbe 6f62 463c
00000060: df03 7ebe 4d88 833d 3533 6bbe b5ce 7fbe
00000070: 8a84 06bf 4088 c93d e220 053f dc1c 2a3f
00000080: a449 a7be 2e97 503e a335 333f c6b3 1abf
00000090: 1d78 0a3e 7f61 1b3e beed 213f c6f2 e4be
000000a0: 7b6d 34be 7b61 383f 2d73 89be c324 4d3e
000000b0: c980 b03e ec2b 5b3e 4acc 70be 0a3e 42be
000000c0: 1b5e 83bd 89fc 2e3f 0436 933d 7328 91bd
000000d0: fc0a 353f 9d6c 3b3f cdb2 073f d36e dabe
000000e0: bf28 c63e b722 293f d754 d83e 13a7 b9be
000000f0: e066 b2be 52b0 bc3e 6dbf 813e a7c1 52be
0.20163389 0.41675535 -0.49748594 -0.459812 -0.18312095 0.46789783 -0.2908969 -0.1611189
-0.46880132 0.548876 0.48182708 0.0670934 0.19210735 -0.45528534 0.026118388 0.25320965
-0.36566547 0.24249513 -0.0018537716 -0.4391313 -0.21320502 -0.2718513 -0.3986013 0.012108429
-0.24806164 0.06422482 -0.22968753 -0.24981196 -0.5254599 0.09840441 0.520033 0.66450286
-0.3267337 0.2037017 0.7000372 -0.6043056 0.13522382 0.1517391 0.6325339 -0.4471647
-0.17619888 0.72023743 -0.26845685 0.20033555 0.34473255 0.21403474 -0.2351543 -0.18968979
-0.064144336 0.6835409 0.07188037 -0.07087793 0.70719886 0.73212606 0.53007203 -0.42662677
0.38702962 0.66068596 0.42252228 -0.3626028 -0.34844112 0.36853272 0.2534136 -0.20581685

decoder_lin.2.weight f4 [288, 64]
00000000: eeda fbbd 8d49 d8ba eae4 2d3d 944a e33c
00000010: 8147 953d 1d49 35bd 666a 323d b908 693d
00000020: 7120 d23d b8eb a8bd 4c48 c8bd 8dd9 88bd
00000030: 8a82 d23a be4d 913d a29c 623c 275e 07bc
00000040: 0ab2 1a3d e236 a9bc e5d2 723d 101a dbbd
00000050: 059d 7fbc 5409 a63c 45a1 57bd 986b 3abc
00000060: 5443 773d 326a da3c 7e87 3c3d 32bf 483d
00000070: 83ec c7bd 9a9e 843d 4eaf 60bd 2580 5bbb
00000080: db5c 7bbd 059f ab3d cc95 8cbd 8b56 683d
00000090: 93af 843d 7604 c53d dab6 64bd 878a 85bc
000000a0: 4fcc 103d 2205 e73b 7c31 ad3c 5331 d53d
000000b0: 9afd 14be e4f7 58bc 794a ea3d 9db2 fe34
000000c0: f777 8c3c 11d9 03be 5eae cbbd dc40 6e3d
000000d0: 079b e83a 757e aebb 9940 11be 127d c2bd
000000e0: fbe5 073d f04b ac3d 5741 a0bd 2b34 763d
000000f0: f530 c83d b13c 183c 6fe0 c5bb f882 5cbd
00000100: b87a 79b6 8502 c1b8 1a41 473b 8115 0437
00000110: 6200 dd39 924a 1bb4 c0f7 6d3a 2a4d 7f3a
00000120: b9ee 283b 5ed2 b4ba 85ee 2eb9 ded5 1ab9
00000130: 14f5 a5b9 790c d134 1e91 a9b9 779c 24bb
00000140: 0fc0 48ba 7ce0 eab3 f606 34bb fb0c fe38
00000150: 3b17 a0b9 12e9 72b9 536d 68b5 6cfb 3133
00000160: 0e9f 44b6 9c6e d0b8 2078 79b8 0907 2832
00000170: 5e1f 53b9 85dc f429 cbef 6332 89bc eeb7
00000180: d55f 8627 5b94 53b3 ece3 63ba 10b3 a2ba
00000190: 5a11 f5b8 9251 5527 20d7 82bb 0d6e b2b9
000001a0: 3b05 aeb8 316c bf3a dae7 49a9 67f2 3abb
000001b0: d8e5 203b e990 50b2 fd68 42af f82b 673b
000001c0: fc02 c13a 7739 54ba 19a1 86b5 b13f cd32
000001d0: 290b 93b5 bc31 2eb4 a68e c63a a17e 17b6
000001e0: 21bb 6ebb b4ed bf37 596b 223a 55d3 a4aa
000001f0: ffca 1bb9 61aa 8eb9 c992 76bb 6fe3 c53a
00000200: f01f 9e3c cb5a a8bc dcff b1bb c640 cbbc
00000210: 238b 99bb 3ccb fdbb ce2f 113b a361 993c
00000220: 162b e8bb 444d 33bd ac21 783c 87c2 073d
00000230: 891a e3b9 b760 adbc 3b6c b6ba 3e70 dabc
00000240: 3b49 26bd 5f28 d1bc c2cf 253d 4a54 843c
00000250: e438 68bc a80d aebc d7f3 a63c d7d7 c0bc
00000260: 990e 273c 1303 63bd d1d8 abbd da40 043d
00000270: 02a3 9c3c 4168 0cbb 1cd7 d7bc 9995 53bb
00000280: 6120 a93c 193f 0dbc ed28 2cbd 821c 50bc
00000290: 1245 3bbd 86b6 8cbc bbff b33c 93a4 7e3c
000002a0: c495 72bc 2464 4cbc 885a 0fbd 0e14 5d3d
000002b0: a904 b33c 1693 13bd 0928 7c3b a3a1 1037
000002c0: cc8e 143a b2c2 bc3c e836 7a3c 4dc8 9abb
000002d0: 43fe 58bd 156f 74bd d769 173d 382c cb3c
000002e0: b935 34bc 7070 413d 9b42 b73c 6c32 97bc
000002f0: 57b5 1fbc 0e90 b7bc c2a0 713d d9e3 7ebc
00000300: 3c9a e1b0 60bd 953a 29ad 053a 1b1b 1d3b
00000310: 9a2d e1b8 67d8 21b6 8130 74bb 6b2c bd3b
00000320: 3a44 d0ba 7061 c9b5 810a 9caf e594 d8b3
00000330: 197a 8335 8baf 72bb d9e7 6d27 6342 3ebb
00000340: 8eac 053b 2cc9 b5bb d6b6 e6bb ef4f 113a
00000350: 05f6 1cba 6200 2637 8f86 da35 70d2 73bb
00000360: 01ea 85b9 0f00 1f3b f6e3 86b4 dbb9 bbba
00000370: 1aa9 1739 a3e6 8ebb 1c1d 31bb ad28 0bb9
00000380: 0966 42bb fb45 90b3 2f68 95bb 86e7 bfbb
00000390: 759a 5dbb 634e 51bb 96aa 2bb2 8de8 8b35
000003a0: f811 6cb4 9ab3 debb 391d 69bb c8a5 633a
000003b0: 6a87 3b31 04f7 7ebb 4ee3 7cbb 87d4 b3ba
000003c0: c2f3 6b33 f7c5 28bb 6cdd daba 0614 41bb
000003d0: 6fc4 e5ba ffd0 ac36 e8fe 8eb3 1c5f c9b9
000003e0: 0fb4 9db9 aa0d 3ebb 644b 5b38 eb27 d4ba
000003f0: 550b 54bb 2b86 c437 0c3d a2ba e7e9 5fba
-0.12297617 -0.0016501412 0.042454638 0.027745523 0.07289029 -0.04425918 0.0435585 0.056893084
0.10260094 -0.08248085 -0.097794145 -0.066821195 0.0016060632 0.07094906 0.0138312895 -0.008262194
0.037767448 -0.020656053 0.059283156 -0.106983304 -0.015601401 0.02026812 -0.052644033 -0.011378191
0.060366943 0.026661966 0.046027653 0.049010463 -0.09761908 0.06475563 -0.054854684 -0.0033493128
-0.06136785 0.0837994 -0.06864509 0.05672316 0.064788006 0.096199915 -0.055838443 -0.016301407
0.035351094 0.0070501724 0.02114176 0.104097985 -0.14549866 -0.0132426955 0.11439986 4.7441145e-07
0.017147047 -0.12875773 -0.09945367 0.058167323 0.0017746397 -0.0053251334 -0.14184798 -0.094965115
0.03317831 0.084129214 -0.078249626 0.060108345 0.09774963 0.009291814 -0.0060387175 -0.05383584
-3.7175323e-06 -9.2034265e-05 0.0030403794 7.87282e-06 0.0004215269 -1.4462628e-07 0.000907775 0.00097389764
0.0025777055 -0.0013795604 -0.00016682789 -0.00014766256 -0.0003165385 3.893836e-07 -0.00032342313 -0.0025117674
-0.00076580135 -1.09373076e-07 -0.002746997 0.000121140816 -0.00030534886 -0.00023165744 -8.658582e-07 4.143969e-08
-2.9298858e-06 -9.9388155e-05 -5.94781e-05 9.780487e-09 -0.00020134213 1.0874031e-13 1.3267662e-08 -2.8459604e-05
3.7296373e-15 -4.9262194e-08 -0.0008693326 -0.0012412984 -0.00011685742 2.9603907e-15 -0.00399293 -0.000340328
-8.297941e-05 0.0014604387 -4.4832065e-14 -0.002852583 0.002455106 -1.2140142e-08 -1.7681497e-10 0.003527401
0.0014725621 -0.0008095721 -1.0030664e-06 2.3894104e-08 -1.0955602e-06 -1.6223106e-07 0.0015148714 -2.257446e-06
-0.0036427455 2.2879663e-05 0.00061958056 -2.9278893e-13 -0.00014857574 -0.00027211293 -0.0037624112 0.0015097688
0.019302338 -0.020551106 -0.005432112 -0.02481116 -0.004685776 -0.0077451747 0.0022153738 0.018723315
-0.0070852144 -0.043774858 0.015144747 0.0331445 -0.00043316584 -0.021164281 -0.0013917753 -0.02666485
-0.04059718 -0.025531946 0.040481336 0.016153473 -0.01417372 -0.021246746 0.020379944 -0.02354042
0.010196351 -0.055422854 -0.08390964 0.03228841 0.019120697 -0.0021424445 -0.02634769 -0.0032285212
0.020645322 -0.008621001 -0.042031217 -0.012702109 -0.045720167 -0.017176878 0.021972528 0.015542167
-0.014806215 -0.012475047 -0.034998447 0.053974204 0.021852808 -0.036028944 0.0038476011 8.620703e-06
0.00056670303 0.023042057 0.01527188 -0.0047235847 -0.052976858 -0.05967625 0.03696617 0.024801359
-0.010999137 0.04722637 0.022370627 -0.01845666 -0.009747825 -0.022407558 0.0589912 -0.015557253
-1.6414741e-09 0.0011424236 0.000509935 0.0023972455 -0.0001073733 -2.4116832e-06 -0.0037260356 0.0057731173
-0.0015889474 -1.5004025e-06 -2.8383698e-10 -1.00853676e-07 9.795796e-07 -0.0037030901 3.3016042e-15 -0.0029031269
0.002039704 -0.005547663 -0.0070408387 0.0005543222 -0.00059875875 9.89446e-06 1.6281427e-06 -0.0037204288
-0.00025542083 0.002426151 -2.5125308e-07 -0.0014322357 0.00014463477 -0.00436099 -0.0027025407 -0.00013271226
-0.0029662868 -6.718252e-08 -0.004559539 -0.005856457 -0.0033813987 -0.0031937591 -9.992297e-09 1.0423988e-06
-2.198575e-07 -0.0067963125 -0.0035570397 0.0008684066 2.7289055e-09 -0.0038904557 -0.0038587633 -0.0013719954
5.4936898e-08 -0.0025752762 -0.0016698069 -0.0029461398 -0.0017529855 5.15033e-06 -6.6587575e-08 -0.0003840857
-0.00030079528 -0.0028999844 5.228388e-05 -0.0016186213 -0.0032355387 2.3427498e-05 -0.0012377813 -0.0008541629

decoder_lin.2.bias f4 [288]
00000000: 634e 673b 083f 3f35 a871 42bc ab1b ddba
00000010: cb02 a93c 90c9 0e3d 3acc 4c3d 4254 a43d
00000020: f10f e43d d4c1 383e 5c31 e43d 5eee 3b3e
00000030: b4be 8036 b8b9 59b1 dfeb 853d 95b0 0cbe
00000040: 4f50 bbbb 8786 6c3e af74 263e 3a46 3d3e
00000050: 5951 8f3d 51c6 e4bc cf7d d9bd 9ca4 ba3d
00000060: 3f11 d93d 537a a4ba 5eea 87bd 5e1e 303e
00000070: 3ffb df3d 47ec 033e 9d9a 4dbe 2c25 1cba
00000080: fd7b d1bd de50 99be 6f8c dabd 90b7 9231
00000090: 7110 09bb a92c b33d 0ba2 423e e89f adb9
000000a0: 1e4b f539 56d9 ecbc 9612 2c3d f243 ffb3
000000b0: 74bc fbbd 8f7e 7a3d bb65 57bb d9a6 013e
000000c0: 0192 b6b9 1566 80bc b7f9 d5bc f7fa 90bc
000000d0: 9144 2ebe ea4a 8c3d a255 253c 8d6c 393d
000000e0: 6dde 8d3d 5455 273d f803 bfbc 1636 353c
000000f0: 3805 b1b9 e5c9 0a3d d259 203e 38b5 363e
00000100: d9e1 383d 01a5 14b9 3269 bf3c 1a80 6c3b
00000110: 133a 60b9 4d71 b93c 74e4 5b32 2f5b cc3b
00000120: 3f6c dd3d b637 d43d c2fa 31b9 135e 82ba
00000130: b5c2 b4bc 425a b03c 0ec8 153d 1735 54bd
00000140: 6e09 023d ea10 8c3d 071a b8b6 6ffc 383e
00000150: f14b 81bc 5acf 91bd bafa 033e 716f e5b7
00000160: ea65 843d a14f 82bc c4e8 b53a 57df 20be
00000170: 30f0 1cbe 3c1c e83d 4af7 04be fd69 73bc
00000180: 8435 0c3e bf21 20bc dd11 913c 5bd8 fd3d
00000190: 17df 77ba 673a 26be 4b71 263e 5924 07be
000001a0: 424e c13d a35a 4a3e 15e8 443d 4dc2 503e
000001b0: c84e 493c b591 29bc 7804 453d 6b19 b6ba
000001c0: 3939 9abd c916 933d b330 293b 14b3 ca3a
000001d0: 5f65 a33d 8e3a dcb9 635f c037 0068 083d
000001e0: 296f 74bd bafd 1bbe 0e30 94bd be2b 7a3c
000001f0: 400f 37be 40f6 7fbc 1d02 2bbb 9ba4 1fbd
00000200: eaa6 80b9 f172 433e 2ab0 43bd f5a0 4b3e
00000210: 17c0 bf3d caba 77bc 56c4 013e 395a 1b3e
00000220: 7d6e 43bd 334e 8737 c7fb ebbd 32d3 49be
00000230: 3524 dbbd 86fa a5bc 207a a3b1 0a61 bfbc
00000240: 2513 7abd fcf5 fd3d 2047 bc3c d3a4 2abe
00000250: 9e44 373e dab1 7cbd 1be2 85a9 a1d5 cdbb
00000260: 4e47 15bd ea50 313e 3664 82bd d882 943b
00000270: a0bf be3d 4b13 1fbe 7f83 f03a 8ad6 ea3d
00000280: b357 433d 9bb4 8c3d 3978 1c3e 471d 25bd
00000290: 21cd d53d f804 1b3e 3892 4ebd cc3b 56bd
000002a0: 3675 813d b937 903d 0f6d 1e3c bd44 75bd
000002b0: 6ce6 84bd 4555 f03d e38a 00ba 48b8 a73c
000002c0: de6e cbbd 2d4b 3ebe ff45 553c 19b6 05be
000002d0: 3e6c fbba 0069 59bb 18e4 353e fea9 8f26
000002e0: e982 33bd f700 7fbd f998 f6bd 1d95 89bd
000002f0: dbf9 a0bd ea08 79bc 7450 fbbc 114c 0e3d
00000300: 3f77 9abd 6ddb cf3c 40d7 143e a13b 28be
00000310: e2e8 323e 7372 853d 91ff 14ba 0a3c 5a3d
00000320: 6721 1a3e 249d e7b8 fcfc 97bd 0e30 023e
00000330: 131c 2ebd 115a 63bd 7b6b a93d 6405 b73d
00000340: e55f e13c 9ca3 243d 2d3e 2d35 7603 0d3d
00000350: 719c 83ba 30e9 c0bd 585e 63be 1f63 b4bc
00000360: 4101 b8bc 1667 d5bc a714 c9bd 6e12 ba3d
00000370: 2e0d 0e3e 0fa7 b9bd 9721 1c3e 8b79 243e
00000380: e5ef 3e3d 5407 eb3d fdae 47bd e032 e0bb
00000390: f080 9b3d a2df 32be cfb8 bb36 a7a6 5cbd
000003a0: 7e06 5cbe 1c4a 9dbb d9db 41bb 96de bfbd
000003b0: d5ca 233b 2cd5 043e 942f 653d 6db7 f833
000003c0: 92bf 8f3d 665d 4fbd 4cd2 a1bb 0607 cbbd
000003d0: 9360 edbc 1e61 db3d c16a f23c d27a 4436
000003e0: 4cb9 fe3d f9fe 753c ce6d 6dbd a7ba 2e3e
000003f0: 2e8c 9cb6 036d 00bd ef43 523d 4c5c 1339
0.0035294525 7.124477e-07 -0.011867918 -0.0016869208 0.020631215 0.034860194 0.049999453 0.080238834
0.11135853 0.1804269 0.11142227 0.18352649 3.836898e-06 -3.1683225e-09 0.065391295 -0.13739236
-0.0057163606 0.23098193 0.16255449 0.1848382 0.06997938 -0.027926596 -0.10619699 0.09113428
0.105989926 -0.0012548662 -0.06636499 0.17199084 0.10936593 0.12883101 -0.20078512 -0.0005956467
-0.10228727 -0.2994451 -0.10671317 4.270028e-09 -0.002091434 0.087487526 0.19007127 -0.0003311627
0.00046786008 -0.028912228 0.042009912 -1.1886722e-07 -0.12291804 0.061155852 -0.0032867033 0.12661304
-0.00034822527 -0.015673677 -0.02612005 -0.017697794 -0.17018344 0.06850226 0.010091217 0.045269538
0.0692719 0.04085286 -0.023317322 0.011060258 -0.0003376396 0.033883948 0.15659264 0.17842567
0.04513726 -0.00014175849 0.02336559 0.0036087097 -0.00021383939 0.022637034 1.2799422e-08 0.006236456
0.10811662 0.103621885 -0.0001697345 -0.0009946249 -0.0220655 0.021527413 0.03656774 -0.051808443
0.031747274 0.068391636 -5.4866573e-06 0.18065046 -0.015783282 -0.07119627 0.12888613 -2.7350821e-05
0.06464751 -0.01590711 0.0013878574 -0.15710197 -0.15326 0.1133351 -0.12984958 -0.014856813
0.1369229 -0.009773671 0.017708713 0.12394782 -0.0009455545 -0.16233216 0.16254155 -0.1319746
0.094387546 0.19761138 0.048072893 0.2038662 0.012286849 -0.010349681 0.048099965 -0.0013893073
-0.075304456 0.0718208 0.002581638 0.0015464746 0.079783194 -0.00042005297 2.2932601e-05 0.033302307
-0.059676323 -0.15233508 -0.07235728 0.015269218 -0.17876911 -0.015622675 -0.002609379 -0.03897534
-0.00024538423 0.19086815 -0.047775425 0.19885619 0.0936281 -0.015120218 0.12672552 0.15171136
-0.04771279 1.6129668e-05 -0.11522632 -0.19709471 -0.10700265 -0.02026106 -4.7578084e-09 -0.023361702
-0.061053414 0.124004334 0.022983134 -0.16664438 0.17897269 -0.06169305 -5.9456095e-14 -0.00628157
-0.036444955 0.17316023 -0.0636677 0.0045321994 0.09313893 -0.15534703 0.0018349736 0.11466701
0.04769106 0.06870385 0.15280236 -0.040311124 0.10439516 0.15138614 -0.050432414 -0.05230312
0.06321184 0.07041878 0.009669556 -0.059880007 -0.06489262 0.11735014 -0.0004903508 0.020473614
-0.099332556 -0.18583365 0.013017177 -0.13057746 -0.0019182039 -0.0033174157 0.17762792 9.968695e-16
-0.043826018 -0.06225678 -0.12040896 -0.06717894 -0.07860156 -0.015199879 -0.030678011 0.03474051
-0.07542276 0.025373185 0.14535236 -0.16428997 0.1747165 0.0651597 -0.00056838343 0.053279914
0.15051804 -0.00011044208 -0.074213 0.12713644 -0.042507242 -0.055505816 0.082724534 0.08936575
0.027511546 0.040195093 6.4538e-07 0.03442713 -0.001004113 -0.09419477 -0.22203958 -0.02201992
-0.022461535 -0.026050132 -0.09818392 0.090855464 0.13872215 -0.09065067 0.15247189 0.1606199
0.0466155 0.11476007 -0.048750866 -0.0068420023 0.07592952 -0.17468122 5.594549e-06 -0.05386987
-0.21486852 -0.0048000943 -0.0029580502 -0.09368627 0.0024992723 0.12971944 0.055953577 1.1581765e-07
0.07018961 -0.05062618 -0.0049383994 -0.09913449 -0.028976714 0.10711883 0.02959192 2.9277767e-06
0.12437686 0.0150144035 -0.057966046 0.1706339 -4.6654814e-06 -0.03135396 0.051334318 0.00014053396
