2. Convolutional Autoencoders/models/autoencoder3d.pth (torch, 203689 bytes, 19 tensors)

encoder_conv.0.weight f4 [8, 1, 3, 3]
000000 fd 11 94 be d9 30 67 be 91 19 9f be 1c 51 a1 bd
       -0.28919974 -0.22577228 -0.31074193 -0.078767985
000010 b2 54 b8 bd 43 d5 11 be 3b 5d 53 be 40 10 a5 be
       -0.09000529 -0.14241509 -0.20641033 -0.3223896
000020 24 88 cc be a4 60 b0 bd 27 67 c0 be 09 67 8a 3d
       -0.39947617 -0.08612183 -0.375787 0.06757934
000030 9e 58 7e 3b ed b3 aa be c9 be 14 3e 4e 6d e5 3c
       0.0038810144 -0.33340397 0.14525904 0.028006222
000040 1c 7a cd be fd ca 5b 3e fe 2c 4a be b0 d1 cf bc
       -0.40132225 0.21464153 -0.19743726 -0.025368541
000050 36 d4 11 3d 72 96 3d bd f1 c6 7b be 45 8b ae 3d
       0.03560277 -0.046286054 -0.24587609 0.08522657
000060 f3 98 1e be 4a 40 ee bc e2 6e b8 bd f7 d0 83 3d
       -0.15488033 -0.02908339 -0.09005524 0.06436341
000070 e8 65 69 3d 5d 0c 94 be 38 99 85 3e e5 01 c5 3d
       0.05698195 -0.28915682 0.2609346 0.09619502
000080 26 a9 a2 be 1e f1 95 3e 0b 1f 8b 3d 01 97 a6 be
       -0.31769675 0.2928552 0.0679303 -0.32537082
000090 72 d9 42 3d a6 8e c8 3e b7 7d 91 3d 4f c2 12 3e
       0.047570653 0.39171332 0.07104056 0.14331935
0000a0 30 d3 e5 3e f6 fa ff 3e 33 ba 39 3d 5a 00 92 3e
       0.44887686 0.49996156 0.04534359 0.28515893
0000b0 a3 9d 96 3e ec 80 1c 3d 8b 75 02 be 45 e7 86 3d
       0.29417142 0.038208887 -0.12740152 0.0658708
0000c0 ee 48 f0 bd d1 b6 5d be 8e 11 98 bd fc 99 9a 3c
       -0.1173266 -0.2165177 -0.07425223 0.018872254
0000d0 02 c2 d1 bd 6c 2d 75 bc ec 94 a6 3d 0c bc bb bd
       -0.10242082 -0.014964443 0.08133873 -0.091667265
0000e0 9c a2 c2 bd e6 28 1b be df e1 37 be 7a b7 57 be
       -0.095036715 -0.1515232 -0.17957257 -0.21066085
0000f0 32 d2 9e bb e1 d4 43 be 45 7c 87 be b2 9f 48 99
       -0.0048468346 -0.19124176 -0.26461998 -1.0372008e-23
000100 d7 6a 18 97 03 32 08 98 f4 43 9b 9a 0a 8c 07 99
       -4.92487e-25 -1.7602837e-24 -6.421628e-23 -7.007617e-24
000110 18 e8 90 99 5b d9 0b 9a 4e 83 28 98 cc 50 5f 99
       -1.4982993e-23 -2.8920105e-23 -2.1779783e-24 -1.15451466e-23

encoder_conv.0.bias f4 [8]
000000 cb b7 c0 3e c0 c1 8c 3e 9e 4a 27 3f 5b 7c b1 bc
       0.37640223 0.2749157 0.6534823 -0.021665743
000010 21 3d be bc 6a c8 fe 3e 6a a8 d5 3e 44 77 b0 a7
       -0.023222508 0.4976228 0.41730052 -4.897912e-15

encoder_conv.2.weight f4 [16, 8, 3, 3]
000000 88 18 d8 bb 14 82 0b 3c 80 b3 96 bc 20 87 74 bc
       -0.006594721 0.0085149 -0.01839614 -0.014924794
000010 78 6e 68 3b f0 86 c2 bc 50 49 94 bc 68 5c 37 3c
       0.0035466235 -0.023745984 -0.018101364 0.011191465
000020 38 db 8c bc fe 3d 23 bc 2c 43 f2 bb e4 64 27 3c
       -0.017194375 -0.009963511 -0.0073932614 0.010216925
000030 7a 3f 74 bc 3b 9c 82 bc ac 9a 92 bc 90 af 9e bc
       -0.014907712 -0.015943637 -0.017896019 -0.019370824
000040 e6 05 d4 39 70 59 2c 3b 8f 83 c5 bc 66 f4 fd bb
       0.00040440186 0.0026298426 -0.024110584 -0.007750082
000050 19 4d 31 bc 7b fe 3c bd 84 60 51 bb f8 95 72 bc
       -0.010821604 -0.04614113 -0.0031948397 -0.014806263
000060 c4 df 36 bd 81 39 2e 3b 9d fb af ba 1e ce 8e bb
       -0.044646993 0.0026584568 -0.0013426427 -0.004358067
000070 9b 0b b7 bb c2 d0 bf 3b c4 ca aa 39 96 82 9a bb
       -0.0055861003 0.0058537433 0.00032576 -0.004715274
000080 e1 b8 02 3b fc 63 9e ba b2 fb 9e bb 35 cc a9 bb
       0.0019946622 -0.0012084241 -0.0048517818 -0.005181814
000090 97 b1 54 bd 30 22 36 bd aa 0d 5a 3d 43 e9 16 bd
       -0.051927175 -0.044466197 0.053235687 -0.03684355
0000a0 a1 df 23 bd 04 84 ce 3d f0 66 04 bd 0b 39 95 bd
       -0.04000819 0.10083774 -0.03232473 -0.07286271
0000b0 67 b6 82 3d a4 d8 a1 bc 93 6b e6 bb ce ad 3e bc
       0.06382447 -0.019756623 -0.007031867 -0.011638118
0000c0 ca 93 fd bc d8 01 ae bb fe 5e e0 bc c7 12 03 bd
       -0.03095426 -0.0053102784 -0.027389046 -0.03200033
0000d0 d7 b6 40 3b 40 99 a1 bc 7a 49 52 bc d3 ec 63 3b
       0.0029405856 -0.019726396 -0.012834901 0.003477861
0000e0 63 5c f1 bc 25 9f bf bc c5 46 c7 3b ab 83 04 bd
       -0.029462999 -0.023391316 0.0060814344 -0.03235213
0000f0 1b 43 b4 bc 53 22 74 3c 40 d0 c1 bc 06 6b 23 00
       -0.022004655 0.014900762 -0.023658872 3.252635e-39
000100 7f 04 20 00 6b fa 1e 00 fe 11 48 00 a4 2e 3d 00
       2.940349e-39 2.844898e-39 6.61861e-39 5.618697e-39
000110 66 cd 30 00 5a 04 1d 00 8f da 2c 00 20 e4 4b 80
       4.481787e-39 2.66479e-39 4.119166e-39 -6.969498e-39
000120 36 be a3 3b 4e a1 09 bc d7 79 65 bd bf 66 0c 3e
       0.00499704 -0.008400274 -0.0560244 0.1371107
000130 07 56 d1 3d af 67 9b 3d 1c fb 46 3d 52 4b 57 3d
       0.102214865 0.075881355 0.04857932 0.052562065
000140 83 10 b6 3c f9 9f 4f bb 84 54 95 bd a3 22 19 bc
       0.02222467 -0.0031681044 -0.07291511 -0.009346637
000150 a0 8f 45 3d b8 c9 9a 3d a9 bc 55 3d 54 3d 78 3c
       0.048232675 0.07558006 0.052181873 0.0151513405
000160 d8 02 c9 3d c5 ed 0c 3d 08 fa 81 39 eb 33 df bd
       0.098149955 0.034406442 0.00024791085 -0.108985744
000170 0f 8a 0b be 11 bb a8 3d 6a ed ef 3d 86 4f 16 3d
       -0.13626884 0.08238805 0.11715205 0.036696933
000180 cb 1e 8a 3d c9 45 aa 3d 29 d1 bd 3c 0c b2 2a bd
       0.067441545 0.08314092 0.023171024 -0.041673705
000190 6f e8 2b bc c0 3a b9 bd ff 17 5e bd 33 6e 9d bc
       -0.010492428 -0.09044409 -0.054222103 -0.019217586
0001a0 b1 a1 b9 bd 8c 32 93 bd 52 fc 2d bd f2 72 ba bd
       -0.09064043 -0.071873754 -0.04247696 -0.09103955
0001b0 19 d6 1e bd 2a ef d3 3c 53 58 37 3e fa 50 70 be
       -0.0387784 0.025870878 0.17904787 -0.2346839
0001c0 90 77 4c be 64 bc 93 3d 3c 4e 2b be b6 eb f0 bd
       -0.19967484 0.07213667 -0.16729063 -0.11763708
0001d0 00 59 fb 3d 12 b4 03 bc 1d a0 cd bd 02 de 01 be
       0.12272835 -0.008038538 -0.10040305 -0.12682346
0001e0 7a d2 7d 3d 63 0e cb 3d 0c 1e 60 3c 03 d6 2e 3d
       0.061968304 0.099148534 0.013679039 0.042684566
0001f0 74 21 86 3d 2d 42 6f bc b6 8f e3 3c f5 d1 fd bc
       0.065493494 -0.01460318 0.027778488 -0.030983904
000200 03 b7 9d bd 6e 8b a0 3d 1d dd 58 3d a6 6d 68 3c
       -0.07700922 0.07839094 0.052945245 0.0141862985
000210 9a dd 67 3d df 81 54 3d 9d 13 be 3c a5 2b 3c 00
       0.05660782 0.051881667 0.023202712 5.525786e-39
000220 a7 21 45 80 44 9c 40 80 ca 38 12 00 4b 7f 08 00
       -6.348721e-39 -5.933529e-39 1.673411e-39 7.80348e-40
000230 5d 33 34 00 0b b3 2a 00 54 92 29 00 95 95 38 80
       4.793871e-39 3.92132e-39 3.817748e-39 -5.196448e-39
000240 05 ef d9 bc 12 22 82 3c b0 c2 fc 3d 94 8e 92 3c
       -0.026603231 0.015885387 0.12341821 0.017890252
000250 a6 a6 21 bc 36 29 5a 3d b7 b5 b1 bd 03 2f ac bd
       -0.009866392 0.053261958 -0.086772375 -0.08407404
000260 26 7a 03 3d d4 64 7f bc 0c 80 a7 3c d4 11 1c 3e
       0.03209891 -0.015588004 0.0204468 0.15241176
000270 77 9b e7 3c 9a c2 88 3c 89 3d 9d 3d 2f 5f 24 bd
       0.028272374 0.016694356 0.076777525 -0.040129837
000280 3b 7a 91 bc a7 6f 9b 3d 70 6c 2b be 50 2f 02 be
       -0.01775848 0.07589655 -0.16740584 -0.12713361
000290 ba b0 b8 3d 9d 4b 4c be a1 bc fd bd c6 3a be 3c
       0.09018083 -0.19950719 -0.12389494 0.023221385
0002a0 97 e8 32 be e7 f2 36 be ad 26 80 3c f3 3d 78 bb
       -0.17471538 -0.17866097 0.015643442 -0.0037878721
0002b0 d8 19 7b 3e 14 69 02 be 45 db bb bc e3 59 33 3e
       0.24521577 -0.12735397 -0.022931704 0.17514758
0002c0 38 df 84 bd bb 85 b4 bd 6a 31 ff 3d 82 ee 75 3c
       -0.06487888 -0.088145696 0.12460597 0.015010478
0002d0 9a 3d c8 3e ba 21 35 be 86 f1 d5 be 53 b5 bc 3e
       0.39109498 -0.17688647 -0.4178583 0.3685709
0002e0 d9 60 57 be c9 16 cf be b8 a5 de 3e f6 e7 9d bd
       -0.21033038 -0.4044707 0.43485808 -0.07710259
0002f0 b8 7f c8 be 59 41 d9 bd 0e 36 0c bc 37 cf de 3d
       -0.39159942 -0.10608167 -0.0085578095 0.10879367
000300 9f 4d 30 be 44 78 c2 bc a8 e5 4a 3d a8 08 41 be
       -0.1721711 -0.023738988 0.049535424 -0.18850958
000310 c3 15 9a bd 54 8a 2e 3d 99 8b 45 3d f5 e7 26 3d
       -0.07523682 0.04261239 0.048228834 0.040748555
000320 9b 8f 1d 3e fb 57 13 bd e7 92 58 bc 34 b0 82 3d
       0.15386812 -0.035972577 -0.013218618 0.06381264
000330 28 64 e7 bd ce 23 15 bd 51 55 ab 3d d9 8a 31 00
       -0.112984 -0.0364111 0.08365882 4.549748e-39
000340 b8 45 34 80 da cb 4a 00 62 32 20 80 f2 71 1d 80
       -4.800456e-39 6.868955e-39 -2.95681e-39 -2.704105e-39
000350 f7 b6 02 80 7d fa 3e 00 ea 0a 27 80 e4 8a 19 80
       -2.49306e-40 5.783659e-39 -3.5855e-39 -2.345712e-39
000360 a8 ad 8e 3c 59 ed c7 3d 95 b0 b4 bd cc b6 b5 bd
       0.01741679 0.09762067 -0.08822743 -0.08872756
000370 d1 3c e9 bd f3 5f 31 be a6 d7 45 be e7 ab 36 be
       -0.11388553 -0.17321758 -0.19320545 -0.17839013
000380 7f 5f 8e be 13 1a b2 bd 97 80 9f 3d 27 e1 99 3d
       -0.27807233 -0.086963795 0.077881984 0.075136475
000390 ff f3 8d bd 44 57 e0 3d 5b 3c 2c bd 99 87 1f be
       -0.06931304 0.109541446 -0.042049747 -0.1557907
0003a0 97 49 d9 3c a0 73 82 bd d2 37 0a 3c 57 33 ec 3d
       0.026524348 -0.0636971 0.00843616 0.1153323
0003b0 a4 93 18 3e 01 b1 33 3c 8b fe a1 3e 80 31 26 3e
       0.1490007 0.010967494 0.31639513 0.1622982
0003c0 30 67 0d be 23 a0 2e 3e 6d af f9 3d 2e 15 0d be
       -0.13808894 0.17053275 0.12191663 -0.1377761
0003d0 23 45 7b bc 1e 7d 9c bc 7a ea 31 bd 0b 3f 8b bb
       -0.015336308 -0.01910263 -0.043436505 -0.0042494587
0003e0 ca 0f f0 3c 28 91 53 3d 96 ff d0 3c 56 97 9f 3a
       0.029304404 0.051652104 0.025512498 0.0012175839
0003f0 80 7e 7e 3d 9b 30 5b 3c e4 d8 73 3d 9c 92 90 be
       0.06213236 0.013378288 0.059533015 -0.28236854

encoder_conv.2.bias f4 [16]
000000 05 3d c4 bc 6b 13 f2 bc 46 0b 2b be b0 94 9a 3e
       -0.023954878 -0.029550275 -0.16703519 0.30191565
000010 7a 3d ce ac 66 0e b0 3d b6 63 47 be e6 35 81 3e
       -5.8616974e-12 0.08596496 -0.1947163 0.25236434
000020 da 63 ad b9 b4 15 e2 bc 3e 5b 30 bd c4 e6 36 9a
       -0.00033071527 -0.02759824 -0.043055765 -3.782313e-23
000030 de d0 88 3e 6f 9d 7e bd af 4d 15 b9 14 fd 95 3c
       0.26721853 -0.06216186 -0.00014238687 0.018309154

encoder_conv.4.weight f4 [32, 16, 3, 3]
000000 e4 fc c8 3c 9e cf 30 bc 2a 9f 97 bc 58 7f 31 3c
       0.02453465 -0.010791687 -0.018508513 0.010833584
000010 a0 cc 59 bb 51 5d 9b bc 4f 66 86 bc 45 9c 47 bc
       -0.0033233538 -0.018965395 -0.016406206 -0.012183254
000020 18 38 1b bc 63 34 bf 3c 09 be cc bc a6 e1 90 bd
       -0.009473823 0.02334041 -0.02499296 -0.07074289
000030 de 7d 5e bd 10 de 1d bd 97 cd ce bd cb 3d d8 bd
       -0.054319255 -0.038541853 -0.10097807 -0.10558661
000040 6e 02 26 bd 08 9e 10 3b 00 39 d8 bb d9 c8 fc 3d
       -0.04052966 0.002206685 -0.006598592 0.12342996
000050 aa 4d 1e 3e 85 80 f6 3d 78 d4 ad 3d 90 b1 ff bd
       0.15459314 0.12036232 0.08487791 -0.12485039
000060 89 b2 54 3e 9c f8 1a 3e 82 bd 16 be d0 47 b4 3d
       0.20771231 0.151339 -0.14720729 0.0880276
000070 f5 98 ab 3d 21 19 dc 3d aa 1c fc bd 09 b9 a4 be
       0.083787836 0.107469805 -0.12310155 -0.3217242
000080 1c 97 87 be 67 1d ea 3c 84 48 01 3e df 80 bf bb
       -0.26482475 0.028578473 0.12625319 -0.00584422
000090 6d a8 00 80 65 a8 1d 00 6d fc 13 00 5f f4 09 00
       -6.042e-41 2.723638e-39 1.835428e-39 9.14183e-40
0000a0 30 34 40 00 e3 d0 21 00 fe ed 17 00 dc f0 29 00
       5.896193e-39 3.105506e-39 2.197592e-39 3.85166e-39
0000b0 ac df 48 00 b9 47 0b bd 00 fc 20 be 96 6e f9 3d
       6.692394e-39 -0.034003947 -0.1572113 0.12179296
0000c0 af 41 06 be 74 24 ac bc 8a 56 6c 3d 13 7b ab bd
       -0.13110994 -0.021013476 0.057699718 -0.08373084
0000d0 31 4b 8a 3e b1 72 50 3d 5a c7 1e 3d d8 f8 87 be
       0.27010491 0.05089063 0.038764335 -0.2655704
0000e0 4b 35 7a bb 3a 3c 46 3a 00 d5 82 be b9 9b 0f be
       -0.0038178738 0.0007562075 -0.2555313 -0.14024247
0000f0 ab b8 d3 bc 3f ef fa 3d 20 2e 7c 3e a7 ff 4c 3e
       -0.025844892 0.12252664 0.2462697 0.20019399
000100 7a d5 e9 3b 63 f9 e0 3d 0d a4 59 3d a8 3c 92 be
       0.007136044 0.10985067 0.053134967 -0.28561902
000110 3f 22 ba be ca 56 eb 3d 5d 07 5b bd 66 04 2b be
       -0.36354253 0.11491163 -0.05347382 -0.16700897
000120 e4 20 fc 20 d6 da 9d 20 44 98 f7 b2 08 b3 ee a0
       4.2712226e-19 2.6741648e-19 -2.8823827e-08 -4.043724e-19
000130 47 d1 ae 1e 4c 6c 20 b3 22 98 17 a1 3e 47 2e a1
       1.8509522e-20 -3.73514e-08 -5.1362136e-19 -5.904778e-19
000140 e2 f5 83 b3 d7 f7 be 3c ea 09 4f bb f4 b8 69 bd
       -6.144889e-08 0.023311539 -0.0031591603 -0.05706115
000150 f4 f5 64 bd 88 de 31 bd 6b 58 dc bd 5a 11 34 bd
       -0.05589862 -0.043425113 -0.10759052 -0.04396186
000160 5e a3 79 bd c9 23 48 bd 08 e0 f2 3d 48 29 82 bd
       -0.060946815 -0.048862252 0.11859137 -0.0635553
000170 76 1a 43 3e b8 ef bc bd d6 53 d7 bd 3a 55 e2 3d
       0.19053063 -0.0922541 -0.10514037 0.11051412
000180 e8 c2 23 be a0 c6 84 3e cd 44 82 3e 9f 0f 2a 80
       -0.1599232 0.2593279 0.25443116 -3.862695e-39
000190 54 5f 0e 80 5e 19 20 80 b7 1c 12 00 c5 96 28 80
       -1.319894e-39 -2.947836e-39 1.66334e-39 -3.727506e-39
0001a0 52 ef 16 00 d2 fd 23 00 4f 7e 4e 00 7e 9d 0f 80
       2.106233e-39 3.305296e-39 7.20848e-39 -1.43403e-39
0001b0 8c 6b 13 3e 6c a3 b8 3e 34 78 51 3e bd 5f 1a 3e
       0.14396495 0.3606218 0.2045601 0.15075584
0001c0 a8 57 83 3d fe e2 90 be aa 1d 29 3e 09 75 07 be
       0.064132035 -0.2829818 0.16515222 -0.13228239
0001d0 91 33 0f bf f9 f5 c3 bd 5c 02 0a 3e 7b 7c c4 bd
       -0.5593806 -0.095684 0.13477463 -0.09594055
0001e0 c1 43 fc bd 13 8e cd bd 1c 2b a4 bd 65 3e df 3c
       -0.123176105 -0.10036864 -0.08016035 0.027251432
0001f0 7c 10 2c be 08 d8 7e 3d ad 09 21 34 9c 05 99 35
       -0.16803163 0.062217742 1.4997813e-07 1.1401021e-06
000200 86 a2 9e 36 cd 9d f5 b5 62 11 98 b6 c0 ae af b7
       4.727687e-06 -1.8299849e-06 -4.5319766e-06 -2.0943e-05
000210 21 21 af b6 ac e0 1f 37 3a 42 91 36 5b 1a 13 3b
       -5.219263e-06 9.529449e-06 4.3290465e-06 0.002244613
000220 23 1f 01 3c 5f c3 11 3d 6c fd 90 3a 44 8a 6d 3a
       0.007880959 0.03558671 0.0011061854 0.00090614357
000230 67 b3 9b 3c 5b 1a ab 3b 80 80 ca bb 24 08 f4 3a
       0.019006444 0.0052216477 -0.006179869 0.0018618149
000240 8f 1b 87 14 04 56 f4 9c 02 78 ae 8d ee 45 48 0f
       1.3642386e-26 -1.61688e-21 -1.0752469e-30 9.874229e-30
000250 2b dc a5 96 4c c0 6e 1a ca 17 65 0f e2 fd b1 88
       -2.6796133e-25 4.9372583e-23 1.1295153e-29 -1.0712488e-33
000260 75 8a 19 00 cc 6f b8 a3 d9 68 b3 a3 7f 8d 35 1a
       2.345556e-39 -1.9996668e-17 -1.9451624e-17 3.7544222e-23
000270 bb 54 9c 19 06 52 f4 a1 67 e8 3d 9d c6 d9 b0 0f
       1.6164244e-23 -1.6555795e-18 -2.513409e-21 1.7438823e-29
000280 13 39 46 0b fa ec 2b 00 47 d8 3f 80 2c a8 06 0c
       3.817635e-32 4.033938e-39 -5.863222e-39 1.0373592e-31
000290 21 87 88 8e 09 b4 13 00 74 11 f1 8c 2e 9c 38 9b
       -3.3656713e-30 1.809459e-39 -3.7142434e-31 -1.5270588e-22
0002a0 b6 76 22 9e 26 30 cb 0b 39 5a 9d 9d b4 ec 56 a5
       -8.6007574e-21 7.82652e-32 -4.165084e-21 -1.8641739e-16
0002b0 d7 bb 98 a5 be 6c 0b a5 b4 ad b6 a3 fb 74 f3 a4
       -2.6495082e-16 -1.2093171e-16 -1.9806046e-17 -1.05582624e-16
0002c0 1c f1 92 a5 89 85 2e a4 fe d7 59 a4 7b f6 64 a4
       -2.5490345e-16 -3.7843344e-17 -4.7237327e-17 -4.9648396e-17
0002d0 e5 08 13 82 34 9e 50 00 4a 2f 85 01 47 de 85 01
       -1.0802407e-37 7.403592e-39 4.892434e-38 4.9175436e-38
0002e0 14 60 e7 81 fc ac 0f 82 3f c1 ca 81 fc 90 4d 01
       -8.4993864e-38 -1.0555625e-37 -7.4480375e-38 3.7756575e-38
0002f0 d8 be af 00 43 2f 1a a5 65 06 ce 24 9d 7b 68 b2
       1.6139674e-38 -1.3373384e-16 8.934909e-17 -1.3532284e-08
000300 56 f0 c6 a4 9f 66 8e a5 f9 a3 a1 b2 e6 2e 0d a2
       -8.627596e-17 -2.4702612e-16 -1.8817433e-08 -1.9133891e-18
000310 c1 07 40 24 fe 5c 64 b2 8e 29 7e 24 f1 03 ea a1
       4.163993e-17 -1.3292491e-08 5.511267e-17 -1.58575e-18
000320 02 66 74 20 26 30 b0 9d e4 ae 6a a1 f0 54 10 00
       2.0701355e-19 -4.6636596e-21 -7.951375e-19 1.499838e-39
000330 e4 d0 1f 0f 51 53 08 0c 4c 0c 3e 80 29 8c 03 a8
       7.879536e-30 1.0502131e-31 -5.698212e-39 -7.302353e-15
000340 99 f0 7f aa 9f af af a5 51 d9 9e aa 3d 71 73 ad
       -2.2732024e-13 -3.0476666e-16 -2.8217232e-13 -1.3838095e-11
000350 88 3e 35 a5 52 a3 78 a8 0f 1f cf 2b 49 47 c5 a5
       -1.5720434e-16 -1.380218e-14 1.4716855e-12 -3.4222357e-16
000360 a0 06 2a 80 60 9b 23 00 4c b1 26 82 dc ae 56 81
       -3.859467e-39 3.26998e-39 -1.2246636e-37 -3.9431048e-38
000370 a0 24 c4 81 56 af bd 01 a0 9e 2a 80 3c 18 dd 81
       -7.2051583e-38 6.967923e-38 -3.913995e-39 -8.1217353e-38
000380 ff b2 35 02 b1 75 48 a3 2d a2 66 a2 2f 9b 54 99
       1.3349149e-37 -1.0866944e-17 -3.1256668e-18 -1.0991482e-23
000390 1d 79 88 19 8c ec 75 a0 25 b8 e3 9c 5c e3 37 10
       1.4110988e-23 -2.0830574e-19 -1.50692e-21 3.6265538e-29
0003a0 20 8a 93 0b 58 96 1d 8a f4 db 3e a5 4a 25 4d 21
       5.683017e-32 -7.5875515e-33 -1.6554396e-16 6.9506053e-19
0003b0 9e be 5d a2 59 14 3f a0 74 cb 1e a4 42 49 12 11
       -3.0051997e-18 -1.6185062e-19 -3.443312e-17 1.1539944e-28
0003c0 ec 32 98 90 84 00 54 0b 3a af f3 05 5f be 1a 00
       -6.0031886e-29 4.0830103e-32 2.2915978e-35 2.456015e-39
0003d0 29 54 3e 80 77 f3 14 00 c8 b1 31 00 10 97 31 00
       -5.723992e-39 1.924049e-39 4.563715e-39 4.55413e-39
0003e0 37 f5 3c 00 81 1a 34 80 64 1b 19 00 c5 03 42 00
       5.598096e-39 -4.784954e-39 2.305713e-39 6.062495e-39
0003f0 f2 27 e6 ab 73 4a 2b ac 43 25 1d a6 f0 0b 18 2e
       -1.635357e-12 -2.434189e-12 -5.4520816e-16 3.45714e-11

encoder_conv.4.bias f4 [32]
000000 4f 08 30 be 22 0c 26 af b5 a7 65 bd 60 0d 1e a1
       -0.1719067 -1.5101922e-10 -0.05606814 -5.3550184e-19
000010 46 5d 80 bd 0f bc 51 bd fb 5d 3a b1 70 6e 5b bd
       -0.062677905 -0.051204737 -2.7119984e-09 -0.05357212
000020 85 11 8f bd be d1 52 bd e6 2d 0b be a7 2c f6 95
       -0.069857635 -0.051469557 -0.13591728 -9.942906e-26
000030 ed 29 f6 90 6c 93 a8 3c 6e f2 c1 bd 22 08 b0 9f
       -9.709449e-29 0.020578109 -0.09470068 -7.4552354e-20
000040 61 a6 03 bd b1 3f 6c b9 8c 93 c9 bd 97 51 d3 a6
       -0.032141093 -0.00022530441 -0.098425955 -1.4663181e-15
000050 78 8d a3 bd 94 eb 57 3d ee 63 69 be ce 53 b7 92
       -0.079859674 0.0527149 -0.22792026 -1.1569583e-27
000060 48 8d 40 be 45 fb ca bb 70 77 26 be 49 a9 da ba
       -0.18803895 -0.0061945044 -0.162565 -0.0016682531
000070 9d 9e a0 3e da 29 a2 bd a0 01 24 b5 f9 16 e6 3c
       0.31371012 -0.07918139 -6.1097126e-07 0.028087126

encoder_lin.0.weight f4 [64, 288]
000000 9f 40 0b 3c 63 e8 3f bd 40 d5 2b 3e 5a aa 34 bd
       0.008499294 -0.04685248 0.16780567 -0.044107772
000010 e1 c7 48 bd c0 58 44 3d d5 4d 0f 3c 4a 29 08 be
       -0.049018744 0.0479362 0.008746584 -0.13297
000020 ee 90 12 be 1f c8 2b 80 9b 28 69 8b eb a0 0f 80
       -0.14313099 -4.020716e-39 -4.4904716e-32 -1.435259e-39
000030 cc c8 41 00 31 c5 04 80 38 1a 37 00 5b f8 2c 00
       6.04134e-39 -4.38081e-40 5.060358e-39 4.129855e-39
000040 04 25 4f 22 5c ff 29 80 e5 11 01 bc a0 be 2d 3a
       2.8073327e-18 -3.856861e-39 -0.007877802 0.00066278316
000050 49 d1 12 3c 5e b7 12 bc d4 14 f6 39 b7 52 0e 3c
       0.00896103 -0.008954851 0.00046936295 0.008686713
000060 95 dc 2e 3b 65 21 d3 ba 34 e8 1f 3c 84 a8 18 80
       0.002668177 -0.0016107975 0.009759951 -2.264504e-39
000070 fa c1 31 80 0a 6b 40 00 86 0f 3f 80 d3 7a 15 80
       -4.569525e-39 5.91587e-39 -5.791205e-39 -1.972606e-39
000080 b4 98 03 00 94 2f 15 00 76 3d 30 80 89 ee 2e 00
       3.30286e-40 1.945613e-39 -4.430152e-39 4.310003e-39
000090 59 a8 30 00 b1 4d c2 b6 c2 f1 55 3c 5f 44 0f 00
       4.468496e-39 -5.790695e-06 0.013058128 1.40206e-39
0000a0 bc 88 42 b6 21 06 56 3c 8a 77 24 80 cf 22 3c bb
       -2.8987843e-06 0.013062985 -3.34896e-39 -0.002870727
0000b0 eb e3 09 bd f3 6f a5 bd 82 a4 80 bc 17 70 a9 3d
       -0.033664625 -0.08077993 -0.015703443 0.082733326
0000c0 99 64 fb bd 67 c7 ed bc e0 ac b2 3d d7 82 02 bd
       -0.12275047 -0.029025747 0.087243795 -0.03186306
0000d0 de 32 93 3c de b8 93 bd 14 62 f8 8d cb d6 57 10
       0.017968591 -0.07212995 -1.53077915e-30 4.2566744e-29
0000e0 01 0e 8f 0f db 78 06 10 20 c9 8c 10 3c 10 d8 0f
       1.4106283e-29 2.6519944e-29 5.5530145e-29 2.1305498e-29
0000f0 8f c5 9b 0f 8d c4 ac 90 90 db b2 0f fc 59 62 b2
       1.5360277e-29 -6.814487e-29 1.7636728e-29 -1.31753914e-08
000100 07 2c 1d 33 d4 4f cf b1 20 ba 2c 31 73 9b 94 b2
       3.6594454e-08 -6.0335683e-09 2.5135094e-09 -1.7300158e-08
000110 82 2a 08 b3 1e 1a 27 b2 92 3e 5b 32 fa 02 67 32
       -3.1703628e-08 -9.726618e-09 1.2761705e-08 1.34466465e-08
000120 95 e6 c6 2f 06 53 8e 3b d4 16 d7 3c f8 69 ec 3a
       3.6179829e-10 0.0043433933 0.026256002 0.0018036952
000130 34 df 77 3d 3d b4 6b bd b1 40 a9 38 ac 4c aa 3c
       0.060515597 -0.057544935 8.070598e-05 0.020788513
000140 98 2f 88 3b c4 52 17 3a ae 40 a8 3b 0f 0a 24 bb
       0.0041560642 0.0005772526 0.0051346635 -0.002503041
000150 84 29 cb ba 6c 0e 2a 3b 5c 6f 9b 39 2d c8 ce 3a
       -0.0015500044 0.0025948538 0.00029646873 0.001577621
000160 25 f5 fc ba 7e 6e 1e bb 65 4c cd b3 ca 33 67 3c
       -0.0019299133 -0.0024174745 -9.5599525e-08 0.014111469
000170 aa 9b ad 3c fc a6 cb b4 52 7f 57 bb 87 c5 d3 bd
       0.02119239 -3.7933194e-07 -0.0032882285 -0.1034041
000180 69 69 08 38 48 60 7b bd 99 fe 8f 3c df 14 2f 80
       3.2523098e-05 -0.061371118 0.017577456 -4.323755e-39
000190 04 11 36 00 c4 8b 31 80 83 9c 08 80 7e b1 1a 00
       4.965221e-39 -4.550078e-39 -7.9083e-40 2.451395e-39
0001a0 6c b6 31 80 f4 f9 0e 80 20 79 24 80 2b 41 19 00
       -4.56538e-39 -1.375363e-39 -3.34953e-39 2.319265e-39
0001b0 5f 0c 06 80 f8 5f 41 80 29 e3 21 00 c2 32 32 00
       -5.55451e-40 -6.003734e-39 3.112061e-39 4.609983e-39
0001c0 e7 a4 38 80 9c 1c 3f 00 87 02 07 80 cd 16 16 00
       -5.201944e-39 5.7959e-39 -6.43755e-40 2.02856e-39
0001d0 61 80 24 80 f3 37 97 3c f2 03 06 3c 62 96 f3 bd
       -3.352132e-39 0.018459296 0.008179652 -0.118939176
0001e0 b3 3a 46 bc 43 cf ec 3c 04 88 95 be 12 04 21 bd
       -0.012098956 0.028907424 -0.29205334 -0.039310522
0001f0 4c cd 9c 3b e8 42 49 bd e9 d8 14 bb 39 37 c0 bd
       0.0047852155 -0.049136072 -0.0022712296 -0.09385533
000200 1f 67 f0 bd a6 55 71 ba 38 b6 0c bd d6 48 76 3d
       -0.11738419 -0.0009206183 -0.034353465 0.060128056
000210 48 14 38 bc 87 c8 c3 bc 68 0a a9 bd 1f 09 3c 80
       -0.011235304 -0.02389933 -0.08253938 -5.513402e-39
000220 18 d0 35 00 d3 9f 37 00 84 8e 15 00 2e 0e 36 80
       4.941931e-39 5.108286e-39 1.97967e-39 -4.964204e-39
000230 6a 39 29 80 d8 a2 43 80 2a 2e 0c 80 31 4a 4b 00
       -3.785852e-39 -6.211396e-39 -1.118586e-39 6.914277e-39
000240 15 11 6c bd e4 ce 09 bc c6 97 89 bd c7 3a a9 bc
       -0.05763348 -0.008411143 -0.067184016 -0.02065791
000250 18 55 a7 3b a9 b6 12 3e 55 5d 83 bd 17 dd f7 3d
       0.0051065795 0.14327492 -0.06414286 0.121027164
000260 92 4d a4 b9 3c 0f cd 96 08 82 3e 80 7d 27 ce 19
       -0.00031338312 -3.312915e-25 -5.740447e-39 2.131585e-23
000270 da f9 39 80 a2 8e 12 80 7d d9 41 92 cc cd 00 80
       -5.324253e-39 -1.704206e-39 -6.1168137e-28 -7.3826e-41
000280 c0 75 1e 00 1e a0 ed 17 55 2d 99 3a 34 0d 05 bd
       2.797306e-39 1.5356185e-24 0.0011686484 -0.032483295
000290 fa 63 48 bd d7 f6 b9 bd 43 eb 1f bc f4 65 19 bd
       -0.04892347 -0.09080284 -0.009760681 -0.037450746
0002a0 0a 3d 4c 3d 8d 0b 43 3c 21 e4 07 3d d6 87 0c 80
       0.0498629 0.011904609 0.033176545 -1.150755e-39
0002b0 c3 64 14 00 66 fd 07 80 b0 d5 13 00 29 fd 2b 00
       1.872856e-39 -7.33751e-40 1.821531e-39 4.039743e-39
0002c0 1d 45 07 80 c7 ad 23 00 cf 78 15 00 26 57 0d 80
       -6.67642e-40 3.276582e-39 1.971883e-39 -1.225124e-39
0002d0 c2 60 92 20 68 80 c3 ba e9 b6 98 bd f5 32 20 3b
       2.479739e-19 -0.0014915587 -0.07456762 0.0024444435
0002e0 18 b6 91 bb 55 d6 87 bd 23 7e d9 3a 23 25 5f bc
       -0.004446756 -0.066326775 0.0016593378 -0.013619694
0002f0 61 07 84 3d f5 13 45 3e 2a e5 a0 3d c3 2b 81 3d
       0.0644672 0.19245894 0.078562096 0.06307175
000300 c4 0e 0a 3d 24 cc 0c bd 24 d3 4c be 80 eb 34 bd
       0.033705488 -0.03437437 -0.20002419 -0.044169903
000310 b8 0f 38 bd 6c 9f b8 bd cf 5f 0f b8 87 c1 ba 3d
       -0.044936866 -0.09014782 -3.4183086e-05 0.09118944
000320 21 44 8a 3a 08 1d da 37 61 7a c1 3a 2a 15 fc 3c
       0.0010548868 2.6001144e-05 0.0014761203 0.03077181
000330 21 e7 08 b8 46 7b 44 3d cc 8f c6 3c 2d 53 0f 80
       -3.2640182e-05 0.047969125 0.02423849 -1.40737e-39
000340 cb d0 2f 80 4a 22 23 80 51 18 31 80 ae f5 41 80
       -4.391169e-39 -3.226543e-39 -4.508662e-39 -6.05744e-39
000350 ff 08 19 00 77 dd 26 80 eb cf 38 80 47 15 02 80
       2.299115e-39 -3.569195e-39 -5.217375e-39 -1.91304e-40
000360 c5 b6 08 80 f4 63 99 b7 04 5e dd 3d 8e 13 20 80
       -8.0025e-40 -1.8285566e-05 0.10808948 -2.945751e-39
000370 b5 cd e9 b7 0f 24 bc 3d d1 d8 56 b9 73 a0 fc bc
       -2.7871554e-05 0.09186565 -0.00020489401 -0.030838227
000380 03 50 a0 bd 0c 30 2b ab 14 be 2a a8 8c 08 93 b2
       -0.07827761 -6.081808e-13 -9.478112e-15 -1.7116939e-08
000390 35 08 c2 a5 85 9b a2 0f e2 d5 a0 b1 d2 6c a3 20
       -3.3659197e-16 1.6034337e-29 -4.6809285e-09 2.7685285e-19
0003a0 47 2b 32 a6 67 b0 f1 b1 ce 81 ce bd 35 1f df bd
       -6.181481e-16 -7.0340778e-09 -0.10083352 -0.10894624
0003b0 77 3a 74 bd d6 ac 9d bc 67 cf 8d bc 7c 10 3b 3e
       -0.05962607 -0.019247454 -0.017310811 0.18268007
0003c0 33 be 27 3d 66 a3 eb 3d e1 b6 8f 3c fc 1e d3 a7
       0.040952872 0.11505775 0.017543258 -5.8597858e-15
0003d0 c0 16 7c a8 15 24 a2 a8 3a 37 c3 27 4a 16 1c a9
       -1.3993743e-14 -1.8001261e-14 5.418325e-15 -3.465829e-14
0003e0 a6 5f 86 27 a1 76 47 29 1d 5e d8 29 67 1c 76 29
       3.7296174e-15 4.428977e-14 9.608653e-14 5.4647608e-14
0003f0 87 aa 24 bd 5b 7a 3e 3e 83 39 29 bb 8a 0a ab bc
       -0.04020169 0.18601362 -0.0025821633 -0.020879049

encoder_lin.0.bias f4 [64]
000000 e0 de b4 bc 7d 9a 10 be 58 8b c2 3c b5 dc 28 3e
       -0.022078931 -0.14121433 0.023748085 0.16490443
000010 ac 8e b8 bb 9c 14 43 bc 9c 8d 14 be af 4f 01 ba
       -0.005632242 -0.011906769 -0.14507145 -0.0004932833
000020 64 b1 65 be 47 ed 13 bc db 0c ce 39 f6 f7 4b 39
       -0.2243095 -0.009028739 0.0003930096 0.00019451961
000030 d1 72 af 3b 39 ae 29 be d3 f5 0c 3e 1c 0c 9f b9
       0.0053542634 -0.16570367 0.1376565 -0.00030335865
000040 cf 38 5a 3a 45 cf ab bc 11 df 9f bb 63 61 86 bc
       0.0008324505 -0.020972857 -0.0048788865 -0.01640386
000050 89 4b 97 bd 50 c6 3b ac df ae 4d be 06 cc 45 3c
       -0.07387454 -2.6684384e-12 -0.2008624 0.012072569
000060 98 2b 95 bd 0f f7 7d 23 d1 49 d1 b4 a6 8f 99 bd
       -0.072837055 1.3767474e-17 -3.8982992e-07 -0.07498102
000070 2f 5c 1e 2f fb 50 15 be cd 57 95 b6 4f 64 24 3b
       1.4402766e-10 -0.14581673 -4.4507674e-06 0.0025084203
000080 37 44 42 ba 34 dc 38 bd 50 ec 0b 08 8c 69 6d bd
       -0.00074106775 -0.045131877 4.2106575e-34 -0.057961985
000090 a9 28 1f bd b3 65 6e bd 9e f2 39 b5 6a d0 2a a4
       -0.038857136 -0.058202457 -6.9270925e-07 -3.7039407e-17
0000a0 25 87 0a ba 4d ac 82 be fd 5a 9f 98 c0 48 34 be
       -0.00052844203 -0.2552208 -4.119241e-24 -0.17605877
0000b0 48 dd d6 b8 8d 7e 02 be fb 91 09 ba e5 dd 02 ba
       -0.00010245532 -0.12743588 -0.0005247888 -0.00049921713
0000c0 2f 83 30 a7 45 8f 4e bd 96 86 3d bb 30 0d 34 bc
       -2.4496021e-15 -0.0504296 -0.002891933 -0.010989472
0000d0 69 ab 36 bd 42 45 57 bc cf f2 2a be 6b 34 30 be
       -0.044597063 -0.013139071 -0.16694187 -0.17207496
0000e0 d4 7e 38 be 92 58 4d bd d2 8b f6 b9 3d 78 10 be
       -0.18017131 -0.050133295 -0.0004702495 -0.14108367
0000f0 a6 2e 35 be 54 31 34 be 3a ed 38 be 99 f2 10 ba
       -0.17693576 -0.17596942 -0.18059245 -0.0005529314

encoder_lin.2.weight f4 [3, 64]
000000 4e 2c d2 bd 70 ef 82 bf 6e b8 88 3e 8b f7 74 3e
       -0.10262357 -1.022932 0.2670321 0.23922555
000010 3d ec 8f 3b b3 6c 1e be 5e 42 90 3b e3 1f 24 3b
       0.0043921755 -0.15471153 0.004402443 0.002504342
000020 a1 21 86 be 68 ce 97 be 1d 6f aa bd b5 81 38 bd
       -0.26197532 -0.29649663 -0.083219744 -0.045045573
000030 bf 50 9e bc 27 e2 80 be 88 ed ca 3c 7b 3c 69 b9
       -0.019325612 -0.2517254 0.024771467 -0.00022243142
000040 7e 24 cb 3c f9 93 44 3d 63 40 c7 3c 56 a0 30 bd
       0.024797674 0.04799268 0.024322694 -0.04312166
000050 67 bb b1 be 79 c5 ac bd 19 3f f0 3e 6b 05 af bd
       -0.3471329 -0.084361024 0.4692314 -0.08545955
000060 28 0c ea 3e c7 44 dc 3c 79 da 38 3d b0 55 9d be
       0.457124 0.026888264 0.045130227 -0.30729437
000070 26 63 85 ba 56 4c 31 3d 6e 7b 03 be 91 41 5e 3e
       -0.0010176643 0.04328569 -0.12840053 0.21704699
000080 0e 73 29 bc 82 2f 1a 3e 81 65 6c 3b e0 30 d1 be
       -0.010342373 0.15057185 0.0036071243 -0.408576
000090 43 ea a6 3e 58 20 98 bd ca f7 60 bc 30 be 45 bc
       0.32600603 -0.07428044 -0.0137309525 -0.01206927
0000a0 f4 9d 85 bc 2e 9a 1d 3e 89 39 9b 37 b8 80 ff bd
       -0.01631067 0.15390846 1.8504232e-05 -0.12475723
0000b0 06 32 b8 38 3d 1c 22 bf 6e 65 a8 bc 19 08 90 3c
       8.783121e-05 -0.6332434 -0.020556178 0.017581986
0000c0 df a7 68 ba af 58 07 bd 79 e4 86 3e 93 b9 b6 bc
       -0.00088751124 -0.03304356 0.26346186 -0.022305286
0000d0 36 58 3e 3e 59 cc 16 bc 9e d7 52 3e de 61 85 3e
       0.18588337 -0.009203994 0.20590064 0.2605123
0000e0 94 6e 1e 3c be 8a e5 bd c2 22 f0 3a 43 08 63 3e
       0.009669919 -0.112081036 0.0018320906 0.2217112
0000f0 ec d5 45 be 73 e8 01 bf 93 ee 43 bf 0f a1 e4 bd
       -0.19319886 -0.50745314 -0.7653591 -0.11163532
000100 01 51 42 3e c5 23 b8 3e b2 6f 1c bd 60 54 77 be
       0.18976213 0.3596479 -0.03819246 -0.2415328
000110 a8 11 cb 3c 39 87 41 be 2e de cf 3e d0 12 d5 bb
       0.024788693 -0.1889924 0.40599197 -0.0065024868
000120 1f fa ae be 41 32 de 3d 3b 43 31 3c 4b 38 8c 3b
       -0.34175202 0.10849429 0.010819252 0.0042791716
000130 d9 49 13 3c d2 71 ab be 8a 9d 09 be 93 9a ea bb
       0.008989775 -0.33485276 -0.13439003 -0.00715954
000140 b2 c6 71 3d 3f 96 c1 3e df fc 21 bc b0 9b 8d 3e
       0.05902738 0.3780994 -0.009886949 0.27657843
000150 07 ff b9 3e e6 df b6 3c db 18 57 3e 9d 91 b8 3d
       0.36327383 0.02232356 0.21005575 0.090121485
000160 94 f8 0e bf ff 5e 65 3d 8a 31 07 3d e6 7a a6 3e
       -0.5584805 0.0559988 0.03300623 0.3251564
000170 58 7e 91 39 2d cb 9f bc 71 d1 b8 3c ab 1a cf 3c
       0.0002775069 -0.019506061 0.022560807 0.025281271
000180 e2 a5 ac b9 db a4 a7 3e 40 a2 f5 38 3d 43 30 3f
       -0.0003292999 0.32742962 0.00011712732 0.688526
000190 50 f1 8f be ea c7 a1 3d 7d 79 29 bd ea 6a 70 ba
       -0.28113794 0.07899459 -0.041375626 -0.0009171205
0001a0 47 3d 8a 3c 61 c0 c6 3d 94 1f 1c 36 61 9a 89 be
       0.016874922 0.09704662 2.3264192e-06 -0.26875594
0001b0 e8 b8 d1 ba 3b d6 80 3e 06 74 02 3d f4 20 de 3b
       -0.0016000541 0.25163445 0.03184893 0.0067788307
0001c0 51 68 ae b5 73 93 c1 be d9 9a 61 be 61 b3 e3 3d
       -1.299437e-06 -0.37807807 -0.22031726 0.11118198
0001d0 95 b8 86 be 62 6e 20 3c 6c a0 79 3e dc cd b7 3e
       -0.263127 0.009791942 0.24377602 0.35899246
0001e0 53 03 17 bf fa 5c 73 bc b1 ab c7 ba 6c 44 45 3c
       -0.5898945 -0.01485371 -0.0015233663 0.012040239
0001f0 0c 72 39 be ce 09 fe bd 51 0e 42 3e 22 03 d0 3d
       -0.18109912 -0.12404214 0.18950774 0.101568475
000200 bb 10 2c 3e 2b bf 80 3e f4 03 7d be 44 1e 28 be
       0.16803257 0.2514585 -0.24708539 -0.16417795
000210 c5 ca 6d 3c b6 b8 63 3e 1c 05 01 be fd d9 34 3c
       0.014513676 0.2223843 -0.12599605 0.011038301
000220 89 7f 71 3d 87 e2 da be 12 69 f5 bd 80 4c a1 bc
       0.058959518 -0.42750952 -0.11982931 -0.019689798
000230 29 e4 f3 3c 05 f1 ac 3e c6 8e 8b be 78 65 9b 3b
       0.029771881 0.33777633 -0.27257365 0.0047423206
000240 38 7b 43 be af 43 37 3e 7d 5d 55 3d e9 b1 bb 3d
       -0.19089973 0.17896913 0.05209111 0.09164793
000250 dc 27 8d 3e 43 4b d9 bd bb fe 48 3d 71 b0 ea 3d
       0.27569473 -0.10610058 0.049071055 0.11459435
000260 d3 b6 85 3f da 0f e2 bb 0c 4d ad bc 3d 5d 8e be
       1.0446419 -0.0068988623 -0.021154903 -0.2780551
000270 ce c9 b5 3c e6 9d 8b 3f 6b a6 13 bc 2d ab 3f 3d
       0.022190955 1.0907562 -0.009011845 0.046794105
000280 1d ec 8e bc c9 d1 7f 3d 6c c1 39 3b 9e e4 86 3e
       -0.017446572 0.062455926 0.0028344048 0.26346296
000290 94 05 0b 3f ca 8a 4f be a1 66 01 3e 6d 88 31 bc
       0.54305387 -0.20267788 0.12636806 -0.010835749
0002a0 3e 3d 87 bc 12 67 0b 3e 77 14 e3 38 82 7c a4 3c
       -0.016508695 0.13613537 0.000108280154 0.020078901
0002b0 56 23 22 3a 87 f1 b9 3e cc 1a dc bc ef c7 84 3c
       0.0006185075 0.36317083 -0.026868246 0.016208617
0002c0 ce ef 26 37 f3 96 60 be bc 38 85 3e 5e 93 a7 3c
       9.950205e-06 -0.21932583 0.26019847 0.020456012
0002d0 18 88 0e 3e ce 99 dc 3b 39 a9 f8 bd 9e 4f 9a 3e
       0.13919103 0.006732202 -0.12141652 0.30138868
0002e0 18 9d 22 3f b1 62 9f bd b1 75 05 b9 d5 45 51 bd
       0.63520956 -0.07782496 -0.00012727712 -0.051091988
0002f0 bb 1d ab b9 46 33 4d 3f 8f fd 61 be 52 b4 a4 bd
       -0.00032637813 0.8015636 -0.22069381 -0.08042206

encoder_lin.2.bias f4 [3]
000000 bc 98 a6 3e f4 22 c3 bd e8 35 42 be
       0.32538402 -0.09528151 -0.18965876

decoder_lin.0.weight f4 [64, 3]
000000 d5 6f 61 3d ba 32 d2 bd 25 6b 23 bb b5 66 78 b7
       0.055038292 -0.102635816 -0.002493569 -1.4805865e-05
000010 a3 dd 33 b7 02 43 e5 35 5a 99 b9 3e a0 e5 41 3d
       -1.0720835e-05 1.7081331e-06 0.3624981 0.047338128
000020 5e cc bb bc 2c 71 01 3f ad 4d 4b bf 9f b0 79 be
       -0.022924598 0.5056331 -0.794154 -0.24383782
000030 60 f1 ab 3d fe 06 de 3e 18 2f 11 3f f5 5c 8e 3e
       0.08395648 0.4336471 0.56712484 0.27805296
000040 04 b8 39 bd b3 d3 e2 bd ba 8e a9 37 7e 92 cd 36
       -0.045341507 -0.11075535 2.0212832e-05 6.12653e-06
000050 3c a6 e9 b6 69 4b d1 34 ee 6b cb b4 2e 32 4b b5
       -6.9632933e-06 3.8984152e-07 -3.7890226e-07 -7.5696414e-07
000060 51 47 bd 3c 7f a9 8b bb f2 e6 5c bb 28 9f 0c 38
       0.023105295 -0.004262149 -0.003370699 3.3526827e-05
000070 58 97 13 39 55 de fc b7 e7 3a 18 bc ba 2c 2a bb
       0.00014075392 -3.0144272e-05 -0.009291387 -0.00259666
000080 87 a7 54 bb 00 c7 27 3e ce 53 f3 be 9e aa 20 bf
       -0.0032448487 0.16384506 -0.47524875 -0.6276034
000090 c8 e6 a5 2e 45 5f 9e af 85 3c ae af b8 4a 72 3d
       7.544326e-11 -2.8807726e-10 -3.1693417e-10 0.05915329
0000a0 85 dd 60 3e 17 a0 86 bd 9a c4 58 3c db db de bb
       0.21959503 -0.065735035 0.013230467 -0.006801111
0000b0 c5 5d a2 bb 03 a0 ba b6 08 05 37 b5 53 82 eb b7
       -0.004955026 -5.56186e-06 -6.8180134e-07 -2.807487e-05
0000c0 40 3b 17 33 52 6d 71 b2 2d af 1b b3 6a 6a 6c 3e
       3.5211315e-08 -1.4052903e-08 -3.624807e-08 0.23087469
0000d0 f1 cd c8 3d d0 01 d2 3c b6 d9 4d 3b 4e bc 86 bb
       0.09804905 0.02563563 0.0031410283 -0.004111803
0000e0 fd 78 e3 bb 13 16 c8 ba c1 15 e4 bb 2e 37 85 3a
       -0.006941913 -0.0015265368 -0.006960601 0.001016354
0000f0 15 33 58 bc 05 78 d8 3d 5e 7b 2e be 4a 99 88 b2
       -0.013195773 0.10569767 -0.17039248 -1.5902192e-08
000100 60 c2 27 30 49 44 a0 b2 ae 84 f1 be f9 7f 75 be
       6.103047e-10 -1.8657504e-08 -0.4717154 -0.23974599
000110 8b 9d da be 7b e1 b4 bd 94 a1 09 be 4f 38 09 3f
       -0.4269832 -0.088320695 -0.13440543 0.53601545
000120 97 dd 00 be c9 9f ac be a3 11 f8 3d c3 9b 5a 3f
       -0.1258453 -0.33715656 0.12112739 0.85393924
000130 cb 0a cb be ea 1a a6 3e 16 9c f2 be 27 6c 88 bf
       -0.39656672 0.3244241 -0.4738471 -1.0658005
000140 ec 8d 43 bd 2a 13 16 bb 53 22 18 bc 1f 51 3e 3a
       -0.04774277 -0.0022899606 -0.009285527 0.0007260013
000150 79 96 69 3d 0d ed 31 3d ec 1a 04 3b 63 e7 15 b4
       0.057028268 0.04343896 0.0020157648 -1.3960884e-07
000160 70 74 a4 b5 f2 84 45 b3 10 cf ae bd 6e 4a 09 be
       -1.225284e-06 -4.598855e-08 -0.08535588 -0.13407299
000170 bf 2f 89 3e 23 5a a5 3e ee 29 27 3e 5e 36 73 3e
       0.2679424 0.3229533 0.16324589 0.23751208
000180 c6 53 d0 bb 8f e4 0b 3b 99 dc 85 3b 45 2a 20 3f
       -0.006357643 0.0021345948 0.004085135 0.625645
000190 3c 03 d0 be 55 77 8a 3f 34 c6 c1 3b c7 1c 2f bc
       -0.40627468 1.0817667 0.00591352 -0.010688013
0001a0 97 86 68 3c 2c 79 92 3e 2d 6d d8 be 1d 95 ee 3d
       0.014192245 0.28608072 -0.42270795 0.11649535
0001b0 70 e2 70 bd 09 79 30 bd cf 9b 82 be 58 cf ba 36
       -0.058809698 -0.043084178 -0.25509498 5.56737e-06
0001c0 52 a8 18 b5 54 ae a1 36 c2 c4 85 bd a4 1e 0a 3f
       -5.686935e-07 4.8184684e-06 -0.06531669 0.53953004
0001d0 57 bd 87 3e 5f 98 60 3e a2 a1 0c be 29 f0 05 be
       0.26511642 0.21933125 -0.13733533 -0.13079895
0001e0 e1 4c 04 37 ca a9 d6 b8 23 b8 c9 37 de 44 51 b5
       7.885713e-06 -0.00010235941 2.4046813e-05 -7.795878e-07
0001f0 a8 19 01 b6 d9 90 00 36 d6 83 3d bf 40 9b 6c 3b
       -1.9237432e-06 1.9157799e-06 -0.7402929 0.0036103278
000200 40 01 37 3f a0 a9 81 35 2a c5 12 35 ab d0 eb 35
       0.7148628 9.660616e-07 5.467615e-07 1.7569595e-06
000210 85 68 69 37 64 c5 d4 34 38 10 bf b7 71 d5 08 b6
       1.3912218e-05 3.9631698e-07 -2.2776527e-05 -2.0389818e-06
000220 cb d9 83 b5 5f 31 59 36 a7 65 2e bc 9d dc 3d bc
       -9.823647e-07 3.2364258e-06 -0.010644353 -0.011588243
000230 fa ff 9f 3c 05 91 8c 39 9d da 57 ba 00 e0 96 39
       0.019531239 0.0002681093 -0.0008234175 0.00028777122
000240 60 3b b3 38 74 de 18 38 cf 93 ba b8 dd 09 4d 3f
       8.5464446e-05 3.64468e-05 -8.896703e-05 0.80093175
000250 6b 6e 95 3d 8f e1 35 bf b6 dc 3e bd 41 35 c3 3e
       0.07296451 -0.710473 -0.046597205 0.38126567
000260 17 96 4b be 1c ae ff b8 c8 2c e5 b6 55 e9 b7 b8
       -0.19881473 -0.00012191778 -6.829945e-06 -8.7695815e-05
000270 e5 35 21 29 c6 7d 15 28 93 6a 8e 28 6c cb 88 30
       3.5795927e-14 8.298434e-15 1.5811386e-14 9.953118e-10
000280 b5 f4 c8 b1 e7 e1 8f b0 8d cf fb b6 b5 3f c4 b7
       -5.848586e-09 -1.0468825e-09 -7.504545e-06 -2.3394687e-05
000290 1e a0 99 37 55 cd c2 34 53 21 b5 b4 9e 97 80 34
       1.8313582e-05 3.6284715e-07 -3.3738124e-07 2.3952174e-07
0002a0 a4 66 15 be c7 db 1d bd 48 9c f9 3d 91 98 ac be
       -0.14589936 -0.038539674 0.121880114 -0.3371015
0002b0 92 c2 70 3e 12 1b 25 bf 04 aa 02 3b a0 61 8d 3c
       0.23511723 -0.6449443 0.0019937763 0.017258465
0002c0 6b 7f 2f ba c6 c4 97 bc 6e a4 7f bc c8 f2 02 bc
       -0.0006694707 -0.018526446 -0.015603168 -0.007992454
0002d0 ef 10 97 32 ae eb 1b b0 c4 c2 1a b2 9a 68 94 bd
       1.7586414e-08 -5.672359e-10 -9.008264e-09 -0.07246514
0002e0 40 2a e5 b9 cc ce 72 3d 8f ed 0f 3f cb b4 98 3e
       -0.00043709762 0.059279248 0.5622186 0.29825434
0002f0 4c a9 23 3d 62 19 07 be a0 90 5b 3e c3 a3 b1 be
       0.039956376 -0.13193277 0.21441889 -0.34695253

decoder_lin.0.bias f4 [64]
000000 b7 6d 46 be bd 75 55 b9 9f 99 c9 3d 76 d5 5a bd
       -0.1937779 -0.00020357124 0.09843754 -0.05342623
000010 c9 12 06 bf b8 aa ff be 5a 43 db b9 38 39 21 b7
       -0.52372414 -0.49934936 -0.00041821116 -9.60967e-06
000020 b2 6b fa bd e5 a4 e0 b8 57 57 0d be 80 a1 b4 bd
       -0.122275725 -0.00010711866 -0.13802849 -0.08819866
000030 e1 63 56 b1 2b f9 20 be 93 ea 1d be dc ba 8c b8
       -3.1197873e-09 -0.1572005 -0.15421514 -6.7105255e-05
000040 6e a0 96 b4 d0 a4 f6 3e 43 cc 7d bd 09 a4 f8 bc
       -2.8056405e-07 0.48172617 -0.061962377 -0.030351656
000050 94 a8 0a bf ef 64 5f b3 2c d9 9d be c6 83 1f bf
       -0.5416348 -5.2013032e-08 -0.30829751 -0.62310445
000060 95 13 4a bf 68 a3 38 bc 16 37 27 3e 3f 52 43 bd
       -0.7893613 -0.011269428 0.16329607 -0.047685858
000070 a5 4b 31 be 27 69 23 b7 e6 aa 40 bf c0 e7 e8 3c
       -0.17314012 -9.74004e-06 -0.7526077 0.02843082
000080 6c b9 30 bd a1 ab a8 bd b0 55 e6 be 43 66 c8 be
       -0.043145582 -0.082358606 -0.4498725 -0.3914052
000090 ed ec 03 bf 0e 7c 00 b9 ae 81 ba bd ef 29 51 be
       -0.51533395 -0.00012253245 -0.09106766 -0.20426153
0000a0 03 5f 40 ba f9 0e 18 b8 65 3d 9d be ad b1 bd b6
       -0.00073383766 -3.625357e-05 -0.30710903 -5.653323e-06
0000b0 57 71 96 b9 82 6b 26 b8 ee 72 d7 bd 91 7a 00 b9
       -0.00028694674 -3.967761e-05 -0.10519968 -0.00012252691
0000c0 bb 39 e4 ba 0e cb f2 3e 4e 4d d1 be be 6e 7a b9
       -0.0017412225 0.47420543 -0.4087929 -0.00023883113
0000d0 9e 74 33 ab ed c4 16 b3 b7 7a 52 b9 67 5b 14 b7
       -6.3755414e-13 -3.51037e-08 -0.00020072875 -8.842769e-06
0000e0 7b 3e 2f bf 0b a7 7f 3e 57 53 e2 bd a3 5e f8 bd
       -0.6845471 0.24966066 -0.11051052 -0.121274255
0000f0 63 b7 45 b4 c0 96 b6 be 5c c9 24 bf f5 01 61 be
       -1.841377e-07 -0.35661888 -0.6436975 -0.21973403

decoder_lin.2.weight f4 [288, 64]
000000 b5 ed 48 a8 52 f7 a7 05 66 3d d2 a7 7d e9 01 b3
       -1.1153775e-14 1.5795456e-35 -5.8353277e-15 -3.024751e-08
000010 56 0f 15 b9 1d 93 55 87 da 3f b8 05 a6 cd 04 94
       -0.0001421546 -1.6067572e-34 1.7326732e-35 -6.704854e-27
000020 0f 09 9c a3 4a 1c 06 00 00 55 2d 00 72 2a cd b0
       -1.691739e-17 5.61161e-40 4.16309e-39 -1.4927777e-09
000030 02 d1 ae 04 e7 c0 bd b4 2d e1 41 80 0c ae a5 83
       4.1099147e-36 -3.5344348e-07 -6.050085e-39 -9.737788e-37
000040 10 6a 5e 85 63 77 81 af 0a 68 db 8f 90 52 14 90
       -1.04578704e-35 -2.3549793e-10 -2.1635142e-29 -2.9251457e-29
000050 06 5a 8a a6 c1 21 10 00 de bb 8e 2a 8a 0e f5 ad
       -9.600074e-16 1.481477e-39 2.5354626e-13 -2.7859732e-11
000060 ae e8 4d 26 d4 49 26 b3 8f 96 68 b6 46 64 87 88
       7.1439e-16 -3.8717033e-08 -3.465833e-06 -8.148591e-34
000070 a0 73 a7 b0 30 6d b4 91 d3 80 f8 25 88 01 2f b6
       -1.2183712e-09 -2.8466285e-28 4.3108437e-16 -2.6077923e-06
000080 04 87 6d a6 6e 40 a3 b7 14 f4 c9 85 b9 30 55 ab
       -8.2408873e-16 -1.9461117e-05 -1.899161e-35 -7.574042e-13
000090 b7 d9 a2 1c 81 82 05 80 6e 7d 0e b8 87 f4 7e a3
       1.0776539e-21 -5.05993e-40 -3.3972254e-05 -1.3821148e-17
0000a0 56 72 8f a5 ec fd 18 0e 37 42 98 33 79 75 c9 06
       -2.4884023e-16 1.8857705e-30 7.090096e-08 7.578041e-35
0000b0 a8 31 a9 97 f9 25 09 80 57 67 7a af fc 9d ae af
       -1.0933904e-24 -8.40141e-40 -2.2774081e-10 -3.176267e-10
0000c0 38 ba 04 00 a3 77 41 b1 93 39 5a b4 ff be 0f 80
       4.34145e-40 -2.8153202e-09 -2.0323778e-07 -1.446049e-39
0000d0 ff 8d 15 80 f8 0d 20 80 34 ed 31 90 a8 9d 19 00
       -1.979484e-39 -2.943747e-39 -3.508983e-29 2.352444e-39
0000e0 97 c6 bc 15 07 98 18 b3 c2 71 ad b2 8a c5 53 92
       7.6245915e-26 -3.5528526e-08 -2.0191582e-08 -6.6823346e-28
0000f0 db 33 5d 03 fb 1c 59 95 53 1b ed af 6c a5 b9 af
       6.500559e-37 -4.3845663e-26 -4.3129464e-10 -3.3768843e-10
000100 7b 7d 8a a5 21 d4 56 9f fa f3 68 a3 f9 ee 85 a8
       -2.4024213e-16 -4.549173e-20 -1.2628409e-17 -1.4869604e-14
000110 62 95 01 b5 65 31 77 24 a2 ca 12 00 72 eb 2e 00
       -4.8273625e-07 5.3601426e-17 1.72573e-39 4.308895e-39
000120 60 59 43 23 56 82 72 1a 6a 7c 16 80 55 f6 58 a8
       1.0589897e-17 5.0149712e-23 -2.065012e-39 -1.2043823e-14
000130 38 46 76 1b a2 91 59 a3 fa 85 0a 00 05 97 8e 1d
       2.0371332e-22 -1.17944325e-17 9.66417e-40 3.7743238e-21
000140 e4 b3 c3 1b 79 35 cb 26 a8 2a 1d 80 3c 90 20 a1
       3.2376295e-22 1.4100448e-15 -2.678532e-39 -5.4401e-19
000150 91 30 ab a4 99 9f 34 80 d7 9e 61 b0 f9 3c 0b 24
       -7.42417e-17 -4.832699e-39 -8.208025e-10 3.0192466e-17
000160 94 72 96 26 05 79 9b a8 f9 c0 14 b0 1b 8c 34 9f
       1.0439397e-15 -1.726094e-14 -5.4116317e-10 -3.8232375e-20
000170 76 e5 46 24 00 c9 2c 95 38 3f d0 21 ca 1f 3a a5
       4.3128767e-17 -3.4893684e-26 1.4111362e-18 -1.6143699e-16
000180 3e f7 93 a2 08 4a 48 29 d0 35 3e 80 00 02 65 a4
       -4.0106208e-18 4.4473133e-14 -5.713105e-39 -4.9658154e-17
000190 01 71 e8 a4 d8 6a 1b 00 9b 6f 44 b5 9b 84 00 26
       -1.008054e-16 2.517887e-39 -7.31781e-07 4.4588635e-16
0001a0 04 e3 97 1f f8 89 20 00 a5 c0 99 af aa de 0d 1d
       6.4326553e-20 2.98823e-39 -2.796742e-10 1.877631e-21
0001b0 c6 c0 2a 9f 43 58 3b 00 b8 b5 8c 21 3f ee 42 a6
       -3.615836e-20 5.449957e-39 9.53487e-19 -6.7630155e-16
0001c0 1b 9f 15 00 29 4a 63 b6 85 26 84 b1 f1 af 45 1f
       1.985622e-39 -3.3868803e-06 -3.846085e-09 4.1861908e-20
0001d0 b8 8b 82 00 f2 33 22 00 90 e4 c8 1b 61 65 0e 1c
       1.1988736e-38 3.141041e-39 3.323493e-22 4.711489e-22
0001e0 32 41 f9 21 e7 c4 fa b7 80 03 90 a3 eb e4 5d 22
       1.6890153e-18 -2.9894012e-05 -1.5613994e-17 3.0072273e-18
0001f0 d6 a6 28 1a c9 0e 24 1f 9b 7c e6 a3 4b 27 d7 b2
       3.4876355e-23 3.474058e-20 -2.4989422e-17 -2.5047163e-08
000200 36 da 1f 80 1c 55 2f 80 a8 5b 03 80 dc 2f 51 0b
       -2.92518e-39 -4.3468e-39 -3.08387e-40 4.028794e-32
000210 46 f6 45 a1 18 0b 1d 00 08 aa 34 00 e0 29 19 80
       -6.7072136e-19 2.667209e-39 4.836442e-39 -2.31091e-39
000220 ae fc 1b 80 f9 82 26 00 d6 4c 0e 00 4e fb 41 0b
       -2.570203e-39 3.536733e-39 1.31326e-39 3.735951e-32
000230 e6 ed 4e 80 4d f1 00 80 dc 41 01 00 b0 f8 14 80
       -7.24851e-39 -8.6562e-41 1.15461e-40 -1.925922e-39
000240 77 dc 07 80 aa 45 08 00 1e f6 37 02 fc 4d 19 00
       -7.21936e-40 7.59675e-40 1.3515349e-37 2.323863e-39
000250 58 bc 1a 80 e1 6d 1e 00 11 fa 26 9c 0d cd 0c 80
       -2.455288e-39 2.794482e-39 -5.5247996e-22 -1.175584e-39
000260 91 d3 07 00 46 42 86 94 1f bc 91 b1 b8 e3 2a 00
       7.18744e-40 -1.3556683e-26 -4.2414423e-09 3.938781e-39
000270 6e 93 29 00 4b 92 18 80 6b d2 2b 80 c5 ea 0a 80
       3.818143e-39 -2.256532e-39 -4.02441e-39 -1.002574e-39
000280 b7 10 12 80 35 0a 24 a1 b4 da 8b 80 01 a8 0f 00
       -1.659035e-39 -5.557887e-19 -1.284359e-38 1.437801e-39
000290 ce 67 1d 00 f6 61 18 00 ea 0b 51 a4 0b ac 18 80
       2.700467e-39 2.239194e-39 -4.5329742e-17 -2.265769e-39
0002a0 ed 82 0a 80 e1 b3 41 80 c5 cd 11 a9 f1 2a 0e 00
       -9.65322e-40 -6.033836e-39 -3.2374944e-14 1.301101e-39
0002b0 5f 36 3d 00 f9 10 25 00 9c 7d 38 00 c7 80 47 80
       5.62147e-39 3.404002e-39 5.187848e-39 -6.566517e-39
0002c0 0a 09 52 80 36 47 7e 9f e5 a0 9b 18 13 51 4f 00
       -7.533753e-39 -5.3845496e-20 4.0229023e-24 7.284088e-39
0002d0 64 78 50 80 19 72 2d 00 f9 80 3b 80 12 be 23 80
       -7.390028e-39 4.173528e-39 -5.464561e-39 -3.282427e-39
0002e0 90 83 08 00 98 5c 6b 11 b1 6c 19 00 7d 37 4c 80
       7.8188e-40 1.8566764e-28 2.334879e-39 -6.999403e-39
0002f0 40 25 0f 00 42 6f 2e 80 32 91 91 82 59 b3 ee 80
       1.390895e-39 -4.264345e-39 -2.1389173e-37 -2.1921186e-38
000300 0b 66 6d 36 02 2a 8f 30 f4 32 9d b7 5d 9d 3f 3b
       3.5375149e-06 1.0416559e-09 -1.8739585e-05 0.0029238083
000310 84 77 c0 37 8e 73 f3 b5 c7 4f 3a a8 4a d8 05 80
       2.2943837e-05 -1.8138542e-06 -1.0342373e-14 -5.36767e-40
000320 38 51 e5 34 86 ed 2b 80 99 c1 18 b6 3f 27 4f bb
       4.2713668e-07 -4.034134e-39 -2.2762454e-06 -0.0031609086
000330 de db 28 00 81 44 85 b6 2b 70 dc 35 87 2a 39 ad
       3.752293e-39 -3.971684e-06 1.6423922e-06 -1.05254755e-11
000340 d7 27 11 2c 98 72 47 b9 98 06 cb 33 21 c3 ba 34
       2.0627855e-12 -0.00019020808 9.4541235e-08 3.4787175e-07
000350 a3 23 0e 36 59 9d 26 a5 4e 94 82 bd eb 26 09 38
       2.1180392e-06 -1.4451516e-16 -0.06375943 3.269959e-05
000360 b1 34 88 b9 b8 e9 8f bb fc cd 11 bd 6a ea c8 35
       -0.000259792 -0.004391875 -0.035596833 1.4969385e-06
000370 97 b2 20 b5 d3 a3 40 2f 0a ae 26 37 8a d1 a2 b9
       -5.986453e-07 1.75205e-10 9.934893e-06 -0.00031055167
000380 6c 51 25 34 6d 04 0d bc 7c d0 9e af a1 60 8f 37
       1.5396444e-07 -0.008607012 -2.888817e-10 1.7091925e-05
000390 14 11 ad b7 b6 ca 15 80 2b 6a b3 3a e8 73 d1 36
       -2.063116e-05 -2.001264e-39 0.0013688257 6.2421786e-06
0003a0 0c 46 aa b0 60 2d 29 30 84 4a 5d bd b3 7a 16 80
       -1.2389036e-09 6.1546324e-10 -0.05402614 -2.064397e-39
0003b0 a4 77 78 00 c2 a5 13 2f 3a 56 f1 b5 26 94 22 b4
       1.1063179e-38 1.3428461e-10 -1.7980994e-06 -1.5141322e-07
0003c0 52 42 e5 2f 2a ea a1 bc 7a 45 9a b8 e0 7a 35 b2
       4.170198e-10 -0.019764978 -7.356233e-05 -1.0563525e-08
0003d0 eb 61 14 80 70 5f 2c 2c a2 90 aa 30 58 a5 05 00
       -1.871836e-39 2.4495649e-12 1.2410235e-09 5.18492e-40
0003e0 77 fd 9e b7 b6 68 84 bd 80 8f d0 35 10 db 9a b6
       -1.8953097e-05 -0.064652845 1.5538972e-06 -4.61506e-06
0003f0 e0 b4 21 00 b4 1e 2b 37 96 88 05 ba 28 7e f4 bb
       3.095457e-39 1.0199543e-05 -0.00050939 -0.007461328
