2. Convolutional Autoencoders/models/autoencoder3d.pth (torch, 203945 bytes, 19 tensors)

encoder_conv.0.weight f4 [8, 1, 3, 3]
000000 81 9a 8a be 5a 4c 8b be 93 f2 8a be 19 55 8d be
       -0.27071002 -0.2720669 -0.27138194 -0.27603987
000010 8b b0 8e be ad 99 8e be ba 26 90 be 6a 1e 91 be
       -0.27869067 -0.2785162 -0.28154546 -0.28343517
000020 02 9a 90 be 7a cd 01 bd 96 7c c5 bc d1 db 80 be
       -0.282425 -0.0316901 -0.024107259 -0.25167707
000030 5f 62 80 3e c6 3d d3 3b 8a 37 94 be 91 b2 8d bd
       0.2507505 0.006446573 -0.28948623 -0.069188245
000040 80 6e 8e 3e 5b bf cd 3d bf d4 2f 3e 62 32 c2 3d
       0.2781868 0.10046264 0.17171 0.09482266
000050 f9 91 2d be 9c ef 3b bc 97 37 2c be 05 d7 f3 bc
       -0.16950215 -0.011470702 -0.16818081 -0.029765615
000060 86 4d d6 bd 5a f0 46 be 41 92 91 be 0f 5c b2 3d
       -0.10464005 -0.19427624 -0.28431895 0.08708965
000070 15 ca b8 bd 33 53 98 3d 77 cd 2a bc 16 a1 4b 3d
       -0.09022919 0.07437744 -0.010424963 0.04971417
000080 3b 12 8b 3e e8 82 4b be 82 1d 91 bd e5 69 cf 3e
       0.27162346 -0.19874156 -0.07085706 0.4051048
000090 17 df 9c 3e 0e 53 f6 3d 2b dc 3e 3e 7e a3 a0 3e
       0.30638954 0.1202756 0.18638675 0.31374735
0000a0 2d 73 dd b9 88 a7 bf bd 36 f0 25 be 25 e4 8d 3d
       -0.00042238217 -0.09358126 -0.16204914 0.06928281
0000b0 59 0b 32 bd ea 60 27 3e 56 ba a0 bb 03 50 a2 be
       -0.043467853 0.16345564 -0.0049050255 -0.3170167
0000c0 15 c1 30 3e 99 6b 89 3d da 27 9c be c1 90 6b 3e
       0.17261155 0.06709976 -0.30499154 0.23004438
0000d0 52 7c 44 3e 91 fa 57 be 0f e6 87 3e 98 f2 b2 3e
       0.1918805 -0.21091677 0.26542708 0.3495071
0000e0 21 22 86 bd 75 c9 1a 3e ee a8 e5 3e e7 14 0a 3e
       -0.06549478 0.15115912 0.44855446 0.13484536
0000f0 1f 76 62 3e b6 eb 93 3d 44 9b 34 3d 34 27 10 be
       0.22115372 0.07222693 0.044093385 -0.14077455
000100 08 c2 90 3e 62 e2 6f 3e 5c 25 18 3e 7d 91 8f 3e
       0.28273034 0.23426202 0.14858001 0.28040686
000110 5a a6 87 3e a6 87 99 bc ae b4 83 3e 1f b2 24 3e
       0.26494104 -0.01874144 0.25723785 0.16083573

encoder_conv.0.bias f4 [8]
000000 e6 11 87 be 36 00 de 38 9f 1b 89 3e 16 3d 1e be
       -0.26380843 0.00010585824 0.26778886 -0.1545299
000010 a1 ba bd be 38 9f af b9 78 e7 0c be a7 eb 90 bd
       -0.3705645 -0.00033497228 -0.13760173 -0.07076197

encoder_conv.2.weight f4 [16, 8, 3, 3]
000000 18 1b 59 3d c9 91 17 3d 73 28 91 3d e7 63 c6 3c
       0.053004354 0.037004266 0.07087793 0.024217559
000010 84 05 b4 bc e5 8b 16 3d 74 4b f7 3c 18 c9 81 bc
       -0.021975286 0.036754508 0.030187346 -0.01584296
000020 90 51 f9 3c df 31 af bc d2 d8 1c bd 42 95 77 3b
       0.0304344 -0.021386085 -0.038292713 0.0037778174
000030 16 7e 34 3c 92 4c 05 bd 6b 02 40 bd 4e 63 b2 bc
       0.011016389 -0.032543726 -0.046877306 -0.021775868
000040 65 d1 04 bd bb c6 70 ba 98 8b 0c 3e 81 9a 5f 3e
       -0.032426257 -0.00091848866 0.13725126 0.21836282
000050 2f 77 35 3d ea bc 8a 3e a6 20 52 3e cb ea 25 3e
       0.044303115 0.27097255 0.20520267 0.16202848
000060 01 2d 5f 3e a1 01 88 3e 2f 28 73 3e 8d ec f2 bc
       0.21794511 0.26563743 0.23745798 -0.029653812
000070 62 01 60 bd f1 06 71 3e a5 3a 63 bb c4 a4 08 bd
       -0.05468882 0.23537804 -0.0034672406 -0.033360258
000080 ec 87 96 3e 69 71 92 3c 4d 4b b6 bc 8b 12 90 3e
       0.29400575 0.017876344 -0.022252703 0.28139147
000090 00 7a 52 3d c4 21 24 3d 2c fc 4a 3c 6c 41 2f bc
       0.05138588 0.040071264 0.012389224 -0.01069675
0000a0 72 5d 4d bc 3c 7e d1 bb 4f 0b ad bc a9 0d ed bb
       -0.012534486 -0.006393222 -0.021123556 -0.0072342944
0000b0 86 ad b3 bc 11 00 00 bd b3 a3 5a bd a7 d9 34 bd
       -0.021933328 -0.031250063 -0.053378772 -0.044152882
0000c0 73 09 c9 bc 71 bd 38 bd 90 ff 22 bd e9 cf 29 bd
       -0.024540639 -0.04510254 -0.039794505 -0.041458044
0000d0 06 19 9c bc e6 a5 cb 3c ee 64 2c bd 5f 25 39 bd
       -0.0190549 0.02485938 -0.04208844 -0.045201655
0000e0 bb 6e 13 be 3b 5b ac bd 3b 9a fe bd 3d 68 3c be
       -0.14397709 -0.08415838 -0.12431761 -0.18399139
0000f0 1c 54 01 be 28 8f 7a bd 90 74 11 be 8e f8 d3 bd
       -0.12629741 -0.06117168 -0.14204621 -0.103501424
000100 42 45 39 be 44 8c d9 bd 45 d6 32 bd fd 6e 4f be
       -0.18092826 -0.10622457 -0.043661375 -0.20257182
000110 c7 08 bf bd 11 28 25 bd 0e 47 d3 bd e9 dd ba 3c
       -0.09327846 -0.040321413 -0.10316287 0.022810893
000120 98 22 39 3e 29 dc 3f 3e 9b 7b 37 3e 41 4a 4c 3e
       0.18079603 0.18736328 0.17918245 0.199502
000130 ac c3 4e 3e 7e 84 46 3e 7b 2e 5a 3e 8f 31 59 3e
       0.2019183 0.1938648 0.21306793 0.21210311
000140 e2 22 57 3e 94 b6 8b 3d a6 54 29 bd f1 b6 2f bc
       0.210094 0.068219334 -0.041340493 -0.010724769
000150 2f c7 5a 3d 25 72 26 bd db 43 41 3d 2f a3 27 3d
       0.053412613 -0.0406362 0.047183853 0.04092711
000160 0d 90 15 bd d9 d7 68 bd 6d 81 c8 bd 7b 5a 18 bc
       -0.03651433 -0.056846473 -0.09790311 -0.009298916
000170 d1 5f 4f 3c 06 d1 33 bd b0 70 0b 3d 28 fa 5c 3d
       0.012657122 -0.043900512 0.034043014 0.053949505
000180 54 21 3f 3d a1 16 0a 3e e2 fb 3f 3e da e6 9b bc
       0.046662644 0.13485195 0.1874843 -0.019030977
000190 2c 19 98 3c eb 68 c8 3c 76 be bc bc 1b 2b 5a 3c
       0.01856669 0.024464091 -0.023040038 0.013315941
0001a0 46 ba 45 3d 75 18 9b bd 78 71 b2 bd c0 34 42 bd
       0.048273347 -0.07573024 -0.08713049 -0.047413588
0001b0 36 f3 fe bd 70 40 0d be de 96 88 bd 93 14 42 be
       -0.124487326 -0.13794112 -0.06669401 -0.18953161
0001c0 02 5d 3a be 00 a5 2a be 14 e8 d6 bd cb 00 3a be
       -0.18199542 -0.16664505 -0.10493484 -0.18164365
0001d0 db 65 00 be 03 4c e1 3d 03 10 aa bd 00 f6 5d 3d
       -0.12538855 0.11000826 -0.08303835 0.054189682
0001e0 45 8d bd 3d 5e a1 cc bd ca 43 f3 3c f5 57 38 3d
       0.09255461 -0.09991716 0.02969541 0.045005757
0001f0 86 07 61 bd b3 7e 9f bd 4c 29 d1 3d 87 e6 8f 3d
       -0.054938816 -0.07787838 0.10212955 0.070263915
000200 3b 8a 23 bd 6a 33 0d 3e d0 a6 85 bb f6 99 11 bd
       -0.03992675 0.13789144 -0.0040787235 -0.03554722
000210 d0 71 c8 3d cf 77 90 bd bc 59 ce bd 28 c9 ab 3d
       0.09787333 -0.07054102 -0.10075709 0.08387977
000220 6c 73 87 bd 19 0c c9 3c 41 da 80 3c 18 d9 80 3d
       -0.06613812 0.024541901 0.015729072 0.06291407
000230 7e 18 b5 bc 3d bc 4e bc c7 9e 42 bc da fc 06 be
       -0.022106405 -0.012618122 -0.011878676 -0.13182393
000240 d7 8c 15 3e ed b9 1b 3e 76 88 19 3e 0e 91 17 3e
       0.14604507 0.15207644 0.14993462 0.14801428
000250 7d 46 1e 3e 06 39 1d 3e f2 d4 2b 3e a5 7a 38 3e
       0.15456577 0.15353784 0.16780451 0.18015535
000260 c2 38 2d 3e 10 14 c0 3c eb d3 17 3d 8e df f3 bc
       0.16916183 0.023447067 0.037067335 -0.029769685
000270 2a 06 33 bc b1 f3 41 bd 77 89 80 bc c8 49 2a 3d
       -0.010926763 -0.047351543 -0.015690548 0.04157427
000280 22 c0 26 3d d9 df a5 bc 3b 45 53 3b cc 70 73 3d
       0.040710576 -0.02024834 0.003223731 0.059433743
000290 06 e1 9c 3d 29 f3 09 3e e0 e1 2b 3e af 3a 53 3e
       0.07660107 0.13471664 0.16785383 0.20627855
0002a0 26 e5 09 3e ff 33 55 3e 42 77 6e 3e 86 2d 2c 3e
       0.1346632 0.20820616 0.23287681 0.16814241
0002b0 18 f5 d5 3d 8a e2 2b 3d 3d 0e ab 3d aa f2 8f bc
       0.104471385 0.04196409 0.08352325 -0.017571766
0002c0 cc 25 07 bd 9d 86 16 3c ca 62 a0 bd 7c 13 90 bd
       -0.03299503 0.009187368 -0.078313425 -0.07034966
0002d0 2c 97 43 bd 49 5d 9b bd b8 c7 64 bd 80 8f 8e bd
       -0.04775159 -0.07586152 -0.05585453 -0.06960964
0002e0 2b 3c a5 bd 7f e1 ca bd 60 71 2b be 89 25 ac bd
       -0.08068117 -0.09906291 -0.16742468 -0.08405597
0002f0 eb b8 2b be 35 62 8f 3c 59 14 35 3d 5c b5 2b bd
       -0.1676976 0.017502883 0.04420886 -0.041921005
000300 4a d3 bc 3b f7 3f 3e bc ff 26 55 bd 4f 67 f4 3c
       0.0057624923 -0.01161193 -0.052039143 0.029834418
000310 36 04 9e 3d a4 59 f0 bd c7 3e e0 3d da 4b 25 3e
       0.07715647 -0.117358476 0.10949474 0.16142216
000320 c9 42 f8 3d 24 72 6e 3c bb 27 7a 3d 1a a4 a1 bd
       0.12122113 0.01455358 0.061073046 -0.07892628
000330 f2 e6 62 bd 79 57 8b bc c2 de cd bd f0 ee ec 3d
       -0.055396028 -0.017009484 -0.10052253 0.11569011
000340 d4 60 1a bd 8b 0d 97 3b b2 af e2 3c e3 12 8a 3c
       -0.03769 0.0046097687 0.027671669 0.016854709
000350 e6 1c ff bd 29 da 07 be b7 8c 83 bd 24 96 c2 bd
       -0.12456684 -0.13266815 -0.064233236 -0.09501293
000360 92 4e c6 bc 15 29 c9 bc f9 b6 b8 3c 47 b4 93 bc
       -0.024207387 -0.024555722 0.022548186 -0.018030299
000370 7d 26 95 bc 9e 9d fe bb 4d a7 ad bc ae 9d 7b bc
       -0.01820683 -0.0077702543 -0.02119794 -0.015357418
000380 86 b5 84 bc 95 b3 06 3c 38 a5 da 3a 3f 18 6b 3c
       -0.016199838 0.008221527 0.0016681319 0.014349042
000390 f1 a8 2e bd 61 a3 29 bd 26 69 e1 bc de be a6 bd
       -0.042641584 -0.041415576 -0.027515959 -0.08141874
0003a0 dc 03 8a bd 24 8f 2b bd 55 ef fb 3d 68 df 96 3d
       -0.06739017 -0.041884556 0.12301508 0.0736683
0003b0 83 30 92 3d 88 14 42 3e 86 31 5f 3e 77 e2 bd 3d
       0.07138159 0.18953145 0.21796235 0.0927171
0003c0 23 d0 79 3e 26 9e 3f 3e 0c 6a 56 3e b2 62 78 bb
       0.24395804 0.18712673 0.20938891 -0.0037900624
0003d0 1d ce db bc 48 83 f3 3d 1e 5a 07 bc 8f 74 69 bc
       -0.02683168 0.11890274 -0.008261232 -0.014248981
0003e0 5b 99 2e 3e f8 4b 14 bc f4 0c 8a bc d4 9d 0c 3e
       0.17050688 -0.0090513155 -0.01685188 0.13732082
0003f0 c7 e7 38 bd 9d cb 8a bd 97 f9 90 bd d4 bf 09 bc
       -0.045142915 -0.067771174 -0.070788555 -0.008407552

encoder_conv.2.bias f4 [16]
000000 dc c2 41 3e 84 77 b9 3e 16 a7 96 3e dc 42 ff 3d
       0.18921989 0.36223996 0.2942435 0.12463924
000010 88 de b5 3e c1 43 72 3e 46 e7 ec 3d a4 2c f7 bb
       0.3552134 0.23658659 0.115675494 -0.0075431634
000020 43 c4 01 3e cc 46 f6 3d 2f 99 29 3d 1e 31 84 bc
       0.12672524 0.12025222 0.041405853 -0.016136702
000030 fc fa 6b be 5f 00 c4 b9 ac af 48 3e 68 9c df 3c
       -0.23044962 -0.0003738431 0.19598264 0.02729626

encoder_conv.4.weight f4 [32, 16, 3, 3]
000000 81 b4 85 9a 1e 28 f8 1a ca ce 52 1b 02 cc 7b 99
       -5.529913e-23 1.0263521e-22 1.743761e-22 -1.3017595e-23
000010 9b eb 25 1a 65 40 8e 1a a8 24 4b 1a 00 61 d1 1a
       3.431152e-23 5.883386e-23 4.2009027e-23 8.6597086e-23
000020 ec b8 49 9b bf e7 43 9a ea 64 d3 1a 24 91 c4 1a
       -1.6686082e-22 -4.0512258e-23 8.743059e-23 8.129819e-23
000030 7d 22 32 1a 41 4f a8 1a 3f 02 d3 99 1e 99 d7 19
       3.6837397e-23 6.961121e-23 -2.1817796e-23 2.2292323e-23
000040 7c 4a 22 99 49 ce 35 1b 17 19 18 99 1e ee 27 1b
       -8.390246e-24 1.5038623e-22 -7.863283e-24 1.3890856e-22
000050 29 5b 93 9a 07 b2 ce 1a 86 d6 1b 9b 9e 5f a9 1b
       -6.094505e-23 8.548722e-23 -1.2890616e-22 2.8020496e-22
000060 9e 91 22 1b 56 7b 4d 9b b2 a6 a2 1b 1e c4 36 1a
       1.3447377e-22 -1.6997055e-22 2.6908376e-22 3.779514e-23
000070 eb de 68 9a 57 46 18 9a 4a ae cb 99 be 67 a2 99
       -4.8156547e-23 -3.1489683e-23 -2.1060103e-23 -1.6792309e-23
000080 53 cf 37 1a 0b 9d c6 9a f8 79 ca 1a 17 2b 4a 9b
       3.8010988e-23 -8.21446e-23 8.374229e-23 -1.6722971e-22
000090 f2 3b 7d 9b 99 cd 08 1c 57 79 35 9c 7e 37 3d 9a
       -2.0947039e-22 4.5264354e-22 -6.0044704e-22 -3.912911e-23
0000a0 b4 79 28 1a df 11 1b 9d c3 e0 bc 9b 18 75 0e 1c
       3.4839897e-23 -2.0523318e-21 -3.124724e-22 4.71352e-22
0000b0 11 1a de 9c 8e c8 c0 1a c5 9e c4 19 b9 eb 05 9a
       -1.4697466e-21 7.973335e-23 2.0330052e-23 -2.769417e-23
0000c0 a9 65 a5 9a 48 8c 40 9a 6f a3 73 9a bf 49 ec 1a
       -6.840664e-23 -3.9817988e-23 -5.0383243e-23 9.7726456e-23
0000d0 74 72 1e 1b ab 47 4a 9b 56 4d cc 9a e0 d7 96 99
       1.3106435e-22 -1.6732206e-22 -8.4497365e-23 -1.5596828e-23
0000e0 a3 09 af 1a 82 cc 83 9a 0e 68 8e 9a 85 b8 97 1a
       7.239387e-23 -5.451073e-23 -5.889793e-23 6.2750244e-23
0000f0 c2 aa 99 1a fd dd be 1a 83 3d dd 9a db 34 40 b6
       6.355519e-23 7.89408e-23 -9.1502835e-23 -2.8640995e-06
000100 ad b4 78 b6 8c 2f 0f b4 0a 03 df b7 69 fa e3 b7
       -3.7060047e-06 -1.333521e-07 -2.6585087e-05 -2.7177115e-05
000110 ee 5d 03 b6 c3 f6 95 b7 06 50 8d b7 e0 55 93 b5
       -1.9575195e-06 -1.7877092e-05 -1.6845774e-05 -1.0977346e-06
000120 2b 7e 53 1a 22 aa 33 9a 13 52 31 1a ea d6 8d 1a
       4.3735695e-23 -3.7153765e-23 3.666904e-23 5.8663446e-23
000130 a2 eb f6 1a 5d 33 52 1b 10 41 af 9a 90 a6 0c 9b
       1.021239e-22 1.7387389e-22 -7.248342e-23 -1.1634348e-22
000140 ac 54 6a 9b ed 9e 0f 9a 2e cb 96 1a 04 79 8b 19
       -1.9383385e-22 -2.9700086e-23 6.23668e-23 1.4421141e-23
000150 2a be 51 99 20 1d 82 9a a1 da d1 9a f3 b2 98 1a
       -1.084345e-23 -5.3813794e-23 -8.679359e-23 6.3154835e-23
000160 c9 95 a8 19 ea d6 2c 9b 6f 95 09 18 17 7d 86 17
       1.743129e-23 -1.4296949e-22 1.778228e-24 8.691124e-25
000170 9a e7 06 99 e2 f1 64 97 1b c2 ea 97 fb bc 4e 99
       -6.974409e-24 -7.397607e-25 -1.5170895e-24 -1.0688115e-23
000180 1e 2b 01 19 60 08 17 18 a6 9b 0a 99 78 fa 03 97
       6.677851e-24 1.952052e-24 -7.165866e-24 -4.264452e-25
000190 74 2e 58 17 77 27 fa 96 0c 8d 10 17 19 e8 f3 14
       6.9851996e-25 -4.0414584e-25 4.6706936e-25 2.4628276e-26
0001a0 ad d8 b0 17 52 18 86 13 98 f5 11 97 20 50 1d 17
       1.142843e-24 3.3850337e-27 -4.716201e-25 5.083057e-25
0001b0 5e 88 ef a0 a4 80 9b a0 32 f7 b0 1d db ca 1c 24
       -4.0578415e-19 -2.6343149e-19 4.6842406e-21 3.3998933e-17
0001c0 1b 02 cc a3 24 85 ca 9d 1c 49 24 a1 e6 c4 10 a1
       -2.2118616e-17 -5.360662e-21 -5.566212e-19 -4.904969e-19
0001d0 9e e2 8c 1d 53 68 23 97 17 b7 90 17 bc 43 e6 15
       3.729201e-21 -5.2799816e-25 9.352e-25 9.3003126e-26
0001e0 2f 70 19 95 02 37 bf 97 d9 5d 88 16 0b 8a 69 14
       -3.09866e-26 -1.2356972e-24 2.203121e-25 1.1790718e-26
0001f0 ee 7f 46 16 c3 0d 7c 96 ca b0 62 19 2e 35 0a 9b
       1.603468e-25 -2.036074e-25 1.17196284e-23 -1.1432276e-22
000200 cb 12 35 1a 68 ad fe 19 a3 fc aa 9a bb 2f 04 9a
       3.7445104e-23 2.6333023e-23 -7.071851e-23 -2.7335517e-23
000210 45 bc be 1a 12 4a cd 9a 10 e2 5e 9b 94 31 5d ad
       7.8886324e-23 -8.490568e-23 -1.8436454e-22 -1.2573404e-11
000220 3b 4a e9 ac 4e 0d a6 a6 39 93 30 b1 f1 11 96 b0
       -6.6304995e-12 -1.152217e-15 -2.5695057e-09 -1.0919036e-09
000230 ed 28 37 2a 6c 83 a5 af 8a 8d 19 af dc fd 01 28
       1.6267864e-13 -3.0106706e-10 -1.3965554e-10 7.2159855e-15
000240 6f e6 13 bd 8e d9 83 bb 56 3d b4 bd 66 d0 9a bd
       -0.03610843 -0.0040237373 -0.088007614 -0.0755928
000250 07 35 89 3b c3 a4 2b be a9 af c1 bd cf 78 20 bc
       0.0041872296 -0.1676207 -0.09457333 -0.009794428
000260 27 a8 f1 bb c7 3d 9e bc 02 67 2f bd aa d3 ae bd
       -0.0073747816 -0.019316567 -0.042822845 -0.085364655
000270 c0 63 ab 3c 93 d9 fe 3c db 19 95 3c 9d ac 48 bc
       0.020921588 0.031109607 0.018200805 -0.012248185
000280 f4 a3 08 3e 28 1d da bc 61 f6 cf 3a 48 f8 b1 bd
       0.13343793 -0.02662523 0.0015866273 -0.08689934
000290 33 10 91 bd b9 7e 84 bc 84 16 8d bd cb 3a 72 bc
       -0.07083168 -0.016173707 -0.0688906 -0.014784525
0002a0 ba d6 88 bc 25 2d e9 3d af 14 a5 3d e0 c1 ff bc
       -0.016703952 0.11385564 0.08060586 -0.031220376
0002b0 b0 1a c4 3b 8e da 89 bd f3 0f da bd 5b 67 f1 3b
       0.0059846267 -0.06731139 -0.10647573 0.0073670573
0002c0 9e d7 0b be bb 96 bf bd 3f 55 a2 bc 13 5a 6e bd
       -0.1365647 -0.093549214 -0.01981604 -0.05819137
0002d0 da 80 9a 3c d1 ec 89 3b 20 ac a8 bb 42 9e 03 3d
       0.01886027 0.004209139 -0.005147472 0.03213335
0002e0 c1 6b dc bd 92 ac b7 3c 9d 75 4a 3d 60 37 6a bc
       -0.1076274 0.022421155 0.04942857 -0.014295429
0002f0 87 50 87 3d 04 e4 2a bd 8b d2 31 be 29 a1 51 bd
       0.06607156 -0.04172136 -0.17365472 -0.051179085
000300 22 31 2a be 80 d8 9a be 14 ba 0c be 5c 8c b3 bd
       -0.16620305 -0.302433 -0.13742858 -0.08767006
000310 54 e1 0f be f9 31 5d bd b1 3f 9f 3c 9b 5d d7 bd
       -0.140508 -0.054002736 0.01943955 -0.10515901
000320 57 e3 36 bc 04 09 01 3d 0c e5 9d be 48 56 e3 bd
       -0.0111626005 0.03150274 -0.3083881 -0.11100441
000330 e5 e5 8a 3d be 76 8f bc 95 c7 9f 3d a7 a3 18 3d
       0.0678213 -0.017512675 0.07801739 0.037265446
000340 4c 83 17 3e dd 10 d6 3d 6a a1 9c 3d a8 35 7f 3e
       0.1479618 0.10452435 0.07647975 0.24922812
000350 bf 02 62 3e be 09 3a 3d 09 15 37 3e c8 10 1e 3e
       0.2207136 0.045419447 0.17879118 0.15436089
000360 cc 5f 87 bc ae 17 df bd c7 61 c0 3c 23 26 f4 bd
       -0.016525172 -0.108931884 0.023484124 -0.119213365
000370 6d e5 4e bd dd 0f 42 be 20 43 1e be 90 b5 1b be
       -0.050511766 -0.18951364 -0.15455294 -0.1520598
000380 e6 25 2c be d7 59 86 bd f7 40 72 bd 16 84 f3 bc
       -0.16811332 -0.06560104 -0.059143987 -0.02972607
000390 19 b7 0a be af 86 a4 be d2 67 a5 bd 5b 54 a5 bd
       -0.13546409 -0.32134005 -0.08076443 -0.0807273
0003a0 91 04 3d be 96 9a 1a bd 93 52 be 3c 8a c5 45 3c
       -0.18458773 -0.03774508 0.023232734 0.012071023
0003b0 87 6f bc bc dc 71 88 bd d3 41 b7 3c 76 c1 0c be
       -0.0230024 -0.06662342 0.022370255 -0.13745674
0003c0 9e 62 50 bd 4e 56 48 bc 1c cd d8 bc c5 2b 1f 9a
       -0.0508753 -0.012227608 -0.026464991 -3.2915786e-23
0003d0 f7 b6 14 1c 9a 47 81 97 8d 83 3f 9d e2 f3 c4 1c
       4.920557e-22 -8.354504e-25 -2.534665e-21 1.3033234e-21
0003e0 f4 84 6a 18 68 1b 9c 1c ce 97 b5 9b ab 51 54 19
       3.0310915e-24 1.0330298e-21 -3.004204e-22 1.0976636e-23
0003f0 8a 25 da bc 31 05 0a 3e ce 3c 70 3d 04 fa 12 3d
       -0.026629228 0.13478543 0.058651738 0.035882965

encoder_conv.4.bias f4 [32]
000000 d8 a0 5c b6 1e a5 7c bd a5 47 f1 bc 3c b0 6e bc
       -3.2876178e-06 -0.061680906 -0.029453108 -0.014568385
000010 a5 41 5a bd 26 26 e7 bc 27 5c 31 bd 0d 49 28 b6
       -0.05328526 -0.028216433 -0.043300774 -2.5076472e-06
000020 61 f3 a5 3c 60 0b fe ba f2 2b fa b9 e6 74 92 3d
       0.020257654 -0.0019382052 -0.00047716458 0.07151203
000030 fd 4c 2f b1 7d fa 12 bb 47 29 9d bc 96 1a 15 be
       -2.5509614e-09 -0.0022427135 -0.019184722 -0.14560923
000040 f3 45 9d bd ff 53 cc bc 93 e0 6b 3d 19 5b f3 bd
       -0.076793574 -0.024942396 0.057587218 -0.1188261
000050 e2 70 a6 bc cd 32 01 3d 36 87 1b bd bf ef 72 3d
       -0.020317499 0.031542588 -0.037970744 0.05931067
000060 49 ac 2f be 12 67 22 bd 1e 7d cb bc a1 84 da ba
       -0.17155565 -0.039649077 -0.024839934 -0.0016671607
000070 63 31 4d bc 01 7a 05 be e9 2b af bb 86 63 f4 af
       -0.012523982 -0.13034822 -0.0053458107 -4.4454057e-10

encoder_lin.0.weight f4 [64, 288]
000000 72 f1 0f 19 14 35 6d 99 0a f9 65 99 f1 c6 c8 98
       7.441686e-24 -1.2263332e-23 -1.18893156e-23 -5.1899668e-24
000010 8f 7d 8c 99 a4 c4 1c 19 ef 9a 5b 99 d1 6f 4c 99
       -1.4526373e-23 8.104722e-24 -1.1353323e-23 -1.0569134e-23
000020 eb fb 02 99 56 45 23 b8 79 1f e8 b8 4f cb c1 38
       -6.771717e-24 -3.8926803e-05 -0.00011068484 9.240826e-05
000030 3e 44 01 b8 03 b8 56 bb 3f 60 d3 b9 61 0c 56 b8
       -3.0819552e-05 -0.0032763488 -0.00040316765 -5.1033105e-05
000040 80 f6 44 bb e4 85 97 b8 fe c6 f2 af 59 4e 16 b6
       -0.0030054152 -7.22518e-05 -4.4160936e-10 -2.2397346e-06
000050 49 a6 1a b7 2c 23 b4 af 1b 85 3f b5 cf bf 91 b7
       -9.217832e-06 -3.27668e-10 -7.134674e-07 -1.7374665e-05
000060 cd 03 a0 b5 59 2b 04 b5 d2 6d 07 b7 b5 93 03 ae
       -1.1922035e-06 -4.923691e-07 -8.072197e-06 -2.991714e-11
000070 bd 0f ea b6 bd 76 8e b7 e7 3f 08 37 69 86 77 b7
       -6.9755756e-06 -1.6983011e-05 8.12111e-06 -1.4753642e-05
000080 0c 45 52 b8 a7 87 88 37 8f 00 b6 35 9e f5 60 37
       -5.0132207e-05 1.6275631e-05 1.3560219e-06 1.3408628e-05
000090 66 20 21 31 af 43 ee ac 72 13 f8 b6 5f a2 f4 32
       2.3447e-09 -6.7718812e-12 -7.3932397e-06 2.8479176e-08
0000a0 eb 22 20 31 90 71 dc b7 68 57 b3 b6 40 5a 05 b7
       2.3302913e-09 -2.6278925e-05 -5.344791e-06 -7.948431e-06
0000b0 01 fc 4e 36 c6 68 ab b0 78 0a 31 b6 73 2a 07 b7
       3.0843078e-06 -1.2471666e-09 -2.638115e-06 -8.0565105e-06
0000c0 8e a9 6b 36 c5 94 38 b7 c3 57 a3 b7 ac 86 f5 36
       3.5116423e-06 -1.1001893e-05 -1.9471981e-05 7.317247e-06
0000d0 a7 32 9e b4 94 d0 7a 36 8a 2f 52 b0 96 36 74 2e
       -2.9466648e-07 3.7374311e-06 -7.646511e-10 5.552766e-11
0000e0 4c b5 e2 b6 cc 4d 38 37 e4 f3 d6 35 7b 65 e5 b7
       -6.7564306e-06 1.0985368e-05 1.6015224e-06 -2.7346183e-05
0000f0 c6 64 e3 36 2d e1 a7 36 c4 c7 fb 36 5c c6 e0 96
       6.7768588e-06 5.0032017e-06 7.5036387e-06 -3.6314334e-25
000100 c2 d3 29 96 b0 5c c2 96 53 9e d7 96 f3 15 30 16
       -1.371853e-25 -3.1400884e-25 -3.483504e-25 1.4224093e-25
000110 09 55 1f 95 53 68 0a 17 db 79 f5 96 8b 16 be 16
       -3.2176875e-26 4.472188e-25 -3.9658786e-25 3.0710382e-25
000120 71 12 60 31 52 5a e3 b5 e6 f8 4a b7 41 53 83 36
       3.2606773e-09 -1.6939105e-06 -1.2098089e-05 3.9137963e-06
000130 e3 5b 64 b7 cb 2b 35 b8 41 d5 36 36 06 90 78 36
       -1.3611253e-05 -4.319455e-05 2.7244243e-06 3.7038712e-06
000140 55 3e 2a 37 3e 25 e1 31 20 2a ab b7 d5 b1 c8 b7
       1.0147302e-05 6.552596e-09 -2.0404404e-05 -2.3924667e-05
000150 a5 c4 24 34 c1 95 9d b8 8a bf 14 b8 9a d7 1f 37
       1.5345229e-07 -7.514237e-05 -3.5464334e-05 9.527337e-06
000160 b9 7a 82 37 84 b8 d0 b6 ad bd 20 17 a3 bb 52 17
       1.5554355e-05 -6.2203635e-06 5.1938193e-25 6.809149e-25
000170 42 4d f7 94 7a 63 0c 16 e1 fd bd 97 0a 1b bf 16
       -2.4971099e-26 1.1340499e-25 -1.2277927e-24 3.0874778e-25
000180 d9 c7 4c 15 60 e4 08 96 6b e5 1e 96 d5 9d cf 38
       4.1355124e-26 -1.1058055e-25 -1.283553e-25 9.899928e-05
000190 eb 79 73 38 b8 c3 ee 37 34 51 16 b8 4a 10 d1 ba
       5.804926e-05 2.846295e-05 -3.5838413e-05 -0.0015950289
0001a0 4c 59 cb b8 32 f8 05 39 f7 53 fc b7 8a 89 14 b8
       -9.696427e-05 0.00012776328 -3.007984e-05 -3.5414043e-05
0001b0 72 61 04 17 8d 3c d3 16 04 af 87 15 75 7c b5 95
       4.2774494e-25 3.4127101e-25 5.480219e-26 -7.3301676e-26
0001c0 b4 bb ce 16 2a 7e 73 17 ad aa 6d 97 23 60 d7 15
       3.3399552e-25 7.8676776e-25 -7.6794253e-25 8.6989485e-26
0001d0 a2 c0 bb 16 a5 a2 27 b8 ea 40 f2 b7 1e bd 04 38
       3.0333048e-25 -3.9967377e-05 -2.8878876e-05 3.164738e-05
0001e0 dc 7a 8a 37 5e 09 93 b8 3f 4f 20 b7 8f fb d0 b8
       1.6508093e-05 -7.011251e-05 -9.555194e-06 -9.965069e-05
0001f0 9c 02 83 b7 86 23 c7 b7 58 33 c7 34 69 ce 55 b6
       -1.5617632e-05 -2.373919e-05 3.7103996e-07 -3.185962e-06
000200 a4 ad 9e b7 9b 21 45 37 0d 2e c1 b7 d2 dc c1 b8
       -1.8915925e-05 1.1749939e-05 -2.3028837e-05 -9.244088e-05
000210 bb e4 e2 b7 82 e1 4a 37 6f 2e 23 37 ea 6d 96 9a
       -2.704781e-05 1.2092643e-05 9.726368e-06 -6.221612e-23
000220 21 0e 20 36 3a 35 86 38 3a 3a 33 33 72 af 2d b7
       2.3850082e-06 6.399532e-05 4.1729642e-08 -1.0352453e-05
000230 6e d4 65 38 51 6e 63 b2 57 75 bc 36 f6 9f 2f 38
       5.4795695e-05 -1.3238222e-08 5.6164968e-06 4.1872227e-05
000240 e1 a9 30 b8 69 05 21 38 f7 a1 9e b7 0f f6 60 37
       -4.2119882e-05 3.839043e-05 -1.8910489e-05 1.340873e-05
000250 8b 1d cd 38 46 9f bb 37 8e b2 fe b7 92 bf a7 b8
       9.7806645e-05 2.2366305e-05 -3.0362306e-05 -7.998863e-05
000260 8f b4 23 b7 c3 e0 3e b1 4f d7 6a b7 15 47 0d b8
       -9.757597e-06 -2.7776401e-09 -1.3997617e-05 -3.368322e-05
000270 9e fe 9f 37 2e 2e 00 b8 f9 15 c7 b8 aa db dc 37
       1.9072842e-05 -3.0560586e-05 -9.493152e-05 2.6328333e-05
000280 cf 22 b9 37 ae 63 f1 37 1f c8 2b b6 05 78 fc b7
       2.2069928e-05 2.8775856e-05 -2.5597471e-06 -3.009663e-05
000290 b0 01 4e b8 c7 b4 84 37 ea 92 1c b9 c9 20 1b b9
       -4.91158e-05 1.5819807e-05 -0.00014932049 -0.00014794165
0002a0 52 70 53 37 9f 1e dc 37 b7 d2 bc 37 87 4f 0e b4
       1.2602732e-05 2.6240303e-05 2.2509468e-05 -1.3253712e-07
0002b0 c2 a0 73 37 84 f5 38 b8 70 c5 31 37 3e 36 54 b8
       1.4521358e-05 -4.4097673e-05 1.0595992e-05 -5.0595256e-05
0002c0 53 79 ef b7 90 d5 9f b8 45 b1 61 38 aa 35 da 37
       -2.8547516e-05 -7.62149e-05 5.3809275e-05 2.6012614e-05
0002d0 2f db 4e b5 00 6c 40 ae 46 de 8f af 34 32 4a 33
       -7.7059934e-07 -4.375167e-11 -2.6169483e-10 4.707745e-08
0002e0 66 aa 1b b7 94 05 86 ae 0f 3d c3 b6 11 b4 52 b5
       -9.278394e-06 -6.0946054e-11 -5.818561e-06 -7.849313e-07
0002f0 b5 ec 01 b7 a3 ea 77 b9 75 ff 9a b8 cf 23 3b b8
       -7.744112e-06 -0.00023643165 -7.390875e-05 -4.4617624e-05
000300 a7 b6 82 b7 92 71 8c b8 8b 5b 5f b8 6a 90 13 b8
       -1.5582262e-05 -6.696874e-05 -5.32526e-05 -3.5182027e-05
000310 29 99 41 b8 0d 06 8e b8 22 88 cf b2 c7 63 60 2e
       -4.6157427e-05 -6.772215e-05 -2.4159878e-08 5.1020323e-11
000320 73 f2 5c b6 d9 1f 45 38 6a 9f 33 36 e2 db 08 b7
       -3.2923679e-06 4.699812e-05 2.676587e-06 -8.157427e-06
000330 48 dd 61 b5 e9 2f 37 35 d4 2f dd 35 d8 bd 22 b8
       -8.414104e-07 6.824253e-07 1.6479703e-06 -3.8800616e-05
000340 08 45 c1 b8 7a 0d 20 b8 27 4d af b7 d9 3d 5b b8
       -9.215815e-05 -3.8159524e-05 -2.0897553e-05 -5.227127e-05
000350 eb 3e fc b6 5f 82 3b b8 47 9f 15 b8 37 75 b5 b7
       -7.51751e-06 -4.4705692e-05 -3.5672707e-05 -2.1631464e-05
000360 ff ef 4a ab 4a b8 b1 b7 45 bd 6e 36 01 53 25 36
       -7.209788e-13 -2.118586e-05 3.5574933e-06 2.463523e-06
000370 9a 60 90 b6 76 48 07 37 55 a7 1d 35 90 8b 34 37
       -4.3027803e-06 8.063498e-06 5.873056e-07 1.07613305e-05
000380 6b e9 45 36 d4 7a 35 38 5a 01 aa b3 80 75 fc b6
       2.9491155e-06 4.3268155e-05 -7.916488e-08 -7.523864e-06
000390 b0 84 9a 36 9d b6 52 37 e4 6c bb b7 4c 14 b2 37
       4.6050045e-06 1.2559493e-05 -2.2342843e-05 2.1228705e-05
0003a0 82 10 46 b6 64 6a 11 36 b9 a0 5b 37 52 c6 a8 b8
       -2.9513908e-06 2.1668611e-06 1.3090838e-05 -8.047804e-05
0003b0 15 a9 2c b8 2f d5 2a b4 0d fa d9 37 1b a5 33 b9
       -4.1165466e-05 -1.591004e-07 2.5984855e-05 -0.00017132277
0003c0 b3 6a 22 34 30 a9 86 b8 fd 59 ff b6 65 40 5f 17
       1.5126243e-07 -6.4211315e-05 -7.610068e-06 7.2136463e-25
0003d0 f6 f9 ee 94 47 38 81 96 ab 87 6a 95 8b 96 ad 96
       -2.4130451e-26 -2.087659e-25 -4.7362947e-26 -2.8044663e-25
0003e0 82 01 00 16 84 31 80 17 44 72 9c 16 af 3e d0 95
       1.0340233e-25 8.284306e-25 2.527527e-25 -8.410943e-26
0003f0 01 83 9f 2f 26 aa 94 2e 8b 47 c8 ad cc 88 ab 2f
       2.9015015e-10 6.760485e-11 -2.2769139e-11 3.120192e-10

encoder_lin.0.bias f4 [64]
000000 4b 87 27 37 a2 8e 99 bb 17 1a 85 3d 7f 88 11 3e
       9.985476e-06 -0.0046861926 0.06499117 0.14212225
000010 32 bd 35 ba 4c 1e 9a 3c 19 89 15 b5 39 0a 10 ba
       -0.00069327943 0.018813275 -5.570633e-07 -0.00054946874
000020 9a a4 7c b8 3a 26 e1 bd 22 22 ff ae fb ff 4b bd
       -6.023478e-05 -0.10993619 -1.1602121e-10 -0.04980467
000030 80 81 9f bc 41 f6 90 3d ef 19 ba bc c9 46 73 bd
       -0.01947093 0.07078219 -0.022717444 -0.059393678
000040 56 21 c2 bb 25 fe 9f bd 50 33 71 31 10 e2 85 3d
       -0.005924384 -0.07812146 3.5099283e-09 0.065372586
000050 59 f3 23 3c ed 5a 38 b8 cc 95 32 b9 98 56 64 bd
       0.010006749 -4.39537e-05 -0.00017031207 -0.055746645
000060 fa 8f b4 b7 df 77 19 b6 00 01 84 3d bd c3 a7 bd
       -2.1524716e-05 -2.286855e-06 0.06445503 -0.08191631
000070 cb 68 22 ba ed 3e 50 2a 65 59 ed bc c3 ab 1f be
       -0.0006195425 1.8495943e-13 -0.02897329 -0.15592866
000080 63 8d 9b ba f6 f2 a0 bb 34 0f 16 be 26 d6 08 b7
       -0.0011867698 -0.0049117757 -0.14654237 -8.156092e-06
000090 9c 3d af bd 63 28 dd bc c6 cc a6 b3 7d 25 bb b2
       -0.08556673 -0.026996797 -7.7672254e-08 -2.1786713e-08
0000a0 a2 36 f8 bc 83 e5 8f ba 2d a7 ad 3d 97 cb 09 ba
       -0.030299488 -0.0010978434 0.08479152 -0.00052564725
0000b0 3f 0e 5a bd f2 27 13 b7 33 5b 2b 3e 17 ca b0 bc
       -0.053236242 -8.771183e-06 0.16734008 -0.021580739
0000c0 62 88 1c ba a6 91 d0 3d f1 6c 41 be f6 a8 a4 bd
       -0.00059712504 0.1018403 -0.18889214 -0.08040039
0000d0 83 7b 40 b1 1c 0a ea b9 b8 fe a5 aa c2 18 54 b9
       -2.8009886e-09 -0.0004463949 -2.9486634e-13 -0.00020227119
0000e0 76 60 dd 3b 27 16 05 3e b7 d1 11 b0 c7 45 7d 3e
       0.006755884 0.12996732 -5.3048715e-10 0.24733649
0000f0 05 0d e6 bd 3e 9f a3 bd 10 5a 88 3c e7 ed 9a b9
       -0.11232952 -0.079893574 0.016644508 -0.0002955042

encoder_lin.2.weight f4 [3, 64]
000000 12 26 4e bc 6f 03 08 bb b6 40 fd bd 5d 06 2a 3e
       -0.012582319 -0.0020754 -0.12365858 0.1660399
000010 97 00 07 bc c7 ed 9c 3d 5f ee 3e 98 bf b2 3d bd
       -0.008239887 0.0766254 -2.4677271e-24 -0.046313044
000020 3f 26 8e 3b fa 3f eb bd 6a 2d 84 af 93 06 7a 3d
       0.0043380554 -0.11486812 -2.404293e-10 0.061041426
000030 ca fb 43 3d fa fd e5 bd 6b c8 39 3e 89 77 ec 3c
       0.047847547 -0.11230083 0.1814286 0.028865593
000040 3d b6 83 be a5 4c 62 be c9 5d 5f bd 25 a4 ae bd
       -0.25724974 -0.2209955 -0.0545328 -0.08527402
000050 37 aa 2e be be a9 48 bd b4 d5 0c bb 72 71 6d be
       -0.1705712 -0.048990004 -0.0021489682 -0.23187807
000060 79 e4 09 3a d8 cc 36 bd 8f 72 5b 3d 57 e6 5e be
       0.00052601803 -0.044628948 0.05357605 -0.21767555
000070 b8 26 bc 3d 9e 2f a7 ba 80 ec 76 bd 8e d6 f9 bb
       0.091870725 -0.001275528 -0.060284138 -0.007624454
000080 ac c1 76 bd 06 14 97 bd ad 16 e8 bd e8 bd 40 3b
       -0.060243294 -0.07376866 -0.1133245 0.0029410068
000090 6d c5 f9 be 07 18 41 bd c4 e0 9a 3d ca 69 fa bc
       -0.48783436 -0.047142055 0.07562402 -0.030568022
0000a0 de 0f 36 3e be fe c0 bc cf b9 e9 bd cb 90 36 bc
       0.1777949 -0.02355897 -0.11412393 -0.01114292
0000b0 65 e6 70 bd f4 63 0d bd 22 71 c8 bd d3 d2 af be
       -0.05881347 -0.03451915 -0.09787203 -0.34340534
0000c0 fb 38 23 bd 60 a0 91 3d d6 06 05 3e 42 16 13 3e
       -0.039849263 0.07110667 0.12990889 0.1436396
0000d0 a9 0c 22 b8 e8 79 91 3c 35 39 9e 3c 62 f3 df bd
       -3.86356e-05 0.017758325 0.019314388 -0.109350935
0000e0 72 61 97 bd 73 15 36 be 14 aa 06 bd 45 30 7a bd
       -0.07391633 -0.1778162 -0.032877043 -0.06108119
0000f0 36 e1 b1 bb ea 16 2a bb 55 45 9e 3d b4 e1 69 bd
       -0.0054284586 -0.00259536 0.07728068 -0.057100013
000100 32 23 e8 3a 50 d5 ad b9 4b 37 8a bd 0c c4 8e bf
       0.0017710684 -0.00033156062 -0.067488275 -1.1153579
000110 29 f6 fe 3c a0 2a 59 3d 1f 03 c7 17 7d 59 ec 3d
       0.031123238 0.053019166 1.2860861e-24 0.11540506
000120 55 f4 5f 3c 82 6b fd 3e 3d ad e1 a4 b0 6e 48 be
       0.013669093 0.49496084 -9.787167e-17 -0.19573474
000130 73 c7 5d 3d 4e ae cd 3d b6 e5 9e 3d 9d 20 5e bf
       0.054145288 0.100430116 0.07758658 -0.86768514
000140 da 5c 9e 3d 3e 40 cf 3e 9e 69 05 bd 3e 0c 82 be
       0.07732554 0.404787 -0.032571428 -0.25399965
000150 c3 6f d3 3d c9 97 86 bc 5e 02 2c 3c 11 4f 26 3d
       0.10324051 -0.016429799 0.010498611 0.040602747
000160 c6 42 3a 3a 05 70 21 3c b6 1b fc bd fd c1 71 3d
       0.0007105287 0.009853368 -0.12309973 0.059022892
000170 a4 a5 3c 3d 3b d9 57 3b b9 a5 8d 39 16 b7 2e 3e
       0.046056405 0.0032935876 0.0002701709 0.17062029
000180 9c 61 dc 3a 3f 09 bb 3c c0 fe 85 be 38 f8 a1 3a
       0.0016813758 0.022831557 -0.2617092 0.00123573
000190 ad f9 b8 3d 32 88 10 bd f5 72 9f bc 45 94 7e 3c
       0.09031997 -0.035286136 -0.019463995 0.01553828
0001a0 94 c3 1a 3d 59 b2 04 3b dc aa ec 3d 05 fc c8 3a
       0.037784174 0.0020247905 0.11556026 0.0015333897
0001b0 5b 62 fe 3d bf 8f a0 3b 5f f2 47 bd c7 d3 82 3e
       0.124211036 0.0048999484 -0.048815127 0.25552198
0001c0 99 84 11 bc fa 5c a4 be cc 00 90 3d 0b 58 ae bd
       -0.008881711 -0.32102185 0.07031402 -0.085128866
0001d0 3e 29 31 30 fa 83 4a 3c 79 97 f0 3b c6 46 2e 3f
       6.4450834e-10 0.012360567 0.0073422757 0.6807674
0001e0 89 9e cc 3b b1 96 04 be a7 7a 60 3c 3b 1a e4 bd
       0.006244485 -0.12948109 0.013701118 -0.111378156
0001f0 43 13 20 bf 5e fc b6 3d f5 12 25 bd 23 bf 83 3a
       -0.6252939 0.08934854 -0.040301282 0.001005147
000200 8d c9 06 bb d9 f1 ff 39 ce f4 44 3e e6 84 98 be
       -0.002056691 0.0004881758 0.1923401 -0.29788893
000210 66 81 93 3a 5d 1c ac 3d b2 3d 57 98 b3 7c 90 3d
       0.0011253774 0.08403847 -2.7819247e-24 0.070550345
000220 cb 9a bd bc 93 93 1e 3e 10 d9 b1 a5 35 9a 82 3e
       -0.0231451 0.15485983 -3.0851693e-16 0.25508276
000230 4f ab b5 bc 0d 4c e9 bd 0e 21 43 bd a4 1f a4 3d
       -0.022176413 -0.11391459 -0.047638945 0.080138475
000240 6d 8b 0d 3e 69 25 8d 3d 20 6d af bc dc f3 87 be
       0.13822718 0.06891901 -0.02141434 -0.26553237
000250 c2 ec 61 be 57 bb 2f 3d a6 d9 55 bb 21 fd 58 be
       -0.22062972 0.04290327 -0.003263095 -0.21190311
000260 e2 69 bf 36 c2 bc 05 3c 14 ea 41 3d 66 7d 91 be
       5.70457e-06 0.008162679 0.047342375 -0.28415984
000270 69 34 2b bd d3 ba 2d b8 81 d6 48 3d 2e fc b3 3d
       -0.04179803 -4.1420408e-05 0.049032692 0.08788334
000280 f8 d6 45 bc 1e 6b 5a 3d d7 9d 88 3f 81 46 a6 3b
       -0.012075178 0.05332481 1.0673169 0.0050743227
000290 03 8d 93 be d3 0b 9a 3c 9a 53 4f bd 3b 6b 1c 3c
       -0.2881852 0.018804466 -0.050616838 0.00954705
0002a0 e4 e6 4c 3e 3f 4a 3a 3d 62 bd cc 3d 84 8c 81 ba
       0.20009953 0.045480963 0.099970594 -0.0009883796
0002b0 e0 fd ec bd 9f 94 aa 3b b4 59 a0 3b f9 fb b8 3e
       -0.1157186 0.0052057053 0.004893506 0.3612974
0002c0 2e 43 a3 3c 9c c9 28 be 2b e5 68 3e 9a d7 23 3e
       0.019929495 -0.16483158 0.2274367 0.16000214
0002d0 33 86 ac 36 2d 96 35 bd ab cc 8c 3c ba 2f 84 3e
       5.1416223e-06 -0.044332672 0.017187437 0.25817662
0002e0 b9 52 cf 3c 3f 1e c2 3d 60 51 44 3c c2 ff d8 bd
       0.025308 0.09478425 0.011982292 -0.10595657
0002f0 09 ab 8c 3e b1 c2 4c 3e 9a 65 00 be a1 31 db 3b
       0.2747424 0.19996144 -0.12538758 0.006689266

encoder_lin.2.bias f4 [3]
000000 27 df 78 be a5 04 b9 bd 37 ef 9c bd
       -0.24303876 -0.09034089 -0.07662814

decoder_lin.0.weight f4 [64, 3]
000000 53 c6 33 be 7a 38 27 3f d2 0f 45 3e 85 d9 c1 be
       -0.17556123 0.6532055 0.19244316 -0.37861267
000010 8c b7 43 bd 90 06 10 bf 06 5b ce 3e e3 8a bc bc
       -0.047782466 -0.56260014 0.4030382 -0.023015445
000020 b0 d4 0d 3f 4f a4 ea 3e 51 cd e1 3d b1 55 dd be
       0.5540266 0.45828483 0.11025489 -0.4322944
000030 7d d3 32 3e d2 7d d6 3e a1 b5 ad be b5 17 ff bd
       0.17463489 0.41892868 -0.33927634 -0.12455694
000040 4e 76 a0 3e bc 8f 80 3e 85 b7 04 be f7 d6 81 3d
       0.3134026 0.2510966 -0.12960632 0.063398294
000050 3f 4f 27 3e 9a 76 d1 3d 17 85 2f 3c 2b 15 04 3f
       0.16338824 0.102276996 0.010712883 0.515948
000060 a0 50 c6 be c5 06 31 be 6f d6 88 be f5 78 07 3f
       -0.38733387 -0.17287739 -0.267261 0.5291894
000070 df 2a bb be c0 dc df be 37 84 92 3c 67 76 db bb
       -0.36556146 -0.43723106 0.01788531 -0.0066974643
000080 34 f3 9d bc 88 00 c5 bd 05 b8 da bc 46 f7 57 bc
       -0.019281007 -0.09619242 -0.026699075 -0.013181513
000090 17 97 b7 3e 99 2a c7 3d 3e f5 05 bd 7b ec 92 be
       0.3585746 0.09724922 -0.032704584 -0.28696045
0000a0 d2 3a e4 3e 1f a8 d0 3d e3 2d 33 be d5 54 c6 3e
       0.44576126 0.101883166 -0.17497973 0.38736597
0000b0 69 f2 c5 3e 85 b0 30 be c4 a7 18 3e c7 ac e9 3d
       0.38661507 -0.17254837 0.14907748 0.11409908
0000c0 a9 76 4f be d7 c6 b6 3e bc 48 c0 3b 39 a4 4d 3e
       -0.20260109 0.35698578 0.0058680456 0.20082177
0000d0 1d ce 25 bd 4e e4 fd 3d e1 d8 97 be d9 1c 90 bd
       -0.040479768 0.12397061 -0.29657653 -0.07036752
0000e0 21 57 95 3e 50 91 09 be 64 82 ae bd a4 08 47 3d
       0.29168037 -0.13434339 -0.08520964 0.048592225
0000f0 b5 74 af be 17 72 9d 3d 83 9d 2a bd dc 1c 2a be
       -0.34268728 0.076877765 -0.04165412 -0.16612571
000100 53 1c 00 3e 26 9f 26 3f fd 98 d6 be 78 3e 3d 3e
       0.12510805 0.6508659 -0.41913596 0.18480861
000110 14 36 ab 3e 38 9f d0 be 9b a8 29 3d a3 fb 24 3e
       0.33439696 -0.40746474 0.04142056 0.16111617
000120 be b0 66 3e b1 9d d0 bc f8 25 9c 3e f4 c7 1b be
       0.2252836 -0.025465818 0.30497718 -0.15212995
000130 75 2d ed 3e 78 f6 ee 3d f6 1f 64 3e 7c 71 a0 be
       0.46323743 0.11668104 0.22277817 -0.31336582
000140 07 fd b9 bd 66 2f 5d 3e 6a 34 4a 3e bd 06 88 be
       -0.09081464 0.21600112 0.19746557 -0.2656764
000150 40 15 82 be 57 3b 94 3e 0f cd b8 3e 4a ec fb bd
       -0.25406837 0.28951523 0.36093947 -0.12300928
000160 b6 44 05 bd 18 a7 88 3d e2 3a c3 3e a9 8a 59 be
       -0.03253623 0.066724956 0.38130862 -0.21244301
000170 e9 76 11 3f 8d 1e 9e be 7d 51 56 be 78 06 92 3e
       0.5682207 -0.30882683 -0.20929523 0.2852056
000180 3f 30 ba 3e 4b 0e 84 bf 23 1f 68 bd 4d 4d e0 be
       0.36364934 -1.0316862 -0.05667032 -0.43808976
000190 ee 32 1d 3f 64 5b 6e 3d e3 b0 a7 bd 08 82 c5 bc
       0.6140584 0.058192626 -0.08188035 -0.024109855
0001a0 7d 44 7f 3c 4f 54 f4 be 63 77 96 bd 6f b5 fe 3d
       0.015580294 -0.47720572 -0.0734699 0.124369495
0001b0 3e 5e 35 3f 45 a4 61 3e 12 fc 73 3e cc 66 41 be
       0.7084693 0.2203532 0.23826626 -0.1888687
0001c0 08 36 22 3f f4 6b 59 be dd 1c 60 be 89 94 44 3e
       0.63363695 -0.21232587 -0.2188601 0.19197287
0001d0 7e 81 0e bf 7b 99 e8 be 4d a2 82 3d ad db 27 bf
       -0.5566634 -0.45429596 0.06378613 -0.65569574
0001e0 da c9 48 3e 91 62 a9 be 1c 25 94 bd 6d 11 ea 3c
       0.1960825 -0.33083013 -0.072336406 0.028572762
0001f0 52 c4 86 3d ba a2 5d 3c c9 33 b6 be 47 47 f7 bd
       0.06580414 0.013527567 -0.35586384 -0.12074142
000200 fb 3b 69 3e fc aa 36 3d 2b 03 8f 3e 03 f1 fc 3e
       0.22776787 0.044596657 0.27932104 0.49402627
000210 ba 66 c5 be df c3 74 be b7 54 df be c3 d7 59 3e
       -0.38554937 -0.23902844 -0.4361932 0.21273713
000220 4a 0e 7f 3e 5b c9 a2 be e3 e9 9f be 95 14 3b 3d
       0.24907795 -0.31794247 -0.3123313 0.045673925
000230 2f c9 28 bf ce 58 7e 3e c9 4e 6a be 92 ce 16 bf
       -0.6593198 0.24838564 -0.22881617 -0.5890895
000240 92 55 fc 3d 40 79 ab 3d 40 d3 92 3d 4e dc 49 be
       0.12321009 0.08372736 0.07169199 -0.19712946
000250 0e cf 0d 3f b9 30 16 3e 6b d2 3a 3e c6 ef 23 bd
       0.55394065 0.14667024 0.1824433 -0.040023588
000260 38 c5 a5 bd 8c a6 82 3c 12 04 70 3e cb 7f a9 3d
       -0.08094257 0.015948556 0.23439053 0.08276328
000270 12 96 f9 be b8 ba 9f 3e 80 5d d6 3d 09 4f 27 bd
       -0.48747307 0.31197143 0.104670525 -0.04084686
000280 10 fb f0 3e 0b e5 1c 3e c8 2d 4f 3d ff 92 9b 3d
       0.47066545 0.15321748 0.05058077 0.07596397
000290 8a 3d 8e 3c d3 99 1d bf a8 51 ab bd 55 8e 7e 3d
       0.017363328 -0.6156284 -0.08365184 0.062147457
0002a0 48 bf 2f bd 6b c0 68 bd 04 c9 a7 bd d5 48 0d be
       -0.04290703 -0.05682413 -0.081926376 -0.13797314
0002b0 27 50 78 3e b7 46 29 bf 3c 55 12 be f3 a4 34 bc
       0.24249326 -0.6612353 -0.14290327 -0.011025655
0002c0 a5 8f 2c bd 86 7f a3 3e 78 77 84 bd 3f 74 24 3e
       -0.042129178 0.3193323 -0.06468099 0.1605997
0002d0 36 27 83 be 6d dc eb be 85 cd 89 3d 01 a1 bc 3e
       -0.25615853 -0.4606661 0.06728653 0.36841586
0002e0 f2 f3 41 3e 35 c3 20 be 45 68 d9 3e b3 fe 5c 3e
       0.18940714 -0.15699466 0.42462364 0.21581535
0002f0 68 e2 30 be 6f 9f f0 3d 76 45 e7 3d 40 23 f7 be
       -0.17273867 0.117491595 0.112925455 -0.4826908

decoder_lin.0.bias f4 [64]
000000 9b 9c c1 3b 10 be db bd 37 d6 83 3e 35 1b f3 3d
       0.0059085614 -0.10729611 0.2574937 0.11870424
000010 62 bc 22 3f 82 e0 8a 3d 2e ca ac 3e d7 87 21 be
       0.635687 0.06781103 0.33748 -0.15774475
000020 a7 92 ca 3e c7 0b 77 bd 2c a3 32 3c ce fb 03 3f
       0.39565012 -0.060313966 0.010903161 0.515561
000030 cd 35 a2 bd 82 eb 8c bf 61 05 ee 3d 5b be 11 3f
       -0.07920418 -1.1009371 0.1162212 0.56931084
000040 4e 01 48 be 1f e0 ba 3e 28 c3 0d 3f 17 bd 4d 3f
       -0.19531748 0.36499116 0.5537591 0.80366653
000050 fc a3 31 bc 75 77 ed be 3c 4f 10 bf 1f 84 71 bf
       -0.01084232 -0.463802 -0.563709 -0.94342226
000060 67 b0 06 3f 98 84 26 3e c9 4d 46 3f 7d 97 01 3f
       0.5261292 0.16261518 0.7746244 0.5062178
000070 73 c4 75 bf 51 30 33 3f 42 0c a3 3e 53 6a 73 be
       -0.9600288 0.699956 0.3184529 -0.23771028
000080 fd 33 c8 be e0 7e a1 bd 4a d8 da 3e c6 9a 9c 3e
       -0.39102164 -0.078855276 0.4274314 0.30586833
000090 2d 15 8e bb 72 d3 9a 3e ee 07 7e be 08 c4 96 be
       -0.0043360204 0.30239445 -0.24807712 -0.29446435
0000a0 49 25 57 3f 6a 39 25 3f ba db fd 3e de fb 60 3d
       0.8404127 0.6454073 0.495817 0.0549277
0000b0 c5 ec 26 bf ac 6b 17 bf d5 0d 5b 3e 8b ea d3 be
       -0.6520503 -0.5914867 0.21391995 -0.4138988
0000c0 dd 0c 4b 3e 74 25 33 3e c6 e1 ad 3b d1 1c f5 3e
       0.19829126 0.17494756 0.0053064553 0.47873548
0000d0 12 5c 21 bf 44 03 ec be 8b 43 2e 3f 4c 7f fb be
       -0.63031113 -0.4609624 0.6807181 -0.49120557
0000e0 9d 1b 7f 3f 4c 55 92 3e 57 af 44 3f d5 e7 c6 be
       0.9965151 0.285807 0.7683005 -0.3884875
0000f0 cb 6e 6c 3e e9 12 50 be 58 74 ef 3e 1c 1a c2 3c
       0.23089139 -0.20319714 0.4676845 0.02369409

decoder_lin.2.weight f4 [288, 64]
000000 aa d2 4b bd d7 50 ee 3b 7e b5 60 3e 7b a5 66 bc
       -0.04976145 0.0072728205 0.21944234 -0.01407754
000010 07 03 b6 bc 1e 65 cb 3b 5b 53 10 3d e9 be c3 3d
       -0.02221824 0.0062071225 0.035235744 0.095578976
000020 b9 be ea 3c 92 ed bf bb 0c 9f 0d 3b ad 21 2f 3d
       0.028655397 -0.005857178 0.0021609692 0.042756725
000030 1e 4f 73 3d 21 6f 80 bc 5b 82 54 3c 75 68 0b 3d
       0.059401624 -0.01567799 0.012970532 0.034035165
000040 26 6f 08 bd 4e bf e9 3d 8c cf 3b 3c 10 c1 a2 3d
       -0.033309124 0.114134416 0.011463057 0.0794698
000050 04 61 e9 bc 86 76 e7 bb 09 ae 3d bd 9e da 26 bc
       -0.028488643 -0.0070636896 -0.04630855 -0.010183958
000060 15 00 2d 3e cd d1 05 bd 76 58 bf 3d 1f 3e e0 3c
       0.16894563 -0.032670785 0.093430445 0.027373372
000070 ae e6 41 bd a3 92 8f 3d 29 d1 54 3e ff 7f 31 bd
       -0.047339134 0.070103906 0.20782913 -0.043334957
000080 8b 1a 10 3d 7b 77 86 bd 66 2a 27 3d 82 bd 57 bd
       0.035181563 -0.06565758 0.04081192 -0.052670963
000090 54 de 25 3e 3a 3a c7 bd e4 ba 48 3a 26 32 10 3c
       0.16198093 -0.09727903 0.00076572434 0.008801019
0000a0 80 4c cf 3d 56 eb b4 3d 26 e6 71 bc 13 cf 8c 3d
       0.10122013 0.08833949 -0.014764344 0.06875434
0000b0 0d c3 6b 3c 7b bc 92 bd 65 14 82 3c fe 6d 1b bc
       0.014389765 -0.07164856 0.015878865 -0.009486673
0000c0 d9 e4 82 3d ce 31 3b bd 39 f5 d4 3b ec e0 ca 3b
       0.063913055 -0.045701794 0.0064989594 0.0061913636
0000d0 91 f4 68 bd 50 20 dd bc b6 77 c4 3d 88 8b 44 bc
       -0.05687386 -0.026992947 0.095931455 -0.0119961575
0000e0 02 03 d0 3d c2 bd 87 bd b3 22 6c 3d cb 9e b6 3d
       0.10156824 -0.0662799 0.05765028 0.08917006
0000f0 4b 4b 4b bd 6d 05 85 bc 2a 6e e9 3d 5d ec 36 bd
       -0.04963235 -0.016237939 0.11397965 -0.044659007
000100 a6 0f 5c 3d 01 9b 9b 3c 29 2b 50 bd ab 39 0a be
       0.05372586 0.01899481 -0.05082241 -0.13498561
000110 37 65 fe bc 47 69 38 bc 8d 59 35 bc c3 3c 1d bd
       -0.031054122 -0.011255569 -0.011068714 -0.038388025
000120 4a 5d d6 3c 9b f5 a9 bd 36 78 35 bc 83 ca 34 3b
       0.02616753 -0.08298799 -0.011076024 0.0027586527
000130 9a d0 bf bc 6f 20 06 bd 9d 26 c2 bb 4d 3f 3e 3c
       -0.023414899 -0.032745775 -0.005925013 0.011611772
000140 dc 53 1c 3d e1 e9 f8 bc be be 84 bc 07 3f a9 ba
       0.038165912 -0.03038496 -0.016204234 -0.001291246
000150 dc 4e 11 3d ae bf 8b 3b a9 41 87 bd 59 d7 fb bd
       0.035475597 0.0042647934 -0.066043206 -0.12296934
000160 f7 b5 e3 bc 7e 89 26 3d 1d a7 67 bd 72 4d 26 bd
       -0.027796729 0.040658467 -0.056555856 -0.0406012
000170 09 1c e2 bc 67 1b 8c ba 67 11 2e bd 04 cd 4c bd
       -0.027601259 -0.0010689319 -0.042497065 -0.050000206
000180 d1 3a 16 3d 6f 58 9d 3d 2c cc 1d 3b bf 2c c7 3c
       0.036677185 0.07682883 0.0024077995 0.024313329
000190 e3 e9 47 bd 74 ed 41 3d e2 c7 9e 3c 0e 62 aa 3c
       -0.048807036 0.047345594 0.01938242 0.02079871
0001a0 26 dd 77 bd 04 fa 53 bc 7b 5c 87 3b 48 60 b5 3b
       -0.060513638 -0.012938026 0.0041308976 0.0055351593
0001b0 1b 02 56 3d ee 9c 61 bd a3 ba 8d 3c 60 21 c6 bc
       0.0522481 -0.0550813 0.01730091 -0.024185836
0001c0 67 8a b5 bb ae f7 5c 3d fc 9c 91 bc ba 65 5e 3c
       -0.0055401805 0.053947143 -0.017775051 0.013574058
0001d0 09 16 32 3d a4 fb 24 bd 89 d6 74 bc d9 ab 00 bd
       0.043478046 -0.040279046 -0.014943727 -0.031413887
0001e0 4a 87 4e bc a5 9c 88 3c c8 ba b7 3a 84 54 e1 3a
       -0.012605498 0.016676256 0.0014017457 0.0017191325
0001f0 d4 e9 53 bc f3 84 13 bd b8 2f 95 bd ac 80 de bc
       -0.012934167 -0.036015462 -0.07284492 -0.027160965
000200 ff 99 fa bc 8c 37 8a 36 c5 2e f8 ba 6e 5e 43 b8
       -0.03059101 4.119187e-06 -0.0018934837 -4.6579567e-05
000210 78 d5 cb bc 89 73 06 bc ef a6 c4 bb 3a cd 27 b7
       -0.024882063 -0.008206257 -0.0060013453 -1.0001759e-05
000220 fa c0 92 35 67 6f ed 36 0b 17 81 35 f4 74 4a ba
       1.0934011e-06 7.0761193e-06 9.617955e-07 -0.0007723116
000230 6e 71 03 36 2b 6f 28 ba 0f 3c d3 bc 25 fe 66 bc
       1.9586546e-06 -0.0006425257 -0.025785474 -0.014098679
000240 47 95 60 bb d8 e9 d5 36 40 52 14 bc 7e 5f ed ba
       -0.0034268664 6.3751177e-06 -0.009052813 -0.0018110124
000250 84 06 67 ba ce f3 e2 ba a9 61 08 bb e8 a9 e9 b5
       -0.00088129216 -0.0017315091 -0.0020810163 -1.7409302e-06
000260 b0 85 31 bb 30 c1 8d bc 02 f4 11 b7 97 06 a3 bb
       -0.002708774 -0.017304033 -8.699486e-06 -0.004975151
000270 03 65 cd b9 c5 10 40 bb 1f 33 39 bb 22 60 41 b6
       -0.00039175907 -0.002930687 -0.002825923 -2.8815198e-06
000280 06 8e 19 b5 00 48 e3 bc 76 cb a0 ba e5 e8 53 bb
       -5.7203613e-07 -0.027744293 -0.0012267667 -0.003233486
000290 f3 68 21 ba ad f1 1d bd 60 ec 93 ba a8 28 2c ba
       -0.0006157301 -0.038560558 -0.0011285655 -0.00065673376
0002a0 ea 76 69 b8 2a af 18 bb 17 cd f6 bb 5f 03 6f bc
       -5.5662276e-05 -0.0023297765 -0.007531773 -0.014588206
0002b0 c6 ec 4f 35 48 2c 3c 36 a1 22 9c bb b9 71 14 b5
       7.745806e-07 2.8039958e-06 -0.0047648703 -5.5299785e-07
0002c0 06 c6 50 36 b1 c2 ff bc 10 25 b9 b4 36 dd e6 bb
       3.110968e-06 -0.031220766 -3.4485902e-07 -0.0070454134
0002d0 3e 10 81 bb d9 81 d0 bb d2 d6 39 bb 5b 2f 20 36
       -0.003938704 -0.0063631353 -0.0028356803 2.3869422e-06
0002e0 80 75 01 bb ec 1f 61 bc aa a3 c1 bb 2e 6a 95 35
       -0.0019753873 -0.013740521 -0.005909403 1.1132267e-06
0002f0 74 49 5e b8 22 71 dc 35 aa 6a 0f bb 41 af 05 b8
       -5.2997333e-05 1.6424203e-06 -0.0021883645 -3.187289e-05
000300 df 3b 14 3c 88 fc 0a 3c f5 60 3d 3e 2d ed ed 3c
       0.0090474775 0.00848306 0.18494017 0.029043758
000310 80 74 89 3d 85 f8 06 bd 76 6a dd 3c 44 67 49 bc
       0.06711674 -0.03295185 0.027028304 -0.012292687
000320 c1 9e 01 3e cf 0e 55 bd 02 4a ba 3c df 03 c3 3d
       0.12658216 -0.052016076 0.022740368 0.09522223
000330 01 3b 7c 3d 11 9a cf bc 5c f7 30 bc fb 4e 74 3d
       0.061579708 -0.02534202 -0.010801163 0.059645634
000340 19 4f fd bc 66 bb 05 3e 17 85 79 3d b0 9b 0d 3e
       -0.030921506 0.13059768 0.06091794 0.13828921
000350 f0 21 b3 3d be 3b 91 bd f8 3b 12 3d b3 0e 02 3c
       0.087467074 -0.07091473 0.035701722 0.007938075
000360 5e b1 d8 3d 37 c5 3a 3d 79 ca f2 3d ac 19 6c 3d
       0.10580705 0.045598235 0.11855025 0.05764167
000370 fa b5 cc bd f7 f0 02 3e 51 6d 1d 3e 5f ce 4e 3c
       -0.09995647 0.12787233 0.15373732 0.012622445
000380 77 3c 09 be 2c db 1f bd 9b 2e a1 3d 10 85 f3 3d
       -0.13401972 -0.039027378 0.078702174 0.11890614
000390 d4 91 29 3e da cf cd bc f7 47 8a 3c 8e aa 49 3d
       0.16559535 -0.025123525 0.016880019 0.04923492
0003a0 bf 5a b0 3d c8 fb 0d 3e 94 c5 a2 3d 8e 36 8f 3d
       0.086110584 0.13865578 0.07947841 0.06992827
0003b0 11 72 22 bc e7 51 ab bc 99 0d 8b 3d 8a 93 a9 bd
       -0.009914891 -0.020913078 0.06789703 -0.08280094
0003c0 c9 6b 44 3d 2d d0 11 3d 5a 73 78 3d fe 77 c2 3d
       0.047954354 0.035598923 0.060656883 0.09495543
0003d0 36 41 23 3e 41 33 b7 bd 2b 20 0b 3e 67 00 a5 3d
       0.15942845 -0.08945323 0.1358649 0.08056717
0003e0 8d a0 05 3e 36 d4 cc bd 1f 7c fd 3d be ee e4 3b
       0.13049527 -0.100014135 0.1237719 0.006986468
0003f0 74 cf 11 bd ca 44 ab 3d de 53 36 3d c0 4a 90 bd
       -0.035598233 0.0836273 0.044513576 -0.070455074
