2. Convolutional Autoencoders/models/lats_autoencoder.pth (torch, 207529 bytes, 19 tensors)

encoder_conv.0.weight f4 [8, 1, 3, 3]
-0.011019009 0.13758746 -0.271891 -0.24479516 -0.12609534 0.05095986 -0.012650657 0.21962734
-0.029535722 0.052811984 -0.09549304 -0.05867326 -0.3133473 -0.2157142 -0.13074292 -0.009294824
0.093919896 0.16234766 -0.22169578 -0.13988858 0.09144696 0.23955163 -0.06357354 0.21526124
-0.050168216 0.011333316 0.2660075 -0.26149076 -0.17963497 -0.046283256 -0.08547108 0.2623531
-0.17366317 -0.11847754 -0.20711574 -0.28124434 -0.17521437 0.24734998 0.10846297 0.13386053
-0.00403372 -0.16098277 0.035805203 -0.29469258 -0.22967233 -0.12763585 0.21201144 0.1980881
-0.10330687 0.032713212 0.21581535 0.32901996 0.13691987 0.057194397 0.19809787 -0.18780392
0.008147217 -0.1953943 -0.18660007 -0.14881325 0.113723494 0.06349354 -0.2133674 0.10071932
0.18093145 0.0020622576 0.022836039 0.07789456 0.2037815 0.31466097 -0.21299213 -0.07869937
00000000: 1389 34bc bae3 0c3e 4c35 8bbe 95ab 7abe
00000010: 231f 01be 49bb 503d b444 4fbc fde5 603e
00000020: e6f4 f1bc 6151 583d db91 c3bd 5f53 70bd
00000030: 0f6f a0be 2fe4 5cbe 79e1 05be 5149 18bc
00000040: 1359 c03d 773e 263e 3804 63be f43e 0fbe
00000050: 8b48 bb3d 064d 753e d832 82bd 716d 5c3e
00000060: 307d 4dbd 5faf 393c 2332 883e 1ee2 85be
00000070: 3bf2 37be 8393 3dbd 760b afbd 2553 863e
00000080: c2d4 31be 5aa4 f2bd 2616 54be 42ff 8fbe
00000090: 656b 33be 5049 7d3e d521 de3d bc12 093e
000000a0: 4c2d 84bb abd8 24be 7aa8 123d f2e1 96be
000000b0: 392f 6bbe f9b2 02be 8719 593e 9bd7 4a3e
000000c0: 8d92 d3bd 4afe 053d b3fe 5c3e 4e75 a83e
000000d0: b934 0c3e ac44 6a3d 2bda 4a3e ac4f 40be
000000e0: e87b 053c 7215 48be 1714 3fbe 8062 18be
000000f0: dde7 e83d e708 823d fc7c 5abe ee45 ce3d
00000100: 1846 393e f126 073b a512 bb3c 2f87 9f3d
00000110: 19ac 503e 3e1b a13e 9c1a 5abe 232d a1bd

encoder_conv.0.bias f4 [8]
0.14449528 0.2963283 0.29927492 0.34179166 0.11323422 -0.23921025 0.076988116 -0.16137992
00000000: 92f6 133e 58b8 973e 903a 993e 51ff ae3e
00000010: 58e7 e73d 88f3 74be f2ab 9d3d c740 25be

encoder_conv.2.weight f4 [16, 8, 3, 3]
-0.0062571056 0.13385046 0.12348759 -0.017607361 0.06453596 0.065306626 0.06514803 0.039474357
0.08478394 0.03359256 0.09040626 0.101558685 0.11172593 0.08690237 -0.020392375 0.025557851
0.101339474 0.075205825 -0.02748032 -0.005990309 0.111501895 0.059805658 0.0015905617 0.023094617
-0.06336145 0.028472286 -0.038511865 0.01667857 0.082933895 0.07840127 0.054084536 0.1150836
0.032864958 0.1378889 0.12630194 0.007951263 0.06704802 0.074933775 0.07316521 0.06858141
0.08508797 0.07377509 0.0451457 0.09447467 -0.010367822 -0.0816284 -0.058095247 -0.039637443
-0.056810666 -0.099477395 -0.026915826 -0.05483906 -0.08924306 -0.040973566 0.108129025 0.07452917
0.07834071 0.06887696 0.07101363 0.09944996 0.13089399 0.10002286 0.12927951 -0.050354384
-0.11101157 -0.064484686 -0.006939169 -0.053867377 -0.066702805 -0.08458313 -0.11382541 -0.100854486
0.024701001 0.07501254 0.0758606 -0.06404035 0.083527476 -0.041228417 0.025019085 0.0028566842
0.028303485 0.039386567 -0.044124294 -0.04137496 0.043401323 0.052507862 0.006043465 0.074578375
-0.043558124 0.0514151 0.09858594 -0.01852417 0.10343124 0.0452868 -0.076502 0.07484902
0.013230067 -0.022684036 0.0923038 -0.018397028 0.058395363 0.046396133 0.12028638 0.07126279
0.089917235 0.08382471 0.046687927 0.04753451 -0.026189357 0.08745341 0.11435209 0.105196565
-0.019214928 0.0496114 -0.019385388 -0.005192698 -0.009363645 0.0047228523 -0.07110081 -0.0074270195
-0.013583055 0.03790654 -0.08949713 -0.08621826 -0.06974033 0.043523848 0.049407013 0.12732753
0.07909022 0.071678974 0.063836135 0.054149855 0.07324995 0.052982617 0.064298004 -0.013626103
-0.092598975 -0.061296195 0.048210457 -0.097157635 -0.010049074 0.067880616 0.005359009 -0.009736572
-0.049924146 0.067599475 -0.029988838 0.01643597 0.010045277 0.03208664 0.040614348 0.10354297
0.03688539 0.13358602 0.09739761 -0.011306902 0.08292128 -0.019786714 0.010337011 0.07038349
0.06715705 0.108318895 -0.007917853 0.027890405 0.0561698 -0.08333775 0.07946365 -0.064298205
0.025112353 0.012428812 -0.029367026 0.076704435 0.13538608 0.043874316 0.014270109 0.03463064
-0.040391453 0.100924574 0.023618616 -0.0012640539 0.010278938 0.091950014 0.08779298 0.11648485
0.06473013 0.025627341 0.035651762 0.055865474 0.11249502 -0.013672124 -0.053127736 -0.049610306
-0.11506634 -0.008653564 -0.060734425 -0.10949321 0.058725856 -0.07251324 0.081582636 0.07520331
0.070970565 0.018086078 -0.012344011 0.123595916 0.07886372 0.12607291 0.044949617 -0.010915102
-0.02709882 -0.009455648 -0.073421486 -0.0027647025 0.00069261086 -0.021469748 -0.02703336 -0.06763472
0.031452246 -0.027559372 0.010622177 -0.0025306763 -0.0019418005 0.0054876534 -0.029263977 0.00083615794
-0.00517407 -0.057766713 -0.007818203 0.009044971 -0.012470648 -0.0076713655 -0.04700176 -0.027139366
-0.015139341 -0.009860246 0.058926433 0.08512536 0.032790907 0.042717334 0.06178044 0.04834415
0.05172441 0.04905805 0.00445528 -0.034370296 0.0028445998 0.03324107 -0.013220857 -0.030874783
-0.011090918 -0.051662162 -0.08115725 -0.07357624 0.03650464 0.010113313 -0.042906873 -0.01930263
00000000: 6808 cdbb 1810 093e 10e7 fc3d 503d 90bc
00000010: 6e2b 843d 7bbf 853d 556c 853d ddaf 213d
00000020: 34a3 ad3d 5a98 093d eb26 b93d 00fe cf3d
00000030: 90d0 e43d dff9 b13d e90d a7bc b35e d13c
00000040: 128b cf3d 8305 9a3d 681e e1bc 5b4a c4bb
00000050: 1b5b e43d c7f6 743d 657a d03a ec30 bd3c
00000060: a6c3 81bd b63e e93c 9ebe 1dbd 7fa1 883c
00000070: 3fd9 a93d d890 a03d bf87 5d3d f3b0 eb3d
00000080: 689d 063d bf32 0d3e 4c55 013e 0446 023c
00000090: 7950 893d e176 993d a4d7 953d 6974 8c3d
000000a0: 9a42 ae3d 6517 973d b3ea 383d f07b c13d
000000b0: ccdd 29bc ca2c a7bd 48f5 6dbd df5a 22bd
000000c0: 4db2 68bd ceba cbbd 947e dcbc ec9e 60bd
000000d0: 11c5 b6bd e6d3 27bd c072 dd3d c0a2 983d
000000e0: 1871 a03d 5d0f 8d3d 986f 913d 6cac cb3d
000000f0: 1309 063e c9d8 cc3d d961 043e 6640 4ebd
00000100: 095a e3bd 8c10 84bd f861 e3bb 0aa4 5cbd
00000110: 7b9b 88bd ec39 adbd 4c1d e9bd cc8c cebd
00000120: c159 ca3c 2da0 993d cd5c 9b3d 9627 83bd
00000130: 7410 ab3d 21df 28bd d3f4 cc3c 3537 3b3b
00000140: b6dc e73c cf53 213d adbb 34bd ca78 29bd
00000150: 96c5 313d 7c12 573d 4208 c63b 8cbc 983d
00000160: 016a 32bd a498 523d 6de7 c93d 00c0 97bc
00000170: c2d3 d33d a77e 393d 15ad 9cbd 714a 993d
00000180: ecc2 583c dfd3 b9bc c609 bd3d 5db5 96bc
00000190: fa2f 6f3d df09 3e3d b558 f63d 3af2 913d
000001a0: 8726 b83d 4aac ab3d d73b 3f3d 8cb3 423d
000001b0: 108b d6bc c61a b33d 6e31 ea3d 4c71 d73d
000001c0: a068 9dbc 5335 4b3d 1bce 9ebc 8227 aabb
000001d0: f969 19bc 28c2 9a3b 4d9d 91bd 5b5e f3bb
000001e0: 768b 5ebc e343 1b3d 454a b7bd 3393 b0bd
000001f0: 05d4 8ebd 1046 323d 025f 4a3d 2662 023e
00000200: 0efa a13d 6dcc 923d 85bc 823d 3dcc 5d3d
00000210: 1204 963d 4d04 593d acae 833d 0540 5fbc
00000220: 88a4 bdbd b811 7bbd 5478 453d 95fa c6bd
00000230: dfa4 24bc fe04 8b3d a09a af3b 2586 1fbc
00000240: 437d 4cbd 9871 8a3d 27ab f5bc baa4 863c
00000250: f294 243c 486d 033d 3b5b 263d 560e d43d
00000260: 2215 173d c6ca 083e 6678 c73d 9640 39bc
00000270: a2d2 a93d bf17 a2bc 915c 293c 3825 903d
00000280: a389 893d 4cd6 dd3d e2b9 01bc 6b7a e43c
00000290: 4e12 663d fbac aabd d7bd a23d c7ae 83bd
000002a0: 6cb8 cd3c 37a2 4b3c 1e93 f0bc 3717 9d3d
000002b0: a6a2 0a3e 8eb5 333d 2dcd 693c dcd8 0d3d
000002c0: 8271 25bd 8bb1 ce3d d47b c13c 9cae a5ba
000002d0: fe68 283c 4a50 bc3d cecc b33d 9c8f ee3d
000002e0: 3b91 843d 6ef0 d13c 9507 123d 32d3 643d
000002f0: ca63 e63d 0b01 60bc 789c 59bd 2d34 4bbd
00000300: e7a7 ebbd aec7 0dbc a9c4 78bd fa3d e0bd
00000310: 868a 703d d281 94bd cc14 a73d 3104 9a3d
00000320: 0459 913d 4129 943c 893e 4abc db1f fd3d
00000330: 4d83 a13d 4219 013e 171d 383d 42d5 32bc
00000340: 58fe ddbc ddeb 1abc 015e 96bd 0330 35bb
00000350: 5490 353a 53e1 afbc 1175 ddbc 1284 8abd
00000360: 12d4 003d 31c4 e1bc a408 2e3c b4d9 25bb
00000370: 0384 feba c6d1 b33b 02bb efbc 9c31 5b3a
00000380: 3f8b a9bb ca9c 6cbd ec17 00bc 5c31 143c
00000390: b051 4cbc 1460 fbbb eb84 40bd 6053 debc
000003a0: 000b 78bc df8c 21bc d85c 713d 3456 ae3d
000003b0: c24f 063d 5ff8 2e3d 7d0d 7d3d 8404 463d
000003c0: fadc 533d 18f1 483d 99fd 913b dec7 0cbd
000003d0: 776c 3a3b ca27 083d 4b9c 58bc 1ded fcbc
000003e0: afb6 35bc b49b 53bd c635 a6bd 24af 96bd
000003f0: e485 153d 4fb2 253c 1ebf 2fbd 8d20 9ebc

encoder_conv.2.bias f4 [16]
0.037084997 0.01218965 0.07457696 0.0020499718 0.070817746 0.042480238 0.085766524 -0.052713245
-0.056381654 0.09598625 0.07047729 -0.0585793 -0.022383677 -0.042983063 -0.025748394 0.00012840681
00000000: 70e6 173d 19b7 473c cebb 983d d258 063b
00000010: e508 913d c2ff 2d3d 5ca6 af3d d8e9 57bd
00000020: 73f0 66bd 7094 c43d 6656 903d d9f0 6fbd
00000030: f95d b7bc 020f 30bd 4cee d2bc f1a4 0639

encoder_conv.4.weight f4 [32, 16, 3, 3]
0.057275135 0.07114025 0.07990417 0.08607534 0.077838235 0.030883908 0.05673676 0.07501484
0.097643055 -0.045829326 0.05022557 0.06798095 -0.040412698 0.025869152 0.07287883 -0.023417503
0.035562314 0.04471337 0.040238645 0.091983244 0.08802554 0.08530511 0.044759713 0.09453025
-0.019009577 0.014642051 0.04972559 -0.041773662 -0.013941242 -0.04180934 -0.033845812 -0.033319812
-0.06643473 -0.0519395 -0.058528353 -0.05458103 0.064804204 0.027607284 0.030457314 0.08948266
0.04102579 0.00071020256 0.07630826 0.08403266 0.03154371 0.026022851 -0.010047524 -0.019436307
0.04251242 0.022758922 0.07522687 -0.011404229 0.040370822 0.040526673 0.047705702 0.077869564
0.06733754 0.04734493 0.023451084 0.0009476512 -0.02267615 0.04258925 0.09085751 -0.027384449
0.00065148156 -0.008899379 -0.029053101 0.002422878 -0.025029892 -0.026223857 0.0072403415 -2.5067e-05
0.02790483 0.03416422 0.03208956 -0.012340796 -0.025419794 0.062514916 0.033266705 0.02331867
0.029610587 -0.0020858285 0.02061606 -0.026035348 0.070707045 0.050072182 0.0044232714 0.015335245
0.053646844 0.014558068 0.03535882 0.03693906 -0.007932049 0.03471453 0.03335017 0.081664346
0.012099455 0.019223776 0.081660405 -0.016730586 0.050505508 0.09311753 0.018507259 0.10562968
0.092041776 0.0908196 0.05817968 0.09417672 -0.0058099874 0.013527405 0.017189361 0.015458688
0.04370035 0.058600385 0.0003353978 0.054667823 0.027151596 0.032319218 0.027590014 0.06698284
0.016761124 0.06135519 0.061430737 0.053743027 -0.0044633737 0.07991127 1.7324035e-07 -5.59758e-06
1.5797486e-06 -3.0080488e-05 1.967226e-06 1.4116813e-05 0.0242222 -0.0057042507 1.3984381e-06 -0.00028448543
0.017238798 0.016045557 -0.00066895346 0.00044029695 -0.0046506235 0.008263363 -0.005137987 0.021022016
0.04655734 0.09635923 0.092336155 0.024792902 0.071818165 0.06879261 0.05744627 0.071306564
0.08124997 -0.018720105 -0.032785244 0.041971467 0.02921638 0.031632505 0.06341679 0.0047991425
0.040346313 -0.0013686218 0.040389605 0.03450856 0.07914264 0.08847065 0.0881259 0.05523635
0.06603909 -0.024437845 0.019423142 -0.042736735 -0.04777443 -0.06391717 -0.05098005 -0.052311465
-0.08268142 -0.053729024 -0.036156043 -0.051975016 0.014233099 -0.016674742 -0.010586558 0.057165798
0.08966539 0.025545064 0.010818035 0.018339409 0.05202599 -0.031064322 -0.022128852 0.08837274
0.013162208 0.038181167 0.032894343 -0.01801763 0.04077378 0.045316495 0.014500782 0.040252954
0.04189107 -0.028376373 0.07846776 0.08354978 0.063653894 0.030377764 0.059169337 -0.032208566
-0.0021028786 -0.000340487 -0.024725249 -0.004020831 -0.003583562 -0.032647684 -0.004766378 -0.022409035
0.028734297 -0.020274455 0.056570936 0.05040593 0.08639775 0.0213264 0.035240732 0.042044852
0.092407376 0.088116266 0.0044045504 -0.023948142 -0.028457435 0.008873838 0.086610556 0.051166415
0.096542515 0.07865845 0.043725044 -0.007116918 0.09553501 0.08016674 0.057817332 0.0008853749
0.07877158 0.042451106 0.074100316 0.05303721 0.067337185 -0.01471682 0.0089760395 0.07881997
0.044496637 -0.016137987 0.104272105 0.056166157 0.046329957 -0.019910103 0.01837582 0.00459837
00000000: 5599 6a3d fbb1 913d cca4 a33d 4548 b03d
00000010: a769 9f3d 4000 fd3c ce64 683d 61a1 993d
00000020: 15f9 c73d 88b7 3bbd 54b9 4d3d 9939 8b3d
00000030: c987 25bd 8beb d33c 7f41 953d 10d6 bfbc
00000040: caa9 113d 5e25 373d 47d1 243d b661 bc3d
00000050: bc46 b43d 72b4 ae3d f655 373d 1399 c13d
00000060: f9b9 9bbc 37e5 6f3c 0fad 4b3d dc1a 2bbd
00000070: cf69 64bc 4540 2bbd e8a1 0abd 5b7a 08bd
00000080: ef0e 88bd 83be 54bd 6dbb 6fbd 5c90 5fbd
00000090: 11b8 843d ac28 e23c 9e81 f93c af42 b73d
000000a0: a90a 283d e32c 3a3a 8147 9c3d 5119 ac3d
000000b0: fa33 013d e02d d53c 5f9e 24bc e438 9fbc
000000c0: 8121 2e3d eb70 ba3c 8c10 9a3d ced8 3abc
000000d0: e05b 253d 4cff 253d 0e67 433d 147a 9f3d
000000e0: 44e8 893d c2ec 413d 7d1c c03c cc6b 783a
000000f0: 55c3 b9bc 1172 2e3d 8113 ba3d 5a55 e0bc
00000100: 30c8 2a3a b3ce 11bc c500 eebc 26c9 1e3b
00000110: 7d0b cdbc 6ad3 d6bc 6340 ed3b f946 d2b7
00000120: ac98 e43c c8ef 0b3d 5870 033d 0d31 4abc
00000130: 2c3d d0bc d207 803d ab42 083d cc06 bf3c
00000140: e791 f23c 65b2 08bb 03e3 a83c 1548 d5bc
00000150: dbce 903d 7d18 4d3d 17f1 903b ae40 7b3c
00000160: cbbc 5b3d f684 6e3c 69d4 103d 694d 173d
00000170: 6df5 01bc d330 0e3d 309a 083d a33f a73d
00000180: cb3c 463c 2e7b 9d3c 923d a73d 950e 89bc
00000190: ddde 4e3d 67b4 be3d 899c 973c 6054 d83d
000001a0: 6680 bc3d a0ff b93d d14d 6e3d b9df c03d
000001b0: b561 bebb 0da2 5d3c b4d0 8c3c 7046 7d3c
000001c0: 23ff 323d f506 703d 55d8 af39 5eeb 5f3d
000001d0: 066d de3c 2861 043d 7404 e23c 4d2e 893d
000001e0: a04e 893c 944f 7b3d cc9e 7b3d a621 5c3d
000001f0: 7e41 92bb 85a8 a33d f203 3a34 d9d2 bbb6
00000200: c007 d435 5b55 fcb7 af04 0436 40d7 6c37
00000210: a36d c63c b9ea babb f8b1 bb35 fd26 95b9
00000220: 6138 8d3c f971 833c b55c 2fba a8d7 e639
00000230: 4264 98bb 0e63 073c 8f5c a8bb 5d36 ac3c
00000240: e9b2 3e3d fd57 c53d bd1a bd3d 7c1a cb3c
00000250: 6715 933d 24e3 8c3d c84c 6b3d 2d09 923d
00000260: 6266 a63d e85a 99bc d249 06bd 46ea 2b3d
00000270: 3157 ef3c 1691 013d a9e0 813d 2042 9d3b
00000280: 2d42 253d 5463 b3ba 926f 253d d958 0d3d
00000290: 8915 a23d 1a30 b53d 5a7b b43d 833f 623d
000002a0: 813f 873d e031 c8bc 481d 9f3c b70c 2fbd
000002b0: 1faf 43bd 01e7 82bd 75d0 50bd 8c44 56bd
000002c0: e054 a9bd f712 5cbd 5c18 14bd c1e3 54bd
000002d0: f231 693c 7899 88bc 3e73 2dbc af26 6a3d
000002e0: 7da2 b73d e243 d13c 213e 313c 873c 963c
000002f0: 3419 553d 9b7a febc 9147 b5bc c4fc b43d
00000300: 4da6 573c db63 1c3d 38bc 063d b599 93bc
00000310: 6802 273d ca9d 393d b094 6d3c 48e0 243d
00000320: f895 2b3d 9175 e8bc b4b3 a03d 261c ab3d
00000330: f95c 823d cada f83c 8c5b 723d 21ed 03bd
00000340: 73d0 09bb 6483 b2b9 9b8c cabc 2dc1 83bb
00000350: 32da 6abb 94b9 05bd 472f 9cbb 2793 b7bc
00000360: 3064 eb3c 9d16 a6bc edb6 673d 7376 4e3d
00000370: 4ef1 b03d b4b4 ae3c 9658 103d 3937 2c3d
00000380: 1440 bd3d 4d76 b43d 0c54 903b e52e c4bc
00000390: 911f e9bc 9363 113c e060 b13d e093 513d
000003a0: 15b8 c53d ae17 a13d 0819 333d 0935 e9bb
000003b0: dca7 c33d 762e a43d ded1 6c3d 8118 683a
000003c0: fe52 a13d 36e1 2d3d e8c1 973d 8c3d 593d
000003d0: 14e8 893d d11e 71bc 3d10 133c 5d6c a13d
000003e0: 1b42 363d d033 84bc 9d8c d53d 7c0e 663d
000003f0: 7bc4 3d3d 831a a3bc e388 963c ecad 963b

encoder_conv.4.bias f4 [32]
0.019189332 0.0609121 0.06337209 0.09045328 0.06652245 0.057217423 0.024963113 0.11790574
0.077495344 0.10585148 -0.0097863935 -0.009768283 -0.03604132 0.03929216 0.10946913 -0.0075896787
0.041814804 0.02289447 -0.006255911 -0.00024586002 0.036507383 -0.011089819 -0.0062900824 0.06428778
0.036189407 0.030847616 0.003991994 0.026615925 0.024548704 0.015035366 0.06758037 0.038252614
00000000: f232 9d3c f77e 793d 3ac9 813d 923f b93d
00000010: ec3c 883d d15c 6a3d 717f cc3c 9178 f13d
00000020: e1b5 9e3d a9c8 d83d 1c57 20bc 260b 20bc
00000030: 10a0 13bd d1f0 203d 5a31 e03d d7b2 f8bb
00000040: 0046 2b3d 2f8d bb3c 63fe ccbb c6e6 80b9
00000050: c488 153d 12b2 35bc 091d cebb 50a9 833d
00000060: 583b 143d 24b4 fc3c 46cf 823b a409 da3c
00000070: 5d1a c93c e556 763c 9467 8a3d c6ae 1c3d

encoder_lin.0.weight f4 [64, 288]
-0.01672961 -0.0052620755 -0.0078303935 -0.0052049565 -0.0038271407 0.008163227 -0.01423088 -0.002325077
0.006163035 -0.008639963 -0.010271277 -0.0050560213 -0.003572479 -0.0018521466 -0.0010520491 -0.019009301
-0.0074619614 0.0029075951 -0.011630736 -0.00021319657 -0.0014533877 -0.009713123 -0.011695991 -0.010199266
-0.0148180025 -0.014728372 -0.002867278 -0.020182302 -0.006076328 -0.003946252 0.01059943 0.016412249
0.0073879305 -0.005123076 0.004661054 -0.004124432 -0.011123073 0.0017757341 -0.00422509 -0.0055026086
0.000197444 -0.0061703073 0.0026667386 0.001824366 -0.0073080906 0.0024076332 -0.0009574464 -0.004231445
-0.0050394163 0.009310498 -0.0056682327 -0.006155621 0.005267541 -0.003971772 0.0054501854 -0.00020070477
-1.4557327e-06 -1.2218362e-06 8.613428e-07 -0.0015746704 0.0068465024 -6.816382e-05 0.0014978717 -0.005287249
-0.0010158644 -0.011539976 -0.006889395 -0.0032669613 0.00093772914 -0.0051816613 -0.0022614398 -0.01174196
-0.0046688006 -0.0013208691 -0.0045262966 -0.0024494228 -0.002793216 -0.012510278 -0.0048718206 -0.0007823039
0.009763223 0.007310792 0.0040741297 -0.011945049 0.007971618 -0.0016438194 -0.005695747 -0.012746052
-0.00847843 -0.006445581 1.32321e-07 5.6411395e-06 -0.0021813922 0.004064496 3.1798668e-06 -1.7831674e-06
8.3880104e-07 5.577323e-06 -0.0002636374 1.8736955e-07 0.004826629 2.349313e-06 -0.0041586473 -0.00022586696
0.00037578415 -1.5389303e-05 0.0010659618 -1.4761389e-05 -0.005728875 -0.010560468 -0.0026776353 -0.004108775
0.010937373 -0.0059510614 -0.009700556 -0.0013095387 -0.0038421385 -0.0028079273 0.013227641 0.0005183447
-0.01988716 -0.0013970381 -0.0044663604 0.009061754 -0.013021858 0.000797131 -0.022488073 -0.019101439
-0.008936117 -0.022104373 -0.002232616 0.00536546 -0.006219078 -0.01415497 -0.005513814 -0.003183946
0.0009242035 -3.191793e-06 0.004937807 -1.4724225e-05 1.4828168e-05 1.2328489e-05 0.0060963957 -0.00041744058
-0.0003172645 0.002285903 1.4556548e-05 0.005758368 -2.620668e-06 1.4640603e-05 0.0003498874 0.00064064155
3.083201e-05 -0.015646888 -0.0011215458 -0.011313039 -0.005253238 0.001672537 -0.005372088 0.0056007127
0.010020492 -0.004660492 -0.003180712 -9.238395e-05 0.0029094766 -0.00027988985 0.0055334675 -0.001104674
-0.0010557252 0.00086061336 -0.00071707385 4.0208e-05 -0.00023127369 -0.002090531 0.0008267719 1.4513796e-05
0.0016477221 -0.0036258665 3.8719754e-05 4.67317e-07 -0.0065193437 0.004932199 0.006129777 0.0068166465
-0.0010606525 -0.022148903 -0.0056505976 -0.0017549008 -0.003992721 -1.36555245e-05 0.00018709135 0.0032019478
0.0044804397 0.0078063034 0.00014470365 -0.0015984221 0.00018183579 -0.0012053249 -0.0027493122 -0.0003311915
-0.0046545905 -0.0045014056 -0.0016560745 -0.006490803 -0.0054858443 -0.0020288555 -0.014324664 -0.0040925667
0.0067047807 -0.0014832371 -0.010544395 0.008624652 -0.0060122 0.0062814755 -0.001755311 0.010353543
-0.0011260485 0.0015164275 0.002679181 0.005490283 -0.0116786 -0.004957449 0.0001440462 -0.00085738424
0.0023053118 0.0055389525 -0.010769035 -0.0031617929 -0.019232856 0.0025849773 -0.012249767 -0.004463148
-0.0015298214 -0.019241 4.9963353e-07 -1.4517179e-05 5.7559487e-06 -4.919581e-07 -0.005529112 6.0527636e-06
-2.2277502e-06 2.7760068e-05 -0.00010387923 -0.0069185323 -0.0020757692 -0.007854383 -0.0060405387 -0.016771384
-0.0062181605 -0.0125800865 -0.0027777113 0.0032017461 -0.0040834895 -0.013703551 0.0097254785 -0.021662835
00000000: 890c 89bc 7d6d acbb 0d4b 00bc 578e aabb
00000010: c4d0 7abb 0ebf 053c a328 69bc 5260 18bb
00000020: 49f3 c93b a28e 0dbc dc48 28bc fbac a5bb
00000030: 4020 6abb bac3 f2ba e9e4 89ba 65b9 9bbc
00000040: 7883 f4bb 5a8d 3e3b d88e 3ebc 858d 5fb9
00000050: 997f beba ca23 1fbc 8ba0 3fbc d21a 27bc
00000060: 35c7 72bc 454f 71bc f1e8 3bbb 5b55 a5bc
00000070: ef1b c7bb 904f 81bb 3ba9 2d3c fb72 863c
00000080: 7416 f23b 7adf a7bb c1bb 983b 3e26 87bb
00000090: 8d3d 36bc c0bf e83a a072 8abb 3a4f b4bb
000000a0: f808 4f39 4a30 cabb 73c4 2e3b 911f ef3a
000000b0: b578 efbb 62c9 1d3b 24fd 7aba efa7 8abb
000000c0: b021 a5bb 0f8b 183c 95bc b9bb 17b5 c9bb
000000d0: 569b ac3b a325 82bb 7897 b23b 4774 52b9
000000e0: 9862 c3b5 f9fd a3b5 0737 6735 2c65 ceba
000000f0: a058 e03b 2cf3 8eb8 3c54 c43a a940 adbb
00000100: c126 85ba 2b12 3dbc 6fc0 e1bb 841a 56bb
00000110: f0d1 753a edca a9bb aa34 14bb 5a61 40bc
00000120: bdfc 98bb 0321 adba 5451 94bb 7f86 20bb
00000130: 630e 37bb e9f7 4cbc cba3 9fbb 8713 4dba
00000140: edf5 1f3c 5e8f ef3b 4780 853b 2bb5 43bc
00000150: 649b 023c 6d75 d7ba 64a3 babb d1d4 50bc
00000160: 1de9 0abc 7435 d3bb 1f14 0e34 0549 bd36
00000170: b0f5 0ebb 772f 853b b265 5536 2a55 efb5
00000180: f829 6135 d724 bb36 d038 8ab9 c02f 4934
00000190: b328 9e3b e4a8 1d36 4345 88bb b3d6 6cb9
000001a0: e504 c539 4718 81b7 beb7 8b3a afa7 77b7
000001b0: 49b9 bbbb d005 2dbc 447b 2fbb e7a2 86bb
000001c0: ab32 333c 1f01 c3bb 15ef 1ebc d4a4 abba
000001d0: 63cc 7bbb 3405 38bb bfb8 583c 86e1 073a
000001e0: 66ea a2bc d21c b7ba 8c5a 92bb c077 143c
000001f0: a259 55bc 8ef6 503a e838 b8bc 9f7a 9cbc
00000200: cb68 12bc 3b14 b5bc 1551 12bb bed0 af3b
00000210: 68c9 cbbb 3fea 67bc 39ad b4bb c0a9 50bb
00000220: 3f46 723a 9632 56b6 54cd a13b 1108 77b7
00000230: 7fc6 7837 75d6 4e37 46c4 c73b eddb dab9
00000240: 8556 a6b9 17cf 153b e637 7437 b1b0 bc3b
00000250: bcde 2fb6 e9a0 7537 1871 b739 baf0 273a
00000260: 9e51 0138 e72d 80bc d500 93ba 535a 39bc
00000270: 5b23 acbb 0739 db3a 5708 b0bb 2f86 b73b
00000280: fd2c 243c 0ab7 98bb 7e73 50bb 41be c1b8
00000290: ebac 3e3b 2ebe 92b9 1752 b53b b5ca 90ba
000002a0: 4260 8aba c99a 613a 03fa 3bba 03a5 2838
000002b0: 0f82 72b9 4a01 09bb b9bb 583a 4780 7337
000002c0: 61f8 d73a f29f 6dbb 0567 2238 8fe3 fa34
000002d0: 38a0 d5bb 499e a13b 4cdc c83b 2d5e df3b
000002e0: 9805 8bba 9e71 b5bc a628 b9bb b304 e6ba
000002f0: 5fd5 82bb 081a 65b7 f42d 4439 c5d7 513b
00000300: a7d0 923b 05cc ff3b 97bb 1739 2582 d1ba
00000310: 2cab 3e39 fefb 9dba ce2d 34bb c5a3 adb9
00000320: 8985 98bb 8780 93bb a410 d9ba cdb0 d4bb
00000330: 99c2 b3bb 8cf6 04bb ffb1 6abc f01a 86bb
00000340: c7b3 db3b 2e69 c2ba 66c2 2cbc 6a4e 0d3c
00000350: fd01 c5bb d6d4 cd3b 7712 e6ba e8a1 293c
00000360: eb97 93ba ddc2 c63a 3395 2f3b d5e7 b33b
00000370: 9957 3fbc 1972 a2bb 1b0b 1739 15c2 60ba
00000380: b714 173b 1a80 b53b 9b70 30bc 1536 4fbb
00000390: 398e 9dbc b968 293b 3fb3 48bc 993f 92bb
000003a0: 4a84 c8ba 4d9f 9dbc 8e1e 0635 cf8e 73b7
000003b0: 3923 c136 1a0f 04b5 8e2d b5bb d818 cb36
000003c0: 7580 15b6 4bde e837 bdd9 d9b8 dbb4 e2bb
000003d0: a109 08bb acaf 00bc b6ef c5bb 2464 89bc
000003e0: b6c1 cbbb b51c 4ebc 430a 36bb 63d4 513b
000003f0: cbce 85bb dc84 60bc 9d57 1f3c 4276 b1bc

encoder_lin.0.bias f4 [64]
-0.021908756 -0.016541423 0.00094721944 -0.013226867 -0.013788197 0.074827604 -0.00055931887 0.062877014
7.264605e-05 0.08677104 0.0071488307 0.096515946 -0.0095797945 0.036086682 0.022020467 0.09096278
0.012749587 0.07468021 0.040729143 0.008110503 -0.0311371 0.106039315 -0.025885755 -0.0033802676
0.035845805 -0.0042243428 -0.045501005 0.073970035 0.09053705 0.06552775 0.016509652 -0.017383317
0.0527256 0.033931322 0.020747911 0.06089488 0.04695555 0.070799716 0.06272956 -0.0072227586
9.733385e-05 0.026647627 -0.0012144998 0.08348695 -0.0036679828 0.0013335929 0.021947898 -0.00239457
0.059640378 0.026115501 -0.0015744678 0.06747769 -0.025677843 0.020166818 0.01848001 -0.00338543
0.019843422 -0.010706086 0.03532286 0.03983751 -0.031092696 0.009909419 0.03430718 -0.004394144
00000000: fe79 b3bc e181 87bc d24e 783a 80b5 58bc
00000010: e4e7 61bc 373f 993d 419f 12ba aac5 803d
00000020: 8d59 9838 04b5 b13d bd40 ea3b 27aa c53d
00000030: 92f4 1cbc a1cf 133d 4464 b43c b24a ba3d
00000040: a5e3 503c f0f1 983d 9ad3 263d eae1 043c
00000050: 3b13 ffbc 242b d93d 5d0e d4bc 7b87 5dbb
00000060: 0dd3 123d 5b6c 8abb 435f 3abd 9a7d 973d
00000070: 7d6b b93d 6a33 863d 403f 873c 7567 8ebc
00000080: ccf6 573d 92fb 0a3d 86f7 a93c e96c 793d
00000090: 7654 403d 71ff 903d 5b78 803d e4ac ecbb
000000a0: b61f cc38 204c da3c da2f 9fba 35fb aa3d
000000b0: 8a62 70bb f4cb ae3a 14cc b33c 38ee 1cbb
000000c0: 7849 743d 2df0 d53c 5f5e ceba be31 8a3d
000000d0: 575a d2bc e234 a53c 6463 973c 17de 5dbb
000000e0: ac8e a23c 9468 2fbc b4ae 103d a82c 233d
000000f0: 1cb6 febc 1e5b 223c b085 0c3d c0fc 8fbb

encoder_lin.2.weight f4 [10, 64]
0.0063580754 -0.111131966 -0.046219576 0.04772373 -0.040135365 -0.13351299 -0.046271306 0.043896567
0.049908467 -0.10729862 -0.040707998 -0.017831787 0.01793888 -0.052250374 0.006007113 -0.116272815
-0.012080268 0.034442216 -0.025130253 0.0064996774 0.06363971 0.037378382 0.021804469 -0.024448927
-0.06826957 0.00017242666 0.008066558 -0.046851374 -0.020811409 0.048699055 -0.007895037 -0.034939628
0.089185156 -0.120929524 0.040106423 0.064667605 -0.112614796 -0.054942265 -0.078209355 -0.055345807
0.03931292 -0.03967434 -6.8996684e-07 -0.07299984 0.008812117 0.00012488765 -0.013843285 -6.9505535e-05
-0.0294185 0.008432126 0.00013098847 -0.027270528 0.045156118 -0.06242482 0.052417345 -0.026452366
-0.007060468 0.014818989 -0.030952692 0.08441178 -0.059921555 -0.050514236 -0.048189677 0.018948475
-0.006025177 0.06744597 -0.00022223592 0.0092581315 0.027648326 0.04570483 0.018737096 -0.010167014
0.0060080183 -0.06341168 -0.042775188 0.0053924373 -0.0069952304 0.07403366 0.020951493 0.03623836
0.049111106 -0.10934327 0.019734338 0.05819344 -0.004124014 -0.04468339 -0.00180114 -0.0049777217
-0.041340377 -0.031043485 -0.0021557845 0.018926146 -0.08246325 0.03938925 -0.04237886 -0.019925911
0.106498025 0.033456147 0.050474137 -0.019766163 -0.063794285 0.013863537 0.035497233 0.0044277823
-3.0173689e-05 -0.10150234 0.007071155 -0.10030707 0.058673345 -0.005783823 -0.019209845 0.04323789
-0.07983839 -0.032478638 -0.025204193 -0.12474913 0.0066840546 -0.043183163 0.032032695 -0.009161665
0.006059431 0.0006293799 0.036756966 0.060234495 -0.07347175 -0.020057397 -0.13680623 0.0027030797
0.03452072 -0.034362525 0.024976447 0.05508677 -0.05439034 -0.074096315 -0.03965799 -0.069179595
-0.0019038821 -0.102499925 -0.05589259 -0.13455737 0.0035627745 0.043307375 0.003276386 -0.15497623
-0.03042052 -0.010568775 -0.15271558 0.0055304132 0.040241934 -0.13312213 -0.085053965 -0.011075636
-0.0402748 0.00018857475 -0.021922715 -0.016401477 -0.122392476 -0.09308552 -0.09638236 0.07089965
0.011552897 -0.057597373 0.036099706 0.014905473 -0.023069888 -0.109778754 -0.052135702 -0.058756534
-0.013171784 -0.13633719 -0.0450862 -0.14802636 0.015663853 0.00012233703 0.03009682 -0.00011242125
-0.07939416 0.014170595 -0.035395063 -0.10765957 0.065189034 -0.08897186 0.017178576 2.4485153e-05
0.016010912 0.00016126224 -0.051401317 -0.01909327 -0.029884128 -0.013260803 -0.021370523 -0.02777008
-0.067024186 -0.048028372 7.410848e-05 4.152718e-05 -0.015506952 -0.063584365 0.023371883 -0.06941217
0.058534294 0.04787738 -0.056480326 -0.06260115 -0.0062316656 -0.012303803 0.019292431 0.06058023
0.09061386 -0.07808704 0.0018606611 -0.0032118151 0.014743308 0.015638268 0.0674593 7.4536474e-05
-0.029163774 1.2790425e-05 -0.05104206 0.017734054 -0.106320724 0.06639177 0.0490384 -0.027904088
0.04975717 -0.14384508 -0.0067458083 -0.113574736 -0.014282995 -0.11213441 -0.07783803 -0.03610593
0.016581817 -0.06689554 -8.287793e-06 -0.043284558 0.0133262165 -6.928447e-06 0.04492169 0.023753207
-0.054330885 0.03794708 0.012663586 -0.033052843 -0.06919225 0.008868867 -0.005676149 -2.8453202e-05
-0.0036563561 -0.039369 -0.029674083 0.008204281 -0.082552284 -0.033761676 -0.08101681 5.4410062e-05
00000000: 6757 d03b 2899 e3bd bd50 3dbd f579 433d
00000010: fb64 24bd a1b7 08be fb86 3dbd e3cc 333d
00000020: d26c 4c3d 61bf dbbd 6ebd 26bd f813 92bc
00000030: 8ff4 923c 7d04 56bd 51d7 c43b 7120 eebd
00000040: 51ec 45bc 4813 0d3d f6dd cdbc 3ffb d43b
00000050: 8955 823d 131a 193d 499f b23c 1e49 c8bc
00000060: ebd0 8bbd 6ecd 3439 9929 043c 3ae7 3fbd
00000070: b07c aabc a978 473d 2f5a 01bc db1c 0fbd
00000080: b5a6 b63d e6a9 f7bd a246 243d 7370 843d
00000090: 96a2 e6bd 240b 61bd 3a2c a0bd 49b2 62bd
000000a0: 9606 213d 9081 22bd 2936 39b5 f180 95bd
000000b0: b360 103c 46f4 0239 f2ce 62bc 80c3 91b8
000000c0: 11ff f0bc e626 0a3c f359 0939 7166 dfbc
000000d0: 9ff5 383d 2bb1 7fbd 92b3 563d a2b2 d8bc
000000e0: 805b e7bb 58cb 723c 8090 fdbc 15e0 ac3d
000000f0: 4e70 75bd 04e8 4ebd 8a62 45bd d539 9b3c
00000100: d96e c5bb 1d21 8a3d 0008 69b9 6baf 173c
00000110: be7e e23c fd34 3b3d 8a7e 993c 8c93 26bc
00000120: e9de c43b fcdd 81bd 0935 2fbd 0bb3 b03b
00000130: 3f38 e5bb f69e 973d 77a2 ab3c ad6e 143d
00000140: ba28 493d 5def dfbd e8a9 a13c 3f5c 6e3d
00000150: bd22 87bb ee05 37bd 3b14 ecba 281c a3bb
00000160: 8754 29bd e84e febc 1048 0dbb 010b 9b3c
00000170: 7ee2 a8bd 9f56 213d 7595 2dbd aa3b a3bc
00000180: a31b da3d 5009 093d f8bd 4e3d a6ec a1bc
00000190: 94a6 82bd e423 633c 8c65 113d ee16 913b
000001a0: 811d fdb7 75e0 cfbd 26b5 e73b cb6d cdbd
000001b0: 7653 703d 3986 bdbb f75d 9dbc 371a 313d
000001c0: 4f82 a3bd 5208 05bd 0679 cebc 797c ffbd
000001d0: ea05 db3b d4e0 30bd b734 033d cf1a 16bc
000001e0: 318e c63b f8fc 243a 798e 163d 72b8 763d
000001f0: 5b78 96bd 694f a4bc ef16 0cbe 2726 313b
00000200: 9965 0d3d b8bf 0cbd 689b cc3c aaa2 613d
00000210: 68c8 5ebd cfbf 97bd 6b70 22bd 08ae 8dbd
00000220: af8b f9ba 7beb d1bd a1ef 64bd 68c9 09be
00000230: 707d 693b 1363 313d a3b8 563b 17b2 1ebe
00000240: 7434 f9bc a828 2dbc 7961 1cbe 7838 b53b
00000250: bad4 243d 2b51 08be c630 aebd 9676 35bc
00000260: 30f7 24bd 26bc 4539 4497 b3bc 645c 86bc
00000270: e8a8 fabd 9fa3 bebd 1d64 c5bd d633 913d
00000280: 5d48 3d3c 39eb 6bbd 49dd 133d 1636 743c
00000290: 10fd bcbc afd3 e0bd 3f8c 55bd b1aa 70bd
000002a0: 77ce 57bc fa9b 0bbe 4fac 38bd 3994 17be
000002b0: 7b51 803c 9947 0039 9b8d f63c b3c3 ebb8
000002c0: 6899 a2bd c92b 683c 6afa 10bd 9f7c dcbd
000002d0: d481 853d e136 b6bd 16ba 8c3c 7765 cd37
000002e0: 5129 833c 8118 2939 308a 52bd 7d69 9cbc
000002f0: 8fcf f4bc d743 59bc 3c11 afbc 147e e3bc
00000300: fa43 89bd 66b9 44bd b06a 9b38 782d 2e38
00000310: df10 7ebc 8538 82bd 6476 bf3c f827 8ebd
00000320: a8c1 6f3d 121b 443d ea57 67bd 0835 80bd
00000330: 0033 ccbb e495 49bc 290b 9e3c fa22 783d
00000340: c293 b93d 19ec 9fbd 6de1 f33a 517d 52bb
00000350: ea8d 713c d31b 803c 1a28 8a3d 7750 9c38
00000360: dee8 eebc 7596 5637 7b11 51bd 0247 913c
00000370: aebe d9bd 69f8 873d 7ddc 483d 1d97 e4bc
00000380: 2dce 4b3d 204c 13be f10b ddbb df99 e8bd
00000390: 3903 6abc baa6 e5bd 8c69 9fbd d0e3 13bd
000003a0: 97d6 873c 8700 89bd cd0b 0bb7 264b 31bd
000003b0: 3456 5a3c e87a e8b6 ceff 373d 1696 c23c
000003c0: 108a 5ebd 666e 1b3d ee7a 4f3c 6b62 07bd
000003d0: abb4 8dbd b94e 113c fdfe b9bb c9ae eeb7
000003e0: 7a9f 6fbb 6341 21bd 1017 f3bc 406b 063c
000003f0: 2c11 a9bd af49 0abd 24ec a5bd 5c36 6438

encoder_lin.2.bias f4 [10]
-0.022898138 -0.103875704 -0.05416183 0.017525269 0.055664916 -0.05511562 -0.06891001 0.14927602
-0.0756577 -0.13848558
00000000: e094 bbbc c9bc d4bd ccd8 5dbd 2791 8f3c
00000010: e500 643d ebc0 61bd b120 8dbd d0db 183e
00000020: 6df2 9abd 2acf 0dbe

decoder_lin.0.weight f4 [64, 10]
-0.059612468 0.08171485 0.196136 -0.17605892 0.19238722 -0.12415595 0.060162373 0.018963413
-0.24797814 -0.10620357 -0.28497475 -0.282009 -0.1563114 -0.10444959 -0.13256614 0.10967772
-0.033369586 0.28103566 0.20166641 -0.06981021 -0.065769166 -0.046317745 -0.05754396 0.10098799
0.009921471 0.26942334 0.046215564 0.118837915 -0.27047956 -0.31859407 -4.1663784e-06 0.14134274
-0.030689413 0.0333786 -0.22007278 0.0066593294 -0.0151755335 -0.062368244 -0.0842447 -1.4773337e-05
0.1248692 0.23443471 -0.25509614 0.08514197 -0.24985696 0.085094005 0.20379421 0.087797895
0.14326674 -0.28075424 0.035830185 -0.19682992 0.0022762516 0.022869738 0.22745652 0.0149461
0.1456649 0.24529937 -0.10978789 -0.27107462 -0.04251714 0.06747185 -0.30136234 -0.18282305
0.17044382 -0.15183127 0.29271963 -0.14006217 0.19238819 -0.25648183 -0.010197351 -0.041528553
0.08143151 0.049042042 0.2743693 -0.050034426 0.26846352 -0.040307093 -0.2582728 0.1912753
0.023041695 0.040747456 0.056899693 0.17278533 0.16102082 0.08585242 0.02774177 0.05966405
0.13101843 0.24616735 -0.04634713 -0.22611248 0.036640286 0.10279931 -0.17339052 -0.15306467
-0.18923657 0.01623367 -0.16629563 0.05857883 0.0924863 -0.1723695 -0.22576481 -0.29039577
-0.1481666 0.070943 -0.0053985724 -0.059279058 -0.06632515 -0.16081011 -0.32188326 -0.26622635
-0.12258088 -0.2783669 0.20486185 -0.12425907 -0.18147852 0.034949455 -0.2888258 0.17172703
0.12607169 0.0057972684 -0.24634264 0.10288544 -0.18663962 0.26170066 -0.009277858 0.038352605
-0.2868918 0.039217148 -0.10093494 -0.079845965 -0.12430547 -0.12482488 0.067804076 0.094838746
0.23293294 0.014075005 0.12430809 -0.32450747 0.023265436 -0.028045813 -0.08341072 0.063574545
0.026298573 0.011645027 0.2937112 -0.23055458 -0.19461973 -0.123616785 0.22869307 -0.113720946
0.0025199314 -0.05254984 0.21581349 0.1972684 -0.1802075 0.058078382 -0.3098032 -0.15557607
-0.1656036 -0.035325646 5.8242968e-08 -0.047688823 -0.058820944 -0.039874714 0.002936982 -0.18947247
0.18621281 -0.07984168 -0.04254814 -0.24308436 -0.28932664 -0.20314519 -0.19606367 -0.24751414
0.22430117 0.31250137 -0.20168398 0.21544325 -0.021300843 0.23917302 -0.2744636 0.044621855
0.12460642 -0.22908926 0.20139845 -0.018819371 0.14984931 -0.1198636 -0.21233055 0.11353647
0.022506578 0.1536598 0.062658966 0.18047741 -0.074506864 0.32793224 0.10220088 -0.34201422
-0.16820994 -0.20560297 -0.1667061 -0.052493908 0.30614457 -0.05379194 -0.066706315 0.0685657
0.02990838 -0.0672036 -0.11083875 -0.058169767 -0.0058885175 -0.21428588 0.29221302 0.012700003
0.23708475 -0.045110036 -0.02530107 -0.0017736122 -0.25306943 0.010219031 -0.037914008 -0.00090356136
0.03700955 0.17117119 -0.033646062 -0.031336438 0.12178065 0.05034076 0.027277486 -0.23346938
-0.19262484 -0.2326969 0.16586041 -0.13207217 0.19652931 -0.18572135 -0.31208637 -0.20280272
0.1719811 0.10817902 -0.21891122 0.04679832 -0.21306658 -0.18832873 -0.10591204 0.17099771
-0.002868243 -0.08512423 0.0613976 0.025391644 0.1360754 0.08874587 0.0068371883 0.009838621
00000000: 342c 74bd 1e5a a73d e0d7 483e ca48 34be
00000010: 2801 453e 7a45 febd d26c 763d 2959 9b3c
00000020: fbed 7dbe 4281 d9bd 36e8 91be 7c63 90be
00000030: 1810 20be abe9 d5bd 6bbf 07be b69e e03d
00000040: 8cae 08bd e8e3 8f3e a481 4e3e a8f8 8ebd
00000050: fcb1 86bd adb7 3dbd 37b3 6bbd cbd2 ce3d
00000060: aa8d 223c dbf1 893e 884c 3d3d 4b61 f33d
00000070: 4c7c 8abe c31e a3be ebcc 8bb6 27bc 103e
00000080: 5d68 fbbc 00b8 083d c25a 61be 8136 da3b
00000090: cda2 78bc d875 7fbd 7c88 acbd 00db 77b7
000000a0: 6cbb ff3d a70f 703e f69b 82be ea5e ae3d
000000b0: 81da 7fbe c445 ae3d 6eaf 503e 62cf b33d
000000c0: 84b4 123e 05bf 8fbe acc2 123d c88d 49be
000000d0: 2a2d 153b 5159 bb3c 5dea 683e 7de0 743c
000000e0: 2e29 153e c22f 7b3e 79d8 e0bd 4bca 8abe
000000f0: 7426 2ebd ae2e 8a3d 2a4c 9abe f735 3bbe
00000100: d388 2e3e a879 1bbe 59df 953e 756c 0fbe
00000110: 6901 453e 9651 83be ca12 27bc d819 2abd
00000120: 90c5 a63d 4fe0 483d 227a 8c3e e6f0 4cbd
00000130: 0d74 893e 0d19 25bd 553c 84be acdd 433e
00000140: f0c1 bc3c cee6 263d a70f 693d a3ee 303e
00000150: a4e2 243e 65d3 af3d b542 e33c 4a62 743d
00000160: b229 063e 4b13 7c3e 7dd6 3dbd 088a 67be
00000170: 2014 163d 7288 d23d 498d 31be fcbc 1cbe
00000180: 3bc7 41be 79fc 843c 6749 2abe 5bf0 6f3d
00000190: 7569 bd3d a181 30be e42e 67be c1ae 94be
000001a0: fcb8 17be 904a 913d 82e6 b0bb 99ce 72bd
000001b0: 7bd5 87bd 68ab 24be e2cd a4be d24e 88be
000001c0: af0b fbbd 1b86 8ebe 4ec7 513e 8a7b febd
000001d0: 81d5 39be 2927 0f3d fae0 93be 36d9 2f3e
000001e0: f018 013e 03f7 bd3b 3f41 7cbe 9ab5 d23d
000001f0: 751e 3fbe a1fd 853e 2802 18bc 9f17 1d3d
00000200: 7be3 92be 29a2 203d fab6 cebd 4886 a3bd
00000210: de93 febd 30a4 ffbd dddc 8a3d d13a c23d
00000220: f985 6e3e da9a 663c 3d95 fe3d d825 a6be
00000230: 2897 be3c 55c0 e5bc 3dd3 aabd 5f33 823d
00000240: 1b70 d73c c9ca 3e3c 5061 963e 8016 6cbe
00000250: 654a 47be cc2a fdbd 842e 6a3e 87e6 e8bd
00000260: 6f25 253b 803e 57bd 36fe 5c3e ba00 4a3e
00000270: 5188 38be 99e3 6d3d 869e 9ebe 554f 1fbe
00000280: fd93 29be a0b1 10bd d226 7a33 5b55 43bd
00000290: 3bee 70bd ab53 23bd 627a 403b 1205 42be
000002a0: 92ae 3e3e 0984 a3bd f546 2ebd 1beb 78be
000002b0: 9f22 94be 4b05 50be eac4 48be 5974 7dbe
000002c0: 35af 653e 2e00 a03e 3f86 4ebe 289d 5c3e
000002d0: 1b7f aebc c6e9 743e 7e86 8cbe 68c5 363d
000002e0: a731 ff3d 6096 6abe 653b 4e3e 152b 9abc
000002f0: 1972 193e 0c7b f5bd 2e6d 59be cf85 e83d
00000300: b75f b83c ff58 1d3e 5853 803d 12cf 383e
00000310: 0e97 98bd bce6 a73e b24e d13d 7d1c afbe
00000320: 3a3f 2cbe 9689 52be 01b5 2abe da03 57bd
00000330: fbbe 9c3e f054 5cbd 529d 88bd 2c6c 8c3d
00000340: 6b02 f53c 0ba2 89bd 6dff e2bd 6c43 6ebd
00000350: 77f4 c0bb c26d 5bbe f29c 953e ac13 503c
00000360: 58c6 723e 4dc5 38bd 3144 cfbc 8d78 e8ba
00000370: 5192 81be b96d 273c b84b 1bbd fadc 6cba
00000380: 5397 173d 8047 2f3e 74d0 09bd a35a 00bd
00000390: 2268 f93d 1d32 4e3d 0975 df3c 9912 6fbe
000003a0: 723f 45be 1948 6ebe 50d7 293e ed3d 07be
000003b0: fb3e 493e bd2d 3ebe c9c9 9fbe 84ab 4fbe
000003c0: d01b 303e f68c dd3d 432a 60be 98af 3f3d
000003d0: 202e 5abe 3fd9 40be 69e8 d8bd 061a 2f3e
000003e0: 22f9 3bbb 9d55 aebd 0d7c 7b3d 2302 d03c
000003f0: 5a57 0b3e 65c0 b53d 7e0a e03b 2b32 213c

decoder_lin.0.bias f4 [64]
0.3228535 0.13251565 0.22772369 -0.19590288 0.12809937 0.3470093 -0.041987997 0.18065217
0.15594672 0.079369836 0.22083291 0.14362304 -0.23750566 0.005904904 -0.09093509 0.20698282
-0.09351195 -0.09154973 0.15262663 0.051791042 -0.06049157 -0.13520937 -0.03410597 0.21477568
0.02762994 -0.060290944 -0.20254086 -0.09402224 -0.07940301 0.32978308 -0.11144129 -0.016265027
-0.026046086 -0.09414403 0.31220913 -0.014063228 -0.14753374 -0.005509425 0.28203043 -0.011390386
-0.26670206 -0.13621534 4.5314522e-05 0.14558095 0.038264904 0.137547 -0.15735537 0.13848202
0.05401129 -0.19785628 0.03717669 0.26315856 0.096087515 -0.00019143475 0.22125356 0.32181868
-0.0033968727 0.29781514 -0.047099687 0.2707316 -0.19020426 -0.20307523 -0.15265346 0.23738933
00000000: 0e4d a53e 2fb2 073e 6630 693e c49a 48be
00000010: 7b2c 033e 34ab b13e 9bfb 2bbd e2fc 383e
00000020: 7fb0 1f3e a78c a23d 0622 623e eb11 133e
00000030: af34 73be ed7d c13b 2d3c babd 4ef3 533e
00000040: 3183 bfbd 6d7e bbbd 284a 1c3e d822 543d
00000050: 02c6 77bd 5374 0abe b4b2 0bbd 28ee 5b3e
00000060: 2f58 e23c a3f3 76bd df66 4fbe bb8e c0bd
00000070: 0c9e a2bd 54d9 a83e 553b e4bd 3c3e 85bc
00000080: 9a5e d5bc 96ce c0bd e0d9 9f3e 7469 66bc
00000090: 1613 17be 6888 b4bb 4b66 903e be9e 3abc
000000a0: 2c8d 88be 097c 0bbe 1910 3e38 2c13 153e
000000b0: a9bb 1c3d 1fd9 0c3e c421 21be 3bce 0d3e
000000c0: f13a 5d3d d69a 4abe 9646 183d b8bc 863e
000000d0: 88c9 c43d e0bb 48b9 4b90 623e 6bc5 a43e
000000e0: 119e 5ebb 3a7b 983e 9aeb 40bd 559d 8a3e
000000f0: e8c4 42be f4f2 4fbe 3051 1cbe 3016 733e

decoder_lin.2.weight f4 [288, 64]
1.3749357e-05 0.050204277 0.03901919 0.042106297 -0.026896043 -0.00030559383 -1.4831401e-05 0.028984852
3.749019e-05 -0.052249808 0.009546478 0.0054155206 0.049087144 -0.0028586735 0.00053686695 -0.058233514
-4.538214e-05 -0.00631074 -3.641079e-05 -0.023831228 -0.012338927 -0.00014281305 8.709309e-07 3.6415782e-05
0.02197429 0.0048697563 -4.0034578e-05 4.522946e-05 0.05365132 -0.010828072 2.1456826e-05 0.006649243
-1.1721013e-06 -0.047639716 -0.012028818 0.04886344 3.108649e-06 0.05793174 0.015630474 -0.0028720142
-1.4963176e-05 0.026465103 -0.032333873 0.00045744498 4.2228285e-07 9.001732e-07 -0.04079669 -0.020724494
0.005933848 -0.029274087 -0.016752155 -0.007837852 4.6760815e-06 1.1853086e-06 -0.0017807946 1.2823159e-06
0.053170577 -0.00025002708 1.4719076e-05 -0.026414078 1.3280815e-07 0.036377653 1.4215733e-06 -0.054648813
-4.845018e-07 -9.4741523e-07 -0.0006363764 0.04963181 0.03299398 -0.031818718 0.025041647 -3.8604572e-05
-0.047855604 0.0120320525 -0.026528573 -0.00085903675 6.335076e-06 6.183449e-08 -0.021192418 5.8022636e-07
0.057820108 0.00017039453 0.018876376 -0.035644587 0.046999667 -9.833373e-07 0.0008586023 -0.05951492
0.032426618 -7.522424e-06 4.494699e-05 0.051571943 0.028474048 1.4244833e-06 4.014304e-06 0.0032447171
-0.037065547 -0.0031419264 -0.047543094 0.055885106 0.0022255776 -0.0043133674 0.044208415 0.008786671
-0.046968486 -0.0066781556 0.04480933 -0.010346795 0.00019549081 2.1333183e-06 6.2240733e-06 0.00035208205
-2.888424e-06 -1.0388234e-05 2.3711296e-07 -0.02151547 -3.4692305e-06 -0.013239022 0.025390882 7.144942e-06
-0.03946767 0.022816539 -0.0101141855 0.013063665 -0.05783954 0.007988966 -4.4322707e-05 -0.02226149
0.0884072 0.070293754 0.05530723 8.0128615e-05 0.022345014 0.0069152894 -0.001751909 0.15086244
-0.012838023 -0.025207054 0.06868709 0.1292901 0.10151423 0.08281371 -0.018896773 0.05811196
0.037274364 0.066459686 0.012944991 0.03741567 0.10184039 0.112357534 0.05101107 0.083429016
0.045924213 0.055956367 0.007786456 -0.0017700652 0.0038575504 0.034522124 0.08893797 0.10658843
0.09277255 -0.03238958 0.170524 -0.05988858 4.393818e-06 -0.00972297 0.038886264 0.053087946
-0.01633956 0.037999354 0.024543496 0.12389969 0.086025536 0.0595743 0.011019688 0.10381373
-0.03539178 0.042693198 -0.036063083 0.12592816 0.01852457 -0.020161944 0.10281599 0.077844
0.00803626 0.044762086 0.04993209 -0.036603585 -0.00051189953 2.8404274e-05 -0.02971212 0.1483677
-0.037294295 0.008474758 -0.003483115 -0.018825099 0.028802825 -0.04098627 -0.003574698 0.033972092
0.02387026 0.05300427 0.008805588 0.017535392 -0.041791145 -0.0057764417 -0.0025064764 -0.0053509395
-1.1355346e-06 -0.0020255558 -0.0022549622 -0.00014571435 -0.0011496099 -0.0032773805 0.0028843218 -0.041181467
-0.0015171751 3.8353803e-05 3.2206951e-06 -0.016664544 -1.4686752e-06 0.016345637 0.032129843 0.0031846475
-0.04097744 0.049469158 -0.060964968 0.00034201515 0.058029003 -0.00017882654 -0.0032152934 4.4725846e-05
-0.052475076 0.06324542 0.0056155617 0.0032972284 -0.0052154884 0.040097393 -0.002584236 0.004572804
-0.038658634 -0.008825193 -0.0021962558 9.910885e-07 -6.7748506e-06 0.006006503 -0.05810391 0.0016128031
0.0016258995 0.012573774 0.01816129 0.03531511 0.023202384 0.010451719 -0.012143375 0.03747574
00000000: 0aad 6637 00a3 4d3d 96d2 1f3d a777 2c3d
00000010: 1755 dcbc 1c38 a0b9 62d4 78b7 a471 ed3c
00000020: c93e 1d38 e503 56bd d568 1c3c ae74 b13b
00000030: 9a0f 493d 9558 3bbb 88bc 0c3a 4486 6ebd
00000040: b458 3eb8 53ca cebb cab7 18b8 b539 c3bc
00000050: 3629 4abc 16c0 15b9 eac9 6935 26bd 1838
00000060: 6d03 b43c 7a92 9f3b cdea 27b8 c3b4 3d38
00000070: 7dc1 5b3d 3a68 31bc 2ffe b337 e5e1 d93b
00000080: 1851 9db5 dd21 43bd 8514 45bc 0825 483d
00000090: 2f9e 5036 d549 6d3d 7b0b 803c 6738 3cbb
000000a0: 5a0a 7bb7 58cd d83c 8670 04bd 3ad5 ef39
000000b0: 1db6 e234 6ea3 7135 6e1a 27bd 6ac6 a9bc
000000c0: ba70 c23b 36d0 efbc d13b 89bc 566a 00bc
000000d0: 3ce7 9c36 e516 9f35 8d69 e9ba 0a1c ac35
000000e0: 64c9 593d 1116 83b9 f3f1 7637 5662 d8bc
000000f0: 079a 0e34 bc00 153d e3cc be35 6fd7 5fbd
00000100: b60e 02b5 e151 7eb5 7fd2 26ba ba4a 4b3d
00000110: b224 073d 5854 02bd 2424 cd3c 58eb 21b8
00000120: 3d04 44bd 1622 453c 7352 d9bc fb30 61ba
00000130: e391 d436 dfc9 8433 b99b adbc dac0 1b35
00000140: c7d4 6c3d efab 3239 a1a2 9a3c 0f00 12bd
00000150: b982 403d 36fb 83b5 d313 613a ebc5 73bd
00000160: c6d1 043d 2169 fcb6 7785 3c38 1a3d 533d
00000170: 6842 e93c e030 bf35 9cb2 8636 52a5 543b
00000180: 0bd2 17bd c7e8 4dbb 8cbc 42bd c8e7 643d
00000190: ffda 113b 2657 8dbb e213 353d f8f5 0f3c
000001a0: 0762 40bd 6ed4 dabb fd89 373d 9b85 29bc
000001b0: aafc 4c39 212a 0f36 62d8 d036 a797 b839
000001c0: bfd6 41b6 2049 2eb7 1d99 7e34 3641 b0bc
000001d0: edd0 68b6 7ce8 58bc 8a00 d03c 96be ef36
000001e0: daa8 21bd c0e9 ba3c f8b5 25bc fb08 563c
000001f0: 27e9 6cbd 27e4 023c 25e7 39b8 ba5d b6bc
00000200: d60e b53d 2cf6 8f3d d689 623d b90a a838
00000210: e40c b73c a799 e23b 50a0 e5ba af7b 1a3e
00000220: 9256 52bc 067f cebc d1ab 8c3d a064 043e
00000230: b1e6 cf3d 3c9a a93d 68cd 9abc ce06 6e3d
00000240: 01ad 183d 041c 883d 3a17 543c 2c41 193d
00000250: b291 d03d b51b e63d fcf0 503d d5dc aa3d
00000260: 071b 3c3d 8132 653d 8725 ff3b 8801 e8ba
00000270: f5ce 7c3b 1267 0d3d 1c25 b63d 094b da3d
00000280: 89ff bd3d f0aa 04bd d89d 2e3e ba4d 75bd
00000290: 9c6e 9336 184d 1fbc 3447 1f3d bf72 593d
000002a0: 8ada 85bc 36a5 1b3d 710f c93c 1fbf fd3d
000002b0: 282e b03d 2e04 743d ec8b 343c 4b9c d43d
000002c0: f9f6 10bd 10df 2e3d e2b6 13bd 50f3 003e
000002d0: d7c0 973c a92a a5bc 3191 d23d ad6c 9f3d
000002e0: 84aa 033c 7358 373d 9785 4c3d a4ed 15bd
000002f0: ff30 06ba b745 ee37 d566 f3bc b4ed 173e
00000300: e7c1 18bd b6d9 0a3c f944 64bb 1837 9abc
00000310: e7f3 eb3c 38e1 27bd 7b45 6abb 5226 0b3d
00000320: 908b c33c 011b 593d 5045 103c 62a6 8f3c
00000330: 312d 2bbd 4e48 bdbb b243 24bb ef56 afbb
00000340: ac68 98b5 30bf 04bb fdc7 13bb e6ca 18b9
00000350: 82ae 96ba 52c9 56bb e406 3d3b e6ad 28bd
00000360: f3db c6ba 15de 2038 1f23 5836 1584 88bc
00000370: 4c1f c5b5 49e7 853c 959a 033d 85b5 503b
00000380: f6d7 27bd 2ca0 4a3d 67b6 79bd 7f50 b339
00000390: d2af 6d3d 6283 3bb9 acb7 52bb 0398 3b38
000003a0: 1bf0 56bd d186 813d bf02 b83b 5016 583b
000003b0: b0e6 aabb 2a3d 243d 495c 29bb 76d7 953b
000003c0: 8458 1ebd 8b97 10bc 0fef 0fbb 8b05 8535
000003d0: 8653 e3b6 33d2 c43b 5efe 6dbd b164 d33a
000003e0: 221c d53a 3b02 4e3c fcc6 943c 94a6 103d
000003f0: ed12 be3c b03d 2b3c 02f5 46bc 2980 193d
