2. Convolutional Autoencoders/models/lats_autoencoder.pth (torch, 207529 bytes, 19 tensors)

encoder_conv.0.weight f4 [8, 1, 3, 3]
000000 77 37 85 3c ec 4e 08 3e 20 08 6a be d1 63 5b be
       0.0162618 0.13311356 -0.22854662 -0.21424796
000010 68 52 09 be f8 e0 b4 3d 06 cb ec bb 44 7f 40 3e
       -0.13410342 0.08831972 -0.0072263507 0.18798548
000020 87 b7 6d bc 1e c5 bb 3d e8 ce c6 bd a6 50 af bc
       -0.014509088 0.091684565 -0.09707433 -0.02140076
000030 d1 df 88 be fb 34 60 be 38 c7 c1 bd 18 ba 01 3c
       -0.26733258 -0.2189521 -0.09461826 0.007917903
000040 e2 9f 81 3d 4a 66 30 3e fd 3e 3a be 7f b9 e2 bd
       0.06329323 0.1722652 -0.1818809 -0.11070537
000050 d7 5f 0a 3e 37 50 8d 3e 94 d3 17 bd fd 08 83 3e
       0.13513122 0.27600262 -0.03706701 0.25592795
000060 c0 c6 aa bc e1 b8 e1 3c 67 2d 98 3e 4e d1 c9 be
       -0.020846725 0.027553977 0.2972214 -0.394175
000070 23 be 8b be 26 49 22 be fc 30 5a be 90 c7 2f 3e
       -0.272935 -0.15848216 -0.21307749 0.17165971
000080 2c 5e 7d be 2f 83 8b be da 80 97 be 0f af b8 be
       -0.24742955 -0.27248523 -0.29590493 -0.3607106
000090 59 f8 59 be 13 47 38 3e 59 48 4c 3d 91 9b e3 3d
       -0.21286143 0.17995863 0.049873684 0.11113656
0000a0 80 8c 6d bd da ed 43 be 02 f8 4a 3c 35 7d a6 be
       -0.05799532 -0.19133702 0.012388231 -0.325174
0000b0 12 c2 58 be 44 cd e5 bd b1 5d 87 3e 39 77 6b 3e
       -0.21167782 -0.11220792 0.26438668 0.22994699
0000c0 d5 49 ac bd ea e2 b3 3d a0 ca 7f 3e 77 ac b2 3e
       -0.0841252 0.08783515 0.24979639 0.34897205
0000d0 16 a6 44 3e 81 3b be 3d f4 44 2c 3e 58 50 95 be
       0.19203982 0.09288693 0.16823179 -0.2916286
0000e0 11 c2 02 be 82 5d 44 be 59 d3 87 be 14 ef 93 be
       -0.12769343 -0.19176295 -0.26528433 -0.2889334
0000f0 fe 85 a3 3d 13 14 ac bd 4d 37 a0 be 2b 50 fd 3d
       0.07984541 -0.08402266 -0.3129219 0.123688065
000100 05 18 65 3e b5 d7 a5 3c 70 2d 4a 3d fb bb fc 3d
       0.22372444 0.020244459 0.04935974 0.12340542
000110 ac b8 66 3e 7c b3 ae 3e 84 e1 29 be b8 3d 60 bd
       0.22531384 0.3412131 -0.16589934 -0.05474636

encoder_conv.0.bias f4 [8]
000000 66 13 68 3e b9 78 c1 3e 4e 30 b6 3e c4 a9 c0 3e
       0.2266365 0.37787417 0.3558373 0.3762952
000010 4b fc 24 3e fb 90 78 be 21 39 09 3e 59 88 2d be
       0.16111867 -0.24274056 0.13400699 -0.16946544

encoder_conv.2.weight f4 [16, 8, 3, 3]
000000 44 8c 06 3d de 75 27 3e 62 4d 26 3e da 6c 47 3d
       0.03284861 0.16353557 0.16240457 0.048687793
000010 1c e0 05 3e 58 62 0f 3e ab 7d c8 3d cd b2 a8 3d
       0.13073772 0.14002359 0.09789594 0.082372285
000020 a0 11 ef 3d c4 f8 b4 3d d9 c5 31 3e be c1 2e 3e
       0.116732836 0.08836511 0.17360629 0.17066094
000030 06 1c 44 3e 27 89 4c 3e 39 93 b4 3d 54 35 9f 3d
       0.19151315 0.19974194 0.08817143 0.077738434
000040 5c 0c 46 3e 98 4a 16 3e fa 28 c3 3c e2 bb 3f 3d
       0.19340652 0.14676893 0.02382325 0.04681004
000050 25 1a 43 3e 9a fd ea 3d 9b a7 6b 3d 65 9f d5 3d
       0.19052942 0.11474152 0.057532888 0.10430793
000060 64 f1 37 bc 7c b9 b0 3d 64 7e 30 3d 68 82 88 3d
       -0.011226986 0.08629128 0.043089285 0.06665498
000070 54 fd 34 3e e7 32 f5 3d 5d 0e e2 3d f4 96 66 3e
       0.17674762 0.119725995 0.11037896 0.22518522
000080 27 2e a8 3d 5b 98 37 3e f3 88 68 3e 48 00 29 3d
       0.08211928 0.17929213 0.22708492 0.041260034
000090 16 1c d5 3d 85 62 0c 3e 80 e6 b8 3d ab cd db 3d
       0.104057476 0.13709457 0.090283394 0.107325874
0000a0 da f3 1c 3e bb d8 b5 3d a9 5f b2 3d be c7 17 3e
       0.15327397 0.08879229 0.08709652 0.1482229
0000b0 f0 a2 39 3c 54 6b 99 bd 7c 67 f3 bd 8b 72 3e 3c
       0.011330351 -0.07491174 -0.118849725 0.011623989
0000c0 6a b1 37 bd 0e 17 16 be 8b f3 83 3c 31 98 68 bd
       -0.04484693 -0.14657232 0.016107341 -0.056785766
0000d0 d3 e0 15 be f6 7a c9 bc 63 5d 27 3e 0b 12 27 3e
       -0.14636545 -0.024594765 0.16344218 0.16315477
0000e0 c5 c4 c9 3d 6a 22 15 3e 35 f4 2d 3e b6 35 0e 3e
       0.09851984 0.14563909 0.16987689 0.13887677
0000f0 25 9d 48 3e b0 cf 3d 3e 7e 0c 1b 3e d5 06 de 3c
       0.19591196 0.18536258 0.15141484 0.027102867
000100 7d fe 0c be fe 17 7c bd 94 c2 19 3d 54 ba bc bd
       -0.13768955 -0.06154632 0.03753908 -0.09215227
000110 c2 96 a1 bd 45 51 0e bc 0c 76 03 be ee 93 c4 bd
       -0.07890083 -0.008686368 -0.12838 -0.09598528
000120 7c fd 19 3d e1 d2 a6 3d e4 0a bf 3d e0 f9 fe bc
       0.037595257 0.08145691 0.09328249 -0.031125009
000130 84 10 dc 3d 97 86 33 bb be cb 2e 3d 17 b3 b0 3c
       0.107453376 -0.0027393454 0.042674772 0.021569772
000140 58 11 49 3d 6a 48 69 3d 5b 3f c9 bb 12 ca 1b bc
       0.049088806 0.056953825 -0.0061415858 -0.009508627
000150 20 ed a2 3d 99 a8 d8 3d b3 6d 69 3d 69 cd c0 3d
       0.07955384 0.105790325 0.056989383 0.09414179
000160 81 4d f5 3a 34 ca ad 3d 75 db eb 3d 8c ac 91 bb
       0.0018715115 0.08485833 0.115164675 -0.004445618
000170 38 d8 02 3e df 99 72 3d 59 b0 83 bd 3c b3 c7 3d
       0.12777793 0.059228774 -0.0643012 0.09750983
000180 ae 7e fb 3c ff fa 77 bb 8e 27 f4 3d ad 7d 06 3b
       0.030700054 -0.0037838814 0.11921607 0.0020521686
000190 35 99 c7 3d 46 27 7f 3d dc af 11 3e 19 b3 eb 3d
       0.09746019 0.062293313 0.14227241 0.115087695
0001a0 dd e3 df 3d 9f 5d ce 3d ff 7e af 3d ba 76 7a 3d
       0.10932133 0.100764506 0.085691445 0.061148383
0001b0 a0 de 3e bc 82 ef df 3d 02 18 df 3d 7f 65 f1 3d
       -0.011649758 0.10934354 0.10893251 0.11786937
0001c0 c3 78 96 3c bb 6b 5f 3d 5e a5 ec 38 56 45 ab 3c
       0.01836813 0.0545461 0.00011284159 0.020907085
0001d0 fc 4b d6 ba 4b 41 08 3c 25 d7 dd bd c6 d2 cf bb
       -0.0016349549 0.008316348 -0.10832051 -0.006342265
0001e0 aa 55 c7 bc 73 74 74 bc 0d 4e d0 bd 83 e5 be bd
       -0.02433284 -0.014920342 -0.10171137 -0.0932112
0001f0 09 af ef bd 5f 87 0a 3d 51 39 a9 3d 8d 86 41 3e
       -0.11703307 0.033820506 0.08262885 0.18898983
000200 63 08 91 3d fa 52 02 3e 18 92 14 3e fd ba 91 3d
       0.07081678 0.12726966 0.14508855 0.07115743
000210 36 90 fd 3d 93 4f 02 3e 8f af 8e 3d d4 e2 f9 3c
       0.12381022 0.12725668 0.06967079 0.030503668
000220 6b 75 c0 bd fb e2 8f bd 19 80 4d 3d 1d 93 06 be
       -0.09397396 -0.07025715 0.05017099 -0.13142057
000230 52 d0 5d bd 48 5d b0 3d d1 dc cd bc a5 66 08 bd
       -0.054153748 0.08611542 -0.025129708 -0.033301014
000240 9a fd 05 bd ef 4f 9e 3d e5 82 04 bc 1e d1 54 3d
       -0.032712556 0.0773009 -0.008087848 0.051957242
000250 0c a6 40 3d 78 f2 9a 3d 69 38 5c 3d fd c2 f9 3d
       0.047033355 0.075657785 0.053764734 0.12195394
000260 0c 40 63 3d 44 6f 25 3e 00 98 11 3e b1 e7 e2 3c
       0.055481 0.16155726 0.1421814 0.02769837
000270 0a 17 09 3e 10 d5 4a 3d a7 5c 9e 3d f6 c8 cd 3d
       0.13387695 0.0495196 0.07732516 0.10048096
000280 01 69 f3 3d 7c 47 1a 3e 32 49 c4 3c de 17 5d 3d
       0.11885262 0.15066332 0.023960683 0.05397784
000290 0c 1d c3 3d 55 16 4e bd a3 2a d7 3d 4d 57 cf bc
       0.095270246 -0.050314266 0.10506179 -0.025310183
0002a0 bc a7 65 3d 2f 16 2f 3d cd 29 27 3c 5b b0 cf 3d
       0.056068167 0.042745765 0.010202837 0.10141059
0002b0 35 d9 3f 3e d2 8d 89 3d d8 8c 40 3d e7 53 ca 3d
       0.18735202 0.06716503 0.04700932 0.09879284
0002c0 77 12 d6 bb f1 65 fb 3d b1 68 a7 3d 44 29 bb 3c
       -0.006532963 0.12275303 0.08174265 0.022846825
0002d0 85 b1 f3 3c 03 36 f9 3d bc 35 ba 3d 03 9b 07 3e
       0.029747734 0.12168505 0.0909228 0.13242726
0002e0 91 b5 d4 3d 3d e2 1d 3d 4b ee 68 3d dc af b3 3d
       0.103861935 0.038545836 0.05686788 0.08773777
0002f0 79 35 fc 3d c0 99 b7 bb ba bf 98 bd 6e cc f2 bc
       0.123148866 -0.005603045 -0.07458444 -0.029638495
000300 e0 a0 e5 bd ab db 17 bd c4 31 68 bd a9 e1 e3 bd
       -0.11212325 -0.037074726 -0.056688085 -0.11127026
000310 f3 91 d0 3c 1d 8b 9e bd 89 95 f3 3d 45 8f 11 3e
       0.025460219 -0.077413775 0.11893756 0.14214809
000320 1f 45 b0 3d 3f ae a4 3d 62 17 9b 3d fb 58 21 3e
       0.08606934 0.08041047 0.07572819 0.157566
000330 bc 86 01 3e 2a 21 44 3e 03 22 a1 3d c6 93 4e 3d
       0.12649053 0.19153276 0.07867815 0.050433896
000340 c7 99 25 bc 79 dd 92 b8 2f 77 40 bd 05 81 5b bc
       -0.010107464 -7.003075e-05 -0.046988662 -0.01339746
000350 e4 de cf bc 85 c8 da 3c f1 08 a9 bc f0 08 8f bd
       -0.025374837 0.026706943 -0.020634146 -0.069841266
000360 e3 b9 3c 3d 16 57 28 3a 75 02 53 3c e9 d7 2b 3c
       0.046075713 0.0006421668 0.012879004 0.010488489
000370 6d fc 72 3c 07 57 b3 3b 65 f5 6c bb c6 33 e4 3c
       0.014830691 0.005473021 -0.0036157009 0.027856719
000380 d6 04 33 3c b1 c3 66 bd 80 15 00 bd 3c fa 2e bc
       0.010926446 -0.05633897 -0.031270504 -0.010679778
000390 2c 37 95 bc fc 39 00 bd 09 62 8c bd 95 6d a0 bc
       -0.018214785 -0.0313053 -0.06854636 -0.019583503
0003a0 b3 c7 f2 bc 81 fe a4 bc c6 9a af 3d 7b a9 f0 3d
       -0.02963624 -0.020140888 0.085744426 0.11751076
0003b0 48 f8 6b 3d f6 02 95 3d 3d a2 c5 3d 97 d0 97 3d
       0.057609826 0.072759554 0.09650085 0.07412832
0003c0 a1 60 a5 3d 06 98 a7 3d 47 2d f4 3c 3d ca 4e bd
       0.08075071 0.08183293 0.029806746 -0.05048584
0003d0 3b 2c 6c bd fd d6 9b 3c ae cd d3 bc 07 b3 b6 bd
       -0.05765937 0.019023413 -0.025854912 -0.089208655
0003e0 42 52 99 bc 15 d9 5d bd b0 df 04 be a6 49 82 bd
       -0.018715981 -0.054162104 -0.12975955 -0.063617036
0003f0 47 78 11 3d 6c 88 04 bc 42 04 b0 bc 16 1c c7 3b
       0.035515096 -0.008089166 -0.021486405 0.006076346

encoder_conv.2.bias f4 [16]
000000 e9 8c de 3d ea cb 22 3d 46 52 eb 3d 7a 84 dd 3c
       0.1086672 0.03974525 0.11490302 0.027040709
000010 99 89 cd 3d 80 ef ad 3d 69 32 03 3e 78 b2 03 3c
       0.1003601 0.084929466 0.12812199 0.008038156
000020 5b 41 ab bc 22 32 ef 3d 1c 4e b8 3d a7 e0 af bc
       -0.020905187 0.11679484 0.08999273 -0.021469427
000030 9c 18 f7 3c 81 c2 c0 3c 86 06 e0 b8 f5 b3 9e 3d
       0.030163102 0.023530247 -0.000106823674 0.07749168

encoder_conv.4.weight f4 [32, 16, 3, 3]
000000 1b 8d 9c 3d 7b 8b 20 3e 44 bc 00 3e ae 91 ef 3d
       0.07644101 0.15678208 0.12571818 0.11697708
000010 24 43 39 3e 92 36 c3 3d 8f 5a 97 3d 4b 5c 28 3e
       0.18092018 0.09531893 0.073903196 0.16441457
000020 71 75 10 3e f7 54 27 bd 48 cd a6 3d 90 44 a1 3d
       0.141073 -0.040852513 0.08144623 0.078744054
000030 39 ed ef bc 6f 34 8c 3d 89 d9 c0 3d 3d a8 8d bc
       -0.029287921 0.068459384 0.094164915 -0.017292136
000040 fe 72 a0 3d bf dc 88 3d e5 15 46 3d 0d 4f f5 3d
       0.07834433 0.06682729 0.048360724 0.11977968
000050 32 01 ce 3d 2e 4b da 3d 6f d7 c6 3d f4 da ee 3d
       0.10058822 0.10658871 0.097090594 0.11662856
000060 9f 60 25 3c 76 7f 82 3d 08 9c 8d 3d d9 68 79 3c
       0.010093837 0.063719675 0.06914526 0.015222752
000070 d1 60 df bc 86 70 b2 bc 1a b8 e3 bc ae 3a 9f bd
       -0.027267845 -0.021782171 -0.027797747 -0.07774864
000080 dc 66 c1 bd 40 72 a8 bc 24 c6 b7 bd 89 59 81 bd
       -0.09443447 -0.020562291 -0.08973339 -0.063159056
000090 96 3b 94 3d 96 79 49 3d 40 27 3c 3d 33 12 d6 3d
       0.072379276 0.04918822 0.04593587 0.1045269
0000a0 60 e3 8e 3d 3a 70 d8 3c 85 e3 bb 3d 0e 93 d5 3d
       0.06976962 0.026420701 0.09174255 0.10428439
0000b0 7c 13 58 3d e4 cb 1e 3d 9a bd 09 3d a3 85 bf 3b
       0.052752957 0.038768664 0.033628084 0.005844788
0000c0 9f 33 99 3d 3b 6f b2 3d 0e 0d dd 3d 4a f7 78 3c
       0.07480549 0.08712622 0.107935056 0.015195677
0000d0 4c 73 bf 3d 66 80 8a 3d 5f a6 35 3d 49 d1 f5 3d
       0.09348163 0.06762771 0.044348117 0.120028086
0000e0 0a 28 ae 3d e6 e6 7a 3d 56 15 9b 3d f5 e3 1c 3d
       0.085037306 0.06125536 0.07572429 0.038303334
0000f0 97 4d 39 bc cb 83 bf 3d 05 6b da 3d 65 bf 11 3d
       -0.011310003 0.093513094 0.106649436 0.03558292
000100 d4 c6 86 3c ad e0 1c 3d b7 56 d0 bc 63 18 20 bd
       0.01645223 0.038300205 -0.025431974 -0.039085757
000110 6f 8d 23 bd 2a d2 10 39 3d 22 d0 bb c3 f7 ab 3b
       -0.039929803 0.00013811202 -0.006351738 0.0052480414
000120 bd 0f fc 3c 21 af 82 3d b9 3d 51 3d 93 0a a0 3b
       0.030769223 0.063810594 0.051084254 0.004884073
000130 00 11 b6 3c 0c 33 b6 3d 8f 14 35 3d 23 07 82 3d
       0.022224903 0.08896455 0.04420906 0.063490175
000140 28 5a 75 3d 7c b8 03 3b 61 29 35 3d f7 5c 34 bc
       0.059900433 0.0020098975 0.044228915 -0.011008493
000150 20 54 9a 3d 36 6c 92 3d 26 8c d8 3c 38 64 a9 3c
       0.07535577 0.07149546 0.026434015 0.02067767
000160 c0 4f 9e 3d f5 77 ee 3c 39 1d 32 3d 95 86 52 3d
       0.07730055 0.029109934 0.0434849 0.05139788
000170 55 01 f9 3b 86 a6 2b 3d 0f 42 46 3d 9f c9 b7 3d
       0.0075990357 0.041906856 0.048402842 0.08974003
000180 08 17 c9 3c b8 2e f7 3c 5b 14 b5 3d aa c4 3f bb
       0.024547115 0.030173644 0.08841773 -0.0029261508
000190 70 2e be 3d f6 70 e2 3d 5f fa 0f 3d e5 4e 1d 3e
       0.09286201 0.11056702 0.03515088 0.15362127
0001a0 1e 35 f2 3d 5d f8 c8 3d b2 ea da 3d 26 3d f5 3d
       0.118265375 0.098129965 0.10689296 0.11974554
0001b0 11 6a 87 3c 3f 14 97 3d 50 a4 33 3d 29 65 4e 3d
       0.016530069 0.073769085 0.043857872 0.050389443
0001c0 11 65 ea 3d 5c 2a c7 3d 02 26 15 3d 0c 46 f2 3d
       0.11445058 0.09724876 0.0364132 0.11829767
0001d0 62 27 93 3d da 4b 25 3d fc 22 fc 3d 85 65 ef 3d
       0.07185246 0.04035554 0.1231136 0.11689285
0001e0 bb bb 55 3d 15 a2 2e 3e e8 73 fa 3d 35 c2 98 3d
       0.052180987 0.17054017 0.122291386 0.07458917
0001f0 c7 9c d6 3d 70 79 f3 3d bd d7 06 27 18 a0 7d a8
       0.10479122 0.11888397 1.8713188e-15 -1.4079036e-14
000200 41 14 fc a7 a7 60 4f aa 5c de fe a8 5f 16 65 28
       -6.996601e-15 -1.8418826e-13 -2.8296098e-14 1.2716905e-14
000210 c3 a2 a5 38 a1 95 4f 31 12 f4 34 28 33 56 7f 3d
       7.89813e-05 3.0207519e-09 1.00449315e-14 0.062338065
000220 e3 a6 21 3d 22 fa 65 3d a2 b7 e1 3c d5 2e 39 3b
       0.039465796 0.05614675 0.027553383 0.0028256674
000230 91 63 b1 3b ac 59 f2 3c 7a 64 0a bd c3 97 39 3c
       0.0054134806 0.029583775 -0.03378723 0.011327687
000240 bb 7f 2e 3d 52 7f 11 3e 90 5f f9 3d 53 6b 57 3d
       0.042602282 0.14208725 0.1217643 0.052592587
000250 22 85 1d 3e 4b 7e 05 3e 6e ac 8c 3d 6c ba 15 3e
       0.15382817 0.13036458 0.06868826 0.14621896
000260 75 2e 05 3e 9d f7 c9 bc 7b ba 7e bc 97 c5 46 3d
       0.13006003 -0.024654204 -0.01554739 0.04852828
000270 9f a6 e3 3c d4 73 72 3d 05 be ac 3d 61 b3 c9 3b
       0.027789412 0.059192494 0.08434681 0.006155417
000280 36 ed 94 3d 28 d1 c3 3c aa cb 19 3d fe fa 33 3d
       0.07271807 0.023903444 0.037547745 0.043940537
000290 0e 2c a5 3d 05 1a cf 3d 3f 0a f5 3d 6f 21 a1 3d
       0.080650434 0.10112385 0.11964845 0.07867705
0002a0 8d 91 a8 3d c6 2a 84 3c 57 b8 31 3d 3d 7f bd 3c
       0.082308866 0.016133677 0.04338869 0.023131961
0002b0 34 f4 23 bd cf 05 46 bd e4 f3 df bc 77 34 af bd
       -0.040027812 -0.048345383 -0.027337976 -0.08554929
0002c0 2a 08 fc bd 62 61 63 bc 68 be 88 bd 86 e1 a3 bd
       -0.12306245 -0.013878198 -0.06676942 -0.080019996
0002d0 b5 51 6b 3c b4 55 e9 bb 44 4e 1e ba 20 67 86 3d
       0.014362742 -0.0071208123 -0.0006038884 0.06562638
0002e0 47 7d dc 3d 9a 10 3f 3d 41 d3 c4 3c 17 a8 1b 3d
       0.10766082 0.04664669 0.024026515 0.0380021
0002f0 b1 d7 92 3d 60 2e e7 bc 03 26 19 bb 8c b6 bc 3d
       0.07170046 -0.028220356 -0.0023368604 0.092145056
000300 d8 f6 15 3d b9 b1 b4 3d 39 66 8e 3d 99 30 5d 3b
       0.03661236 0.088229604 0.06953091 0.003375089
000310 bd 4d b4 3d 85 57 99 3d 1a 84 9b 3b 90 c0 70 3d
       0.0880389 0.07487396 0.0047459723 0.058777392
000320 3e 16 57 3d bf 4c 83 bc a5 09 e5 3d a4 fa e6 3d
       0.052511446 -0.016027806 0.1118348 0.11278275
000330 08 dd 83 3d e5 1b 95 3d 22 43 a6 3d 56 0f 26 3d
       0.06438643 0.07280711 0.08118273 0.04054197
000340 17 af e1 3c 96 44 0f 3d 0c 61 a5 3b d9 eb 0a bd
       0.02754931 0.034977518 0.0050469693 -0.033916328
000350 83 25 5e bd ef 6d 46 3c e8 d2 60 bc e4 93 3a bd
       -0.054234993 0.012111171 -0.013722159 -0.045551196
000360 d4 25 b0 3c 4e eb bc bb 62 61 84 3d 0e 51 59 3d
       0.021502413 -0.005765355 0.06463887 0.053055815
000370 69 fd e3 3d f7 45 46 3d 40 4e 33 3d 4f 51 99 3d
       0.111323185 0.048406567 0.043775797 0.074862115
000380 de 72 f3 3d ee 2c a6 3d 58 16 5f 3c a8 7f 82 bc
       0.118871436 0.081140384 0.013616167 -0.015930012
000390 37 1d ca bc 85 46 b9 3c 30 bc cf 3d 83 e4 53 3d
       -0.024672134 0.022616634 0.10143316 0.051731598
0003a0 09 6d e5 3d be 33 b6 3d e0 7e 3b 3d f5 34 b8 3a
       0.112024374 0.08896588 0.045775294 0.0014053868
0003b0 4a 73 cc 3d d6 26 a8 3d 94 90 88 3d c2 11 17 3c
       0.09982927 0.08210532 0.06668201 0.009220542
0003c0 ec 29 ae 3d d3 d6 48 3d 78 12 a2 3d 86 f0 45 3d
       0.0850409 0.049032997 0.07913679 0.048325084
0003d0 b7 5e ae 3d e4 e3 0f 3b d6 7e 96 3c c8 f7 f0 3d
       0.08514159 0.0021955902 0.018371027 0.117660105
0003e0 57 0f 99 3d bb f1 dd ba 3a d8 15 3e af 49 b3 3d
       0.07473629 -0.0016933003 0.14633265 0.087542884
0003f0 d3 16 2b 3d 5b 73 51 3c ff 60 01 3d 83 ab ec 3c
       0.041769814 0.012783851 0.031586643 0.028890377

encoder_conv.4.bias f4 [32]
000000 cf 16 da 3c 54 44 81 3d 82 3b 90 3d 52 71 ba 3d
       0.026622204 0.06311861 0.070426 0.091036454
000010 30 3c 88 3d c4 32 82 3d 2e ab ca 3d e8 52 ed 3d
       0.06652105 0.06357339 0.09895931 0.11588079
000020 3e 9e a6 3d eb 95 db 3d 20 8c 73 3d 57 71 c8 3d
       0.08135651 0.10721954 0.059459805 0.09787243
000030 2f e4 09 bc 76 41 5e 3d 15 61 df 3d 30 7f 6a 3d
       -0.00841622 0.054261647 0.10907189 0.0572502
000040 16 8b c8 3d 53 12 ff 3c be fd 46 3d a1 bd 42 3d
       0.097921535 0.031136667 0.04858183 0.047544125
000050 12 6f 2d 3d f4 71 08 3b 82 41 9f b8 4a e5 92 3d
       0.042342253 0.0020819874 -7.5939126e-05 0.0717264
000060 c0 b2 34 3d df ff 19 3d 18 83 87 3d 65 58 67 3d
       0.04411578 0.037597533 0.06616801 0.056480784
000070 f5 02 e6 3c db 93 c1 3d 88 47 94 3d 0e 9f 44 3d
       0.028077582 0.09452029 0.07240206 0.04800325

encoder_lin.0.weight f4 [64, 288]
000000 fa fd 8e b9 67 17 a2 b8 77 17 3c b9 fa a6 0b b9
       -0.00027273578 -7.729121e-05 -0.00017937818 -0.00013318277
000010 88 0e 01 b9 7b 03 20 3a f1 07 ca b9 15 8e 6e b8
       -0.00012307812 0.0006104034 -0.0003853436 -5.6875946e-05
000020 33 f4 c0 39 39 fb 28 b9 3e 32 a0 b9 2c 13 2e b9
       0.00036803036 -0.00016115316 -0.00030555011 -0.00016601075
000030 97 3f cc b8 d3 30 9f b8 51 b9 50 37 3a a4 2d ba
       -9.7393226e-05 -7.590805e-05 1.2440913e-05 -0.0006623898
000040 65 c8 90 b9 f6 0c 4e 39 20 9f 8b b8 81 c0 66 b5
       -0.00027615126 0.00019650519 -6.657676e-05 -8.5961807e-07
000050 01 32 38 b7 76 aa f3 b8 54 30 7c b9 98 9b 95 b9
       -1.0978897e-05 -0.00011618894 -0.00024050596 -0.0002853542
000060 07 53 47 b9 45 82 98 b9 fb 10 4b b8 37 a7 33 ba
       -0.00019009049 -0.00029088758 -4.8414786e-05 -0.0006853225
000070 8a 6d 75 b9 92 2d 3a b9 f9 82 49 3a 99 26 c1 3a
       -0.00023405827 -0.00017755319 0.0007687058 0.0014736234
000080 b2 df 6a 3a 28 39 73 b9 ef fa a7 39 ac c9 83 b9
       0.0008959725 -0.00023195578 0.00032039682 -0.00025136524
000090 dd 71 39 b9 57 1b 1e 38 d5 1b cf b8 e3 a6 32 b9
       -0.00017685392 3.7695598e-05 -9.875713e-05 -0.00017037573
0000a0 a5 10 a6 37 b9 b1 b8 b9 da 39 28 39 1f a8 c8 38
       1.9796493e-05 -0.00035227629 0.0001604328 9.568058e-05
0000b0 eb 1d bc b9 f4 77 00 38 e9 a5 e3 b6 e3 60 66 b8
       -0.00035880445 3.0629293e-05 -6.7844417e-06 -5.4926506e-05
0000c0 6c 07 66 b8 4b f5 84 39 f6 72 24 b9 ab 20 96 b8
       -5.4843185e-05 0.0002535976 -0.00015683085 -7.158642e-05
0000d0 bf b4 f9 38 de 59 96 b8 ad af 2c b1 31 dc 81 2a
       0.00011906912 -7.1692964e-05 -2.5129154e-09 2.3067792e-13
0000e0 0e 87 9a 28 1c 8d d3 27 a7 52 18 a8 79 25 bd 2d
       1.7156005e-14 5.8717256e-15 -8.455617e-15 2.1503454e-11
0000f0 28 f9 ef 2e 25 6c bb ab bd 61 8a ad 23 74 38 b9
       1.0912721e-10 -1.3317165e-12 -1.5732188e-11 -0.00017590872
000100 fa a1 15 b8 22 c3 2e ba 4b 0e d0 b9 e8 53 79 b9
       -3.567522e-05 -0.00066666503 -0.000396835 -0.00023777748
000110 e8 09 85 39 47 5c 94 b9 0d 9c 11 b9 9c 6f 7c ba
       0.00025375118 -0.00028297512 -0.00013886411 -0.0009629668
000120 3e 41 a6 b7 83 e9 b6 b6 72 b1 0f b8 6a 42 b0 b7
       -1.9819123e-05 -5.451207e-06 -3.4259116e-05 -2.1011761e-05
000130 a8 19 14 b8 fe 0d 97 b9 af 37 5d b8 f4 ee 77 b6
       -3.5309844e-05 -0.0002881139 -5.2742365e-05 -3.6944957e-06
000140 84 bb 9f 39 35 e2 a3 39 d7 bc 24 39 7a 96 e9 b9
       0.00030466553 0.0003125832 0.00015710607 -0.00044553337
000150 bc 21 eb 39 18 ba 80 b8 d2 31 ae b9 e8 05 0c ba
       0.00044847827 -6.138178e-05 -0.00033224985 -0.0005341456
000160 8d db d5 b9 d2 c9 b9 b9 e1 55 09 a8 3d 44 bb a9
       -0.00040790104 -0.00035436318 -7.62365e-15 -8.316306e-14
000170 0c 21 f1 2d 53 39 2a 2e 83 39 d2 a9 f1 02 04 29
       2.7413204e-11 3.870444e-11 -9.33585e-14 2.931244e-14
000180 ff 06 99 a8 bb a0 14 aa 9f 39 f9 2b 31 72 bf 27
       -1.6989446e-14 -1.3200805e-13 1.7708507e-12 5.3136956e-15
000190 56 6a 93 b0 6e de 6b a8 d5 ce 38 2e a8 9e 72 2b
       -1.072588e-09 -1.3093352e-14 4.202046e-11 8.619585e-13
0001a0 e2 49 69 ac 6e 57 3d ab c4 3c 16 2d 11 52 d5 29
       -3.3152305e-12 -6.726762e-13 8.5400055e-12 9.4733364e-14
0001b0 76 36 4f b6 f1 1a ec b7 7b ed 97 b6 8b 9d 97 b6
       -3.0877104e-06 -2.8145938e-05 -4.527797e-06 -4.518491e-06
0001c0 2e 0f d0 38 2b 3d 26 b8 d3 ac 93 b7 a2 db 46 b6
       9.92104e-05 -3.963445e-05 -1.7604243e-05 -2.9632142e-06
0001d0 43 45 7d b7 07 23 ce b5 fd 62 ae 38 45 52 93 36
       -1.5096101e-05 -1.535839e-06 8.3154046e-05 4.390519e-06
0001e0 4a 43 2d b9 e9 ae 18 b7 43 80 6d b8 d4 6a e8 38
       -0.00016523633 -9.10063e-06 -5.6624656e-05 0.0001108252
0001f0 3a e8 f2 b8 98 34 75 37 77 1a 1f ba be e6 0a ba
       -0.00011582715 1.4615383e-05 -0.0006069312 -0.00052986655
000200 7b be 86 b9 53 ec 46 ba ac b7 93 b8 c3 30 d0 39
       -0.0002570039 -0.00075883156 -7.043718e-05 0.00039709182
000210 52 12 45 b9 5e 7e 08 ba 35 2b 6e b9 c9 a4 59 af
       -0.00018794209 -0.00052068185 -0.00022713545 -1.9794578e-10
000220 5f be 25 2d 36 3e 10 a9 0f 8b b4 b0 c0 86 6d aa
       9.421435e-12 -3.2028382e-14 -1.3136247e-09 -2.109658e-13
000230 de f6 20 aa 3d 56 0b 2a 55 81 64 b1 ae a4 65 2c
       -1.4296504e-13 1.23756e-13 -3.3251883e-09 3.2634273e-12
000240 94 0e 44 2c 43 42 8c ad b7 74 41 aa cd 72 55 b1
       2.7861368e-12 -1.5945583e-11 -1.7182337e-13 -3.1060836e-09
000250 65 39 9c 29 46 8d 3f aa ca b0 5e ac 42 a1 0b 2c
       6.937748e-14 -1.7013222e-13 -3.1646235e-12 1.9842604e-12
000260 4d d8 2b 2b b5 13 19 b9 0b 1a 13 b7 05 e3 33 b9
       6.105158e-13 -0.00014598558 -8.767946e-06 -0.00017155342
000270 75 90 76 b8 2e ea 3e 38 76 03 33 b9 69 4a 1e 39
       -5.8785507e-05 4.5517627e-05 -0.0001707206 0.00015095774
000280 16 af af 39 08 98 e9 b8 71 7f 15 2e 37 ec 7e ab
       0.0003350905 -0.00011138624 3.399187e-11 -9.056674e-13
000290 46 9e cb ae 6d 2c b9 ab e8 b1 1f 31 3d e2 60 2d
       -9.259486e-11 -1.3157371e-12 2.3238673e-09 1.2783161e-11
0002a0 16 80 32 2d 5e b6 84 2e 67 e9 06 ad d9 27 6e 2b
       1.0146569e-11 6.03506e-11 -7.668844e-12 8.4609885e-13
0002b0 01 57 8c 2b 9e e3 14 2e b2 38 0a 2d a2 d7 3c a9
       9.971747e-13 3.385347e-11 7.856981e-12 -4.1931417e-14
0002c0 0e 3d ea ad 23 66 7b af 7a 5a 79 aa 22 ff 96 a7
       -2.6629834e-11 -2.2864603e-10 -2.2147033e-13 -4.190998e-15
0002d0 7c d3 49 b8 eb fb 98 38 6f 7d 29 39 f1 59 6a 39
       -4.8119095e-05 7.294848e-05 0.00016163824 0.00022349485
0002e0 b4 80 d6 b7 c8 4a 8f ba 14 45 ca b8 5b 7b 26 b8
       -2.557072e-05 -0.0010932321 -9.6449774e-05 -3.9692368e-05
0002f0 2c 86 fb b8 c3 38 c6 ab 8a ae 55 ab d7 a5 6e 2f
       -0.00011993604 -1.4084501e-12 -7.5915023e-13 2.1704892e-10
000300 3f 61 97 af 6b 7e 1d 33 b8 64 2a 2b 9d b0 76 ad
       -2.7535837e-10 3.6669388e-08 6.053591e-13 -1.4022697e-11
000310 ea c4 46 2c 36 70 ad ab b1 21 51 b8 fd d5 03 b7
       2.8246802e-12 -1.2323534e-12 -4.986086e-05 -7.8580315e-06
000320 6c b3 26 b9 8b 24 1b b9 f7 f1 a1 b8 41 96 e5 b9
       -0.00015897834 -0.00014795565 -7.722148e-05 -0.00043790232
000330 a4 40 5a b9 05 90 b9 b8 fe 18 61 ba 4d a4 3e b7
       -0.0002081418 -8.848313e-05 -0.0008586793 -1.1363137e-05
000340 72 9e 15 38 8d 7c cf b6 a0 c3 c2 b8 aa cf 13 39
       3.5671932e-05 -6.1835804e-06 -9.287079e-05 0.00014096373
000350 c7 7c e2 b8 05 14 00 39 a8 20 74 b7 b8 85 90 39
       -0.000107997614 0.00012214489 -1.4551137e-05 0.0002756545
000360 a1 54 09 b6 a3 41 06 37 55 5d 1b 38 59 45 d0 38
       -2.0463851e-06 8.002305e-06 3.7041802e-05 9.93113e-05
000370 48 d4 79 b9 89 f6 14 b9 f7 48 3e 37 4e c5 2c b7
       -0.00023825571 -0.00014206221 1.1341871e-05 -1.02979375e-05
000380 db 2d 8f 38 21 fd 94 38 f7 08 1b b9 1a e4 4b b8
       6.8273126e-05 7.104339e-05 -0.00014785292 -4.8611408e-05
000390 03 40 d3 b9 1c 47 bf 38 38 0a ff b9 03 6f 84 b8
       -0.0004029275 9.120835e-05 -0.00048645004 -6.314928e-05
0003a0 5b 7f d6 b7 97 8d 1b ba 7f dd 8b 25 80 7e 3d 29
       -2.5570092e-05 -0.00059338793 2.4262748e-16 4.207615e-14
0003b0 92 c0 a5 a8 12 fd 56 27 23 8a 38 31 c0 fe 25 29
       -1.8402194e-14 2.9835656e-15 2.6854046e-09 3.685832e-14
0003c0 c5 e4 a7 28 a9 4a 14 2b d6 78 cb ab e9 f2 5c b5
       1.8639937e-14 5.2683774e-13 -1.4457556e-12 -8.230987e-07
0003d0 eb 99 e9 b3 cb f5 27 b6 99 1e 92 b6 08 a1 48 b8
       -1.08779055e-07 -2.502801e-06 -4.354701e-06 -4.7833688e-05
0003e0 b9 02 32 b7 c8 43 8a b7 7f a2 8c b5 1a 70 3f 37
       -1.0610261e-05 -1.6482445e-05 -1.0478105e-06 1.1410588e-05
0003f0 07 df d0 b8 db 6d ff b9 13 87 1a 3a 9e d9 91 ba
       -9.959755e-05 -0.0004871924 0.00058947614 -0.0011127477

encoder_lin.0.bias f4 [64]
000000 3a 35 ce ba eb e4 82 bc 60 6e 1e 3d 10 32 bd b9
       -0.0015732415 -0.015978297 0.03867948 -0.0003608619
000010 3a 46 c5 bc 1b 3a 70 3d 42 8f 81 33 8e 59 38 3d
       -0.024081338 0.058649164 6.033089e-08 0.04500728
000020 7a ef 5a 3c 85 84 80 3d 60 88 47 3d 60 06 ab 3d
       0.01336276 0.06275276 0.04871404 0.08350825
000030 98 cd 1d bb 53 b1 bb 3c 8a f7 bf 3b 7a ce 8e 3d
       -0.0024078842 0.022911703 0.0058583664 0.06972976
000040 f4 be 0a b4 75 2e 99 3d c0 0b 01 3d 39 f2 6c 3d
       -1.292172e-07 0.07479564 0.031505346 0.05784819
000050 5d 17 81 b8 44 a1 bf 3d 51 d6 26 3d 58 7b d9 3b
       -6.155551e-05 0.09356931 0.04073173 0.006637018
000060 bc bf e3 3c 32 a4 fd 3c d8 07 47 bd b4 b9 7b 3d
       0.027801387 0.030962083 -0.048591465 0.061456397
000070 24 93 99 3d fa 54 38 3d 4e c1 b6 3c 08 39 35 bc
       0.07498768 0.045002915 0.022308972 -0.011060961
000080 a7 59 29 3d ad 71 c5 3c 3d f1 a1 b8 79 18 c9 3d
       0.041345265 0.024102056 -7.7220124e-05 0.09819121
000090 79 d3 17 3d 60 8d 72 3d 23 e2 45 3d 9b 76 72 bc
       0.03706691 0.059216857 0.048311364 -0.014798786
0000a0 9f 22 63 3d 40 8e 5f 3c ec c8 e8 b7 84 b0 92 3d
       0.05545294 0.013644755 -2.7750117e-05 0.07162574
0000b0 05 d0 7c af 05 73 07 3d e2 7d 85 3d 98 36 35 b7
       -2.299317e-10 0.033068676 0.06518151 -1.0801152e-05
0000c0 40 0c 35 3d 0c 99 8e 3c fc 44 29 bd 89 7e 6b 3d
       0.044201136 0.017406963 -0.041325554 0.05749372
0000d0 0c 73 f2 b7 fc 9a a8 3b ae 65 96 3d 31 3b 9d b0
       -2.8902221e-05 0.0051454287 0.073436126 -1.1440077e-09
0000e0 31 3c 8c 3d 2b 34 10 bc ed 19 b2 3c df ae 50 3d
       0.06847418 -0.0088015 0.021740878 0.05094802
0000f0 52 f0 7f bc 23 d7 70 bb ec c8 9c 3c fb 94 c8 3c
       -0.015621262 -0.0036749325 0.019138776 0.024485102

encoder_lin.2.weight f4 [10, 64]
000000 15 69 55 3b b4 27 01 be bd c8 4f 3d 48 d2 77 bb
       0.0032563854 -0.12612802 0.05072855 -0.0037814546
000010 22 65 a0 3c a0 70 17 be 97 be b2 ba 55 f9 25 3d
       0.019579474 -0.14789057 -0.0013637122 0.040520985
000020 bb 73 16 3e 3e 6e 0e be 1a 4a 2c 3d 02 2f be bc
       0.14692585 -0.13909242 0.042062856 -0.023215774
000030 b2 d2 2a 37 75 64 bf bb c2 b1 02 3e 6f 6f 28 be
       1.0181846e-05 -0.005840833 0.12763122 -0.16448759
000040 6d 3c 26 b7 c4 6c a1 3d 23 b8 91 bc 39 94 01 3e
       -9.90844e-06 0.078820735 -0.017787999 0.12654199
000050 02 cd df 3a 4d 37 5e 3d 58 16 c5 3d a5 4a 68 3d
       0.0017074647 0.054251958 0.09623402 0.05671181
000060 1c 6b 89 bd 37 bd ad 3d 9f f7 51 bb c6 7f dd bc
       -0.067098826 0.084833555 -0.0032038463 -0.027038466
000070 32 4a 2b bc 2d 2d 51 3d 28 fb a9 3d c3 a0 5c bb
       -0.010454701 0.051068474 0.082998574 -0.0033665157
000080 f0 c6 ba 3d 43 e8 ee bd 7e 6c bc b9 db 40 2d 3e
       0.091199756 -0.11665394 -0.00035938987 0.16919272
000090 e1 31 db bd 54 3f 81 bd 26 72 b0 bd 32 0a 1c bd
       -0.10702873 -0.06310907 -0.08615522 -0.03809566
0000a0 8f 85 13 3e fa a3 6d bd 56 a1 80 3a cf 5e aa bd
       0.14406417 -0.05801771 0.0009813707 -0.083188646
0000b0 24 fd cb 33 a2 a3 de 3d 82 df c2 3d 58 c0 6b 3a
       9.49897e-08 0.10871054 0.09515287 0.00089932
0000c0 cd a9 32 bd 9c bf bd 3c 81 12 88 3d f6 72 7f bb
       -0.043618966 0.023162656 0.06644154 -0.0038978434
0000d0 b2 9f 1b 3a 62 d0 92 bd 19 ff 33 3e e6 73 ff b8
       0.0005936577 -0.07168652 0.17577781 -0.00012180935
0000e0 2f 19 0a 3e 59 02 3b 3d ff cc 44 bd 37 a5 35 3e
       0.1348617 0.045656536 -0.048047062 0.17738806
0000f0 d4 c4 57 bd fd e5 90 bd 4d a4 8d bd 56 a6 d0 3c
       -0.052677944 -0.07075117 -0.069161035 0.02546994
000100 3a 2e 82 bb 72 b7 e4 3d c5 d7 a4 3b 71 a9 64 3a
       -0.003972796 0.11167802 0.0050306045 0.00087227585
000110 c2 f8 a4 3d 07 e9 5d 3d 6c 4f aa 37 72 78 9b 35
       0.08055259 0.05417731 2.0302563e-05 1.1583454e-06
000120 a7 b0 8f 3d ce 73 96 bd ec ec b2 bd 48 07 0d 3d
       0.07016116 -0.07346307 -0.087365955 0.034430772
000130 e6 8e d6 2d ee 68 72 3d 7c 98 10 3e b0 2a db 3c
       2.4392443e-11 0.0591821 0.14120668 0.026753753
000140 e1 7a e5 35 aa b1 08 be 32 04 4d 3c d3 cc 16 3e
       1.7097592e-06 -0.13349023 0.012513207 0.14726572
000150 63 1f f1 2c af 8d 43 bd fd af 44 3a a6 bf 37 bd
       6.8531166e-12 -0.047742542 0.0007503031 -0.044860505
000160 96 6f ae 3c ba af 4e bd 8c 0a 95 3c b6 ab 99 3c
       0.021293443 -0.050460555 0.018193506 0.018758636
000170 26 0b b0 bd e3 15 80 3d a9 e1 81 3c 31 2c c2 bd
       -0.085958764 0.062541746 0.015854673 -0.09481085
000180 1f ea e1 3d f1 04 4c bc cd a9 6f b9 8b 18 8f bd
       0.11030983 -0.01245235 -0.00022856072 -0.06987103
000190 33 6b 9f bd 56 c3 c8 3c 9e 67 5a 3d d1 fd ab 3d
       -0.077841185 0.024507206 0.053321473 0.08398021
0001a0 70 52 65 3d 2f fe 27 be 11 ff 09 b8 06 b5 c8 bd
       0.05598682 -0.16405557 -3.2900894e-05 -0.098001525
0001b0 50 87 54 3b af e5 93 bd f2 a5 5f bb 42 e9 8a 3a
       0.0032429285 -0.07221543 -0.003412601 0.0010598081
0001c0 6a 6a bb bd c9 a5 6c bc 53 23 89 3d e8 17 27 be
       -0.09151156 -0.014443823 0.06696191 -0.16317713
0001d0 87 35 48 36 0d c4 07 bd b9 9f 97 bc cd d7 19 b4
       2.983348e-06 -0.033145953 -0.018508779 -1.4327743e-07
0001e0 4f 59 21 3d 88 2e 01 bc fc 60 ba 3c 6d 33 d4 3d
       0.039391812 -0.007884629 0.022751324 0.10361371
0001f0 9e 4c 10 be 05 88 8c bd 9e b5 19 be 0f 39 9d bb
       -0.14091727 -0.06861881 -0.15010688 -0.0047980617
000200 62 64 c8 3c 5f db 58 3c 1d c1 82 3d d5 c6 3a bb
       0.024461929 0.013235896 0.0638449 -0.002849986
000210 00 68 a2 bd 74 31 98 bd d0 ee 41 ba be c8 8b bd
       -0.07929993 -0.074313074 -0.00073979516 -0.06825398
000220 d7 11 69 bc 5f 35 08 be 20 b3 d5 3c 48 eb 09 be
       -0.014225445 -0.1330161 0.02608639 -0.13468659
000230 a6 a5 8d a8 18 27 85 3d 8b 4b 58 bd fc 0b 0d be
       -1.5725983e-14 0.06501597 -0.05280642 -0.13774103
000240 a4 c3 13 32 fe 75 94 3c 42 b9 22 be e7 01 fe 3c
       8.60101e-09 0.01812267 -0.15890983 0.031006766
000250 0c 4e 85 38 ef 4b fd bd 31 42 72 bd 85 0a 65 bc
       6.3564716e-05 -0.12367999 -0.059145156 -0.013979559
000260 9d 48 3f 3c b5 44 96 3d e9 58 a0 bd 01 82 2c 3a
       0.011675027 0.073373236 -0.07829458 0.00065806514
000270 af e0 ea bd 64 6a ce bd eb 33 e0 bd 87 d2 bf 3d
       -0.11468636 -0.10078886 -0.109474026 0.09366327
000280 70 0b ec 3b bd 30 93 bd c4 a0 6c 3c f6 bd 7e 3d
       0.007203512 -0.071870305 0.014442626 0.06219288
000290 e1 8d 5a bc 80 fb d4 bd 1f 46 fa bc c1 80 64 bd
       -0.013339491 -0.10399532 -0.030551014 -0.05578685
0002a0 53 ae ea bb a1 3e 38 be 62 49 b1 ba c4 c0 1c be
       -0.0071618943 -0.17992641 -0.0013525898 -0.15307909
0002b0 c0 19 f0 36 b6 39 c7 3c 90 61 8d 3d a5 41 0b 3a
       7.155555e-06 0.02431951 0.06903374 0.0005312211
0002c0 7a 36 ac bd c6 0e e1 3c 76 fd cf bd 45 36 b3 bd
       -0.08408828 0.027472865 -0.10155766 -0.087505855
0002d0 97 92 19 3b 42 89 c2 bd b4 71 97 3d 00 8f 4d 2f
       0.0023433322 -0.09498836 0.07394734 1.8695445e-10
0002e0 8f af 65 3d de 9d 89 bd a9 54 46 bd bf 80 fb bc
       0.05607563 -0.06719564 -0.048420582 -0.03070104
0002f0 9e 25 14 3c 0c 98 0f bd ae c9 25 bd 3d 7c e4 3d
       0.009042172 -0.035057113 -0.04047554 0.11156509
000300 fd 60 42 bd bf 6b 13 bd 42 49 6f 3c 55 84 2e bb
       -0.047455776 -0.035991427 0.014604868 -0.002662917
000310 01 c2 f7 3c 67 d3 9c bd ac 16 8a 38 3e 64 84 bd
       0.030243875 -0.07657509 6.584576e-05 -0.06464432
000320 12 25 2c 3e 5a 51 66 3d 9d 7e a7 bd e0 8e 63 bd
       0.16811016 0.056229927 -0.081784464 -0.055556178
000330 b2 6f e6 aa 31 16 92 bb 1d 9b 0d 3e 6f 81 c9 3d
       -4.0933711e-13 -0.004458212 0.13828702 0.098391406
000340 23 dd b0 3a 0b fb bc bd bc 89 89 3c 12 81 e6 3d
       0.0013493638 -0.0922757 0.01678931 0.11255087
000350 22 cc a4 2f 48 88 e2 3c b1 2a d1 3d 16 01 ce bc
       2.997647e-10 0.027652875 0.10213221 -0.025147002
000360 8a c2 cf 3c 1b ac 8e bc 2f fb 1c bd fb 74 3b 3d
       0.025361318 -0.01741605 -0.038325485 0.04576586
000370 28 1d 46 be d3 3a fe 3d 2d ec d2 3d 2b c0 d0 bd
       -0.1934706 0.124135636 0.10298953 -0.10192903
000380 29 07 f3 3d 25 4b 53 be fd 0c 9c bb e2 87 0d be
       0.118666 -0.20634134 -0.0047622905 -0.13821366
000390 7e 2d c2 bb 05 50 03 be f8 a4 9a bd e2 cd 8d 3c
       -0.0059258332 -0.12823494 -0.075509965 0.017310087
0003a0 3c 6a ed 3d 64 ef d8 bd f7 a7 d1 ba f2 18 4c bd
       0.11592528 -0.10592535 -0.0015995492 -0.049828477
0003b0 bb 94 2b 36 f7 d9 0e bd aa 15 c8 3d 0a ec 9a b8
       2.5567558e-06 -0.034875836 0.09769757 -7.387258e-05
0003c0 66 af 6c bd f6 14 c3 3d 75 01 fc 3d 7a 23 c0 bd
       -0.05778446 0.09525482 0.123049654 -0.093817666
0003d0 73 31 9e bb 28 db 24 3d 30 f9 f2 bc 6d 95 f8 af
       -0.004827672 0.040248066 -0.029659837 -4.521711e-10
0003e0 72 58 41 3d de ee dd bd 99 a1 d9 bc 45 7e 86 3d
       0.04720349 -0.10836576 -0.026566314 0.06567053
0003f0 11 77 0d be 20 51 a4 bd d4 a2 c6 bd e2 34 c7 bd
       -0.13814951 -0.08023286 -0.09699026 -0.097268835

encoder_lin.2.bias f4 [10]
000000 2c 82 85 3c f5 a0 bf bd 3e 91 04 bd 33 2b 88 3c
       0.016297422 -0.09356872 -0.032365076 0.016622161
000010 89 bc 74 3d 95 f3 8d bd ac b0 57 bd 45 6b e1 3d
       0.059750114 -0.06931225 -0.05265872 0.11006788
000020 38 f0 8f bd 57 21 04 be
       -0.0702824 -0.12903343

decoder_lin.0.weight f4 [64, 10]
000000 b6 30 02 be 82 e2 3c 3d c3 3d 71 3e 69 cf 51 be
       -0.12713894 0.046114452 0.23558716 -0.20489277
000010 5a 29 7a 3e 91 29 3b be 3b 90 c1 3d f2 6c 4a bb
       0.24429837 -0.18277575 0.09451338 -0.003088769
000020 1d 96 89 be ff cf d0 bd 98 11 a6 be 15 41 a7 be
       -0.2687234 -0.10195922 -0.32435298 -0.3266684
000030 0f 6b 2e be bb 64 16 be 4b d7 92 bd cc f0 e2 3d
       -0.17033027 -0.14686863 -0.0716997 0.110810846
000040 bb 7c 6d 3c b2 aa 98 3e 00 6d 1e 3e 99 02 c2 bd
       0.01449507 0.2981773 0.15471268 -0.09473152
000050 55 7b 1d bc e1 6c 93 bc 4d 3b 28 bd 8d 2f 2f 3e
       -0.009611924 -0.017996253 -0.04107218 0.17107983
000060 3b c9 ec bc b2 09 85 3e 06 37 5a 3d f7 45 c0 3d
       -0.028904548 0.2598396 0.05327513 0.09388345
000070 88 ea 87 be ea 1c a4 be 20 96 74 3d 63 57 d8 3d
       -0.2654612 -0.3205331 0.059713483 0.10563543
000080 6d 6e 80 3c 51 01 e0 3d 9d 4b ae be 7a 18 53 bd
       0.015677655 0.10937751 -0.34042063 -0.051537015
000090 4d b4 71 bd 07 19 f3 bd 57 53 3b bd f4 39 e2 bc
       -0.05900984 -0.11870008 -0.045733776 -0.027615525
0000a0 c8 2e 3d 3e d6 71 56 3e 09 0e 63 be 83 a7 d6 3d
       0.18474877 0.20941862 -0.22173323 0.10481169
0000b0 2f 7a 86 be 39 b3 e1 3c 1f 65 82 3e 20 46 0c 3d
       -0.26265094 0.02755128 0.25467774 0.034246564
0000c0 89 e2 04 3e b9 f0 9c be e9 ef 56 3d ae 9f 13 be
       0.12977041 -0.30652407 0.05247489 -0.14416382
0000d0 98 6b 1b 3d 3b f6 a0 3d c1 1d 86 3e 40 d3 67 bc
       0.037944406 0.07859465 0.26194575 -0.014149487
0000e0 35 56 1b 3e 45 0a 67 3e 1c 56 c4 bd 0c 6d 84 be
       0.15169604 0.22562511 -0.095867366 -0.25864446
0000f0 30 f8 9e bc 7b e7 5b 3d 5e ac 9a be 7d b3 66 be
       -0.019405454 0.053687554 -0.3020963 -0.22529407
000100 25 fe 60 3e d1 66 38 be e6 03 ba 3e 53 e6 22 be
       0.21971948 -0.18007971 0.363311 -0.15908174
000110 3e 0d 59 3e f1 26 94 be 43 e4 79 3d 1d ea 2e bd
       0.21196458 -0.2893596 0.061008703 -0.042703737
000120 f8 d2 d9 3d ad ac c0 3d 35 8e a0 3e 5a 7e 9b bd
       0.10635942 0.09407935 0.31358495 -0.07592459
000130 4c b8 b0 3e 4c c8 a3 bd 90 61 92 be 16 f2 01 3e
       0.34515607 -0.07997188 -0.2859006 0.12690005
000140 38 05 b1 3d 24 db fd 3d f4 00 b1 3d 89 f5 83 3e
       0.086435735 0.123953134 0.0864276 0.25773266
000150 ca 83 22 3e dc dc fb 3d 87 10 aa 3d 4e 3e 93 3c
       0.15870586 0.12297985 0.083039336 0.017974045
000160 5b be 64 3d 9d d3 45 3e f1 d0 1f 3d b7 b8 5d be
       0.0558456 0.19319005 0.03901762 -0.21652494
000170 75 a7 31 bd 88 04 2f 3d 4e e8 86 be c7 3a 81 bd
       -0.04337259 0.04272893 -0.2634911 -0.06310039
000180 5a 07 d8 bd d7 ed 76 bb b3 0c 48 be c5 b6 69 3c
       -0.10548277 -0.0037678385 -0.19536094 0.014264767
000190 80 4b 20 3e 8a d0 21 be 69 f3 48 be 71 3d 66 be
       0.15653801 -0.15802208 -0.19624104 -0.22484376
0001a0 1f 45 5b be 42 95 bf 3c a1 71 66 3c 48 50 d2 bd
       -0.21413086 0.023386601 0.014065177 -0.10269219
0001b0 9c 1e 6f bd 0e 2c 2b be ab ad c1 be a5 64 b5 be
       -0.0583788 -0.16716024 -0.3782781 -0.35428348
0001c0 3b bf cd bd 7d 31 b1 be 7a b0 7a 3e 21 09 3d be
       -0.1004624 -0.3460807 0.24481383 -0.18460514
0001d0 92 66 de bd 49 58 0d 3c bf 71 a8 be 4f 6c 12 3e
       -0.108594075 0.008627006 -0.3289928 0.14299129
0001e0 c6 b0 18 3e 30 ce 17 bb 76 55 82 be 78 91 e0 3d
       0.14911184 -0.0023163669 -0.25455827 0.10965246
0001f0 b6 78 55 be 97 d7 85 3e 22 7d 45 3b 3e f3 44 3c
       -0.20846829 0.26141044 0.00301344 0.012020884
000200 20 53 92 be ee 17 14 3c 12 50 e9 bd 4f b9 91 bd
       -0.28579044 0.009038908 -0.11392225 -0.07115423
000210 1d 32 fe bd aa bf b8 bd 0b 81 eb 3c ab f9 99 3d
       -0.12411902 -0.09020932 0.028748056 0.075183235
000220 55 4d 79 3e 40 dd a2 3c 8e 3f 07 3e 5b 1a ae be
       0.24345906 0.01988089 0.13207838 -0.34004483
000230 8a d5 57 3d 8a 37 80 bd 1f c1 4b bd 71 d1 30 3d
       0.05269388 -0.06260593 -0.04974472 0.04316849
000240 2a 8b 85 3d ff b0 e3 bc 18 8c ad 3e 04 7d 86 be
       0.06520684 -0.02779436 0.33895946 -0.26267254
000250 85 c1 67 be a6 99 07 be 13 ac 8e 3e 38 e9 8c bd
       -0.22632416 -0.13242206 0.27865657 -0.068804204
000260 db 9b 54 3d e8 1e bb 3c 8e b1 32 3e 2f fb 24 3e
       0.051906448 0.022841886 0.17450544 0.16111444
000270 65 03 55 be dd bc ee 3b 28 7a 97 be fe 14 e5 bd
       -0.20802076 0.007285698 -0.29585385 -0.111856446
000280 10 42 54 bd 4f d9 00 3e 66 e7 9b 3d 96 c0 c0 3d
       -0.051820815 0.12582897 0.07612495 0.09411733
000290 fb 6e b7 bd 92 be 9a bd 08 67 73 3c 66 38 81 be
       -0.08956715 -0.0755588 0.0148561075 -0.2523834
0002a0 68 06 b0 3e 22 92 cf bd d9 f5 ac bd d0 2a 9b be
       0.34379888 -0.101352945 -0.08445329 -0.303061
0002b0 02 71 97 be f4 bc 7b be 0d 54 56 be fb 94 80 be
       -0.29578406 -0.24583799 -0.209305 -0.25113663
0002c0 65 83 58 3e c4 73 a4 3e a5 5f 80 be 81 92 5e 3e
       0.21143873 0.32119572 -0.2507297 0.21735574
0002d0 05 b6 39 3d 73 00 73 3e a8 84 8a be 27 da 26 3d
       0.045339603 0.2373064 -0.27054334 0.04073539
0002e0 cc 35 16 3e 80 87 79 be 13 87 83 3e 2f 6a 16 bd
       0.1466896 -0.24368095 0.2568899 -0.03672236
0002f0 0d e9 24 3e 3e b1 14 be 27 6f 70 be c4 ff 42 3e
       0.16104527 -0.14520738 -0.23479901 0.1904288
000300 6d 8a 48 3d 76 2f 66 3e 78 ee 73 3d a7 ca 2e 3e
       0.048960138 0.22479042 0.059553593 0.17069493
000310 5e 03 0a be a5 e5 a6 3e 99 ad 19 3e 09 3b 9e be
       -0.13477847 0.3259708 0.15007629 -0.30904415
000320 0d ba 3c be 30 b7 47 be 90 5d 34 be cc 44 0f bd
       -0.18430348 -0.19503474 -0.17613816 -0.03497772
000330 b5 4d 9a 3e 20 4a 32 bd 57 9d 82 bd 64 10 9a 3d
       0.3013741 -0.043527722 -0.063776664 0.075226575
000340 7f 08 46 3d 30 e3 cd bd e2 09 3b be e5 63 b5 bd
       0.048347946 -0.10053098 -0.18265489 -0.08856944
000350 3c d3 a2 3c f0 6f 61 be b4 5c a4 3e 3c cb 1c bd
       0.019876115 -0.22015357 0.32101977 -0.038279757
000360 6e 88 82 3e 37 26 40 bd 73 ca 1d bd 28 cc 79 bc
       0.25494713 -0.046911445 -0.03852315 -0.015246429
000370 16 5f 8f be 40 a9 aa 3d 76 c0 b5 bd 63 73 c8 3d
       -0.28002232 0.08333063 -0.088746 0.09787633
000380 2c 04 8e 3c 3f a4 65 3e 1f c8 95 bd d5 84 d7 3c
       0.017335974 0.22425936 -0.07313561 0.026308456
000390 b9 5d 4d 3e da a5 83 bc b4 1c 17 3a 71 4d 71 be
       0.20055284 -0.016070295 0.000576447 -0.23564698
0003a0 9f 86 19 be 28 5e 67 be 7f 12 50 3e 0b 39 38 be
       -0.1499276 -0.22594512 0.20319556 -0.1799051
0003b0 f8 73 54 3e 92 f3 53 be bd 5e a0 be 49 27 3a be
       0.20747364 -0.20698383 -0.3132228 -0.18179049
0003c0 84 fc 47 3e 09 09 62 3d 8f 66 59 be 6f c6 17 3d
       0.19529921 0.055184398 -0.21230529 0.037054475
0003d0 36 98 86 be 07 74 59 be 16 64 7b bd ea 6f fa 3d
       -0.26288003 -0.21235667 -0.061374746 0.12228377
0003e0 49 c5 9e 3c 56 a0 00 be 02 01 60 3d 13 f6 2a 3d
       0.019381182 -0.12561163 0.05468846 0.04173858
0003f0 e2 9d b2 3d 44 02 00 3e 4b 88 0d 3d a1 37 3a 3d
       0.0872152 0.12500864 0.034553807 0.045463208

decoder_lin.0.bias f4 [64]
000000 a3 60 a1 3e 82 80 e5 3d 69 a8 54 3e 5a 93 38 be
       0.3151904 0.112061515 0.20767368 -0.1802496
000010 0f f7 f6 3d d6 3d ad 3e 3e e8 18 bd 2f 15 2a 3e
       0.120588414 0.3383624 -0.03733086 0.16609643
000020 d9 1c 14 3e 08 9f 8a 3d 28 13 4b 3e 62 09 09 3e
       0.1446413 0.06768614 0.19831526 0.13382486
000030 91 f8 77 be ec 1b b9 bc e2 25 9b bd 63 9e 42 3e
       -0.24215914 -0.022596322 -0.07575585 0.19005732
000040 58 b4 34 3d 74 a7 de bd 24 07 25 3e 5b 02 3d 3d
       0.0441173 -0.10871783 0.16116005 0.046144824
000050 87 6f 6c bd b1 b8 01 be 3c d1 84 bd 20 08 56 3e
       -0.05772355 -0.1266811 -0.06485221 0.20901537
000060 30 88 0b 3d 0f 53 35 bd 61 14 f2 bd a0 af 01 3d
       0.034065425 -0.044268664 -0.11820293 0.03166163
000070 33 58 0d bc bd 01 a3 3e 7e 53 c1 bd c1 a8 c5 bc
       -0.008626985 0.31837264 -0.09439753 -0.02412832
000080 29 6e 02 bd 47 3f 77 bd 4c ae 94 3e 72 b3 1b bd
       -0.03184334 -0.06036308 0.29039228 -0.03801293
000090 fa 76 7f bd d6 39 50 3d dd 9d 86 3e a6 5f 43 3d
       -0.062369324 0.050836407 0.26292315 0.04769864
0000a0 ea 1f 9b be 1b 3e 06 be fd 3c e2 3d 60 65 0f 3e
       -0.30297786 -0.13109629 0.11046789 0.14003515
0000b0 0e e2 88 3c c5 04 e7 3d ac 3d 14 be 81 c0 ea 3d
       0.016709354 0.112802066 -0.14476651 0.114624985
0000c0 7c 34 0b 3e e6 f3 53 be 2a f2 dc 3c b3 5f 7f 3e
       0.1359424 -0.20698509 0.026970942 0.2493885
0000d0 bf 5b 99 3d af 07 09 3e 6c 17 54 3e f5 6d ad 3e
       0.07488202 0.13381837 0.2071206 0.33872953
0000e0 64 40 bf 3c 00 4a 8b 3e ac 13 9d 3d c1 48 89 3e
       0.023346134 0.27204895 0.07669768 0.2681332
0000f0 d3 ae 29 bd 98 4d 83 bc de de f5 bd 90 4a 66 3e
       -0.04142649 -0.01602821 -0.12005399 0.22489381
