2. Convolutional Autoencoders/models/lats_autoencoder.pth (torch, 207529 bytes, 19 tensors)

encoder_conv.0.weight f4 [8, 1, 3, 3]
0	0x3c8c5b5f	0.017133413
1	0x3e08d2e5	0.133617
2	0xbe6b570b	-0.22982423
3	0xbe59becc	-0.2126419
4	0xbe07b33d	-0.13251968
5	0x3db63267	0.08896332
6	0xbb8d22b7	-0.004307117
7	0x3e42d735	0.19027407
8	0xbc601509	-0.01367689
9	0x3dba9b8c	0.091116995
10	0xbdc5cb65	-0.09657935
11	0xbcc3a2dc	-0.023881368
12	0xbe8872bc	-0.26650035
13	0xbe5d98cf	-0.21640323
14	0xbdc3eafd	-0.09566305
15	0x3c2f2fd9	0.01069256
16	0x3d891d1b	0.066950046
17	0x3e304e2b	0.17217319
18	0xbe3ae01e	-0.18249556
19	0xbde8358f	-0.113383405
20	0x3e079f70	0.13244414
21	0x3e8de034	0.27710116
22	0xbd1b78fd	-0.03795718
23	0x3e829142	0.25501448
24	0xbca7a414	-0.02046398
25	0x3cd43322	0.025903288
26	0x3e973f8c	0.2954067
27	0xbec9ecff	-0.39438626
28	0xbe8b34ab	-0.2718862
29	0xbe264247	-0.1623622
30	0xbe617efd	-0.22021098
31	0x3e2dc977	0.16971384
32	0xbe7feef3	-0.24993496
33	0xbe8e2fdd	-0.27770892
34	0xbe97924a	-0.29603797
35	0xbeb65326	-0.35610312
36	0xbe57e462	-0.21083215
37	0x3e3a2c97	0.18181072
38	0x3d657a46	0.056024812
39	0x3df28764	0.1184223
40	0xbd5adb44	-0.053431764
41	0xbe366467	-0.17811738
42	0x3cd526c5	0.026019463
43	0xbe9dc9ee	-0.30818123
44	0xbe366a19	-0.1781391
45	0xbdeb6885	-0.11494545
46	0x3e85bf7f	0.26122662
47	0x3e6919fb	0.22763817
48	0xbdb3e710	-0.08784306
49	0x3dab2cbf	0.08358144
50	0x3e7d202b	0.24719302
51	0x3eb0dfa4	0.34545624
52	0x3e40c1dd	0.18823953
53	0x3db97c8c	0.090569586
54	0x3e259a3c	0.16172117
55	0xbe94d7a2	-0.29070765
56	0xbe06d22c	-0.13166112
57	0xbe4b4430	-0.1985023
58	0xbe8b6071	-0.27222016
59	0xbe928a8a	-0.28621322
60	0x3d91de00	0.07122421
61	0xbda87134	-0.08224717
62	0xbe9fc41f	-0.31204316
63	0x3df45a85	0.11931328
64	0x3e6148c0	0.22000408
65	0x3c914425	0.01773269
66	0x3d3645f0	0.04450029
67	0x3df471c5	0.11935762
68	0x3e645059	0.22296275
69	0x3eac217b	0.33619294
70	0xbe2e2ef1	-0.17010094
71	0xbd69d2a0	-0.057085633

encoder_conv.0.bias f4 [8]
0	0x3e68aa99	0.22721328
1	0x3ec12a02	0.37727362
2	0x3eb8d992	0.36103493
3	0x3ec1379a	0.37737733
4	0x3e2a2a11	0.1661761
5	0xbe77839c	-0.24171299
6	0x3e097469	0.13423313
7	0xbe2ece04	-0.17070776

encoder_conv.2.weight f4 [16, 8, 3, 3]
0	0x3d157fe4	0.03649892
1	0x3e2a7c62	0.16649011
2	0x3e2b1810	0.16708398
3	0x3d42018b	0.047364753
4	0x3e0096cf	0.12557529
5	0x3e0eb211	0.13935114
6	0x3dc9b1bd	0.09848354
7	0x3da850ca	0.08218534
8	0x3df8ce90	0.12148774
9	0x3db487e9	0.08814985
10	0x3e326fed	0.17425509
11	0x3e2ef377	0.17085062
12	0x3e3fb77e	0.1872234
13	0x3e470f6c	0.19439477
14	0x3daa4968	0.083147824
15	0x3d9a90a7	0.075471215
16	0x3e43c7a9	0.19119133
17	0x3e163a59	0.14670695
18	0x3cd27d29	0.025694447
19	0x3d4066c4	0.046973005
20	0x3e3fa00e	0.187134
21	0x3de4c469	0.11170275
22	0x3d5aaedd	0.05338942
23	0x3dc74961	0.09730793
24	0xbc8385d7	-0.01605503
25	0x3da3cf9b	0.07998582
26	0x3d0eb4af	0.034840282
27	0x3d8b2538	0.06794208
28	0x3e311928	0.17294753
29	0x3df639df	0.12022757
30	0x3ddf189b	0.10893365
31	0x3e60bc9a	0.21946946
32	0x3daf9c8f	0.08574783
33	0x3e3b3302	0.18281177
34	0x3e66956d	0.22517939
35	0x3d44560f	0.047933634
36	0x3dd431c7	0.10361057
37	0x3e0c1d49	0.13683046
38	0x3db8b181	0.09018231
39	0x3dd8769a	0.105694965
40	0x3e1af5e0	0.15132856
41	0x3dbc8cb8	0.092065275
42	0x3db3fd0f	0.087885015
43	0x3e17d5c8	0.14827645
44	0x3c6e34a5	0.014538919
45	0xbd952c3f	-0.0728383
46	0xbdfcda81	-0.12346364
47	0x3b8000d5	0.003906349
48	0xbd1c590c	-0.03817086
49	0xbe139e23	-0.14415793
50	0x3c50a502	0.012734653
51	0xbd52c182	-0.051454075
52	0xbe129208	-0.14313519
53	0xbcc277c7	-0.023738755
54	0x3e257f82	0.16161922
55	0x3e27c983	0.16385464
56	0x3dca1108	0.0986653
57	0x3e109873	0.14120655
58	0x3e2faf3a	0.17156687
59	0x3e0f889c	0.14016956
60	0x3e451ba2	0.19248822
61	0x3e44c616	0.19216189
62	0x3e1e1d97	0.15440975
63	0x3cbef49a	0.023309994
64	0xbe108b79	-0.14115705
65	0xbd8486c2	-0.064710155
66	0x3d26826a	0.040651716
67	0xbdb6a9d5	-0.08919112
68	0xbda0aea8	-0.07845813
69	0xbc001565	-0.007817601
70	0xbe00add8	-0.12566316
71	0xbdc0b319	-0.0940916
72	0x3d2572ad	0.040392566
73	0x3da9451b	0.08265134
74	0x3dc73713	0.097273014
75	0xbceb489e	-0.02872115
76	0x3dde4010	0.10852063
77	0x3acf5ccc	0.0015820502
78	0x3d3b89aa	0.045785584
79	0x3cc5e5a4	0.024157353
80	0x3d5bca4d	0.053659726
81	0x3d6a41ea	0.057191767
82	0xbb44402e	-0.002994548
83	0xbbf0d3e0	-0.007349476
84	0x3da35b67	0.07976418
85	0x3dded624	0.10880688
86	0x3d7495b2	0.059713073
87	0x3dc2d25c	0.09512779
88	0x3bbfccac	0.005853256
89	0x3db45890	0.088059545
90	0x3def6729	0.11689598
91	0xbb1d5186	-0.002400489
92	0x3e036d14	0.12834579
93	0x3d75aa7b	0.059977036
94	0xbd817156	-0.06320445
95	0x3dc6d248	0.09708077
96	0x3d009678	0.0313935
97	0xbb021b6d	-0.0019852773
98	0x3df4a64b	0.1194578
99	0x3a91e7bc	0.0011131684
100	0x3dc47f2d	0.09594569
101	0x3d7c4a3d	0.061594237
102	0x3e10c013	0.1413577
103	0x3de98056	0.11401431
104	0x3de48d70	0.111597896
105	0x3dcff5e1	0.101543196
106	0x3daf3c84	0.08556464
107	0x3d82affc	0.063812226
108	0xbc84695b	-0.016163519
109	0x3de03482	0.10947515
110	0x3dd91b13	0.10600867
111	0x3deceef7	0.115690164
112	0x3ca1e8b9	0.019764291
113	0x3d63722a	0.055528797
114	0xbb1723f8	-0.002306221
115	0x3ca753bd	0.020425672
116	0xbb13a8f3	-0.0022531122
117	0x3c16b48c	0.009198319
118	0xbdea4ea1	-0.114407785
119	0xbc49a728	-0.01230792
120	0xbcbdf192	-0.023186479
121	0xbca7d9e0	-0.020489633
122	0xbddb4686	-0.10706811
123	0xbdbdc751	-0.09266532
124	0xbdf7120c	-0.12063989
125	0x3ced417d	0.028961891
126	0x3d9cca62	0.07655789
127	0x3e4420c3	0.19153123
128	0x3d8c42e8	0.06848699
129	0x3df5b686	0.11997704
130	0x3e175087	0.14776812
131	0x3d98616f	0.07440459
132	0x3defe9ae	0.11714493
133	0x3e095ada	0.13413563
134	0x3d94ff58	0.072752655
135	0x3cfdde3d	0.03098976
136	0xbdc9d874	-0.09855738
137	0xbd9c9463	-0.0764549
138	0x3d525ba5	0.05135693
139	0xbe0b5161	-0.13605262
140	0xbd75c84a	-0.060005464
141	0x3db4c992	0.08827509
142	0xbcf28536	-0.029604536
143	0xbd162830	-0.03665942
144	0xbcfc8703	-0.030826097
145	0x3da19b6e	0.07890974
146	0xbbbc07a1	-0.005738214
147	0x3d500603	0.050786983
148	0x3d3a173f	0.045432325
149	0x3d9debbf	0.077109806
150	0x3d655709	0.055991206
151	0x3dfe2dfd	0.12411115
152	0x3d6e5645	0.05818774
153	0x3e24da4c	0.16098899
154	0x3e1463ff	0.1449127
155	0x3cf35cbf	0.02970731
156	0x3e05d68d	0.13070126
157	0x3d4eb42e	0.0504648
158	0x3d9ff836	0.07811014
159	0x3dcd1eb9	0.100156255
160	0x3dfb82b6	0.122807905
161	0x3e1d0c80	0.153368
162	0x3ccb06b8	0.024783477
163	0x3d661a16	0.05617722
164	0x3dc61eb0	0.09673822
165	0xbd52548c	-0.05135016
166	0x3dd7a008	0.105285704
167	0xbcd3cf8d	-0.025855804
168	0x3d644e53	0.05573876
169	0x3d3070d3	0.043076348
170	0x3c25d53a	0.010121638
171	0x3dcfd6c0	0.10148382
172	0x3e3e8aff	0.1860771
173	0x3d889263	0.06668546
174	0x3d3bbfc9	0.045837197
175	0x3dc693db	0.0969617
176	0xbb912da8	-0.0044304915
177	0x3e002805	0.12515266
178	0x3da86709	0.082227774
179	0x3cdddb44	0.027082093
180	0x3ce40347	0.027833594
181	0x3dfb2fdc	0.12264988
182	0x3db46381	0.08808041
183	0x3e077782	0.13229182
184	0x3dd67a33	0.104725264
185	0x3d205375	0.03914209
186	0x3d6acd23	0.05732454
187	0x3db32868	0.08747941
188	0x3dffe0ff	0.124940865
189	0xbb8962ae	-0.0041926717
190	0xbda3a3d6	-0.079902336
191	0xbd08bb2f	-0.033381637
192	0xbde234bf	-0.11045217
193	0xbd2beb82	-0.041972645
194	0xbd6dbd1c	-0.058041677
195	0xbde2e72f	-0.11079251
196	0x3cb3f8e5	0.021969268
197	0xbda270a0	-0.07931638
198	0x3def8f48	0.116972506
199	0x3e146012	0.14489773
200	0x3da834ee	0.082132205
201	0x3d9c7232	0.076389685
202	0x3da26420	0.079292536
203	0x3e1f0256	0.15528235
204	0x3dff902b	0.1247867
205	0x3e4d45a1	0.20046093
206	0x3d9fabeb	0.077964626
207	0x3d4d4e9b	0.050123792
208	0xbc821e01	-0.015883448
209	0xbb987ede	-0.0046537956
210	0xbd33e6c9	-0.043921266
211	0xbc98df1a	-0.01866107
212	0xbcda2da6	-0.026633095
213	0x3ce7f118	0.028313205
214	0xbcdc4282	-0.026887182
215	0xbd9262ba	-0.07147737
216	0x3d322b03	0.04349805
217	0x3a6ba623	0.0008989295
218	0x3c5313de	0.012883155
219	0x3c70aaa2	0.0146891195
220	0x3cb6c563	0.022310918
221	0x3c2aa41c	0.010415103
222	0xbb8275cb	-0.003981327
223	0x3cec8a46	0.028874528
224	0x3c0f0054	0.008728106
225	0xbd716932	-0.058938213
226	0xbcfc80a4	-0.03082306
227	0xbbc49825	-0.0059995824
228	0xbc65446d	-0.013993365
229	0xbcd65b53	-0.026166594
230	0xbd776671	-0.06040043
231	0xbcadf434	-0.02123461
232	0xbd017b39	-0.031611655
233	0xbc9b114a	-0.018929143
234	0x3dadfc4e	0.08495389
235	0x3deda2db	0.11603328
236	0x3d6783ad	0.05652206
237	0x3d92e003	0.07171633
238	0x3dc40f07	0.09573179
239	0x3d96f5e4	0.07371119
240	0x3da74160	0.08166766
241	0x3da9a55a	0.082834914
242	0x3cf94ca9	0.030432062
243	0xbd62fa90	-0.055414736
244	0xbd610ef0	-0.054945886
245	0x3c9a2b82	0.018819574
246	0xbcddc4df	-0.027071415
247	0xbdaddb25	-0.08489064
248	0xbcaa4885	-0.020786533
249	0xbd7458f7	-0.059655156
250	0xbe05e941	-0.1307726
251	0xbd90d286	-0.07071404
252	0x3d03ffb6	0.032226287
253	0xbbed79f4	-0.007247204
254	0xbcbcd76a	-0.023051936
255	0xb93bd429	-0.00017912746

encoder_conv.2.bias f4 [16]
0	0x3ddaa8b1	0.106767066
1	0x3d299239	0.041399214
2	0x3dee1064	0.1162422
3	0x3cd2bc66	0.025724601
4	0x3dceb9b6	0.10094015
5	0x3db01f61	0.08599735
6	0x3e03703b	0.12835781
7	0x3b304b0f	0.0026900207
8	0xbca0d141	-0.01963103
9	0x3df323c4	0.11872056
10	0x3dbc9950	0.092089295
11	0xbca7f768	-0.020503715
12	0x3d051f00	0.032500267
13	0x3cc3c00a	0.023895282
14	0xb8e00686	-0.000106823674
15	0x3da0fda5	0.07860879

encoder_conv.4.weight f4 [32, 16, 3, 3]
0	0x3d91be1d	0.07116339
1	0x3e171c7d	0.14756961
2	0x3e01ecd6	0.12688002
3	0x3de53930	0.11192548
4	0x3e2dce38	0.16973197
5	0x3dc6bd48	0.09704071
6	0x3d952240	0.07281923
7	0x3e1ad24b	0.15119283
8	0x3e1547f5	0.1457823
9	0xbd2448e5	-0.04010858
10	0x3d9c96a7	0.07645922
11	0x3da51e69	0.08062441
12	0xbcf92799	-0.03041439
13	0x3d84f047	0.06491142
14	0x3dc8e405	0.09809116
15	0xbc913237	-0.01772414
16	0x3d9583db	0.0730054
17	0x3d92fc7d	0.071770646
18	0x3d48a97f	0.04898977
19	0x3ded7ad0	0.1159569
20	0x3dcc2818	0.09968585
21	0x3dd18562	0.10230519
22	0x3dbb36a5	0.09141282
23	0x3df0c065	0.11755446
24	0x3be527e4	0.0069932807
25	0x3d656182	0.056001194
26	0x3d924e12	0.07143797
27	0x3be60d20	0.0070206076
28	0xbce8d8dd	-0.028423721
29	0xbcfec477	-0.031099541
30	0xbcb933be	-0.02260768
31	0xbd965b48	-0.07341629
32	0xbdcc152d	-0.099649765
33	0xbcaa5565	-0.020792672
34	0xbdab2349	-0.083563395
35	0xbd8d9ff2	-0.06915273
36	0x3d9504bf	0.07276296
37	0x3d401cc0	0.046902418
38	0x3d3f49db	0.046701293
39	0x3dcf1e13	0.10113158
40	0x3d8a8acc	0.06764755
41	0x3ce73f36	0.028228384
42	0x3db6c459	0.08924169
43	0x3dd28f1f	0.102812044
44	0x3d66cce8	0.056347758
45	0x3d1d00c3	0.038330805
46	0x3cdeeddf	0.027213035
47	0x3ba127d5	0.0049180784
48	0x3d8bed52	0.06832375
49	0x3dab1726	0.083540246
50	0x3de55fe2	0.11199929
51	0x3c1fb178	0.009746902
52	0x3db39888	0.087693274
53	0x3d95ea07	0.07320028
54	0x3d38036d	0.044925142
55	0x3deb0a12	0.1147653
56	0x3db02ba0	0.08602071
57	0x3d716835	0.05893727
58	0x3d921860	0.071335554
59	0x3d2acda5	0.041700024
60	0xbc4b6fe3	-0.012416813
61	0x3db23e5d	0.08703301
62	0x3de6a238	0.112614095
63	0x3caf821a	0.021424342
64	0x3c8a5cf0	0.01689002
65	0x3cfc7e46	0.03082193
66	0xbcb93512	-0.022608314
67	0xbcdc3c74	-0.026884295
68	0xbd22f5ff	-0.03978538
69	0xbaa65a59	-0.0012691721
70	0x3b94956c	0.004534414
71	0x3b59a3bc	0.0033209166
72	0x3d0759c6	0.0330446
73	0x3d7659f4	0.06014438
74	0x3d5a110a	0.053238906
75	0x3a210a04	0.0006143155
76	0x3c9db59f	0.019251643
77	0x3dc00095	0.09375111
78	0x3d276292	0.04086549
79	0x3d7312db	0.059344154
80	0x3d84cfa0	0.06484914
81	0x3af2587d	0.0018489506
82	0x3d260a36	0.04053708
83	0xbc37bd89	-0.011214622
84	0x3d97ce02	0.0741234
85	0x3d8de023	0.06927516
86	0x3ce33293	0.027734077
87	0x3cab3f25	0.020904133
88	0x3d982e5a	0.07430716
89	0x3d0362a7	0.032076504
90	0x3d2cf028	0.04222122
91	0x3d4b529e	0.049639337
92	0x3bc07800	0.00587368
93	0x3d24f7d6	0.040275417
94	0x3d43316a	0.047654547
95	0x3db77016	0.089569256
96	0x3cb902f7	0.022584422
97	0x3cf0ded0	0.02940312
98	0x3db61715	0.08891121
99	0xbb6292c6	-0.0034572347
100	0x3daef5e1	0.085429914
101	0x3de40aab	0.11134847
102	0x3d047945	0.032342214
103	0x3e19f768	0.15035784
104	0x3dfda3d7	0.123847656
105	0x3dc51a58	0.09624165
106	0x3dd27f05	0.10278133
107	0x3e0140f4	0.12622434
108	0x3c94de0f	0.018172292
109	0x3d89e569	0.0673321
110	0x3d35c3ba	0.044376113
111	0x3d3d62ad	0.046236683
112	0x3de7d5d5	0.11320082
113	0x3dd1f6a8	0.10252124
114	0x3d035393	0.032062124
115	0x3de747a0	0.11292958
116	0x3da0a2dc	0.07843563
117	0x3d0d7922	0.03453935
118	0x3df12f82	0.117766395
119	0x3de97b8c	0.11400518
120	0x3d3b5f01	0.0457449
121	0x3e296367	0.16541825
122	0x3dff20ce	0.12457429
123	0x3d8f5009	0.06997687
124	0x3dbf46b0	0.093396544
125	0x3dfcdb1b	0.123464786
126	0x2706d7bd	1.8713188e-15
127	0xa87da018	-1.4079036e-14
128	0xa7fc1441	-6.996601e-15
129	0xaa4f60a7	-1.8418826e-13
130	0xa8fede5c	-2.8296098e-14
131	0x2865165f	1.2716905e-14
132	0x38a5a2c3	7.89813e-05
133	0x314f95a1	3.0207519e-09
134	0x2834f412	1.00449315e-14
135	0x3d518e21	0.051160935
136	0x3d1fb5f1	0.038991872
137	0x3d438d1f	0.047742005
138	0x3ce6a230	0.028153509
139	0x3c3d5aa3	0.011557254
140	0x3b88b11a	0.004171503
141	0x3d06dc3b	0.032924872
142	0xbc8520af	-0.016250936
143	0x3c5edd08	0.013602503
144	0x3d2447da	0.040107585
145	0x3e0f2186	0.13977632
146	0x3df98a20	0.121845484
147	0x3d462f82	0.04838515
148	0x3e15910a	0.1460611
149	0x3e05cb80	0.1306591
150	0x3d8ac9ec	0.06776795
151	0x3e0bf020	0.13665819
152	0x3e086c6b	0.13322608
153	0xbcca9139	-0.02472745
154	0xbc99c853	-0.01877228
155	0x3d4764cc	0.04868011
156	0x3ce59778	0.028026327
157	0x3d681b59	0.056666706
158	0x3db26ce8	0.087121785
159	0x3bd0ef11	0.006376155
160	0x3d8ddc37	0.06926768
161	0x3cdf31f5	0.027245501
162	0x3d16ed87	0.036847617
163	0x3d2b63bf	0.041843172
164	0x3da22d42	0.079187885
165	0x3dc8b3bc	0.097999066
166	0x3dedba5a	0.11607809
167	0x3da06ffb	0.078338586
168	0x3da43b6e	0.08019148
169	0x3c2b1243	0.010441366
170	0x3d375173	0.04475541
171	0x3c66918a	0.014072785
172	0xbd3024dc	-0.0430039
173	0xbd545672	-0.051840253
174	0xbcf4eea6	-0.029898953
175	0xbdaa1ad2	-0.08305897
176	0xbdfe2463	-0.12409284
177	0xbca79601	-0.02045727
178	0xbd80ecac	-0.062951416
179	0xbda70325	-0.08154897
180	0x3c681e78	0.014167421
181	0xbc13f770	-0.009031162
182	0xba4d844a	-0.0007839842
183	0x3d828f65	0.063750066
184	0x3dd999a9	0.106250115
185	0x3d4465e3	0.04794873
186	0x3cb99dcb	0.02265825
187	0x3d17569f	0.036947843
188	0x3d985ff4	0.074401766
189	0xbcf0a33e	-0.029374715
190	0xbbdb9d35	-0.00670209
191	0x3dba8717	0.091077976
192	0x3d05e662	0.032690413
193	0x3dae2c31	0.085045226
194	0x3d94dfdf	0.072692625
195	0xba29934e	-0.00064687885
196	0x3dab2a72	0.08357705
197	0x3da281b0	0.07934892
198	0x3b895864	0.004191445
199	0x3d6568b1	0.056008045
200	0x3d539e40	0.05166459
201	0xbc8f3fd3	-0.017486488
202	0x3dde7380	0.108618736
203	0x3dec5ba0	0.115409136
204	0x3d831d07	0.06402021
205	0x3d8b7422	0.0680926
206	0x3dae1fb6	0.08502142
207	0x3cf0e398	0.0294054
208	0x3ce19533	0.027536964
209	0x3d0b6046	0.03402736
210	0xbafd319f	-0.0019317156
211	0xbccb9ccb	-0.024855038
212	0xbd2b4378	-0.04181239
213	0x3b15d5c3	0.0022863008
214	0xbbca80e3	-0.0061799153
215	0xbd0df0b9	-0.0346534
216	0x3cb221f2	0.021744702
217	0xbc0f9d2a	-0.008765498
218	0x3d84f23d	0.06491516
219	0x3d5030ac	0.050827667
220	0x3ddfd875	0.10929958
221	0x3d52fd79	0.05151126
222	0x3d28eeb4	0.04124327
223	0x3d925f8f	0.071471326
224	0x3dfadda0	0.12249303
225	0x3da55b84	0.08074096
226	0x3c3d6bb0	0.011561319
227	0xbc894af6	-0.016759377
228	0xbccd7b49	-0.025083201
229	0x3cad9831	0.021190735
230	0x3dd1aeba	0.102384046
231	0x3d55c880	0.052193165
232	0x3de1d83b	0.11027571
233	0x3dba6e08	0.09103018
234	0x3d35a7b2	0.04434938
235	0xb85dabba	-5.285044e-05
236	0x3dca4c7a	0.09877868
237	0x3da51505	0.0806065
238	0x3d874346	0.06604628
239	0x3c1372d8	0.008999549
240	0x3daaae79	0.08334059
241	0x3d46bdcc	0.04852085
242	0x3da29f5e	0.07940553
243	0x3d431769	0.047629748
244	0x3da3fd00	0.0800724
245	0x3a8f3eb6	0.0010928723
246	0x3c8a408d	0.016876483
247	0x3dea8447	0.11451011
248	0x3da11709	0.07865722
249	0xbb7e44d5	-0.0038798351
250	0x3e126af9	0.1429862
251	0x3dbccddb	0.09218951
252	0x3d2fa960	0.042886138
253	0x3c1d6693	0.009606975
254	0x3cfc62c8	0.030808821
255	0x3cd9c001	0.026580812

encoder_conv.4.bias f4 [32]
0	0x3cd3bfb5	0.025848249
1	0x3d7fef41	0.06248403
2	0x3d8fb814	0.07017532
3	0x3db97ca4	0.090569764
4	0x3d8797d8	0.06620759
5	0x3d822029	0.0635379
6	0x3dcd1852	0.10014404
7	0x3debfb0e	0.11522494
8	0x3da6e0bb	0.08148333
9	0x3dda26cd	0.10651932
10	0x3d72a3a5	0.059238095
11	0x3dc5692c	0.096392006
12	0xbc08d3ba	-0.008351261
13	0x3d5ce611	0.053930346
14	0x3de02cfe	0.109460816
15	0x3d86af7c	0.0657644
16	0x3dd47ef3	0.10375776
17	0x3cfce37a	0.030870188
18	0x3d53569b	0.051596265
19	0x3d56a7b6	0.052406035
20	0x3d2cbdda	0.042173244
21	0xbadc5b16	-0.0016811814
22	0xba1b9846	-0.0005935471
23	0x3d9212c5	0.07132486
24	0x3d33437b	0.043765526
25	0x3d1950b6	0.037430488
26	0x3d56be63	0.05242766
27	0x3d692992	0.05692441
28	0x3cdf6b3b	0.027272811
29	0x3daeb214	0.085300595
30	0x3d91dec9	0.07122571
31	0x3d446376	0.047946416

encoder_lin.0.weight f4 [64, 288]
0	0xb902663c	-0.00012435851
1	0xb7db502d	-2.614417e-05
2	0xb8e5869c	-0.00010944644
3	0xb88fa35f	-6.8492016e-05
4	0xb874577f	-5.825562e-05
5	0x39ce3000	0.00039327145
6	0xb954c9dd	-0.00020293095
7	0xb7cf6932	-2.4725308e-05
8	0x395b62ec	0.00020922319
9	0xb8955838	-7.121306e-05
10	0xb90153ab	-0.00012333567
11	0xb8be9394	-9.0873946e-05
12	0xb856ea30	-5.123968e-05
13	0xb8241358	-3.9118662e-05
14	0xb8594b0e	-5.180673e-05
15	0xb9c0ab3e	-0.0003674868
16	0xb900826d	-0.00012255619
17	0x38b3d033	8.574165e-05
18	0xb7d5a3b3	-2.5467807e-05
19	0xb4820deb	-2.4224514e-07
20	0xb6b750aa	-5.4632155e-06
21	0xb862959d	-5.4021937e-05
22	0xb8c4ac7b	-9.378135e-05
23	0xb917b225	-0.00014466846
24	0xb8c10c00	-9.205192e-05
25	0xb8fe69ed	-0.00012131394
26	0xb7b16886	-2.1148717e-05
27	0xb9bd40fb	-0.00036097303
28	0xb8ca69ed	-9.651841e-05
29	0xb8d2a94f	-0.000100451165
30	0x39e9c345	0.0004458671
31	0x3a584016	0.00082492956
32	0x3a09eda6	0.00052615476
33	0xb913599f	-0.00014052399
34	0x391d976c	0.00015029096
35	0xb9256ed7	-0.00015776917
36	0xb8a96b43	-8.078527e-05
37	0x3744c559	1.1728459e-05
38	0xb865c735	-5.478338e-05
39	0xb8d60e4f	-0.000102069804
40	0x366f068c	3.5617586e-06
41	0xb981181a	-0.00024622754
42	0x38971cf5	7.205635e-05
43	0x381e5644	3.7750477e-05
44	0xb96b5188	-0.00022441719
45	0x373c6ed0	1.1231474e-05
46	0xb60bbc0f	-2.0822079e-06
47	0xb7ce2f4d	-2.457914e-05
48	0xb7ddaf00	-2.6426744e-05
49	0x38e912d9	0.000111138164
50	0xb8c5d0fc	-9.4326184e-05
51	0xb81cee07	-3.741498e-05
52	0x3843df5f	4.6699653e-05
53	0xb812812e	-3.492942e-05
54	0xb12cafad	-2.5129154e-09
55	0x2a81dc31	2.3067792e-13
56	0x289acdd0	1.7186692e-14
57	0x27d38d1c	5.8717256e-15
58	0xa81852a7	-8.455617e-15
59	0x2dbd2689	2.1503925e-11
60	0x2eeff928	1.0912721e-10
61	0xabbb6c25	-1.3317165e-12
62	0xad8a63d6	-1.573312e-11
63	0xb8c0b0f9	-9.188237e-05
64	0xb7a757f8	-1.9948915e-05
65	0xb9d9d75f	-0.0004154993
66	0xb97b6bda	-0.00023977403
67	0xb90e20b2	-0.00013554355
68	0x38958557	7.12971e-05
69	0xb93abcbf	-0.00017808656
70	0xb8aed0bf	-8.3358485e-05
71	0xba2959f1	-0.00064602407
72	0xb6e04010	-6.683178e-06
73	0xb59a3c61	-1.1491467e-06
74	0xb7666170	-1.3731755e-05
75	0xb73b3373	-1.11580475e-05
76	0xb7519e96	-1.2494294e-05
77	0xb924db8c	-0.00015722046
78	0xb7c9ecbc	-2.4071305e-05
79	0xb67a6b27	-3.7315274e-06
80	0x392ea90b	0.00016656907
81	0x39329f44	0.00017034734
82	0x387ebcc7	6.073413e-05
83	0xb9779e5f	-0.00023614753
84	0x39839710	0.00025098817
85	0xb812903c	-3.494344e-05
86	0xb9615219	-0.00021488256
87	0xb9a9ebab	-0.00032409778
88	0xb95f09ac	-0.0002127054
89	0xb96b64ad	-0.00022448851
90	0xa80955e1	-7.62365e-15
91	0xa9bb443d	-8.316306e-14
92	0x2df1210c	2.7413204e-11
93	0x2e2a3953	3.870444e-11
94	0xa9d23983	-9.33585e-14
95	0x290402f1	2.931244e-14
96	0xa89906ff	-1.6989446e-14
97	0xaa14a0bb	-1.3200805e-13
98	0x2bf9399f	1.7708507e-12
99	0x27bf7231	5.3136956e-15
100	0xb0936a56	-1.072588e-09
101	0xa86bde6e	-1.3093352e-14
102	0x2e38ced5	4.202046e-11
103	0x2b729ea8	8.619585e-13
104	0xac6949e2	-3.3152305e-12
105	0xab3d576e	-6.726762e-13
106	0x2d163cc4	8.5400055e-12
107	0x29d55211	9.4733364e-14
108	0xb5151a4a	-5.554508e-07
109	0xb704f811	-7.925571e-06
110	0xb5709125	-8.961818e-07
111	0xb590e4c3	-1.0795414e-06
112	0x381f3ba7	3.796411e-05
113	0xb779af05	-1.48823065e-05
114	0xb6bc0c1f	-5.6042477e-06
115	0xb548a5d5	-7.4747123e-07
116	0xb6961383	-4.47262e-06
117	0xb45f81b8	-2.0815685e-07
118	0x3800d25f	3.07135e-05
119	0x3532fe05	6.6679814e-07
120	0xb8a91dc1	-8.06409e-05
121	0xb61c964a	-2.3333291e-06
122	0xb7d0b913	-2.4881714e-05
123	0x387bfcdb	6.0078553e-05
124	0xb8257c79	-3.945499e-05
125	0x36486725	2.986236e-06
126	0xb9ace895	-0.00032979684
127	0xb9805bb7	-0.00024482395
128	0xb90fbe70	-0.00013708486
129	0xb9e1a485	-0.0004303792
130	0xb80b2146	-3.317117e-05
131	0x395febd5	0.00021354792
132	0xb8f1bb5d	-0.00011526675
133	0xb9868404	-0.0002565683
134	0xb91396f5	-0.00014075248
135	0xaf59a4c9	-1.9794578e-10
136	0x2d25be5f	9.421435e-12
137	0xa9103e36	-3.2028382e-14
138	0xb0b48b0f	-1.3136247e-09
139	0xaa6d86c0	-2.109658e-13
140	0xaa20f6de	-1.4296504e-13
141	0x2a0b563d	1.23756e-13
142	0xb1648155	-3.3251883e-09
143	0x2c65a4ae	3.2634273e-12
144	0x2c440e94	2.7861368e-12
145	0xad8c4243	-1.5945583e-11
146	0xaa4174b7	-1.7182337e-13
147	0xb15572d0	-3.1060843e-09
148	0x299c3933	6.937714e-14
149	0xaa3fae9f	-1.7024792e-13
150	0xac5eba46	-3.16515e-12
151	0x2c0ba142	1.9842604e-12
152	0x2b2bd84d	6.105158e-13
153	0xb891d0ce	-6.953032e-05
154	0xb6255b19	-2.4639942e-06
155	0xb89b18f1	-7.395622e-05
156	0xb7ee1896	-2.838326e-05
157	0x3773af32	1.45247195e-05
158	0xb8d2405d	-0.00010025569
159	0x38ac03bb	8.202294e-05
160	0x392799d0	0.0001598366
161	0xb8711756	-5.748061e-05
162	0x2e5bc373	4.996843e-11
163	0x2b6a4c77	8.3239616e-13
164	0x2f16bb43	1.3708949e-10
165	0x2cd87f81	6.153245e-12
166	0xb131a3e0	-2.5850042e-09
167	0xad3ba4db	-1.0666325e-11
168	0x2d1fc7f2	9.0825e-12
169	0x2c9078cf	4.1061386e-12
170	0x2b8b0e5e	9.880532e-13
171	0x2b6e27d9	8.4609885e-13
172	0x2b8c52f2	9.97062e-13
173	0x2e14e39e	3.385347e-11
174	0x2d0a38b2	7.856981e-12
175	0xa93c4651	-4.1805375e-14
176	0xadea3d91	-2.6630061e-11
177	0xaf7b6623	-2.2864603e-10
178	0xaa795a25	-2.2146918e-13
179	0xa796ff22	-4.190998e-15
180	0xb78f46fa	-1.707998e-05
181	0x37bf2b2a	2.2789074e-05
182	0x3897cbc7	7.2381976e-05
183	0x38edf5e4	0.00011346841
184	0xb743e5e2	-1.16764295e-05
185	0xba2f2783	-0.0006681608
186	0xb84e9356	-4.9251445e-05
187	0xb7882bb1	-1.6232809e-05
188	0xb88b595e	-6.6446824e-05
189	0xabd30d49	-1.4996139e-12
190	0x2c0d6ba6	2.0097062e-12
191	0x2f3754fe	1.6673948e-10
192	0xafc030e9	-3.495935e-10
193	0x3340d495	4.4896826e-08
194	0xabc5eb28	-1.4062961e-12
195	0xad8d3961	-1.6055325e-11
196	0xacca24dc	-5.7452775e-12
197	0x2d4b4179	1.1553752e-11
198	0xb7eabee8	-2.7983871e-05
199	0xb644ef05	-2.9345404e-06
200	0xb8cc5d4d	-9.744857e-05
201	0xb8ae668e	-8.316069e-05
202	0xb826fbae	-3.981188e-05
203	0xb9a55c8d	-0.00031540208
204	0xb904e8a3	-0.00012675165
205	0xb83ea948	-4.5457185e-05
206	0xba0d6cbf	-0.00053949276
207	0xb65200f3	-3.129299e-06
208	0x37135573	8.781778e-06
209	0xb64701ad	-2.9654286e-06
210	0xb81f0bbe	-3.791949e-05
211	0x3853cee5	5.0499006e-05
212	0xb85f3616	-5.3217715e-05
213	0x38827b76	6.2218794e-05
214	0xb68e53d2	-4.2416877e-06
215	0x3912e465	0.00014008729
216	0xb5c0a265	-1.4352378e-06
217	0x35f392a6	1.8147591e-06
218	0x3751b0e6	1.2498558e-05
219	0x38485039	4.775843e-05
220	0xb8c55249	-9.409019e-05
221	0xb8a7e15f	-8.005159e-05
222	0x35850db6	9.913263e-07
223	0xb67ddf4c	-3.7829914e-06
224	0x37cf55bf	2.4716252e-05
225	0x37e91f9a	2.779048e-05
226	0xb8559599	-5.092248e-05
227	0xb80e4146	-3.391623e-05
228	0xb95a7d71	-0.0002083683
229	0x38077bf0	3.2301934e-05
230	0xb9a46fa2	-0.0003136369
231	0xb804b37b	-3.1638407e-05
232	0xb7208197	-9.566916e-06
233	0xb9af7440	-0.00033465214
234	0x258bdd7f	2.4262748e-16
235	0x293d7e80	4.207615e-14
236	0xa8a5c092	-1.8402194e-14
237	0x2756fd12	2.9835656e-15
238	0x31388a23	2.6854046e-09
239	0x2925fec0	3.685832e-14
240	0x28a7e4c5	1.8639937e-14
241	0x2b144aa9	5.2683774e-13
242	0xabcb78d6	-1.4457556e-12
243	0xb3f38df1	-1.1341388e-07
244	0xb100ab62	-1.8723871e-09
245	0xb51331a5	-5.483401e-07
246	0xb59a8591	-1.1512767e-06
247	0xb7abfd4e	-2.0502743e-05
248	0xb689ff44	-4.112635e-06
249	0xb6d8d67f	-6.4622723e-06
250	0xb4110fb9	-1.3509897e-07
251	0x36ab403e	5.103676e-06
252	0xb8796c45	-5.946706e-05
253	0xb95daf1a	-0.00021141433
254	0x39a7e8d4	0.00032026193
255	0xba2fdeb1	-0.0006708904

encoder_lin.0.bias f4 [64]
0	0xba87914b	-0.0010342983
1	0xbc9e7d56	-0.019346874
2	0xb8a9cd42	-8.09678e-05
3	0xbb96e952	-0.0046054507
4	0xbcb7f4d2	-0.022455607
5	0x3d6b6776	0.057471715
6	0xb36d0491	-5.5185016e-08
7	0x3d41d43f	0.047321554
8	0x3c542152	0.012947397
9	0x3d78f0e0	0.06077659
10	0x3cdab819	0.026699113
11	0x3da8f35a	0.082495406
12	0x3d162bac	0.036662742
13	0x3cc5cdb5	0.02414594
14	0x3c1a7819	0.009428048
15	0x3d86d44a	0.0658346
16	0xb1e6d8ba	-6.71852e-09
17	0x3d92af21	0.071623094
18	0x3cfd2135	0.030899623
19	0x3d685e99	0.05673084
20	0xba3454c6	-0.00068790873
21	0x3dbbcd16	0.091699764
22	0x3c390f98	0.011295222
23	0x3c0606ef	0.008180364
24	0x3ccc9775	0.024974564
25	0x3cd1deac	0.025618874
26	0xbd36db70	-0.044642866
27	0x3d77ff80	0.0605464
28	0x3d9e0d01	0.07717324
29	0x3d392dd0	0.045209706
30	0x3adba7c3	0.0016758371
31	0xbc1511db	-0.009098495
32	0x3dae1ee7	0.08501988
33	0x3cca1986	0.024670374
34	0xb7886585	-1.6259737e-05
35	0x3dcad7c4	0.09904435
36	0x3d1308de	0.03589713
37	0x3d7017fb	0.05861662
38	0x3d4f4cfa	0.05061052
39	0xbc8b53ed	-0.017007792
40	0x3d3c4e8e	0.045973353
41	0x3c7e3d02	0.015517475
42	0x3365e1bb	5.3523518e-08
43	0x3d8d3370	0.068945765
44	0xaf801b97	-2.3302668e-10
45	0x3d1cfda4	0.038327828
46	0x3d817d30	0.06322706
47	0xb612c4af	-2.187018e-06
48	0x3d381e06	0.044950508
49	0x3c9317b1	0.017955633
50	0xb5828738	-9.725109e-07
51	0x3d668bda	0.056285717
52	0xba8731f1	-0.0010314566
53	0x3bd83192	0.006597706
54	0x3da7c6fb	0.081922494
55	0x34ae7630	3.2496018e-07
56	0x3bb809fc	0.0056164246
57	0xb978d90a	-0.00023731976
58	0x3ca45d49	0.020064013
59	0x3d746801	0.0596695
60	0xbc7e1b98	-0.015509509
61	0xbb89769c	-0.0041950475
62	0x3ca6458d	0.020296836
63	0x3befb254	0.0073149595

encoder_lin.2.weight f4 [10, 64]
0	0x3b2cf820	0.0026393011
1	0xbe015a4b	-0.126321
2	0xbba6c0b6	-0.005088891
3	0x3acb3e76	0.0015506286
4	0x3cde74c4	0.027155288
5	0xbe14e10a	-0.1453897
6	0xbab2aab9	-0.0013631202
7	0x3d3c34a0	0.045948625
8	0x3e1c4085	0.15258987
9	0xbe0b879a	-0.13625947
10	0xbd1e841d	-0.03870021
11	0xbc5e68ff	-0.013574838
12	0x3de68fdb	0.11257907
13	0x3a84ae6e	0.0010122785
14	0x3d7b953f	0.06142163
15	0xbe520ec1	-0.2051344
16	0xb714e77a	-8.875382e-06
17	0x3d8db464	0.069191724
18	0xbca43ece	-0.020049479
19	0x3e0401b5	0.12891276
20	0x3a8234f6	0.0009933996
21	0x3d3f1283	0.046648514
22	0x3d7ea2f5	0.062167127
23	0x3d65cd1b	0.056103807
24	0xbd67f205	-0.056627292
25	0x3db046e4	0.08607271
26	0xbc00a764	-0.007852409
27	0xbcede1ee	-0.029038396
28	0xbd003eda	-0.03130994
29	0x3d8c7c41	0.06859637
30	0x3d637fce	0.055541806
31	0xbcf74310	-0.030183345
32	0x3e4ee81c	0.2020573
33	0xbe0555e4	-0.13021046
34	0xaf2acf13	-1.5534977e-10
35	0x3e29e56b	0.16591422
36	0xbdeb3512	-0.11484732
37	0xbd777038	-0.060409755
38	0xbdacd73a	-0.08439489
39	0xbcd2c040	-0.025726438
40	0x3e11423f	0.14185427
41	0xbd8490f2	-0.064729586
42	0xb1af6b89	-5.1053957e-09
43	0xbdb015b2	-0.08597888
44	0x33cbf7c4	9.4979924e-08
45	0x3dd29f95	0.10284344
46	0x3d132cb0	0.03593129
47	0x3202d392	7.615101e-09
48	0xbd2b4282	-0.041811474
49	0x3cf45ace	0.029828455
50	0x2e4431ef	4.460959e-11
51	0xbcf777b1	-0.03020844
52	0x3c78a2bd	0.015175519
53	0xbd83b916	-0.06431787
54	0x3e31763c	0.17330259
55	0x3a971963	0.0011527952
56	0xb7945745	-1.7683613e-05
57	0x3bf7bcad	0.0075603337
58	0xbd3600e2	-0.044434436
59	0x3e400c2b	0.18754642
60	0xbd9570c1	-0.07296897
61	0xbd8b51fe	-0.06802748
62	0xbd815b80	-0.0631628
63	0x3b081ce1	0.0020769166
64	0xbb79e36d	-0.003812994
65	0x3de23744	0.11045697
66	0xb61f7ace	-2.3764328e-06
67	0x34698455	2.1747958e-07
68	0x3db7d8f5	0.08976928
69	0x3d6d949a	0.058003046
70	0x37aa6050	2.0310428e-05
71	0x3c86a6cc	0.016436957
72	0x3dad440c	0.084602445
73	0xbdafddb5	-0.08587209
74	0xbdeb3e31	-0.114864714
75	0x3d27ffc3	0.041015398
76	0xbd4bf668	-0.04979554
77	0x3da0928e	0.07840453
78	0x3dce3ce1	0.100702055
79	0xbc3fcb28	-0.011706151
80	0x364472c0	2.927307e-06
81	0xbdfe7a29	-0.12425644
82	0x3cce256c	0.025164329
83	0x3e215b2e	0.15757439
84	0xba7c02d0	-0.0009613456
85	0xbd1fdcaf	-0.03902882
86	0x3d05bc3a	0.03265021
87	0xbcebac86	-0.028768789
88	0x3caccfd5	0.021095196
89	0xbd0fd1ae	-0.035112076
90	0x3c847909	0.016170995
91	0x3d04ff8a	0.032470264
92	0xbdc30a55	-0.09523455
93	0x3d99ba85	0.07506279
94	0xb88eae95	-6.803606e-05
95	0xbda6d48b	-0.08146008
96	0x3e3f0427	0.18653928
97	0xbb0fda69	-0.002195025
98	0xaf78d041	-2.2629455e-10
99	0xbd7cb57b	-0.06169651
100	0xbd96212f	-0.07330548
101	0x3d025978	0.031823605
102	0x3d63adf3	0.055585813
103	0x3da884e2	0.082284704
104	0xbc68114a	-0.014164278
105	0xbe1e05d3	-0.1543191
106	0x3182376b	3.7897983e-09
107	0xbdc9f82f	-0.098617904
108	0x3b54875e	0.0032429318
109	0xbd3f5bba	-0.046718337
110	0xbd8597dd	-0.06523106
111	0x3a8b3ab9	0.0010622359
112	0xbda21bc6	-0.079154536
113	0x3a437439	0.0007455978
114	0xb8c6194f	-9.44609e-05
115	0xbe34dfd2	-0.17663506
116	0x3ab0ff6b	0.0013503855
117	0xbcc835fd	-0.024439806
118	0x3c8a1927	0.016857697
119	0xba983c08	-0.001161457
120	0xb8d23e5f	-0.00010025198
121	0x3bfb861a	0.0076758983
122	0x3ced2150	0.028946549
123	0x3e02b8be	0.12765786
124	0xbe114f09	-0.14190306
125	0xbd7f7748	-0.062369615
126	0xbe0b9ccf	-0.13634036
127	0xbcf74e54	-0.030188717
128	0x3cb88aec	0.02252718
129	0x3cd16092	0.025558744
130	0xbb0356e5	-0.0020040807
131	0x3b2e3d53	0.0026586845
132	0xbda7c288	-0.08191401
133	0xbd9b40f9	-0.07580752
134	0xba41cd14	-0.0007392925
135	0xbd49a25b	-0.0492271
136	0xbcaa030e	-0.02075341
137	0xbe1d499d	-0.15360112
138	0xbc49ad4c	-0.012309384
139	0xbdfffa26	-0.12498884
140	0x3d8c30a2	0.068452135
141	0x3da17663	0.078839086
142	0xbd7ec48e	-0.062199168
143	0xbe3a0689	-0.18166555
144	0x2cf56dc0	6.9755035e-12
145	0x3cf20471	0.029543133
146	0xbe1f23ce	-0.15541002
147	0x3cd63e00	0.02615261
148	0x3b37eb12	0.0028063697
149	0xbdfaa082	-0.12237646
150	0xbdc7865f	-0.09742426
151	0xbc529c24	-0.01285461
152	0x3cc4cdd1	0.024023922
153	0x3da84031	0.082153685
154	0xbd9f3c14	-0.07775131
155	0x3c08c054	0.008346636
156	0xbe0781f5	-0.13233168
157	0xbdb1a626	-0.086742684
158	0xbe1ffa08	-0.15622723
159	0x3dc90445	0.098152675
160	0xbc028696	-0.007966658
161	0xbd8b6bfe	-0.06807707
162	0x3b2d04da	0.0026400597
163	0x3d716697	0.058935728
164	0xbc2f17dd	-0.010686842
165	0xbdcb6780	-0.099318504
166	0xbcbfe29a	-0.023423482
167	0xbd360803	-0.044441234
168	0x3c610fff	0.013736724
169	0xbe3afd93	-0.18260793
170	0xba9af6f5	-0.0011822867
171	0xbe1e4181	-0.15454675
172	0x36f01591	7.155068e-06
173	0x3cd6cc0f	0.02622035
174	0x3e14f915	0.14548142
175	0x32daf3fd	2.5489493e-08
176	0xbd9185f6	-0.07105629
177	0x3d33b856	0.04387697
178	0xb9ecac95	-0.0004514201
179	0xbdd93cc8	-0.10607296
180	0x3ce535e0	0.027979791
181	0xbdacc002	-0.0843506
182	0x3d9136f9	0.07090563
183	0x3b0dec75	0.0021655832
184	0xba25fb03	-0.0006331654
185	0x3a357329	0.0006921762
186	0xbd22d54b	-0.039754193
187	0xbd2e4f7e	-0.04255628
188	0x3bee8a4f	0.0072796713
189	0xbd2413bd	-0.040057886
190	0xbce7b86f	-0.028286187
191	0x3d9abe98	0.07555884
192	0xbd30f4eb	-0.043202322
193	0xbd6b77d2	-0.057487316
194	0x380fdf58	3.4301862e-05
195	0xa9a512bc	-7.330722e-14
196	0x3cee6cb7	0.029104574
197	0xbd976a9f	-0.07393383
198	0x388a3a6d	6.5912354e-05
199	0xbd607297	-0.05479678
200	0x3e07c7f3	0.13259868
201	0x3d62781a	0.05529032
202	0xbdf0007c	-0.117188424
203	0xbd812130	-0.06305158
204	0xbd6437e5	-0.055717368
205	0xbcead5ab	-0.028666338
206	0x3d9b80cf	0.07592928
207	0x3d229635	0.03969403
208	0x3ab0c8d0	0.0013487581
209	0xbdc16d04	-0.09444621
210	0x3cc305db	0.023806503
211	0x3d8da2d7	0.06915825
212	0x3a9f51e1	0.0012155139
213	0x3ce8f320	0.028436244
214	0x3d547085	0.05186512
215	0xbd42ec47	-0.047588613
216	0xbabf962a	-0.0014616896
217	0xbd216688	-0.039404422
218	0xbd323e2c	-0.043516323
219	0x3d3d78b0	0.046257675
220	0xbe68d319	-0.22736777
221	0x3def811c	0.116945475
222	0x3d9ff9cc	0.07811317
223	0xbd896ed8	-0.06710595
224	0x3dc54d19	0.09633846
225	0xbe3d1a8b	-0.18467157
226	0xbaac5723	-0.0013148527
227	0xbe233b16	-0.15940508
228	0xb936c145	-0.00017428871
229	0xbdfdae49	-0.12386758
230	0xbda3bd8f	-0.0799514
231	0xbbce04cf	-0.0062871943
232	0x3b6ac11e	0.0035820673
233	0xbda44947	-0.08021789
234	0x2e879786	6.166005e-11
235	0xbd28857b	-0.041142922
236	0x362b9714	2.5568925e-06
237	0xbd2ec426	-0.04266753
238	0xbd93a0ba	-0.072083905
239	0x389f7217	7.602962e-05
240	0xbd3a0211	-0.045412127
241	0x3d9f3451	0.077736504
242	0x36069b97	2.0058121e-06
243	0xbdf468de	-0.11934064
244	0xbcd89e9b	-0.026442816
245	0x3d30a06b	0.043121736
246	0xbcb856eb	-0.022502383
247	0xb604fe69	-1.981762e-06
248	0x3905fa5b	0.00012777133
249	0xbcf73224	-0.030175276
250	0xbb8eee55	-0.0043619075
251	0x3d3f1b19	0.0466567
252	0xbe0c475d	-0.13699098
253	0xbdb2f746	-0.0873857
254	0xbda0b1f5	-0.078464426
255	0xbe028d86	-0.127493

encoder_lin.2.bias f4 [10]
0	0x3cb984ae	0.022646274
1	0xbdbbe43a	-0.0917439
2	0xbcf57897	-0.029964728
3	0x3c492514	0.0122769065
4	0x3d5eab83	0.054362785
5	0xbd8fde15	-0.07024781
6	0xbd718a60	-0.058969855
7	0x3de866c6	0.113477275
8	0xbd92ff9e	-0.07177661
9	0xbe05f47c	-0.13081545

decoder_lin.0.weight f4 [64, 10]
0	0xbdd8f13c	-0.10592887
1	0x3d406564	0.046971694
2	0x3e74df81	0.23913385
3	0xbe362304	-0.17786795
4	0x3e84d79d	0.2594575
5	0xbe30f2f2	-0.17280176
6	0x3db61029	0.08889801
7	0xbb2e8708	-0.0026630778
8	0xbe846b67	-0.2586319
9	0xbdc441db	-0.095828734
10	0xbeb408cc	-0.3516296
11	0xbeaeeead	-0.3416647
12	0xbe29509a	-0.16534653
13	0xbdf704bd	-0.12061451
14	0xbd4a6f4f	-0.04942256
15	0x3dc74a1f	0.09730934
16	0x3cc006d1	0.02344075
17	0x3e98ce7f	0.29845044
18	0x3e2621b7	0.16223799
19	0xbdbcfbe6	-0.09227733
20	0xbd09e288	-0.033663303
21	0xbd1cd00d	-0.03828435
22	0xbd30333f	-0.043017622
23	0x3e05bceb	0.13060348
24	0xbc403886	-0.011732226
25	0x3e81c83d	0.25348082
26	0x3d877d1b	0.06615659
27	0x3dc13f6d	0.09435926
28	0xbe8bb740	-0.27288246
29	0xbea4970b	-0.32146487
30	0x3dab1d4c	0.08355197
31	0x3e0b5d74	0.13609868
32	0xbcda5b1d	-0.026654774
33	0x3de195a9	0.110148735
34	0xbea84b7e	-0.32870096
35	0xbc7ba94d	-0.015360189
36	0x3cd055de	0.02543157
37	0xbdd7ef0d	-0.10543642
38	0xbd97b070	-0.074067
39	0xbd29089e	-0.041267984
40	0x3e3fce13	0.18730955
41	0x3e6c3425	0.23066767
42	0xbe717203	-0.23578648
43	0x3dd13a69	0.10216219
44	0xbe842267	-0.25807497
45	0x3d38312e	0.044968776
46	0x3e82879c	0.25494087
47	0x3d416308	0.047213584
48	0x3e05f3ac	0.13081235
49	0xbe9e1456	-0.3087489
50	0x3c87329a	0.01650362
51	0xbe44131a	-0.19147912
52	0x3ce84d4b	0.028357169
53	0x3d846cea	0.06466086
54	0x3e875884	0.2643472
55	0xbc9b938d	-0.018991256
56	0x3e1ede3f	0.15514468
57	0x3e71590d	0.23569126
58	0xbdc8fd22	-0.09813906
59	0xbe8815b5	-0.2657906
60	0xbc769972	-0.015051233
61	0x3ceca630	0.028887838
62	0xbe91a25e	-0.2844419
63	0xbe3ed4ff	-0.18635939
64	0x3e4e20b3	0.20129661
65	0xbe5f2e83	-0.21795087
66	0x3eb8728c	0.36024892
67	0xbe40c0c0	-0.18823528
68	0x3e5a7a4d	0.21335717
69	0xbe89c364	-0.26906884
70	0x3cac4902	0.021030907
71	0xbd86ca02	-0.06581499
72	0x3dcbc05a	0.099487975
73	0x3d5d85ff	0.054082867
74	0x3eaa32fa	0.33242017
75	0xbda6539e	-0.081214175
76	0x3eb0778b	0.34466204
77	0xbd73b269	-0.059496317
78	0xbe94399d	-0.28950205
79	0x3e0349dc	0.12821144
80	0x3bbb5859	0.005717319
81	0x3cb93675	0.022608975
82	0x3d42cc9c	0.047558412
83	0x3d792458	0.060825676
84	0x3e009888	0.12558186
85	0x3d4ddd08	0.05025962
86	0x3c76fcc3	0.0150749115
87	0x3d49e7c2	0.049293287
88	0x3ddcaee4	0.10775545
89	0x3e589aee	0.21152851
90	0x3c5f1d6c	0.013617855
91	0xbe84d958	-0.2594707
92	0xbc58dc0c	-0.013236057
93	0xbc8f8505	-0.017519483
94	0xbe84a4f4	-0.259071
95	0xbde7c57e	-0.113169655
96	0xbdf5a49f	-0.119942896
97	0xbc90b585	-0.01766468
98	0xbe3bb969	-0.18332447
99	0x3de9e154	0.11419931
100	0x3e197221	0.14984943
101	0xbe2acd90	-0.16679978
102	0xbe556d85	-0.2084256
103	0xbe7c442a	-0.24635378
104	0xbe5783c2	-0.21046355
105	0x3c311152	0.010807352
106	0x3cbb735c	0.022882156
107	0xbdef2fac	-0.116790146
108	0xbd279f21	-0.04092324
109	0xbe1b7cc9	-0.1518432
110	0xbec07092	-0.37585884
111	0xbeba52d9	-0.36391333
112	0xbdd1328a	-0.10214718
113	0xbea68cd1	-0.3252931
114	0x3e7b6fcc	0.24554366
115	0xbe34a77a	-0.17642012
116	0xbdf4a9b3	-0.1194643
117	0x3c053b26	0.008131778
118	0xbea94fde	-0.33068746
119	0x3e3a683e	0.18203828
120	0x3e260f00	0.1621666
121	0x3c858f47	0.016303672
122	0xbe8371f9	-0.25672892
123	0x3df10607	0.11768728
124	0xbe5459a2	-0.20737317
125	0x3e8678dc	0.26264083
126	0x3c051fbf	0.008125245
127	0x3c95532f	0.018228142
128	0xbe8e8189	-0.27833202
129	0x3baf7d97	0.0053555476
130	0xbe08a29e	-0.13343284
131	0xbd9791d4	-0.074008614
132	0xbe01b907	-0.12668239
133	0xbd8f6495	-0.070016064
134	0x3d90e937	0.07075732
135	0x3d9f354e	0.07773839
136	0x3e6f7977	0.23386179
137	0x3cd05e4a	0.025435586
138	0x3e14d0c8	0.14532769
139	0xbea825e4	-0.32841408
140	0x3d3019ef	0.042993482
141	0xbdab9dec	-0.083797306
142	0xbd3c88bb	-0.046028834
143	0x3ca52041	0.020156981
144	0x3db28191	0.08716119
145	0xbd309609	-0.043111835
146	0x3eb50cf4	0.35361445
147	0xbe89e86e	-0.26935142
148	0xbe6264e8	-0.22108805
149	0xbe01d07b	-0.12677185
150	0x3e93d488	0.28873086
151	0xbd03586d	-0.03206675
152	0x3d61dbdd	0.05514132
153	0x3d136864	0.035988227
154	0x3e50819a	0.20361939
155	0x3e41852f	0.18898462
156	0xbe44fd92	-0.19237354
157	0x3d00417f	0.031312462
158	0xbe9c040e	-0.30471843
159	0xbe229026	-0.15875301
160	0xbd480627	-0.048833992
161	0x3dca7a88	0.09886652
162	0x3de958f3	0.11393919
163	0x3d5e7f7c	0.054320797
164	0xbdcb3f4d	-0.09924183
165	0xbdf1b738	-0.11802524
166	0x3d1ea9ee	0.038736276
167	0xbe8eaf24	-0.27867997
168	0x3e8dea66	0.27717894
169	0xbdc2454f	-0.09485876
170	0xbd21cc22	-0.039501317
171	0xbe8c3e80	-0.27391434
172	0xbe9cb9d6	-0.30610532
173	0xbe888788	-0.26665902
174	0xbe619fd8	-0.22033632
175	0xbe7ae088	-0.24499714
176	0x3e65d87f	0.22445868
177	0x3e9ecd13	0.31015834
178	0xbe772537	-0.2413529
179	0x3e55684d	0.20840569
180	0x3d19dfe2	0.037567027
181	0x3e7754e7	0.24153481
182	0xbe91dd46	-0.2848913
183	0x3c31992b	0.010839741
184	0x3e04194b	0.12900274
185	0xbe73149f	-0.23738335
186	0x3e806b3f	0.25081822
187	0xbc70dd07	-0.0147011345
188	0x3e1b29a1	0.15152599
189	0xbe17f4cf	-0.14839481
190	0xbe630be7	-0.22172509
191	0x3e3ce7c1	0.18447782
192	0x3d5210a4	0.0512854
193	0x3e7968e3	0.24356417
194	0x3d8099c4	0.062793285
195	0x3e322a67	0.17398988
196	0xbdff1c76	-0.124566
197	0x3ea3b2c8	0.31972337
198	0x3e1210b0	0.14264178
199	0xbea4a172	-0.32154423
200	0xbe430d69	-0.19048084
201	0xbe5e155b	-0.21687834
202	0xbe3034b8	-0.1720761
203	0xbd4ae51e	-0.04953491
204	0x3ea85772	0.32879215
205	0xbd21dd45	-0.03951766
206	0xbd71134b	-0.05885629
207	0x3d9b3b66	0.07579689
208	0x3cc36116	0.023850005
209	0xbd8feb77	-0.07027333
210	0xbe240c5f	-0.16020344
211	0xbddcdfc2	-0.10784866
212	0x3c0905bd	0.0083631845
213	0xbe5b3e99	-0.21410598
214	0x3ead35b3	0.33830032
215	0xbcd5c1ad	-0.026093328
216	0x3e8a6719	0.27031782
217	0xbd5c605e	-0.05380284
218	0xbd369c71	-0.044582788
219	0xbc390084	-0.011291627
220	0xbe66b37c	-0.22529405
221	0x3dd314ec	0.10306725
222	0xbdc694b7	-0.09696334
223	0x3dcadfeb	0.0990599
224	0x3c8df23c	0.01732742
225	0x3e76c3db	0.2409815
226	0xbd6b569d	-0.057455648
227	0x3ce6fbd1	0.028196247
228	0x3e3f0717	0.18655048
229	0xbd17eb85	-0.037089843
230	0x3c9d5c7f	0.019209145
231	0xbe737f1a	-0.23778954
232	0xbe2a2083	-0.16613965
233	0xbe5a11aa	-0.21295801
234	0x3e4d1aca	0.2002975
235	0xbe1ea7ad	-0.1549365
236	0x3e4b26b9	0.1983899
237	0xbe45a687	-0.19301806
238	0xbe9ddd73	-0.30833015
239	0xbe4597e9	-0.1929623
240	0x3e4c94be	0.19978616
241	0x3dc3ce1c	0.095607966
242	0xbe74166b	-0.23836677
243	0x3cfbcfd6	0.030738752
244	0xbe645b03	-0.22300343
245	0xbe2be573	-0.16786747
246	0xbd4b58e9	-0.04964534
247	0x3e15c4d6	0.14625868
248	0xbc3b11c7	-0.011417813
249	0xbe06e6d0	-0.13173985
250	0x3d8ffe6a	0.070309475
251	0x3d4c0b32	0.049815364
252	0x3dbb95aa	0.091594055
253	0x3dbbd22d	0.09170947
254	0x3d950808	0.072769225
255	0x3d3be298	0.045870394

decoder_lin.0.bias f4 [64]
0	0x3ea157c3	0.3151227
1	0x3de40822	0.11134364
2	0x3e534199	0.20630492
3	0xbe16d84c	-0.14730948
4	0x3dfeb53f	0.12436914
5	0x3eac1d29	0.33615997
6	0xbd1ef428	-0.038807064
7	0x3e2853d6	0.16438231
8	0x3e17352c	0.14766377
9	0x3d9afc74	0.07567683
10	0x3e4f5690	0.20247865
11	0x3e0a0c94	0.1348136
12	0xbe74fbef	-0.2392423
13	0xbccc3341	-0.024926784
14	0xbd9a146a	-0.07523425
15	0x3e431fee	0.19055149
16	0x3d0b0184	0.033936992
17	0xbda76d74	-0.081751734
18	0x3e23a6e2	0.1598163
19	0x3d391fed	0.045196462
20	0xbd67a210	-0.05655104
21	0xbe00bfd1	-0.12573172
22	0xbd815071	-0.06314171
23	0x3e592833	0.21206741
24	0x3d3d347a	0.046192624
25	0xbc51b546	-0.012799567
26	0xbdd6de89	-0.10491664
27	0x3d11b902	0.035576828
28	0xbc0d5833	-0.008626985
29	0x3ea36c2d	0.3191847
30	0xbd8d705b	-0.06906196
31	0xbd18f24b	-0.037340444
32	0xbd0cca5c	-0.034372672
33	0xbd99b149	-0.075045176
34	0x3e944b2c	0.28963602
35	0xbc2f9b95	-0.010718246
36	0xbd072059	-0.032989834
37	0x3d2d17db	0.04225908
38	0x3e872625	0.2639629
39	0x3d730197	0.059327688
40	0xbe95fa67	-0.29292604
41	0xbe0d8766	-0.13821182
42	0x3de39dab	0.11114057
43	0x3dfee4ba	0.1244597
44	0x3caa66e1	0.02080101
45	0x3df4cef8	0.11953539
46	0xbe0869e3	-0.13321643
47	0x3de89605	0.11356739
48	0x3df6a535	0.120432295
49	0xbe46057e	-0.19338033
50	0x3d6d8320	0.05798638
51	0x3e8192aa	0.25307208
52	0x3d9a7e4c	0.075436205
53	0x3ddee1b9	0.10882897
54	0x3e58af79	0.21160688
55	0x3eabb183	0.33533868
56	0x3d0136dc	0.03154646
57	0x3e8abe1a	0.2709816
58	0x3d91c65a	0.07117911
59	0x3e872125	0.26392475
60	0xbd4b7e90	-0.049681246
61	0xbd5db76a	-0.054129995
62	0xbdebacd3	-0.11507573
63	0x3e668b6e	0.22514126

decoder_lin.2.weight f4 [288, 64]
0	0xbb96d13c	-0.0046025794
1	0x3d93c59f	0.072154276
2	0x3d620cc0	0.05518794
3	0x3ce07e3b	0.027403941
4	0x3b236b4e	0.0024935785
5	0x3caf59ba	0.02140509
6	0x3cfe4403	0.03103829
7	0x3cafef63	0.021476453
8	0x2b08eaac	4.864258e-13
9	0x3ce05b5e	0.027387317
10	0x3cc9498f	0.024571208
11	0xbc491679	-0.012273424
12	0x3d58e546	0.052953027
13	0x3cc81694	0.024424829
14	0x3ca3f72c	0.020015322
15	0xbd689010	-0.056778014
16	0xbb327fc1	-0.0027236792
17	0xbad54463	-0.0016270991
18	0x3d3d9570	0.046285093
19	0xba98f445	-0.0011669478
20	0xb98a1f77	-0.00026344854
21	0x3c242b96	0.010020157
22	0x3c9a0ef3	0.018805956
23	0x3c193c85	0.009352808
24	0x3c21ecc7	0.009883112
25	0x3bdc01d5	0.0067140856
26	0x3d01cd23	0.031689774
27	0xbd3e809c	-0.04650937
28	0x3b1aec1c	0.0023639267
29	0xbcc00164	-0.023438163
30	0xbc88aa99	-0.01668291
31	0x3cc5d886	0.024151098
32	0x3c05bf18	0.008163236
33	0xbd400c83	-0.046886932
34	0x3c238ad7	0.0099818325
35	0x3c9e7666	0.019343566
36	0x3c3ef6cc	0.011655521
37	0x3d027e9f	0.031859037
38	0x3cb4768b	0.022029182
39	0x3c8139ac	0.01577457
40	0x3d1e6265	0.038668055
41	0x3d1cc2da	0.038271762
42	0xbd7cf429	-0.061756287
43	0xbc6b9b25	-0.014380251
44	0x3cb3d1f0	0.021950692
45	0x3d53b220	0.051683545
46	0xbc855654	-0.016276516
47	0x3b880b47	0.004151735
48	0x3cdd5cbf	0.027021764
49	0xbc7cba5d	-0.015425292
50	0xbd32baf0	-0.04363531
51	0xbcbf9000	-0.023384094
52	0x3c893762	0.016750041
53	0xbd646623	-0.055761468
54	0xbc8d8803	-0.01727677
55	0xbbb7c347	-0.0056079957
56	0x3d87e14e	0.0663477
57	0x3ca17ff6	0.019714337
58	0xbd738be1	-0.05945957
59	0xbdb17952	-0.08665718
60	0xbdb5c564	-0.0887554
61	0xbceec56f	-0.029146878
62	0xbce4a475	-0.02791045
63	0xbd538116	-0.051636778
64	0xbd0199e3	-0.0316409
65	0x3c9475ae	0.01812252
66	0x3b1a2032	0.0023517725
67	0x3d16695d	0.036721576
68	0x3d8f37d7	0.069930725
69	0xbccf1b77	-0.025281651
70	0x3d015eb8	0.03158447
71	0xbcae2110	-0.021256
72	0xbacbe35d	-0.001555543
73	0xbd3ea76c	-0.046546385
74	0xbd19cf57	-0.03755125
75	0xbcbf5df5	-0.023360232
76	0xbb7cc20b	-0.0038567807
77	0x3c7e560e	0.015523447
78	0xbcf2a576	-0.029619914
79	0xbce9768b	-0.028498909
80	0x3db32a24	0.08748272
81	0xbd24a16c	-0.040193006
82	0x3d828334	0.06372681
83	0x3d273a03	0.04082681
84	0x3c7e3977	0.01551663
85	0xbcdfad81	-0.027304413
86	0x3d9a8ea5	0.075467385
87	0xbd7962fc	-0.060885414
88	0x3d6363ad	0.05551498
89	0x3d67017b	0.056397896
90	0x3d348f28	0.044081837
91	0x3d67e732	0.05661697
92	0x39353cb5	0.0001728412
93	0xbca6cf03	-0.020362383
94	0xbbf725f9	-0.0075423685
95	0x3d46d3be	0.048541777
96	0x3ca05b80	0.01957488
97	0x3d741e3e	0.059599154
98	0xbd6eb261	-0.058275584
99	0x3d31922b	0.043352287
100	0x3ccce3fd	0.025011057
101	0x3d34672f	0.044043716
102	0x3cac3c91	0.021024974
103	0x3d54743a	0.051868655
104	0xbc90b647	-0.017665042
105	0x3c41a6ad	0.011819524
106	0x3d8e899e	0.06959842
107	0xbd1675c2	-0.036733396
108	0x3d86c18a	0.065798834
109	0xbc62fbbe	-0.013853965
110	0xbae05900	-0.0017116368
111	0xbb3f9bfe	-0.0029237266
112	0x3d139d93	0.036038946
113	0xbc0431fc	-0.008068558
114	0x3b2b2127	0.002611229
115	0x3c3ba013	0.011451739
116	0x3d6b796a	0.057488836
117	0x3d0fe5ae	0.03513115
118	0x3d4355b3	0.04768915
119	0xbc9c35fc	-0.01906871
120	0xbd82d334	-0.0638794
121	0x3d9a4276	0.07532208
122	0xbd54ef7a	-0.051986195
123	0xbd905d7f	-0.07049083
124	0xbc9051bd	-0.0176171
125	0xbd379588	-0.04482034
126	0xbcaaaf79	-0.020835625
127	0xbd1713af	-0.036884006
128	0x3d3e4285	0.046450157
129	0x3d8db33e	0.06918953
130	0x3d33ed41	0.043927435
131	0xbd086f38	-0.03330919
132	0x3cc49508	0.023996845
133	0x3c5cb0bd	0.013469872
134	0x3cb17e36	0.021666627
135	0x3dd1e4c4	0.10248712
136	0xba8a4050	-0.0010547731
137	0xbd711374	-0.058856443
138	0x3cbe10b3	0.023201322
139	0x3d8e51f2	0.069492236
140	0x3d61f919	0.0551692
141	0x3dcf3da2	0.101191774
142	0xbcf7fe9c	-0.030272774
143	0x3cac3db9	0.021025525
144	0xbdad24c1	-0.08454276
145	0xbc85b8ec	-0.01632353
146	0x3d8f84f7	0.07007783
147	0x3d853560	0.06504321
148	0x3dd6818e	0.10473929
149	0x3dbc2dbc	0.09188411
150	0x3dffabee	0.12483965
151	0x3d636eeb	0.0555257
152	0xbca38a98	-0.019963548
153	0x3dacbcc6	0.08434443
154	0xbdbf3a2c	-0.09337267
155	0xbd624ae8	-0.055247217
156	0x2f3402eb	1.6371941e-10
157	0x3c2089f6	0.009798517
158	0x3c8da62c	0.017291151
159	0x3e048ac6	0.12943563
160	0x3daf4c7c	0.0855951
161	0xbcdae204	-0.0267191
162	0x3e117cde	0.1420779
163	0x3b40909c	0.002938307
164	0x3b84b9de	0.0040504774
165	0x3d94885f	0.07252573
166	0x3c91c103	0.01779223
167	0x3cae2d2a	0.02126177
168	0x3cc7e4ab	0.02440103
169	0x3c7391a6	0.014866268
170	0x3d375fa1	0.044768933
171	0x3d27d929	0.040978584
172	0x3dad02da	0.084478095
173	0xbc943210	-0.018090278
174	0xbd3556d8	-0.044272274
175	0x3de60828	0.112320244
176	0x3c6b1396	0.014347931
177	0x3d68c4e7	0.056828406
178	0xbd88e10e	-0.06683551
179	0x3de03824	0.10948208
180	0x3c2d7f98	0.010589503
181	0xbcbb9f95	-0.022903243
182	0x3d61f6f9	0.055167172
183	0x3d1a8606	0.03772547
184	0xbd0f8f5f	-0.03504884
185	0x3d32be8b	0.043638747
186	0xbc90c558	-0.017672226
187	0xbe1d815f	-0.15381382
188	0xbdc2e1e3	-0.09515741
189	0xbd8964a6	-0.0670865
190	0xbd851f25	-0.06500081
191	0x3dda0f6d	0.106474735
192	0xbcb2743f	-0.021783946
193	0x3b82b8f5	0.0039893338
194	0xbb77d417	-0.0037815624
195	0xb99ac583	-0.00029520327
196	0x3c2a2998	0.010385893
197	0xbd09f88a	-0.03368429
198	0xbb237cf4	-0.0024946304
199	0x3c8cbc99	0.017179774
200	0x3899e760	7.3387055e-05
201	0x3b103d78	0.0022009294
202	0x3b5e5254	0.0033923583
203	0x3c248de8	0.010043599
204	0xbc845d41	-0.016157748
205	0xbb98a6f8	-0.004658576
206	0xbae5654e	-0.0017501505
207	0xbbaa8fc2	-0.0052051255
208	0x37126208	8.725103e-06
209	0xbb64218e	-0.003481004
210	0xba974f3d	-0.0011544001
211	0xb9b2e6d9	-0.000341228
212	0xbab8e171	-0.0014105273
213	0xbb39889b	-0.0028310183
214	0x34e11cec	4.193056e-07
215	0xbd0a0a2f	-0.033701118
216	0xb864ff1e	-5.4597032e-05
217	0x355e9bd9	8.292823e-07
218	0xb6001257	-1.9084162e-06
219	0xb9937069	-0.00028121777
220	0x285371f4	1.17375626e-14
221	0x3b66099b	0.003510094
222	0x3c82144f	0.015878825
223	0x3ac37de6	0.001491484
224	0xbcef912c	-0.029244028
225	0x3b257221	0.0025245028
226	0xbd3750ec	-0.044754907
227	0x3690c4a4	4.3144264e-06
228	0x3b333b2a	0.0027348497
229	0x37944ab7	1.7677767e-05
230	0xbb67e60b	-0.003538492
231	0x37876f0a	1.614496e-05
232	0xbc3d4414	-0.011551876
233	0x3d443f6d	0.04791205
234	0xb835a0dd	-4.330358e-05
235	0x39e6b153	0.00044001135
236	0xbb82af8e	-0.003988213
237	0x39ff33f2	0.00048676092
238	0xb8a764d3	-7.9819605e-05
239	0x3b2b3ff0	0.002613064
240	0xbaaae3ab	-0.0013037821
241	0xbb5f130f	-0.003403846
242	0xbb287c13	-0.002570872
243	0x37bf3aa7	2.2796286e-05
244	0x37221a40	9.662064e-06
245	0xb6da1184	-6.4989454e-06
246	0xbc8f6b7f	-0.017507313
247	0xba30335c	-0.00067215203
248	0xba685b9b	-0.0008863748
249	0x3bfbec00	0.0076880455
250	0xb8e8b8fd	-0.00011097079
251	0x392ce964	0.00016490143
252	0x38854d39	6.356318e-05
253	0xb89cb4c5	-7.4723306e-05
254	0xbb97e445	-0.004635366
255	0x3ce6942f	0.028146831
