2. Convolutional Autoencoders/models/lats_autoencoder.pth (torch, 207529 bytes, 19 tensors)

encoder_conv.0.weight f4 [8, 1, 3, 3]
0	0x3c8d3e28	0.017241552
1	0x3e0a9c49	0.1353618
2	0xbe6d17e8	-0.23153651
3	0xbe5aa9d4	-0.21353847
4	0xbe06e350	-0.1317265
5	0x3dae673d	0.08515785
6	0xbb8c30c3	-0.004278274
7	0x3e451225	0.19245203
8	0xbc80c590	-0.015719205
9	0x3dbcd119	0.0921957
10	0xbdc35775	-0.095381655
11	0xbcb92a36	-0.022603136
12	0xbe88dd31	-0.26731256
13	0xbe5e9732	-0.21737364
14	0xbdc597e9	-0.09648115
15	0x3c293d32	0.0103295315
16	0x3d893c71	0.067009814
17	0x3e308417	0.17237888
18	0xbe36863f	-0.17824648
19	0xbde1afcb	-0.11019858
20	0x3e0cf0c6	0.13763723
21	0x3e8eff63	0.2792922
22	0xbd169b2d	-0.03676908
23	0x3e8434e4	0.25821602
24	0xbc982603	-0.018572813
25	0x3cdee534	0.027208902
26	0x3e98de26	0.29856986
27	0xbec753fc	-0.38931262
28	0xbe88559e	-0.2662782
29	0xbe23501b	-0.15948527
30	0xbe54ac1d	-0.20768781
31	0x3e334341	0.17506124
32	0xbe8078b7	-0.25092098
33	0xbe8aec5e	-0.2713346
34	0xbe9742db	-0.29543194
35	0xbebad794	-0.36492598
36	0xbe4ae6e1	-0.19814636
37	0x3e4ace00	0.19805145
38	0x3da0857b	0.078379594
39	0x3df89c8d	0.12139235
40	0xbd2df87c	-0.0424733
41	0xbe251b5c	-0.16123718
42	0x3cd539c6	0.026028525
43	0xbe98bf83	-0.29833612
44	0xbe2898fa	-0.16464606
45	0xbde69920	-0.11259675
46	0x3e8675a5	0.2626163
47	0x3e697fcd	0.22802658
48	0xbdaddec5	-0.084897555
49	0x3daf1e97	0.085507564
50	0x3e7d681a	0.24746743
51	0x3eb2c428	0.3491528
52	0x3e42b9a1	0.19016124
53	0x3dba20fb	0.09088322
54	0x3e2a343a	0.16621485
55	0xbe90850e	-0.28226513
56	0xbdf96dda	-0.12179156
57	0xbe47d320	-0.19514132
58	0xbe83255c	-0.2561444
59	0xbe90a94a	-0.28254157
60	0x3d9fcc7b	0.078026734
61	0xbda62778	-0.08112997
62	0xbea10cd1	-0.3145509
63	0x3dfb0a48	0.1225782
64	0x3e645f7b	0.22302048
65	0x3ca2f025	0.0198899
66	0x3d4557a1	0.048179273
67	0x3dfa4a8e	0.122212514
68	0x3e6606b3	0.22463493
69	0x3eae650d	0.3406147
70	0xbe2ae025	-0.16687067
71	0xbd6247a8	-0.055244118

encoder_conv.0.bias f4 [8]
0	0x3e667ef3	0.22509365
1	0x3ec0d61e	0.37663358
2	0x3eb85ee4	0.36009896
3	0x3ec19761	0.37810805
4	0x3e30ad81	0.17253686
5	0xbe762e26	-0.24041042
6	0x3e097825	0.13424738
7	0xbe29dbc2	-0.16587737

encoder_conv.2.weight f4 [16, 8, 3, 3]
0	0x3d0acd9c	0.03388749
1	0x3e265f84	0.16247374
2	0x3e25371e	0.16134307
3	0x3d4cda1e	0.0500127
4	0x3e01e4f6	0.12684998
5	0x3e0c234b	0.13685338
6	0x3dcff828	0.10154754
7	0x3da3cc83	0.07997992
8	0x3df17497	0.11789816
9	0x3dae71ad	0.08517776
10	0x3e328627	0.17433988
11	0x3e2b1db9	0.16710557
12	0x3e40bab5	0.18821223
13	0x3e4ae2fb	0.19813149
14	0x3da932b7	0.08261626
15	0x3d9bb826	0.07603483
16	0x3e461aa5	0.19346102
17	0x3e14017a	0.14453688
18	0x3cb164d6	0.021654528
19	0x3d443ab6	0.047907554
20	0x3e3eb0f8	0.18622196
21	0x3de9d7d0	0.11418116
22	0x3d75750c	0.059926078
23	0x3dcecbbc	0.10097453
24	0xbc40a9bf	-0.011759221
25	0x3db1d6da	0.08683558
26	0x3d1d7e17	0.038450327
27	0x3d89e4c9	0.067330904
28	0x3e38475f	0.17995976
29	0x3df23201	0.11825944
30	0x3de1bfde	0.11022924
31	0x3e696b57	0.22794853
32	0x3da66880	0.081254005
33	0x3e3b52a4	0.18293244
34	0x3e6d9be8	0.23204005
35	0x3d36015e	0.044434898
36	0x3ddf22ea	0.10895331
37	0x3e0f3e42	0.13988593
38	0x3dbe43d6	0.092902824
39	0x3ddc1d07	0.10747724
40	0x3e1c029f	0.15235375
41	0x3db6abd8	0.08919495
42	0x3dbf0c43	0.093285106
43	0x3e1be215	0.15222962
44	0x3c8e7bbf	0.017392991
45	0xbd998ba6	-0.07497339
46	0xbdec8421	-0.11548639
47	0x3bb97bf6	0.0056605292
48	0xbd316c2d	-0.043316055
49	0xbe112c6f	-0.14177106
50	0x3c566a02	0.013086798
51	0xbd58e110	-0.05294901
52	0xbe1149ac	-0.1418826
53	0xbcf2f816	-0.029659312
54	0x3e29eb35	0.1659363
55	0x3e23b5b1	0.15987279
56	0x3dca6ba8	0.09883815
57	0x3e15bb68	0.14622271
58	0x3e2b72b3	0.16742973
59	0x3e0fa833	0.14029007
60	0x3e4a71b5	0.19769938
61	0x3e3f7c46	0.1869975
62	0x3e1d2acc	0.15348357
63	0x3cc5bb1f	0.024137078
64	0xbe0d6866	-0.13809356
65	0xbd80a2f5	-0.062810816
66	0x3d214e3d	0.039381254
67	0xbdb59ba7	-0.08867579
68	0xbd9b5b8d	-0.07585821
69	0xbc085a5f	-0.008322327
70	0xbe005bc4	-0.12535006
71	0xbdc3ed54	-0.09566751
72	0x3d21f3f3	0.03953929
73	0x3da9b856	0.082871124
74	0x3dc11743	0.09428265
75	0xbcdf855d	-0.027285272
76	0x3de098de	0.10966657
77	0xba34afc4	-0.0006892646
78	0x3d3ce17c	0.046113476
79	0x3cc2cf65	0.023780534
80	0x3d5112e1	0.051043395
81	0x3d710798	0.058845133
82	0xbac22bcd	-0.0014814079
83	0xbbed7af5	-0.0072473236
84	0x3da9d83a	0.08293195
85	0x3de2217b	0.11041542
86	0x3d75cedf	0.06001174
87	0x3dc6579f	0.09684681
88	0x3bca93b4	0.0061821584
89	0x3db3c231	0.087772734
90	0x3ded25fa	0.11579509
91	0xbaca5955	-0.0015438
92	0x3e055022	0.1301885
93	0x3d75dbb8	0.060023993
94	0xbd7b89c3	-0.061410677
95	0x3dcc5494	0.099770695
96	0x3d0076d7	0.031363335
97	0xbac9923d	-0.0015378665
98	0x3df810cf	0.12112581
99	0x3ac82383	0.0015269372
100	0x3dcbd00f	0.099517934
101	0x3d7908f9	0.060799573
102	0x3e110a44	0.14164072
103	0x3dee4cc2	0.11635734
104	0x3ddeaa07	0.10872274
105	0x3dcf2e9a	0.101163104
106	0x3db32ff7	0.08749383
107	0x3d7b53e1	0.06135929
108	0xbc3e1bb7	-0.011603287
109	0x3de2910e	0.11062823
110	0x3ddb8fcf	0.10720789
111	0x3dee892b	0.116472565
112	0x3c9ece38	0.019385442
113	0x3d5ac55c	0.053410873
114	0x3b008718	0.0019611772
115	0x3cb8b590	0.022547513
116	0xb994d303	-0.00028385976
117	0x3ba19b59	0.004931849
118	0xbddf8d48	-0.10915619
119	0xbbeb9eaa	-0.007190545
120	0xbce8887b	-0.028385391
121	0xbc83dc2a	-0.016096193
122	0xbdd24786	-0.10267548
123	0xbdc7be70	-0.0975312
124	0xbdf36e88	-0.118863165
125	0x3cfc45f7	0.03079508
126	0x3da88ace	0.082296
127	0x3e3e01f8	0.18555439
128	0x3d85c024	0.065307885
129	0x3e019e2f	0.12657999
130	0x3e10bbb2	0.141341
131	0x3d8eb27f	0.06967639
132	0x3dfb1510	0.12259877
133	0x3e0100b1	0.1259792
134	0x3d87cd61	0.0663097
135	0x3ce83cce	0.028349306
136	0xbdc5706f	-0.09640586
137	0xbd8d4d91	-0.0689956
138	0x3d40f2d2	0.04710657
139	0xbe0a717e	-0.13519856
140	0xbd5be12e	-0.053681545
141	0x3daaff30	0.083494544
142	0xbce7e62a	-0.028307993
143	0xbd0acae7	-0.03388491
144	0xbd02d399	-0.031940077
145	0x3d9d1aa2	0.076710954
146	0xbc0ed1e5	-0.008717035
147	0x3d5befd1	0.053695504
148	0x3d3b556a	0.045735754
149	0x3d9ae7c5	0.07563738
150	0x3d6544e5	0.055973906
151	0x3dfa060e	0.12208186
152	0x3d68fa0f	0.0568791
153	0x3e23d404	0.15998846
154	0x3e14cb86	0.14530763
155	0x3ce59cef	0.028028933
156	0x3e0799c4	0.1324225
157	0x3d54aaee	0.051920824
158	0x3d9fe5df	0.07807516
159	0x3dcc3bbc	0.09972331
160	0x3dfb3bd7	0.12267273
161	0x3e1c1c09	0.1524507
162	0x3cb6fd5d	0.02233761
163	0x3d64bb80	0.055842876
164	0x3dc1f8cd	0.09471283
165	0xbd51426e	-0.051088743
166	0x3ddc951c	0.10770628
167	0xbccdc262	-0.025117103
168	0x3d606ccc	0.054791257
169	0x3d343a18	0.044000715
170	0x3c1f5848	0.009725638
171	0x3dcf73d0	0.10129511
172	0x3e4378d8	0.19089067
173	0x3d8710e3	0.06595018
174	0x3d3e0421	0.046390656
175	0x3dd200d4	0.10254064
176	0xbbe672b2	-0.0070327157
177	0x3e0018e6	0.12509498
178	0x3db29b09	0.08720977
179	0x3ccfd4e7	0.025370074
180	0x3d0571c9	0.032579217
181	0x3e000ae1	0.1250415
182	0x3dbe92b9	0.09305329
183	0x3e07d342	0.13264182
184	0x3dd99402	0.106239334
185	0x3d2016a5	0.039084096
186	0x3d7db71a	0.061942197
187	0x3dbd4d4d	0.092432596
188	0x3e03a680	0.12856483
189	0xbbb4fb1d	-0.005523099
190	0xbd9787b4	-0.0739893
191	0xbd05399f	-0.032525655
192	0xbde47699	-0.11155433
193	0xbd136836	-0.035988055
194	0xbd6d651b	-0.05795775
195	0xbde2979f	-0.11064076
196	0x3cd48f9f	0.02594739
197	0xbda32ac0	-0.07967138
198	0x3df68f76	0.12039082
199	0x3e104f62	0.14092782
200	0x3db15740	0.0865922
201	0x3da4df23	0.080503725
202	0x3d9af144	0.07565549
203	0x3e231eb2	0.15929678
204	0x3e033777	0.12814127
205	0x3e4884ad	0.19581862
206	0x3da3e644	0.08002904
207	0x3d4da756	0.050208412
208	0xbc4ffe44	-0.012694899
209	0x3ac604ed	0.0015107669
210	0xbd3761cf	-0.044771012
211	0xbc847fd6	-0.016174238
212	0xbcb1abde	-0.021688398
213	0x3ce8d8bb	0.028423658
214	0xbcc115b2	-0.023569915
215	0xbd8c8bc6	-0.06862597
216	0x3d393184	0.045213237
217	0x3ac0f5c6	0.0014721684
218	0x3c37b8f1	0.011213527
219	0x3c078c25	0.008273159
220	0x3c8b2039	0.016983138
221	0x3ba7351b	0.005102766
222	0xbbc26ca2	-0.00593336
223	0x3cf7cff7	0.030250533
224	0x3c0ec52e	0.0087140035
225	0xbd5f41b0	-0.054506004
226	0xbd08f43c	-0.033436045
227	0xbc2f0a63	-0.010683629
228	0xbc840eef	-0.016120402
229	0xbd03a073	-0.03213544
230	0xbd88bae4	-0.066762716
231	0xbc90bb67	-0.017667485
232	0xbcf86ea6	-0.030326199
233	0xbca3b465	-0.01998348
234	0x3db3a899	0.08772392
235	0x3df0ab61	0.11751438
236	0x3d73af1b	0.059493165
237	0x3d982e0e	0.07430659
238	0x3dc4626f	0.09589087
239	0x3d9aac2e	0.07552372
240	0x3da8db80	0.08244991
241	0x3da7face	0.08202134
242	0x3d01f899	0.03173122
243	0xbd597035	-0.053085525
244	0xbd7bc170	-0.061463773
245	0x3c8a0091	0.016845973
246	0xbcdd53c9	-0.027017491
247	0xbdb9fa11	-0.090808995
248	0xbcac046a	-0.020998199
249	0xbd68b265	-0.056810755
250	0xbe06e1a9	-0.1317202
251	0xbd8b0158	-0.06787366
252	0x3cfa7e8b	0.030577919
253	0xbc4eadf7	-0.012614719
254	0xbcdf43de	-0.027254041
255	0x3bbaeea3	0.0057047172

encoder_conv.2.bias f4 [16]
0	0x3ddbf218	0.10739535
1	0x3d2e30ca	0.042526998
2	0x3dedbf84	0.11608794
3	0x3ce34f80	0.02774787
4	0x3dcfd62f	0.10148274
5	0x3daf149e	0.08548854
6	0x3e03e974	0.12882024
7	0x3bf74e27	0.0075471583
8	0xbc9e85d4	-0.019350924
9	0x3df33f6c	0.11877331
10	0x3dbb80e6	0.09155445
11	0xbca60928	-0.020268038
12	0x3cf15d8c	0.029463552
13	0x3cb2d141	0.021828296
14	0xb8e006a2	-0.00010682388
15	0x3da35d19	0.07976741

encoder_conv.4.weight f4 [32, 16, 3, 3]
0	0x3da1f384	0.07907775
1	0x3e1af896	0.1513389
2	0x3e008830	0.12551951
3	0x3dfb7053	0.122772835
4	0x3e3726cd	0.17885895
5	0x3dc783be	0.09741925
6	0x3da3b6d0	0.07993853
7	0x3e2655c8	0.1624366
8	0x3e12c616	0.14333376
9	0xbd27e8b6	-0.040993415
10	0x3da03fbd	0.07824657
11	0x3d9ebe8a	0.07751186
12	0xbcdf1bdc	-0.027234964
13	0x3d8c6003	0.0685425
14	0x3dc61c02	0.09673311
15	0xbc800da8	-0.015631512
16	0x3da28b2d	0.07936702
17	0x3d8d81fc	0.06909558
18	0x3d3da55d	0.04630028
19	0x3df2b63c	0.11851165
20	0x3dcc09c3	0.099627994
21	0x3dde6222	0.10858561
22	0x3dc95167	0.098299794
23	0x3df3c1be	0.11902188
24	0x3c3a867e	0.0113846045
25	0x3d853d28	0.06505805
26	0x3d920846	0.07130484
27	0x3c488f43	0.0122411875
28	0xbcc84739	-0.024448024
29	0xbcd13790	-0.02553919
30	0xbcf1b1a0	-0.029503644
31	0xbd9b3916	-0.07579248
32	0xbdc6897c	-0.09694192
33	0xbcb9d31f	-0.022683678
34	0xbdb593b8	-0.08866066
35	0xbd86cbde	-0.06581853
36	0x3d930ef8	0.071805894
37	0x3d42b7e5	0.047538657
38	0x3d3b0702	0.04566098
39	0x3dd92b56	0.10603969
40	0x3d90c93f	0.07069635
41	0x3ce54abd	0.02798974
42	0x3dbfbb8d	0.09361944
43	0x3dd86bcd	0.10567436
44	0x3d61f13b	0.055161696
45	0x3d1cd734	0.03829117
46	0x3cf95b88	0.030439153
47	0x3b9d8f15	0.0048083165
48	0x3da0d79a	0.07853623
49	0x3db5c1fe	0.08874892
50	0x3de633ed	0.11240373
51	0x3c902796	0.017597001
52	0x3dc17c97	0.09447592
53	0x3d8fcb29	0.070211716
54	0x3d39468c	0.045233294
55	0x3dee3663	0.11631467
56	0x3dab69a1	0.083697565
57	0x3d82cd1e	0.06386779
58	0x3d9d6910	0.07686055
59	0x3d27d7fa	0.040977456
60	0xbc0f7c94	-0.008757729
61	0x3dc18fcc	0.09451255
62	0x3de01031	0.10940588
63	0x3d020181	0.031739715
64	0x3c984faa	0.018592674
65	0x3d16e378	0.036838025
66	0xbce52246	-0.027970444
67	0xbd12bea1	-0.03582633
68	0xbd237df3	-0.039915036
69	0xb9487b22	-0.00019119357
70	0xbad192ac	-0.0015989146
71	0x3bc4e8db	0.006009204
72	0x3cf4e14b	0.029892584
73	0x3d7850b0	0.060623825
74	0x3d4caeba	0.04997132
75	0x3c00db38	0.007864766
76	0x3cba2aa4	0.02272541
77	0x3dbc8826	0.09205656
78	0x3d3d8dc3	0.046277773
79	0x3d85630b	0.065130316
80	0x3d802b9d	0.062583186
81	0x3acf9208	0.0015836367
82	0x3d2bb93a	0.041924693
83	0xbc4db81e	-0.012556104
84	0x3d9ca60d	0.07648859
85	0x3d94d28c	0.07266721
86	0x3ce52430	0.027971357
87	0x3cb3cde5	0.021948764
88	0x3da11609	0.07865531
89	0x3cfeabed	0.03108784
90	0x3d2fc781	0.04291487
91	0x3d4ffd8b	0.050778907
92	0x3bd2cb37	0.0064329165
93	0x3d2f44fa	0.04279039
94	0x3d49b1c8	0.04924181
95	0x3db9c1ab	0.09070142
96	0x3ccf6471	0.025316449
97	0x3cfbb37a	0.03072523
98	0x3db80443	0.08985188
99	0xbb476e31	-0.003043067
100	0x3db4cd3e	0.08828209
101	0x3de13e0e	0.10998164
102	0x3d1da03a	0.038482882
103	0x3e1e8145	0.15479
104	0x3df944f8	0.12171358
105	0x3dcff5e1	0.101543196
106	0x3ddfa63f	0.10920381
107	0x3dfa75fa	0.122295335
108	0x3c823069	0.015892224
109	0x3d8c391b	0.068468295
110	0x3d2cba67	0.042169955
111	0x3d613727	0.054984238
112	0x3deba497	0.115060024
113	0x3dced447	0.100990824
114	0x3d227c82	0.03966952
115	0x3df402df	0.1191461
116	0x3d960485	0.07325081
117	0x3d2e5a8c	0.04256682
118	0x3df1e14f	0.11810552
119	0x3de7c09f	0.113160364
120	0x3d6a357d	0.057179917
121	0x3e2c5aac	0.16831464
122	0x3e0053eb	0.12532012
123	0x3da4937b	0.08035942
124	0x3dcfe6a3	0.10151412
125	0x3df8df30	0.12151945
126	0x2706d772	1.8713029e-15
127	0xa87da018	-1.4079036e-14
128	0xa7fc1221	-6.9963706e-15
129	0xaa4f60a7	-1.8418826e-13
130	0xa8fede5c	-2.8296098e-14
131	0x28651252	1.2716026e-14
132	0x38a5a2c8	7.8981335e-05
133	0x314f95a1	3.0207519e-09
134	0x2834f4a3	1.0045054e-14
135	0x3d754fcc	0.059890553
136	0x3d21a852	0.039467163
137	0x3d55ae62	0.052168258
138	0x3cf3653f	0.029711364
139	0x3b9ee3ea	0.004848947
140	0x3bcaaf7e	0.006185471
141	0x3cedf7e9	0.029048877
142	0xbd0019cb	-0.031274598
143	0x3c464382	0.012101056
144	0x3d34123b	0.0439627
145	0x3e0cf6ec	0.13766068
146	0x3dfb8ee0	0.122831106
147	0x3d66cb1c	0.056346044
148	0x3e196456	0.14979681
149	0x3e061a91	0.13096072
150	0x3d964d14	0.0733892
151	0x3e11bf83	0.14233212
152	0x3e051bef	0.12998937
153	0xbccc8517	-0.024965806
154	0xbc9a8c89	-0.01886584
155	0x3d429eae	0.04751461
156	0x3cf16fcb	0.029472252
157	0x3d6faa63	0.058512103
158	0x3db004b5	0.08594648
159	0x3bf001ed	0.0073244483
160	0x3d94f0ee	0.07272516
161	0x3cce2985	0.025166282
162	0x3d0fcb3e	0.035105936
163	0x3d2df45c	0.042469367
164	0x3da411b8	0.08011192
165	0x3dd10092	0.10205187
166	0x3df5972a	0.11991723
167	0x3da42a77	0.08015912
168	0x3da9f187	0.08298021
169	0x3c83177e	0.016002413
170	0x3d36ad5f	0.044598933
171	0x3caf6960	0.021412551
172	0xbd1d4536	-0.038396083
173	0xbd561ac1	-0.05227161
174	0xbcef1c32	-0.02918825
175	0xbdabde6d	-0.08392034
176	0xbdfc8f49	-0.12332017
177	0xbc8e15f1	-0.017344447
178	0xbd86e9c4	-0.06587556
179	0xbda4bf12	-0.08044256
180	0x3c5e8ede	0.013583867
181	0xbc104941	-0.008806528
182	0xba5b19da	-0.0008358039
183	0x3d884d06	0.06655316
184	0x3ddd5353	0.108069085
185	0x3d42b3a6	0.047534607
186	0x3ccdff61	0.025146188
187	0x3d1edc3c	0.03878425
188	0x3d95dcdb	0.073175155
189	0xbcecdfd9	-0.028915333
190	0xbba50e3c	-0.0050370973
191	0x3dbd4042	0.09240772
192	0x3d205bc7	0.039150026
193	0x3db568fd	0.088579156
194	0x3d942170	0.0723294
195	0x3b9a1686	0.004702392
196	0x3db37716	0.08762948
197	0x3d9c1c3a	0.07622571
198	0x3ba6f533	0.005095148
199	0x3d622f76	0.055221044
200	0x3d54263b	0.051794272
201	0xbc6f3391	-0.014599697
202	0x3de5e13a	0.11224599
203	0x3deaabfd	0.114585854
204	0x3d881a5d	0.066456534
205	0x3d942a9d	0.0723469
206	0x3da8f4c3	0.082498096
207	0x3d253d85	0.040341873
208	0x3cf09b5a	0.029370952
209	0x3d097f63	0.03356875
210	0x3b61c039	0.003444685
211	0xbd078e10	-0.033094466
212	0xbd5b57df	-0.053550597
213	0x3c1274bc	0.008938964
214	0xbc4153d4	-0.011799771
215	0xbd30889a	-0.043099023
216	0x3ca77cb0	0.020445198
217	0xbc106123	-0.008812222
218	0x3d82f475	0.06394283
219	0x3d62f783	0.055411827
220	0x3de3b8c9	0.11119229
221	0x3d4e6f34	0.05039902
222	0x3d384887	0.044991042
223	0x3d9a3998	0.075305164
224	0x3df6bdf0	0.120479465
225	0x3da4d669	0.08048708
226	0x3c3725c2	0.011178436
227	0xbc8cb9cd	-0.01717844
228	0xbcc5eee0	-0.024161756
229	0x3cbd816a	0.023132998
230	0x3dd1ac0b	0.10237893
231	0x3d576c62	0.052593596
232	0x3de6e259	0.11273641
233	0x3db8fd6f	0.090327136
234	0x3d38b240	0.045091867
235	0x3a018294	0.0004940417
236	0x3dca99e7	0.09892636
237	0x3da8ecc8	0.082482874
238	0x3d8918d4	0.06694189
239	0x3c1c9ac9	0.009558388
240	0x3dae994a	0.08525331
241	0x3d491d4a	0.049100198
242	0x3da4025e	0.08008264
243	0x3d46ff0e	0.048583083
244	0x3da6ba51	0.08141006
245	0x3ae4b42a	0.0017448713
246	0x3cac8506	0.021059524
247	0x3df1c373	0.11804857
248	0x3d9d9018	0.07693499
249	0x38c593ad	9.421199e-05
250	0x3e16b58b	0.1471769
251	0x3db5f339	0.08884282
252	0x3d2d01be	0.04223799
253	0x3c0e0550	0.008668259
254	0x3d0040b7	0.031311717
255	0x3d053228	0.032518536

encoder_conv.4.bias f4 [32]
0	0x3cd9febe	0.026610728
1	0x3d80546a	0.06266101
2	0x3d8fe5bf	0.070262425
3	0x3db951ec	0.090488285
4	0x3d87dab8	0.06633514
5	0x3d8194c1	0.06327201
6	0x3dd0eab1	0.10201014
7	0x3decb7be	0.115584835
8	0x3da69ad3	0.08134999
9	0x3ddb42c7	0.10706096
10	0x3d7a8724	0.061164036
11	0x3dc8f79e	0.09812854
12	0xbc0489a5	-0.008089458
13	0x3d5ebe09	0.05438045
14	0x3dde8a57	0.1086623
15	0x3d4c20ff	0.049836155
16	0x3dcdeb76	0.10054676
17	0x3cfe5446	0.031046044
18	0x3d4f8ee2	0.050673373
19	0x3d4ba11a	0.049714185
20	0x3d2c74ed	0.042103697
21	0xba220911	-0.00061811606
22	0xb7c7c814	-2.3815817e-05
23	0x3d93436a	0.071905926
24	0x3d3433c3	0.043994676
25	0x3d18637d	0.037204254
26	0x3dab85d9	0.08375139
27	0x3d650c4f	0.05591994
28	0x3ce4bb7d	0.027921433
29	0x3dcf95e0	0.10136008
30	0x3d949d5d	0.07256577
31	0x3d442a5d	0.047891963

encoder_lin.0.weight f4 [64, 288]
0	0xb9c091a6	-0.0003672961
1	0xb8ec3554	-0.0001126329
2	0xb96fa860	-0.00022855541
3	0xb9342774	-0.00017180835
4	0xb91cfa02	-0.00014970455
5	0x3a411a17	0.00073662534
6	0xba04670b	-0.0005050755
7	0xb8975ebf	-7.217889e-05
8	0x39ecb98a	0.00045151665
9	0xb9678954	-0.00022081035
10	0xb9cfc0c5	-0.0003962574
11	0xb954168c	-0.00020226295
12	0xb8f9208a	-0.00011879306
13	0xb8b5cd68	-8.6690125e-05
14	0x3844068c	4.673614e-05
15	0xba5cec70	-0.0008427566
16	0xb9bdc050	-0.00036192173
17	0x398201ef	0.00024796973
18	0xb8ce0245	-9.823268e-05
19	0xb638df19	-2.7547997e-06
20	0xb78a2312	-1.6467213e-05
21	0xb928e0b1	-0.00016105433
22	0xb9aa2e7a	-0.00032459554
23	0xb9c2c807	-0.00037151595
24	0xb9883690	-0.00025980594
25	0xb9cd1295	-0.00039114492
26	0xb8828114	-6.222926e-05
27	0xba63f5dc	-0.00086959987
28	0xb9a18181	-0.000308048
29	0xb9561536	-0.00020416532
30	0x3a70c7f1	0.0009185067
31	0x3ae59fee	0.0017518976
32	0x3a8de79d	0.0010826472
33	0xb98969ca	-0.00026209495
34	0x39cb7064	0.00038802915
35	0xb9946561	-0.00028304293
36	0xb97db6a5	-0.00024196
37	0x3838ab58	4.4028595e-05
38	0xb907285e	-0.00012889641
39	0xb95dee40	-0.00021164957
40	0x37c2902f	2.3193743e-05
41	0xb9c7ce12	-0.00038109772
42	0x3953e499	0.00020207687
43	0x38fda6bd	0.000120950375
44	0xb9e19187	-0.0004302377
45	0x38299f0a	4.0440857e-05
46	0xb74a289d	-1.2049594e-05
47	0xb896970e	-7.1806935e-05
48	0xb8967e36	-7.176066e-05
49	0x39ab13f4	0.00032630528
50	0xb93e4635	-0.00018145966
51	0xb8cc0aa4	-9.72946e-05
52	0x39241d91	0.00015651273
53	0xb8be72f5	-9.0813184e-05
54	0xb12cafad	-2.5129154e-09
55	0x2a81dc31	2.3067792e-13
56	0x289a86fd	1.7155976e-14
57	0x27d38e61	5.871863e-15
58	0xa81852d7	-8.455658e-15
59	0x2dbd2569	2.1503426e-11
60	0x2eefe94c	1.09099035e-10
61	0xabbb6c25	-1.3317165e-12
62	0xad8a6193	-1.5732115e-11
63	0xb9678c99	-0.00022082253
64	0xb8465587	-4.7286532e-05
65	0xba53455a	-0.00080593454
66	0xb9f70604	-0.00047115993
67	0xb989a87b	-0.00026256204
68	0x39ad14bb	0.00033012577
69	0xb9a52006	-0.00031495112
70	0xb925c64d	-0.00015809499
71	0xba931204	-0.0011220579
72	0xb800d24b	-3.071343e-05
73	0xb7164bc7	-8.95834e-06
74	0xb84b10e9	-4.841472e-05
75	0xb80119e6	-3.0780117e-05
76	0xb84d45c6	-4.894079e-05
77	0xb9c51684	-0.00037591544
78	0xb895556c	-7.120785e-05
79	0xb6ca931c	-6.037195e-06
80	0x39ca1cae	0.0003854981
81	0x39c60a65	0.00037773247
82	0x394b33a3	0.00019378825
83	0xba14ccb3	-0.00056762545
84	0x3a0d92d8	0.00054006046
85	0xb8a1d11b	-7.716027e-05
86	0xb9becd7a	-0.00036392716
87	0xba2d11a6	-0.0006602056
88	0xba057fcc	-0.00050925906
89	0xb9d2f4b7	-0.00040236648
90	0xa809562e	-7.623715e-15
91	0xa9bb442e	-8.3162955e-14
92	0x2df1210c	2.7413204e-11
93	0x2e2a3953	3.870444e-11
94	0xa9d239a7	-9.3358745e-14
95	0x290402ea	2.9312415e-14
96	0xa89906f3	-1.6989426e-14
97	0xaa14a0bb	-1.3200805e-13
98	0x2bf939dd	1.7708574e-12
99	0x27bf7216	5.313684e-15
100	0xb0936a56	-1.072588e-09
101	0xa86bde6e	-1.3093352e-14
102	0x2e38ced5	4.202046e-11
103	0x2b729ecf	8.619606e-13
104	0xac6949e2	-3.3152305e-12
105	0xab3d5758	-6.72675e-13
106	0x2d163cc4	8.5400055e-12
107	0x29d55211	9.4733364e-14
108	0xb6cc2da4	-6.084987e-06
109	0xb82cc3ba	-4.119028e-05
110	0xb702b001	-7.789583e-06
111	0xb706f7c9	-8.044714e-06
112	0x390eaf27	0.00013607425
113	0xb875ee9f	-5.8634785e-05
114	0xb7f2bcaf	-2.893651e-05
115	0xb6b8127b	-5.4857787e-06
116	0xb7c9d8f5	-2.4062096e-05
117	0xb648ea50	-2.993871e-06
118	0x38e7501f	0.00011029862
119	0x36db7802	6.5406794e-06
120	0xb96ba115	-0.00022471354
121	0xb7650c40	-1.3652316e-05
122	0xb897df5f	-7.241847e-05
123	0x3916e844	0.0001439164
124	0xb92c6f29	-0.00016444609
125	0x37b0801b	2.1040489e-05
126	0xba4bafab	-0.0007770012
127	0xba3275c8	-0.0006807712
128	0xb9ae145d	-0.00033203038
129	0xba7c808c	-0.0009632192
130	0xb8b19d6c	-8.46934e-05
131	0x3a004d2a	0.0004894311
132	0xb96e33e9	-0.00022716787
133	0xba309c37	-0.0006737145
134	0xb9868596	-0.00025658
135	0xaf59a4c9	-1.9794578e-10
136	0x2d25be57	9.421428e-12
137	0xa9103e36	-3.2028382e-14
138	0xb0b48b06	-1.3136237e-09
139	0xaa6d8682	-2.1096495e-13
140	0xaa20f695	-1.4296405e-13
141	0x2a0b5637	1.2375592e-13
142	0xb1648157	-3.3251888e-09
143	0x2c65a4ae	3.2634273e-12
144	0x2c440e94	2.7861368e-12
145	0xad8c4243	-1.5945583e-11
146	0xaa4174bf	-1.7182348e-13
147	0xb1557318	-3.1061003e-09
148	0x299c39d0	6.9378205e-14
149	0xaa3f8d4f	-1.7013234e-13
150	0xac5eb240	-3.1647046e-12
151	0x2c0ba142	1.9842604e-12
152	0x2b2bd824	6.105136e-13
153	0xb956d5ce	-0.00020488279
154	0xb77f3073	-1.5210465e-05
155	0xb97c5da3	-0.00024067475
156	0xb8a44832	-7.833577e-05
157	0x3871f60d	5.768803e-05
158	0xb957704f	-0.00020545836
159	0x39499b77	0.00019226769
160	0x39e0fb7e	0.00042911986
161	0xb9145a17	-0.00014147941
162	0x2d315799	1.0080736e-11
163	0xab81d3cc	-9.224787e-13
164	0xafbd48fd	-3.443076e-10
165	0xad0dd438	-8.062044e-12
166	0x3212ddf6	8.548787e-09
167	0x2dfcfa77	2.8760312e-11
168	0x2c6c4754	3.3577212e-12
169	0x2e952de2	6.783886e-11
170	0x2d0c6111	7.979632e-12
171	0x2b6e27a2	8.4609587e-13
172	0x2b8c55c1	9.9714e-13
173	0x2e14e3a9	3.3853507e-11
174	0x2d0a38b8	7.856986e-12
175	0xa93ce0ba	-4.1939305e-14
176	0xadea3d0e	-2.6629834e-11
177	0xaf7b6623	-2.2864603e-10
178	0xaa795a7a	-2.2147033e-13
179	0xa796feee	-4.190976e-15
180	0xb8977b04	-7.2231545e-05
181	0x38c62234	9.4477466e-05
182	0x395c2c2c	0.0002099729
183	0x3993f432	0.00028219965
184	0xb8081811	-3.244734e-05
185	0xbab134fa	-0.0013519817
186	0xb9060afe	-0.00012783331
187	0xb85f55f7	-5.3247404e-05
188	0xb9168024	-0.00014352851
189	0xabe56545	-1.6299537e-12
190	0xaba39f4c	-1.162606e-12
191	0x2f693d99	2.121311e-10
192	0xafa23be1	-2.9510175e-10
193	0x3323365c	3.8000834e-08
194	0x2b0b74dc	4.9544895e-13
195	0xad7ee757	-1.4489596e-11
196	0x2c9786ea	4.3066566e-12
197	0x2bd3ab31	1.5039967e-12
198	0xb8919ca2	-6.943314e-05
199	0xb777af93	-1.4763226e-05
200	0xb9515822	-0.00019964625
201	0xb93fce9b	-0.00018292146
202	0xb8bdfe85	-9.05963e-05
203	0xb9f123ea	-0.0004599386
204	0xb97c06a8	-0.00024035072
205	0xb8daf501	-0.000104406856
206	0xba899dfc	-0.0010499354
207	0xb7940470	-1.7645041e-05
208	0x38500a65	4.9600745e-05
209	0xb7270562	-9.955229e-06
210	0xb90cc913	-0.00013426346
211	0x39441161	0.00018698491
212	0xb912d75f	-0.00014003877
213	0x392423be	0.00015653574
214	0xb7afb35f	-2.0945152e-05
215	0x39b8abe9	0.00035223298
216	0xb68052b8	-3.824327e-06
217	0x37180271	9.060474e-06
218	0x3857dfe9	5.1468527e-05
219	0x39092b0b	0.00013081373
220	0xb9a8eb49	-0.00032218758
221	0xb92e7526	-0.00016637574
222	0x3786e542	1.6080801e-05
223	0xb783048b	-1.5618532e-05
224	0x38c27cb2	9.273867e-05
225	0x38c5948d	9.421362e-05
226	0xb955fd65	-0.0002040766
227	0xb886f813	-6.435825e-05
228	0xba0b597d	-0.0005315764
229	0x38faf5b3	0.00011966694
230	0xba1cf6ed	-0.00059877225
231	0xb8b0fa15	-8.4389154e-05
232	0xb81705c6	-3.6006582e-05
233	0xba49b1d3	-0.00076940394
234	0x258bd683	2.4258015e-16
235	0x293d7e28	4.2075853e-14
236	0xa8a5be6e	-1.8401266e-14
237	0x2756fc0d	2.9835103e-15
238	0x31388a23	2.6854046e-09
239	0x2925febe	3.6858313e-14
240	0x28a7e42f	1.8639683e-14
241	0x2b144aa9	5.2683774e-13
242	0xabcb78d6	-1.4457556e-12
243	0xb5f9a78d	-1.8600709e-06
244	0xb4b10dc7	-3.2978843e-07
245	0xb6a88678	-5.0224444e-06
246	0xb708e604	-8.159786e-06
247	0xb890d56e	-6.9062095e-05
248	0xb79275d7	-1.745943e-05
249	0xb7def07a	-2.6576443e-05
250	0xb6189ec5	-2.274218e-06
251	0x378a7fde	1.6510425e-05
252	0xb90931d0	-0.00013083895
253	0xba2476a3	-0.0006273782
254	0x3a3b945b	0.00071555906
255	0xbab437d7	-0.0013749552

encoder_lin.0.bias f4 [64]
0	0xbaea25cb	-0.0017864046
1	0xbca4d0f2	-0.020119164
2	0x3d1a91b1	0.0377366
3	0x3da27492	0.0793239
4	0xbd022e85	-0.031782646
5	0x3d68cf34	0.05683823
6	0xb5561d08	-7.976346e-07
7	0x3d37037f	0.04468107
8	0x3c47e648	0.012200899
9	0x3d7c552d	0.061604667
10	0x3d3506b3	0.044195842
11	0x3da843b1	0.08216036
12	0xbbbf79c0	-0.005843371
13	0x3ce22449	0.027605193
14	0x3b8c53d1	0.0042824526
15	0x3d8cb2c9	0.06870038
16	0x3cb518ff	0.022106646
17	0x3d9ea544	0.07746366
18	0x3cf1509b	0.029457381
19	0x3d506032	0.05087299
20	0xba23a33b	-0.000624228
21	0x3dbd88cd	0.09254608
22	0xbc2ca521	-0.010537417
23	0x3c8728c8	0.016498938
24	0x3cc133ab	0.023584208
25	0x3d0cf5e0	0.034414172
26	0xbd65d2b9	-0.056109164
27	0x3d791fb6	0.060821258
28	0x3d9b3e07	0.0758019
29	0x3d2e815c	0.042603835
30	0x3c714a4c	0.014727186
31	0x3aa65318	0.0012689559
32	0x3d24e6fc	0.040259346
33	0x3cb44976	0.022007685
34	0x3c33a569	0.01096473
35	0x3da0ef25	0.07858113
36	0x3d16a7dd	0.03678118
37	0x3d71a46e	0.058994703
38	0x3d44e7c2	0.048072584
39	0xbcaae535	-0.020861248
40	0x3d49d53c	0.04927562
41	0x3c599f77	0.013282648
42	0xb5b3c75f	-1.3394564e-06
43	0x3d9160cd	0.070985414
44	0xaf7a4641	-2.2762327e-10
45	0x3d2927b1	0.04129762
46	0x3ca13c0d	0.019681955
47	0xb926a3af	-0.0001589197
48	0x3d375127	0.044755127
49	0x3c875e9a	0.016524602
50	0xbd42b24e	-0.047533326
51	0x3d791b70	0.060817182
52	0x3d3ccc8b	0.046093505
53	0x3b782e2b	0.0037869315
54	0x3daed3da	0.08536501
55	0xb6a5eb68	-4.944788e-06
56	0x3d1da3c5	0.03848626
57	0xba4bcc69	-0.0007774295
58	0x3ca2de31	0.01988134
59	0x3d683791	0.056693617
60	0xb98b09ef	-0.00026519547
61	0x3a62371e	0.0008629429
62	0x3ca47547	0.020075453
63	0x3cd68143	0.026184684

encoder_lin.2.weight f4 [10, 64]
0	0x3b3f8aad	0.0029226944
1	0xbe02f21a	-0.12787667
2	0x3d6cf15d	0.05784737
3	0x3e3a7960	0.18210363
4	0xbc0ba487	-0.008523113
5	0xbe128c90	-0.14311433
6	0xbab2af47	-0.0013632559
7	0x3d320c9f	0.043469068
8	0x3e08dd44	0.13365656
9	0xbe06ec68	-0.1317612
10	0x3cf174eb	0.029474696
11	0xbca57c84	-0.020200975
12	0x372da216	1.0349342e-05
13	0x3bbfe148	0.005855713
14	0x3dd7bd0d	0.105341054
15	0xbe23027f	-0.15918921
16	0x3d18822c	0.037233517
17	0x3db21955	0.08696238
18	0xbc3eda8c	-0.011648785
19	0x3dfe93fe	0.12430571
20	0x3ae004ed	0.0017091312
21	0x3d812589	0.063059874
22	0x3c831dcc	0.01600542
23	0x3d933307	0.07187467
24	0xbd99bc61	-0.075066335
25	0x3dc7dcae	0.09758888
26	0xbd229fbf	-0.039703127
27	0xbca4253d	-0.020037288
28	0x3c009ff1	0.007850633
29	0x3d310590	0.043218195
30	0x3da701b4	0.08154622
31	0x3c8195fe	0.015818592
32	0x3d4ec369	0.050479326
33	0xbdd9020a	-0.10596092
34	0x3d85b983	0.06529524
35	0x3e22c54b	0.15895574
36	0xbdcc6fdd	-0.09982274
37	0xbd61a36c	-0.055087492
38	0xbda83bcb	-0.082145296
39	0xbd4f64fa	-0.050633408
40	0x3e16ca43	0.14725594
41	0xbd2efbd4	-0.04272063
42	0x2d9c998f	1.780334e-11
43	0xbd8edfc3	-0.06976273
44	0x33cbfe63	9.499197e-08
45	0x3de740e7	0.11291676
46	0x3d7330a1	0.059372548
47	0xba948c41	-0.0011333303
48	0xbd0fdfec	-0.035125658
49	0x3d10604c	0.035248086
50	0x3d281a29	0.041040573
51	0x3c39feae	0.011352224
52	0x3d82babc	0.06383273
53	0xbd91f204	-0.07126239
54	0x3e337c2a	0.17527834
55	0xb8f2e349	-0.000115817944
56	0x3dd75aef	0.10515391
57	0x3c7266ad	0.014794988
58	0xbd2c3925	-0.042046685
59	0x3e374423	0.17897086
60	0xb86124b4	-5.3678363e-05
61	0xbcdffb12	-0.0273414
62	0xbd6324b2	-0.055454917
63	0x3ceadd6e	0.028670039
64	0xbb9abd7a	-0.0047222944
65	0x3d925f2c	0.07147059
66	0xbc2febb3	-0.010737347
67	0x3de2e211	0.11078275
68	0x3d53091a	0.05152235
69	0x3d1702fa	0.036868073
70	0x37aa6845	2.0314134e-05
71	0xbbf6d40a	-0.0075326012
72	0x3da313e7	0.079627804
73	0xbdb0c076	-0.08630459
74	0xbdd5e700	-0.104444504
75	0x3c1332ea	0.008984307
76	0x2e03f71e	3.0005436e-11
77	0x3d6d8dee	0.057996683
78	0x3e07e9ce	0.13272783
79	0x3cbe7e6a	0.023253638
80	0x3d9ffade	0.07811521
81	0xbe08b578	-0.13350475
82	0x3c7e2fda	0.015514338
83	0x3e0fd168	0.14044726
84	0xaad4490a	-3.7709446e-13
85	0xbd5f12b9	-0.054461215
86	0xbacdc6f5	-0.0015699553
87	0xbd33c194	-0.043885782
88	0xbc431542	-0.011906924
89	0xbd6bc1c5	-0.05755784
90	0x3ab13bc4	0.001352184
91	0x3caef087	0.021354927
92	0xbe09b080	-0.13446236
93	0x3d798d36	0.060925685
94	0x3ba19101	0.004930616
95	0xbdad9912	-0.084764615
96	0x3dcf8f51	0.10134757
97	0xbc3af2aa	-0.011410395
98	0x3da7dfa0	0.0819695
99	0xbd52f5e8	-0.051504046
100	0xbd9cdbac	-0.076590866
101	0x3b16d297	0.0023013705
102	0x3cde3cf1	0.027128669
103	0x3d6943c1	0.05694938
104	0xbd0667e2	-0.032813914
105	0xbe1a26a2	-0.150538
106	0x326b992b	1.3713627e-08
107	0xbdeebb67	-0.11656838
108	0x3b548756	0.00324293
109	0xbd6d1beb	-0.057887953
110	0x3d530026	0.051513813
111	0x399b18a5	0.00029582265
112	0xbdbcd0d1	-0.09219516
113	0xbc85dc05	-0.016340265
114	0x3d50924a	0.050920762
115	0xbe39d49a	-0.18147507
116	0x3d81b6d7	0.06333702
117	0xbd0156b6	-0.031576835
118	0x3a39a86b	0.0007082286
119	0x36bfbf59	5.7145194e-06
120	0xbc2e8885	-0.010652666
121	0x3c2acd70	0.010424957
122	0x3c2b7cde	0.010466782
123	0x3dc4c2eb	0.0960749
124	0xbaaf6e5e	-0.0013384332
125	0xbd81d5a6	-0.06339578
126	0xbe1ca491	-0.15297152
127	0xbd33d372	-0.04390282
128	0x3ccc06a2	0.024905507
129	0x3c04e8d3	0.00811215
130	0x3d9bc275	0.07605449
131	0x3e053e44	0.13012034
132	0xbdbca473	-0.09211054
133	0xbd8a21ab	-0.06744703
134	0xba41d064	-0.00073934183
135	0xbd859431	-0.06522406
136	0xbcae1235	-0.021248916
137	0xbe0c0d0f	-0.13676856
138	0xbc4af400	-0.012387276
139	0xbe00b64b	-0.12569539
140	0xaae54bc7	-4.0731153e-13
141	0x3d9f6caa	0.07784398
142	0xbd45cef9	-0.048293088
143	0xbe19f4ce	-0.15034792
144	0x3d593a6f	0.053034242
145	0x3c7df11a	0.015499378
146	0xbe22f833	-0.15914993
147	0x3cc6429c	0.024201684
148	0x3886946a	6.417262e-05
149	0xbdfa9af4	-0.12236586
150	0xbd8b237a	-0.06793876
151	0x3c94baa4	0.018155403
152	0x3b9e43af	0.004829846
153	0x3d9668f7	0.07344239
154	0xbd9cd872	-0.07658471
155	0x3beaf889	0.007170741
156	0xbdd95218	-0.10611361
157	0xbdda8e9e	-0.10671733
158	0xbe007251	-0.12543608
159	0x3dba679d	0.09101794
160	0x3dcf6a99	0.10127754
161	0xbd95ad34	-0.073084265
162	0x3ca0f1ce	0.019646551
163	0x3d2f7476	0.042835675
164	0xbc2f401c	-0.010696437
165	0xbdc7b552	-0.09751381
166	0xbcdea320	-0.027177393
167	0xbd555db9	-0.052091334
168	0x3cbc75de	0.023005422
169	0xbe3f1f3d	-0.1866426
170	0xbaa04660	-0.0012228005
171	0xbe18be2b	-0.14916293
172	0x36f019db	7.1555673e-06
173	0x3d05c7ba	0.032661177
174	0xbcb7db24	-0.022443362
175	0x3a778410	0.0009441981
176	0xbda9062e	-0.08253132
177	0x3d3f9baa	0.046779312
178	0xbde0635d	-0.10956452
179	0xbdc6cb82	-0.09706785
180	0x3de12e51	0.10995162
181	0xbdc87456	-0.09787814
182	0x3d904e21	0.07046152
183	0xb6249e45	-2.453003e-06
184	0xbae15c6a	-0.0017193679
185	0xb985841e	-0.00025466172
186	0xbd56222b	-0.05227868
187	0xbca01c61	-0.019544782
188	0x38e5e76d	0.00010962677
189	0xbc39b3b2	-0.011334347
190	0xbd08caf8	-0.03339669
191	0x3da0f5c9	0.0785938
192	0xbd4cc7bc	-0.04999517
193	0xbd92a0fd	-0.07159612
194	0x3b3efdeb	0.0029143046
195	0x3dd24cec	0.10268578
196	0xbb03fa20	-0.00201381
197	0xbd9bdf3b	-0.07610937
198	0x388a3068	6.589369e-05
199	0xbd94ff60	-0.072752714
200	0x3e0fa4b0	0.14027667
201	0x3d3feef1	0.04685873
202	0xbddf13fb	-0.10892483
203	0xbd8d7e7c	-0.069088906
204	0x2b0d1f09	5.0136333e-13
205	0xbc94f582	-0.018183473
206	0x3e04a14a	0.12952152
207	0x3d8278c1	0.06370688
208	0x3dfcdebd	0.123471715
209	0xbdccc7f2	-0.09999074
210	0x3cf64773	0.030063367
211	0x3db14636	0.0865597
212	0x2f8e5b45	2.58945e-10
213	0x3ca5c10a	0.02023365
214	0x3d5009d0	0.050790608
215	0xbcceafd0	-0.025230318
216	0xbbe1feb9	-0.0068968204
217	0xbcd62bed	-0.026143992
218	0xbd87c257	-0.06628864
219	0x3d2a3502	0.04155446
220	0xbe427782	-0.18990901
221	0x3de229c1	0.1104312
222	0x3dbe3445	0.09287313
223	0xbdcea832	-0.100906745
224	0x3db927e2	0.0904081
225	0xbe2fbdae	-0.17162201
226	0x3c9d6f43	0.019218093
227	0xbddb3f25	-0.10705403
228	0xbc2bb6af	-0.010480567
229	0xbe09aca2	-0.1344476
230	0xbdc2a5a5	-0.095042504
231	0xba9c3585	-0.0011917806
232	0x3c9f6d5c	0.019461326
233	0xbdbc3466	-0.09189682
234	0x2ebe35d3	8.649761e-11
235	0xbd7e0aa8	-0.06202188
236	0x362b950e	2.5567747e-06
237	0xbce302d5	-0.027711311
238	0x3e08a1a8	0.13342917
239	0x395a041e	0.00020791634
240	0xbd872368	-0.0659855
241	0x3d7902a7	0.060793545
242	0x3de3d105	0.11123852
243	0xbdc71170	-0.09720123
244	0xbca33b79	-0.01992582
245	0x3cfbea8c	0.03075149
246	0x3cbc334a	0.022973675
247	0xb5d7d13e	-1.6079646e-06
248	0x3b4a6d9e	0.003088809
249	0xbd2b7398	-0.041858286
250	0xbd264f10	-0.040602744
251	0x3d52b97a	0.051446415
252	0xbaa9a33d	-0.0012942326
253	0xbde8e1e7	-0.113712125
254	0xbdde171e	-0.10844253
255	0xbde548de	-0.11195539

encoder_lin.2.bias f4 [10]
0	0x3cb13e62	0.021636192
1	0xbdc6d619	-0.09708805
2	0xbcecbb62	-0.028897945
3	0x3c7e1a56	0.015509209
4	0x3d728b99	0.059215162
5	0xbd98ca57	-0.07460468
6	0xbd583d9c	-0.05279313
7	0x3de945e9	0.113902874
8	0xbd94300f	-0.07235729
9	0xbe052890	-0.13003755

decoder_lin.0.weight f4 [64, 10]
0	0xbde83a83	-0.11339285
1	0x3d548581	0.05188513
2	0x3e69f349	0.22846712
3	0xbe51386b	-0.20431678
4	0x3e76eb80	0.24113274
5	0xbe3a8a94	-0.18216926
6	0x3db70c01	0.089378364
7	0xbb3b32b9	-0.0028564169
8	0xbe8af91d	-0.27143183
9	0xbdd2667e	-0.10273455
10	0xbead9435	-0.33902135
11	0xbe9e0367	-0.3086197
12	0xbe30a461	-0.17250206
13	0xbdfc662c	-0.12324175
14	0xbd92dcbc	-0.07171008
15	0x3e00ff94	0.12597495
16	0x3a079da4	0.00051733316
17	0x3e9c9f0c	0.30590093
18	0x3e215327	0.15754376
19	0xbdc164cf	-0.09443056
20	0xbcb1aac4	-0.021687873
21	0x3c7197f4	0.014745701
22	0xbd3fa2c3	-0.04678608
23	0x3e486a52	0.19571808
24	0xbc534135	-0.012893965
25	0x3e8e2764	0.27764428
26	0x3d4fc934	0.05072899
27	0x3dc3f65f	0.09568476
28	0xbe8bf0d4	-0.27332175
29	0xbea1a5fb	-0.31571946
30	0x3d710ab2	0.05884809
31	0x3e27faf7	0.16404329
32	0xbcebc0cc	-0.028778456
33	0x3e113515	0.14180405
34	0xbea6b513	-0.32560024
35	0x37b2ae0f	2.1300306e-05
36	0x3c60f317	0.013729832
37	0xbe0441dd	-0.1291575
38	0xbd8dcd68	-0.06923944
39	0xbd1f1388	-0.038836986
40	0x3e421e2c	0.18956822
41	0x3e695496	0.22786173
42	0xbe5d6310	-0.2161982
43	0x3e0f25af	0.13979219
44	0xbe85a481	-0.2610207
45	0x3d3de14e	0.046357445
46	0x3e82fa08	0.25581384
47	0x3cfd5c85	0.030927906
48	0x3e02788c	0.12741297
49	0xbe9bac7f	-0.30405042
50	0x3ca2a9a6	0.019856285
51	0xbe36b455	-0.17842229
52	0x3cfa6be4	0.030569024
53	0x3d3ba6ef	0.045813497
54	0x3e8b1ec3	0.27171907
55	0xbc3beb3a	-0.011469657
56	0x3e1f5e6e	0.15563366
57	0x3e6f3f67	0.2336403
58	0xbdfaa1bb	-0.12237879
59	0xbe847312	-0.25869042
60	0xbd0f646b	-0.035007875
61	0x3d2d4a9b	0.042307477
62	0xbe917c10	-0.28414965
63	0xbe26bcca	-0.16282955
64	0x3e4027d9	0.187652
65	0xbe354d91	-0.1770537
66	0x3eae7128	0.34070706
67	0xbe117a84	-0.14206892
68	0x3e5e0348	0.21680939
69	0xbea5e502	-0.32401282
70	0x3d953a79	0.072865434
71	0xbcd50a48	-0.026005879
72	0x3dc158eb	0.09440788
73	0x3d9ea4ec	0.077463
74	0x3e9ef265	0.31044307
75	0xbd1e2330	-0.038607776
76	0x3eae50b9	0.34045961
77	0xbd9bdbcd	-0.07610283
78	0xbe9b546a	-0.3033784
79	0x3e10bfb0	0.14135623
80	0x3d5c026e	0.053713255
81	0x3dfb70c2	0.12277366
82	0x3dc90b2a	0.098165825
83	0x3e8a4f37	0.2701356
84	0x3e16d190	0.14728379
85	0x3dc5818f	0.09643852
86	0x3cf37654	0.02971951
87	0xbaf613ad	-0.0018774174
88	0x3d24caa3	0.040232312
89	0x3e77a16d	0.24182673
90	0x3cda82f9	0.02667378
91	0xbe7d865a	-0.24758282
92	0xbd27f282	-0.041002758
93	0xba148101	-0.0005664975
94	0xbe5e2b21	-0.2169614
95	0xbde668e3	-0.11250474
96	0xbd940861	-0.07228161
97	0xbd97c1f8	-0.074100435
98	0xbe6383e7	-0.22218286
99	0x3db998ee	0.09062372
100	0x3e0fc292	0.14039066
101	0xbe29c1f5	-0.16577895
102	0xbe5a7166	-0.2133232
103	0xbe717ee5	-0.23583563
104	0xbe624eba	-0.22100344
105	0x3cfe9838	0.031078443
106	0x3b022ac0	0.0019861907
107	0xbddaada2	-0.10677649
108	0xbd5fa3d8	-0.054599613
109	0xbe237bb5	-0.15965159
110	0xbec3ea66	-0.3826477
111	0xbeafd264	-0.34340203
112	0xbdea7e92	-0.114499226
113	0xbea2bfd7	-0.31786987
114	0x3e77eec8	0.24212182
115	0xbe33e594	-0.17568046
116	0xbde850eb	-0.11343559
117	0x3c52d038	0.012867026
118	0xbea6305f	-0.3245878
119	0x3e076869	0.13223423
120	0x3e224e84	0.15850264
121	0x3b4efd60	0.0031584129
122	0xbe83002e	-0.25586075
123	0x3e04a174	0.12952214
124	0xbe58cfb8	-0.21172988
125	0x3e8c944d	0.27456895
126	0x3b724716	0.003696864
127	0x3c3313b3	0.01092999
128	0xbe9079fe	-0.28218073
129	0x3c239158	0.009983383
130	0xbe17a4db	-0.14808981
131	0xbd736427	-0.059421685
132	0xbdfa9e86	-0.12237267
133	0xbd9bc52e	-0.076059684
134	0x3d0729af	0.032998737
135	0x3d8ad87d	0.06779573
136	0x3e620d16	0.22075304
137	0x3d018295	0.031618673
138	0x3e1999f4	0.15000135
139	0xbeaece87	-0.34141943
140	0x3d8bea0d	0.06831751
141	0xbd4915b0	-0.04909295
142	0xbda8c5b9	-0.082408376
143	0x3d4b572c	0.04964368
144	0x3d81a4f3	0.0633029
145	0x3ba9e2dd	0.005184515
146	0x3eadb6b3	0.3392845
147	0xbe70be65	-0.2351013
148	0xbe652ea4	-0.22381073
149	0xbe21324f	-0.15741847
150	0x3e91d398	0.28481746
151	0xbcce80d4	-0.025207914
152	0x3d26f785	0.040763397
153	0x3d66e501	0.05637074
154	0x3e387341	0.18012716
155	0x3e33d6ce	0.1756241
156	0xbe4596d6	-0.1929582
157	0x3be749f6	0.0070583774
158	0xbe9eab8c	-0.30990255
159	0xbdee1c12	-0.11626448
160	0xbcdac8f0	-0.026707143
161	0x3e156655	0.14589818
162	0x3e19e61a	0.15029183
163	0x3decad1a	0.11556454
164	0xbdc5f018	-0.09664935
165	0xbb7f5e88	-0.0038966257
166	0x3cbc1deb	0.022963485
167	0xbe7b1585	-0.24519928
168	0x3eb21dd7	0.3478839
169	0xbdfea041	-0.1243291
170	0xbd38e01b	-0.0451356
171	0xbe91f11f	-0.28504273
172	0xbea6b291	-0.3255811
173	0xbe86b32a	-0.26308566
174	0xbe498ebd	-0.19683357
175	0xbe72cdb5	-0.23711284
176	0x3e75664b	0.23964803
177	0x3ea5bf6c	0.32372606
178	0xbe7d4a84	-0.24735457
179	0x3e46a395	0.19398339
180	0x3c028b6f	0.007967814
181	0x3e42f885	0.19040115
182	0xbe860ffe	-0.26184076
183	0x3cc1355a	0.02358501
184	0x3e224616	0.15847048
185	0xbe874e75	-0.26427045
186	0x3e7f6f3a	0.24944773
187	0xbccdea2a	-0.025136072
188	0x3e147c42	0.14500526
189	0xbe1e4aa9	-0.15458168
190	0xbe5b8f70	-0.21441436
191	0x3e1df64d	0.15425988
192	0x3d1f2d09	0.03886131
193	0x3e42284d	0.18960686
194	0x3d83bdbb	0.064326726
195	0x3e2d8387	0.16944705
196	0xbdc8c2d9	-0.09802789
197	0x3ea440b8	0.32080626
198	0x3dfaeaaa	0.1225179
199	0xbea781a7	-0.32716104
200	0xbe47a868	-0.19497836
201	0xbe4c7e8c	-0.19970149
202	0xbe2cb840	-0.16867161
203	0xbcf4d18d	-0.029885078
204	0x3ea130fb	0.31482682
205	0xbd337910	-0.043816626
206	0xbd7acc58	-0.061230034
207	0x3d986984	0.074420005
208	0x3d204246	0.039125703
209	0xbdc6459c	-0.09681246
210	0xbe12aed1	-0.143245
211	0xbda6373b	-0.08116003
212	0xbab8b136	-0.0014090899
213	0xbe615050	-0.22003293
214	0x3ea5ca55	0.3238093
215	0xbc4d52f0	-0.012531981
216	0x3e88cb4a	0.26717597
217	0xbd51bca5	-0.051205296
218	0xbd79a5d3	-0.060949158
219	0xbc8194af	-0.015817968
220	0xbe8d148c	-0.2755474
221	0x3dd9b4ef	0.106302135
222	0xbd92bd49	-0.071650095
223	0x3df798c1	0.12089682
224	0xbc3f0835	-0.011659672
225	0x3e73fee4	0.23827702
226	0xbdce77dc	-0.10081455
227	0x3ca31e93	0.01991204
228	0x3e50de57	0.20397316
229	0x3cc4c60e	0.024020221
230	0x3d19b7b6	0.037528716
231	0xbe5fc75f	-0.21853398
232	0xbe23556c	-0.15950555
233	0xbe5de89f	-0.21670769
234	0x3e3f300f	0.18670677
235	0xbe24eafd	-0.16105266
236	0x3e5f8247	0.2182704
237	0xbe599812	-0.21249416
238	0xbea63215	-0.32460085
239	0xbe47f5b9	-0.1952733
240	0x3e666dbf	0.22502802
241	0x3d2eeb3e	0.042704813
242	0xbe6fe3ab	-0.23426692
243	0x3c6a3ad2	0.01429625
244	0xbe8308f0	-0.25592756
245	0xbe265466	-0.16243133
246	0xbd7268f1	-0.05918211
247	0x3e0d7a92	0.13816288
248	0xbaa34005	-0.0012454992
249	0xbdfbc591	-0.12293542
250	0x3dabe5f1	0.08393467
251	0x3c40d21c	0.011768844
252	0x3daa3da3	0.083125375
253	0x3db3c922	0.087785974
254	0x3d2e4eb8	0.04255554
255	0x3da00426	0.07813291

decoder_lin.0.bias f4 [64]
0	0x3ea2acc1	0.31772426
1	0x3de276dc	0.11057827
2	0x3e53a26b	0.20667426
3	0xbe0f294f	-0.13980602
4	0x3dfb2151	0.12262214
5	0x3eacf512	0.33780724
6	0xbd479f33	-0.04873581
7	0x3e2f0c9d	0.17094655
8	0x3e170d0b	0.14751069
9	0x3d895ade	0.06706785
10	0x3e47daee	0.19517109
11	0x3e09455c	0.13405365
12	0xbe808c0c	-0.25106847
13	0xbcf94637	-0.030428989
14	0xbd92fe91	-0.07177461
15	0x3e44388e	0.19162199
16	0x3d6a851a	0.05725584
17	0xbdb6c67e	-0.08924578
18	0x3e206142	0.15662101
19	0x3d489801	0.048973087
20	0xbd6bdf03	-0.057585727
21	0xbdf823f7	-0.12116235
22	0xbd8212bc	-0.063512295
23	0x3e59090f	0.21194862
24	0x3d54f60b	0.051992457
25	0xbce3e53d	-0.02781927
26	0xbdef703b	-0.11691328
27	0x3d01a684	0.031652942
28	0xbc0d5833	-0.008626985
29	0x3ea526f0	0.3225627
30	0xbdc4d182	-0.09610273
31	0xbcf33e83	-0.029692894
32	0xbd00a545	-0.031407613
33	0xbdca15ed	-0.09867463
34	0x3e93f60c	0.28898656
35	0xbced88b6	-0.028995853
36	0xbd4c4c35	-0.049877364
37	0x3b0e7906	0.0021739616
38	0x3e8691e9	0.26283196
39	0x3d6b95f9	0.057516072
40	0xbe8a2309	-0.26979855
41	0xbe094976	-0.1340693
42	0x3dac0dbc	0.08401057
43	0x3e0b4c7e	0.13603398
44	0x3c7e28dd	0.015512672
45	0x3dee588c	0.11637983
46	0xbdf36401	-0.118843086
47	0x3deb8cc9	0.11501462
48	0x3e06164d	0.13094445
49	0xbe549fce	-0.20764086
50	0x3d3c164b	0.045919698
51	0x3e7ffdb8	0.2499913
52	0x3daa5f03	0.08318903
53	0x3d9a50a0	0.07534909
54	0x3e5b7399	0.21430816
55	0x3eaf60dd	0.34253588
56	0xbc50205e	-0.012703029
57	0x3e8ae4b8	0.27127624
58	0x3b92d3bb	0.0044808066
59	0x3e888ebe	0.26671404
60	0xbbf901d5	-0.0075990953
61	0xbd47425e	-0.048647277
62	0xbde5ea94	-0.11226383
63	0x3e657b3a	0.22410288

decoder_lin.2.weight f4 [288, 64]
0	0xbc15b284	-0.0091368
1	0x3dce9d9c	0.10088655
2	0x3dbb6a84	0.091511756
3	0x3d33c821	0.04389203
4	0x3b2611e0	0.0025340244
5	0x3c90ae2b	0.017661175
6	0x3cebac2f	0.028768627
7	0x3cbb1c6e	0.022840705
8	0x3c89095a	0.016728092
9	0x3ccd7387	0.025079502
10	0x3d3277a5	0.043571133
11	0x3c70001b	0.014648463
12	0x3ddb849e	0.10718654
13	0x3cf11ee1	0.02943367
14	0x3d0166d5	0.03159221
15	0xbd82436a	-0.063605145
16	0x3d0e73c3	0.034778368
17	0x3c2c99d6	0.010534724
18	0x3cf00fc5	0.029304394
19	0xbb7dc921	-0.0038724618
20	0x3a5574e4	0.0008142723
21	0x3c980765	0.018558213
22	0x3d5653bc	0.05232595
23	0x3c3aeb9b	0.011408712
24	0xbc425170	-0.0118602365
25	0x3d07d7f2	0.033164926
26	0x3c7fde33	0.015616941
27	0xbc15ea12	-0.009150045
28	0x3b1aec1c	0.0023639267
29	0xbd6fdee0	-0.05856216
30	0x3cf7c0e3	0.030243343
31	0x3d37462a	0.044744648
32	0x3c9c300e	0.019065883
33	0xbc937011	-0.017997773
34	0xbb4079af	-0.0029369404
35	0x3c2f48fd	0.010698554
36	0x3cdfd4dc	0.027323179
37	0x3d287e43	0.041136038
38	0x3d324b81	0.043529037
39	0x3c99fffd	0.018798823
40	0x3d428b80	0.04749632
41	0x3d98438d	0.07434759
42	0xbd21e780	-0.039527416
43	0xbc443e2c	-0.011977714
44	0x3d051739	0.03249285
45	0x3d7dc792	0.061957903
46	0xbbddf9aa	-0.006774147
47	0xbbebabd6	-0.0071921153
48	0x3b667983	0.0035167641
49	0xbc21a4c1	-0.009865941
50	0xbcd5294d	-0.02602067
51	0xbc37b434	-0.011212397
52	0xba571537	-0.00082047604
53	0xbd62762d	-0.055288482
54	0xbb0e53d0	-0.0021717437
55	0xbd2b1d4e	-0.041775994
56	0x3ddb1831	0.106979735
57	0x3cd39080	0.025825739
58	0xbc9a5e6a	-0.018843848
59	0xbd86ca61	-0.065815695
60	0xbd8551cb	-0.065097414
61	0xbca2f37e	-0.019891497
62	0x3bfa2fd6	0.007635097
63	0xbd555c62	-0.052090056
64	0xbd1dac2b	-0.03849427
65	0x3cd15425	0.025552819
66	0x3c737047	0.014858312
67	0x3c2b42c0	0.010452926
68	0x3d686ba7	0.05674329
69	0x3c12d9c3	0.008963051
70	0x3d79c8fc	0.06098269
71	0xbd420482	-0.04736758
72	0xbd59537d	-0.053058136
73	0xbd0e7183	-0.034776222
74	0x3a625771	0.00086342456
75	0xbc9bc0ab	-0.01901277
76	0x3a8d6cb8	0.0010789847
77	0x3d0ee868	0.03488961
78	0x3a93e978	0.0011284789
79	0x3c58261c	0.01319268
80	0x3d5a7baf	0.05334061
81	0x3b8919f8	0.004184004
82	0x3d7f829d	0.062380422
83	0x3c509bfc	0.012732502
84	0x3d58bc95	0.05291422
85	0xb86b7b28	-5.6143064e-05
86	0x3d06cc5d	0.03290974
87	0xbd084abe	-0.033274405
88	0x3d46bf71	0.048522417
89	0x3d71bf24	0.059020177
90	0xbcca9295	-0.024728099
91	0x3d554e97	0.052076902
92	0x39353cb5	0.0001728412
93	0xbd9afcea	-0.07567771
94	0x3bcbe384	0.0062221903
95	0x3cc7eed5	0.024405876
96	0x3abca538	0.0014392501
97	0xbb96f91f	-0.0046073343
98	0xbcb072c5	-0.021539101
99	0x3d127341	0.035754446
100	0x3c3cf9cd	0.0115341665
101	0x3ceb1e4f	0.028700976
102	0x3d89bbe1	0.06725288
103	0xb5f3b42d	-1.8157349e-06
104	0x3cf97fc8	0.030456439
105	0x3c773ac5	0.015089695
106	0x3d4a0753	0.04932339
107	0xbd0ee38c	-0.034884974
108	0x3ce4aef8	0.027915463
109	0xbdb6fec9	-0.08935315
110	0xbca4a9a4	-0.020100422
111	0xbc1fcf42	-0.009754004
112	0x3c3eb354	0.011639435
113	0xbd72c112	-0.059266157
114	0x3cf97acf	0.030454068
115	0xbcfd7c42	-0.03094304
116	0x3c30e546	0.010796851
117	0x3c5b3a2a	0.013380567
118	0x3c7e65d1	0.015527205
119	0x3cdeabc7	0.02718152
120	0x3aef9add	0.0018280406
121	0x3d2c693f	0.042092558
122	0xbcb0d429	-0.02158554
123	0xbd8898da	-0.06669779
124	0x3d0ed862	0.034874327
125	0x3ca64619	0.020297097
126	0xbd8859cc	-0.066577524
127	0xbc09b314	-0.008404512
128	0x3d77c365	0.060489077
129	0x3d8597e1	0.06523109
130	0x3d72c36b	0.059268396
131	0xbd45d696	-0.04830035
132	0x3d043607	0.032278087
133	0x3c14ecd4	0.009089667
134	0xbb5e49b1	-0.0033918435
135	0x3daea79e	0.08528064
136	0xbcba3136	-0.022728544
137	0xbd51c0a1	-0.051209096
138	0x3c1d4652	0.009599285
139	0x3d387021	0.04502881
140	0x3d5a648d	0.05331855
141	0x3dc4a81b	0.09602376
142	0xbd71678a	-0.058936633
143	0x3cbf8b74	0.023381926
144	0xbd52fdb5	-0.051511485
145	0xbd08ced9	-0.03340039
146	0x3d3647aa	0.044501938
147	0x3da2a469	0.07941515
148	0x3da5c04d	0.08093319
149	0x3d98c477	0.07459348
150	0x3db93c69	0.090447254
151	0x3cf969e1	0.030445995
152	0xbd496b87	-0.04917481
153	0x3dbb4cb8	0.09145492
154	0xbd9951b2	-0.07486285
155	0xbd71a635	-0.058996398
156	0x2f3402eb	1.6371941e-10
157	0xbd0a69cb	-0.0337923
158	0x3cc3fbb1	0.023923727
159	0x3ddbea34	0.1073803
160	0x3d95fef9	0.07324023
161	0xbca18a49	-0.01971926
162	0x3dfca936	0.12336962
163	0x3c094b6e	0.0083798
164	0x3c6df79a	0.014524365
165	0x3d07f226	0.033189915
166	0x3d07a65d	0.03311764
167	0x3b8496a6	0.004046279
168	0x3c26b62f	0.010175272
169	0x3c0ac699	0.008470201
170	0x3dcbe7e4	0.09956339
171	0x3cdd1698	0.026988313
172	0x3db89bce	0.090140924
173	0xbd1b7055	-0.037948925
174	0xbd20c89c	-0.039253816
175	0x3db47ac2	0.08812477
176	0xbb1bf8eb	-0.002379949
177	0x3d805c10	0.062675595
178	0xbcd03a5b	-0.025418451
179	0x3e21e3da	0.15809575
180	0xbce4f325	-0.027947972
181	0xbd280163	-0.041016947
182	0x3d2d23d8	0.04227051
183	0x3d13ecbd	0.036114443
184	0xbcc884bd	-0.024477357
185	0x3d124406	0.035709403
186	0x3c7224c7	0.014779276
187	0xbdbe32f5	-0.09287063
188	0xbdf93c7b	-0.12169739
189	0xbd6c7131	-0.057725135
190	0xbdbcd0b2	-0.09219493
191	0x3dc9a245	0.098454036
192	0xbd1dc293	-0.03851564
193	0x3c0d088f	0.008607998
194	0xbb89a192	-0.004200169
195	0xbab75211	-0.001398625
196	0x3cc9fc65	0.024656484
197	0xbd2e0d6c	-0.04249327
198	0xbb89f661	-0.004210279
199	0x3cffcbf8	0.03122519
200	0xb9813455	-0.00024643788
201	0x3b1446ef	0.0022625288
202	0x3c0b4ff4	0.008502949
203	0x3c9123ab	0.017717203
204	0xbd26c95b	-0.04071937
205	0xbbc0a428	-0.005878944
206	0xbb6b42dd	-0.0035898008
207	0xbbb3d1e7	-0.005487669
208	0xbaccdbae	-0.0015629434
209	0xbb3bbeda	-0.0028647692
210	0xbb843d73	-0.0040356456
211	0xba9aa1f4	-0.0011797533
212	0xbb0bf957	-0.0021358335
213	0xbb6bc7dc	-0.003597728
214	0x2eeb98ce	1.0713706e-10
215	0xbd2f598a	-0.04281
216	0xba3a292d	-0.00071014726
217	0xbb14a8b8	-0.0022683572
218	0xbaac0871	-0.0013125074
219	0xba1eedb2	-0.0006062641
220	0x285371f4	1.17375626e-14
221	0x3c6e4a55	0.014544089
222	0x3cfbbe0e	0.030730274
223	0x3b04cbbe	0.0020263041
224	0xbd37ae51	-0.044843975
225	0x3b033fbc	0.0020027002
226	0xbd81b535	-0.063333906
227	0x36dafe3f	6.5265044e-06
228	0x3ac0a466	0.0014697432
229	0xba8eaa77	-0.0010884543
230	0xbb833c0b	-0.0040049604
231	0xbb070d18	-0.002060717
232	0xbcd4901e	-0.025947627
233	0x3d833aee	0.06407724
234	0xbad9cf1f	-0.0016617513
235	0x3b3414e6	0.0027478277
236	0xbbc8dadd	-0.006129606
237	0xba5fdbb1	-0.00085395115
238	0xbad66e04	-0.0016359692
239	0x3b8090ea	0.003923525
240	0xbb795252	-0.0038043451
241	0xbbe9ed77	-0.0071389037
242	0xbb44c2f2	-0.0030023423
243	0xbb1d1f3f	-0.0023974923
244	0xba093b52	-0.00052349747
245	0xb9e37eff	-0.00043391433
246	0xbd389b51	-0.045069996
247	0xbaaa85fe	-0.0013009903
248	0x3b100fc8	0.0021982063
249	0x3c4ca7bb	0.012491162
250	0xba4b902c	-0.0007765319
251	0xbab9641b	-0.0014144214
252	0xb74f4225	-1.2353562e-05
253	0xb85329a8	-5.0345116e-05
254	0xbc4c5275	-0.012470831
255	0x3d19f29d	0.03758489
