2. Convolutional Autoencoders/models/pca_autoencoder.pth (torch, 207529 bytes, 19 tensors)

encoder_conv.0.weight f4 [8, 1, 3, 3]
0.019334145 0.13236679 -0.22875911 -0.20967585 -0.1338153 0.08950745 -0.0010856796 0.1891515
-0.012569578 0.092599966 -0.09660686 -0.024087075 -0.26459894 -0.21694668 -0.096423164 0.0133850705
0.06662021 0.17222247 -0.18191005 -0.11268298 0.13152279 0.27732718 -0.037654974 0.25390086
-0.01967235 0.026472732 0.29493952 -0.39215678 -0.27310595 -0.16151257 -0.21618453 0.16873613
-0.24494778 -0.27490455 -0.29913482 -0.3558336 -0.2125433 0.17980206 0.04902726 0.10936996
-0.05526771 -0.18582368 0.011129443 -0.31914353 -0.20004435 -0.11449824 0.26174808 0.2273401
-0.08782419 0.08406479 0.24683711 0.34574673 0.18926112 0.09046182 0.16031042 -0.2812596
-0.13287617 -0.2037786 -0.2577261 -0.27504745 0.072295964 -0.074714646 -0.3161412 0.120652825
0.2204334 0.017754195 0.0455664 0.119795546 0.22297317 0.33766624 -0.16900116 -0.056548826
00000000: a462 9e3c 298b 073e d43f 6abe 44b5 56be
00000010: e106 09be af4f b73d 5d4d 8eba eeb0 413e
00000020: a2f0 4dbc 0da5 bd3d d1d9 c5bd 4252 c5bc
00000030: 8379 87be 4527 5ebe 8279 c5bd 0e4d 5b3c
00000040: 2d70 883d 165b 303e a146 3abe 56c6 e6bd
00000050: e9ad 063e d4fd 8d3e 1a3c 1abd 4bff 813e
00000060: e827 a1bc 58dd d83c 5002 973e c6c8 c8be
00000070: 8bd4 8bbe 8d63 25be 7a5f 5dbe 2ac9 2c3e
00000080: 97d3 7abe 4ac0 8cbe 3328 99be d22f b6be
00000090: f3a4 59be 081e 383e cfd0 483d 5cfd df3d
000000a0: 6560 62bd 9048 3ebe 4458 363c c866 a3be
000000b0: 6dd8 4cbe 0e7e eabd d803 863e d8cb 683e
000000c0: 2bdd b3bd 292a ac3d dec2 7c3e b705 b13e
000000d0: abcd 413e 0c44 b93d 6a28 243e 4201 90be
000000e0: b110 08be 56ab 50be adf4 83be 05d3 8cbe
000000f0: e80f 943d fe03 99bd 42dd a1be d418 f73d
00000100: 4bb9 613e 3f71 913c d5a3 3a3d 5e57 f53d
00000110: 1453 643e 97e2 ac3e a40e 2dbe be9f 67bd

encoder_conv.0.bias f4 [8]
0.22884408 0.3785476 0.3612054 0.37847078 0.16189988 -0.24227361 0.13422462 -0.16956341
00000000: 1a56 6a3e fed0 c13e eaef b83e ecc6 c13e
00000010: 15c9 253e 9316 78be 2e72 093e 08a2 2dbe

encoder_conv.2.weight f4 [16, 8, 3, 3]
0.035762623 0.16817595 0.16642061 0.04556411 0.12308885 0.13630243 0.09651258 0.08065246
0.11897861 0.08912288 0.17660257 0.17256877 0.18656048 0.19364114 0.08249219 0.0760503
0.19187489 0.14805634 0.026176382 0.04736637 0.18755057 0.11379758 0.05505684 0.09866711
-0.014729442 0.080173895 0.035147782 0.066885516 0.17499398 0.119423695 0.109018326 0.22262137
0.08675536 0.18407448 0.2294358 0.048765115 0.10210395 0.1354298 0.09102224 0.101816185
0.15036368 0.09279298 0.08819719 0.15216461 0.017135167 -0.075711146 -0.119600095 -0.001376366
-0.04006173 -0.13790266 0.00949745 -0.05062907 -0.13907416 -0.029134065 0.15970944 0.16203734
0.10004105 0.13966973 0.16896388 0.14233468 0.19015136 0.19110052 0.1555106 0.01671173
-0.1405445 -0.06421214 0.037725553 -0.081878714 -0.07623172 -0.008966093 -0.12034334 -0.09439618
0.04242583 0.086488515 0.09917295 -0.028351508 0.10835564 0.000751998 0.047496837 0.026312817
0.054741155 0.05944825 -1.6268903e-05 -0.0052174246 0.07977229 0.108644016 0.059181884 0.097561106
0.008272892 0.09024515 0.11641578 -0.001901314 0.12883267 0.06024165 -0.062186923 0.097933665
0.030457001 -0.0025482636 0.11921578 0.0019973505 0.097741775 0.062114466 0.14258146 0.11610319
0.11276888 0.103673436 0.08899508 0.06539618 -0.014280284 0.10914218 0.107112594 0.115621045
0.020375906 0.056995746 0.0014487805 0.024184821 0.0003695035 0.006226335 -0.11352424 -0.01292846
-0.024365004 -0.018403724 -0.10602469 -0.0947008 -0.11967451 0.027647821 0.078426376 0.19374898
0.07111942 0.12229924 0.1497662 0.07697753 0.11889656 0.13783339 0.07440666 0.02828092
-0.10119043 -0.076438606 0.05247487 -0.13494255 -0.05611437 0.08709797 -0.030377014 -0.036917932
-0.029974975 0.08153426 -0.00451697 0.050583117 0.043963924 0.07565503 0.056123007 0.124867804
0.058524005 0.16220489 0.14729695 0.031810425 0.13018405 0.049280714 0.07735502 0.1012916
0.12424296 0.15541509 0.025030939 0.05664948 0.096840896 -0.04994426 0.10643249 -0.024953645
0.055791408 0.04253212 0.009939442 0.10057637 0.1860244 0.06572675 0.04530249 0.09735459
-0.0044529405 0.12580863 0.084027655 0.027096126 0.026452785 0.119723774 0.08899128 0.12831141
0.10245184 0.039568752 0.05778638 0.08940771 0.12682074 -0.0055210423 -0.08015528 -0.036612306
-0.10905667 -0.039572224 -0.059263617 -0.10974858 0.02248479 -0.08223426 0.11489041 0.14262928
0.085541986 0.07406252 0.075822644 0.15880202 0.1219701 0.19847503 0.07954812 0.047948696
-0.01663534 -0.0062303315 -0.042365346 -0.015023387 -0.024997558 0.030225936 -0.025051177 -0.07299169
0.04205156 -0.0014828357 0.011648376 0.01258842 0.021737847 0.010257186 -0.0036094126 0.029977601
0.010306581 -0.061468672 -0.03288382 -0.009727741 -0.016584137 -0.026505565 -0.06356132 -0.023109153
-0.031100648 -0.021424802 0.0851703 0.11677529 0.056830317 0.07090294 0.0959433 0.073421896
0.08136956 0.08395332 0.03053241 -0.05509272 -0.05699441 0.017839998 -0.026627887 -0.08780488
-0.022758782 -0.05786348 -0.13185628 -0.07154469 0.033161286 -0.009048007 -0.026964793 0.0036108077
00000000: d47b 123d 5136 2c3e 2a6a 2a3e 6fa1 3a3d
00000010: 0216 fc3d dd92 0b3e 63a8 c53d 1e2d a53d
00000020: 0fab f33d 0e86 b63d 4ed7 343e deb5 303e
00000030: b609 3f3e dd49 463e aaf1 a83d 42c0 9b3d
00000040: da7a 443e 159c 173e da6f d63c 3d03 423d
00000050: 420d 403e b50e e93d 4883 613d fb11 ca3d
00000060: c253 71bc 3632 a43d 1ff7 0f3d 46fb 883d
00000070: 9f31 333e 6994 f43d 0045 df3d dbf6 633e
00000080: cbac b13d 057e 3c3e 38f1 6a3e eebd 473d
00000090: e01b d13d 1cae 0a3e de69 ba3d 0185 d03d
000000a0: f0f8 193e 3f0a be3d baa0 b43d 0ad1 1b3e
000000b0: 0d5f 8c3c 720e 9bbd e5f0 f4bd 2e67 b4ba
000000c0: c517 24bd 5b36 0dbe 319b 1b3c 6d60 4fbd
000000d0: 7569 0ebe 90aa eebc df8a 233e 1eed 253e
000000e0: 52e2 cc3d 9505 0f3e de04 2d3e 2fc0 113e
000000f0: 0ab7 423e dbaf 433e 2c3e 1f3e 0ae7 883c
00000100: e6ea 0fbe a881 83bd 1c86 1a3d 07b0 a7bd
00000110: 601f 9cbd 85e6 12bc 9276 f6bd c952 c1bd
00000120: b5c6 2d3d e420 b13d 301b cb3d 6c41 e8bc
00000130: 90e9 dd3d bb21 453a 0b8c 423d fa8d d73c
00000140: 4338 603d 0280 733d 3479 88b7 eef6 aabb
00000150: a85f a33d c180 de3d b468 723d 1ece c73d
00000160: 068b 073c 73d2 b83d 656b ee3d 8335 f9ba
00000170: b6ec 033e f3bf 763d b7b7 7ebd 7291 c83d
00000180: f680 f93c c500 27bb 6727 f43d fbe5 023b
00000190: d72c c83d bd6b 7e3d e000 123e 82c7 ed3d
000001a0: 5ff3 e63d bd52 d43d 0d43 b63d 6fee 853d
000001b0: daf7 69bc ef85 df3d d95d db3d baca ec3d
000001c0: 5feb a63c 5f74 693d 02e5 bd3a 3f1f c63c
000001d0: ecb9 c139 4906 cc3b 667f e8bd e4d1 53bc
000001e0: 1e99 c7bc 68c3 96bc 7923 d9bd 7ef2 c1bd
000001f0: e917 f5bd af7d e23c 029e a03d 2266 463e
00000200: 0fa7 913d 0678 fa3d 505c 193e 65a6 9d3d
00000210: 0a80 f33d 3224 0d3e 8562 983d 63ad e73c
00000220: ee3c cfbd d88b 9cbd e4ef 563d 612e 0abe
00000230: 2ed8 65bd 6c60 b23d 37d9 f8bc 4237 17bd
00000240: 148e f5bc 6ffb a63d 1703 94bb 3e30 4f3d
00000250: 8413 343d 06f1 9a3d 3de1 653d b1ba ff3d
00000260: deb6 6f3d 0a19 263e 03d5 163e a64b 023d
00000270: f84e 053e 93da 493d 4f6c 9e3d f871 cf3d
00000280: 1873 fe3d 2225 1f3e af0d cd3c 4909 683d
00000290: 8554 c63d 5a92 4cbd 47f9 d93d 966b ccbc
000002a0: 8885 643d 2936 2e3d 0bd9 223c fcfa cd3d
000002b0: 2e7d 3e3e bf9b 863d 1b8f 393d d861 c73d
000002c0: f9e9 91bb fad3 003e b116 ac3d b2f8 dd3c
000002d0: 83b3 d83c bd31 f53d 0f41 b63d 1164 033e
000002e0: 45d2 d13d d812 223d 69b1 6c3d 641b b73d
000002f0: 4cdd 013e dce9 b4bb 7428 a4bd c9f6 15bd
00000300: 1a59 dfbd 7c16 22bd 68be 72bd ddc3 e0bd
00000310: 0632 b83c 706a a8bd aa4b eb3d 690d 123e
00000320: a330 af3d 17ae 973d e748 9b3d ff9c 223e
00000330: 76cb f93d 0a3d 4b3e 20ea a23d da65 443d
00000340: d646 88bc cf27 ccbb 4987 2dbd a724 76bc
00000350: aec7 ccbc 629c f73c 2038 cdbc ab7c 95bd
00000360: 423e 2c3d b65b c2ba d4d8 3e3c a93f 4e3c
00000370: 9213 b23c c20d 283c e58b 6cbb 9693 f53c
00000380: efdc 283c 93c6 7bbd 2fb1 06bd 1a61 1fbc
00000390: 75db 87bc 3322 d9bc 702c 82bd 684f bdbc
000003a0: c9c6 febc 1183 afbc c46d ae3d e227 ef3d
000003b0: e8c6 683d 9035 913d ec7d c43d 385e 963d
000003c0: 15a5 a63d b8ef ab3d 1b1f fa3c e7a8 61bd
000003d0: f872 69bd 3025 923c ba22 dabc 0cd3 b3bd
000003e0: a070 babc 4202 6dbd 5505 07be 0686 92bd
000003f0: 21d4 073d 183e 14bc 45e5 dcbc 4da3 6c3b

encoder_conv.2.bias f4 [16]
0.10691204 0.04191125 0.11644214 0.025038261 0.10167443 0.085690804 0.12912637 -0.00030574657
-0.018937632 0.11767471 0.091089934 -0.019925551 0.03148346 0.021466034 -0.000106823674 0.080399804
00000000: b3f4 da3d 22ab 2b3d 3779 ee3d 0a1d cd3c
00000010: af3a d03d a97e af3d b439 043e 9c4c a0b9
00000020: 1823 9bbc 70ff f03d 5c8d ba3d e93a a3bc
00000030: cdf4 003d 89d9 af3c 8606 e0b8 a7a8 a43d

encoder_conv.4.weight f4 [32, 16, 3, 3]
0.07114266 0.14919098 0.12177963 0.11055263 0.17435823 0.093927816 0.06949809 0.151488
0.14162816 -0.04129965 0.077804655 0.07916346 -0.031395264 0.0673419 0.097456045 -0.02024981
0.07250255 0.06971057 0.047871973 0.11680032 0.09850544 0.10134609 0.09379673 0.117708646
0.0031931533 0.0541264 0.069703065 0.00130672 -0.031020096 -0.032819904 -0.026309725 -0.076111495
-0.100842714 -0.01893829 -0.08366343 -0.06845486 0.072829805 0.04697063 0.046524767 0.10093707
0.06912878 0.028246162 0.08691153 0.10235795 0.054678835 0.03848766 0.027164692 0.0036358365
0.06814596 0.08641487 0.112908855 0.0065037054 0.08604281 0.06943053 0.04445486 0.1161907
0.0836806 0.05786756 0.074211605 0.04152157 -0.015771143 0.085314564 0.109470814 0.017949753
0.012092606 0.027536478 -0.023446945 -0.02714562 -0.039146252 0.0033170397 0.003953831 0.003142006
0.032743134 0.061137814 0.051917557 0.0011821631 0.02178859 0.09333849 0.038776357 0.059026163
0.062375117 0.00067645096 0.04041324 -0.012507041 0.07338593 0.07085322 0.028175553 0.018935954
0.073064476 0.030729344 0.041732192 0.049362995 0.0051717106 0.039527573 0.048118737 0.08907889
0.021556852 0.029143516 0.088460736 -0.004006599 0.08632973 0.10970934 0.032028753 0.15404339
0.12306322 0.09371708 0.1020432 0.1228633 0.018055884 0.06779705 0.042535745 0.04722363
0.11805327 0.10184995 0.029585738 0.11212172 0.07517902 0.03468132 0.118915595 0.106415786
0.04459175 0.16862176 0.12186279 0.06716452 0.09025289 0.118617915 1.8713188e-15 -1.4079036e-14
-6.996601e-15 -1.8418826e-13 -2.8296098e-14 1.2716905e-14 7.89813e-05 3.0207519e-09 1.00449315e-14 0.04896528
0.03930294 0.04912398 0.031211065 0.018354626 0.012171118 0.037029333 -0.0076687955 0.021678505
0.04297308 0.14308827 0.11857835 0.04787409 0.151435 0.12768506 0.066732645 0.13945957
0.13069825 -0.02481214 -0.016220786 0.048317075 0.027258169 0.05919739 0.08617136 0.0047974666
0.06965334 0.025950847 0.037003167 0.044519983 0.07909014 0.097562134 0.11883781 0.07815677
0.07790635 0.010349337 0.043338858 0.00987356 -0.0468733 -0.05258408 -0.03251784 -0.085963495
-0.123684146 -0.01811904 -0.06357148 -0.08015917 0.015403926 -0.007891776 -0.00031263978 0.06403649
0.107588634 0.04780688 0.021584122 0.03704017 0.073283814 -0.027720978 -0.0049885423 0.09101036
0.032885667 0.08783036 0.07275757 -0.0019395709 0.08354843 0.07669155 0.0048158253 0.059006892
0.050948996 -0.017979173 0.11159012 0.11466934 0.06195646 0.06793816 0.08303796 0.02632211
0.023559254 0.032199003 -0.0034900096 -0.026397591 -0.03934676 0.0077355807 -0.007487109 -0.031834837
0.022732234 -0.006392127 0.0647543 0.051324207 0.1118489 0.05106193 0.04020771 0.07193085
0.120573536 0.080495186 0.012272495 -0.017106181 -0.025183722 0.02285555 0.10274907 0.05128617
0.1098573 0.09051529 0.04482913 0.0006582269 0.09892379 0.080472715 0.066819586 0.008999433
0.08305034 0.048904233 0.0796083 0.048492126 0.08251771 0.0010666936 0.017171983 0.11813043
0.077503264 -0.0045482735 0.14303318 0.08973983 0.044560667 0.01248654 0.030581415 0.027864348
00000000: 3eb3 913d 85c5 183e 9967 f93d 6b69 e23d
00000010: f78a 323e 3a5d c03d 0455 8e3d ac1f 1b3e
00000020: f906 113e d229 29bd 0c58 9f3d 7420 a23d
00000030: 5298 00bd 8dea 893d 0997 c73d eee2 a5bc
00000040: 387c 943d 6ac4 8e3d 6715 443d 0235 ef3d
00000050: 38bd c93d 8a8e cf3d 8018 c03d 3b11 f13d
00000060: 3944 513b a5b3 5d3d 7bc0 8e3d 3f46 ab3a
00000070: db1d febc 2a6e 06bd 7e87 d7bc 58e0 9bbd
00000080: a086 cebd 7924 9bbc bb57 abbd 1032 8cbd
00000090: cb27 953d 4664 403d c190 3e3d 18b8 ce3d
000000a0: 6493 8d3d 7f64 e73c acfe b13d 0ba1 d13d
000000b0: eaf6 5f3d 3da5 1d3d 7d88 de3c 3747 6e3b
000000c0: 1c90 8b3d 48fa b03d c23c e73d 091d d53b
000000d0: 3637 b03d 9831 8e3d 4d16 363d 64f5 ed3d
000000e0: bc60 ab3d 8906 6d3d 41fc 973d 8612 2a3d
000000f0: 7c32 81bc 67b9 ae3d 3c32 e03d 5c0b 933c
00000100: 1120 463c 2e94 e13c cf13 c0bc 7e60 debc
00000110: d257 20bd b162 593b 238f 813b 1dea 4d3b
00000120: aa1d 063d a56b 7a3d 81a7 543d d0f2 9a3a
00000130: fc7d b23c 4028 bf3d f5d3 1e3d 6bc5 713d
00000140: 0d7d 7f3d db53 313a 5b88 253d 55ea 4cbc
00000150: 5d4b 963d 7e1b 913d 6bd0 e63c 931f 9b3c
00000160: d4a2 953d 1bbc fb3c 60ef 2a3d da30 4a3d
00000170: 7477 a93b aae7 213d 2718 453d fe6e b63d
00000180: ff97 b03c 62be ee3c e72a b53d ca49 83bb
00000190: a4cd b03d 4aaf e03d 9530 033d 8dbd 1d3e
000001a0: 9208 fc3d beee bf3d 06fc d03d c19f fb3d
000001b0: efe9 933c 2ed9 8a3d f639 2e3d 916d 413d
000001c0: eac5 f13d b596 d03d ca5d f23c 13a0 e53d
000001d0: 75f7 993d 000e 0e3d 058a f33d 85f0 d93d
000001e0: d7a5 363d 2fab 2c3e 3393 f93d 8d8d 893d
000001f0: 82d6 b83d f3ed f23d bdd7 0627 18a0 7da8
00000200: 4114 fca7 a760 4faa 5cde fea8 5f16 6528
00000210: c3a2 a538 a195 4f31 12f4 3428 d18f 483d
00000220: 1ffc 203d 3a36 493d 59ae ff3c 715c 963c
00000230: 5e69 473c 12ac 173d 854a fbbb 1f97 b13c
00000240: 8a04 303d bb85 123e 35d9 f23d 9f17 443d
00000250: c711 1b3e dfbf 023e 20ab 883d 7dce 0e3e
00000260: c3d5 053e d442 cbbc 74e1 84bc 20e8 453d
00000270: 864c df3c f678 723d 9c7a b03d 1134 9d3b
00000280: 69a6 8e3d df96 d43c a290 173d 965a 363d
00000290: 03fa a13d a8ce c73d 3d61 f33d a810 a03d
000002a0: 5d8d 9f3d 4490 293c 1684 313d b6c4 213c
000002b0: 38fe 3fbd 6762 57bd 6d31 05bd a10d b0bd
000002c0: 1d4e fdbd 626e 94bc c431 82bd 7e2a a4bd
000002d0: c060 7c3c 824c 01bc cde9 a3b9 9025 833d
000002e0: 6e57 dc3d 26d1 433d 2fd1 b03c 6fb7 173d
000002f0: d315 963d 1b17 e3bc ed76 a3bb a463 ba3d
00000300: 1fb3 063d 67e0 b33d ec01 953d 3339 feba
00000310: 701b ab3d 7610 9d3d 12ce 9d3b 36b1 713d
00000320: e5af 503d 0f49 93bc 5c89 e43d c2d7 ea3d
00000330: 0fc6 7d3d 2923 8b3d ce0f aa3d 77a1 d73c
00000340: 56ff c03c 1ae3 033d a5b8 64bb c33f d8bc
00000350: 112a 21bd c17a fd3b 6c56 f5bb 3f65 02bd
00000360: f338 ba3c 0c75 d1bb e79d 843d 5539 523d
00000370: 0911 e53d 5026 513d d7b0 243d 7b50 933d
00000380: 42ef f63d a9da a43d 9312 493c 4322 8cbc
00000390: 184e cebc 903b bb3c 1b6e d23d 7211 523d
000003a0: ddfc e03d 1560 b93d c09e 373d dc8c 2c3a
000003b0: 8e98 ca3d e1ce a43d b5d8 883d 5c72 133c
000003c0: 4c16 aa3d ce4f 483d ad09 a33d ae9f 463d
000003d0: 0cff a83d 4cd0 8b3a 42ac 8c3c 5eee f13d
000003e0: 08ba 9e3d af09 95bb 4a77 123e 84c9 b73d
000003f0: 3f85 363d 5894 4c3c e085 fa3c c643 e43c

encoder_conv.4.bias f4 [32]
0.025360929 0.06260629 0.07029843 0.09075714 0.06644198 0.063465655 0.10036258 0.115750894
0.08135378 0.10663859 0.067513496 0.093675256 -0.009318036 0.054194905 0.1096802 0.054903273
0.10366121 0.03096681 0.05027205 0.04778805 0.0424321 -0.0016477095 -0.00032733358 0.07087367
0.04404364 0.037484426 0.066754386 0.05484908 0.02760344 0.09046486 0.07163779 0.047964323
00000000: b9c1 cf3c ba37 803d a0f8 8f3d e1de b93d
00000010: bc12 883d 48fa 813d e58a cd3d ce0e ed3d
00000020: d09c a63d 5565 da3d 8444 8a3d d0d8 bf3d
00000030: adaa 18bc 7afb 5d3d 03a0 e03d 41e2 603d
00000040: 544c d43d 1cae fd3c 11ea 4d3d 67bd 433d
00000050: 48cd 2d3d f5f7 d7ba f89d abb9 3726 913d
00000060: 1b67 343d 4589 193d 86b6 883d 6ea9 603d
00000070: 9c20 e23c a445 b93d d5b6 923d 3d76 443d

encoder_lin.0.weight f4 [64, 288]
-9.7518496e-05 -1.8812092e-05 -8.770843e-05 -5.3286934e-05 -4.4902987e-05 0.00034135333 -0.00016008991 -1.800664e-05
0.00017668586 -5.3991058e-05 -9.798234e-05 -7.2769726e-05 -3.9975515e-05 -2.9806908e-05 -4.972922e-05 -0.00029801475
-9.421666e-05 6.900264e-05 -1.8281933e-05 -8.162974e-08 -4.003243e-06 -4.0506875e-05 -7.142608e-05 -0.00011376304
-7.049945e-05 -9.319336e-05 -1.5455322e-05 -0.00029536968 -7.535706e-05 -8.166251e-05 0.00038090762 0.000706917
0.0004541668 -0.00011505173 0.0001238778 -0.00013044181 -6.145581e-05 9.133351e-06 -4.326426e-05 -8.250423e-05
3.3542692e-06 -0.00020985575 5.813065e-05 3.0255154e-05 -0.00018513454 8.465236e-06 -1.3283984e-06 -1.821985e-05
-1.9602716e-05 8.837533e-05 -7.5759504e-05 -2.8159964e-05 3.5737517e-05 -2.6238418e-05 -2.5129154e-09 2.3067792e-13
1.7188514e-14 5.8717256e-15 -8.455617e-15 2.1503955e-11 1.0912721e-10 -1.3317165e-12 -1.5733163e-11 -7.280992e-05
-1.4946065e-05 -0.00034864212 -0.00019871854 -0.00011071015 5.4546494e-05 -0.00014732947 -6.6788714e-05 -0.0005521433
-4.4716826e-06 -6.85534e-07 -9.792358e-06 -8.344049e-06 -8.796925e-06 -0.00012470837 -1.7671257e-05 -2.6866262e-06
0.00013813945 0.0001436691 4.8505248e-05 -0.0001905302 0.00021231151 -2.7379843e-05 -0.00018077981 -0.00026678317
-0.00017021356 -0.00018719408 -7.62365e-15 -8.316306e-14 2.7413204e-11 3.870444e-11 -9.33585e-14 2.931244e-14
-1.6989446e-14 -1.3200805e-13 1.7708507e-12 5.3136956e-15 -1.072588e-09 -1.3093352e-14 4.202046e-11 8.619585e-13
-3.3152305e-12 -6.726762e-13 8.5400055e-12 9.4733364e-14 -2.935208e-07 -5.965935e-06 -5.1582316e-07 -6.2427745e-07
2.9536677e-05 -1.043012e-05 -3.6574559e-06 -4.3235488e-07 -2.8689826e-06 -9.853549e-08 2.4466735e-05 4.2187875e-07
-6.390476e-05 -1.4610142e-06 -1.846285e-05 4.9259485e-05 -2.9169521e-05 2.0446043e-06 -0.0002704237 -0.00019960014
-0.00010893534 -0.0003546758 -2.5153691e-05 0.00017922129 -9.305426e-05 -0.00020319238 -0.00011513494 -1.9794578e-10
9.421435e-12 -3.2028382e-14 -1.3136247e-09 -2.109658e-13 -1.4296504e-13 1.23756e-13 -3.3251883e-09 3.2634273e-12
2.7861368e-12 -1.5945583e-11 -1.7182337e-13 -3.1060887e-09 6.937716e-14 -1.7024682e-13 -3.165203e-12 1.9842604e-12
6.105158e-13 -5.2932588e-05 -1.558904e-06 -5.578913e-05 -2.1175583e-05 1.1031684e-05 -8.061434e-05 6.725908e-05
0.00012874033 -4.4268523e-05 5.4784156e-11 1.1192276e-12 1.7092697e-10 4.72103e-12 -2.94573e-09 -1.9402995e-12
5.9247897e-12 -7.701999e-12 4.88797e-12 8.4609885e-13 9.970643e-13 3.385347e-11 7.856981e-12 -4.1805165e-14
-2.6630045e-11 -2.2864603e-10 -2.2147033e-13 -4.190998e-15 -1.1963717e-05 1.7052078e-05 5.7412588e-05 9.282377e-05
-8.234945e-06 -0.00055933016 -3.7503803e-05 -1.1426837e-05 -5.2279625e-05 -1.6873451e-12 2.1016975e-12 1.708689e-10
-3.365961e-10 4.380858e-08 -1.1483004e-12 -1.6014726e-11 -4.4452757e-12 1.09837365e-11 -2.171686e-05 -1.3522628e-06
-7.946653e-05 -6.634799e-05 -3.0566258e-05 -0.0002716951 -0.00010294212 -3.4495373e-05 -0.0004506453 -1.9740291e-06
6.275647e-06 -2.1127425e-06 -2.762445e-05 3.867408e-05 -4.0909454e-05 5.0536415e-05 -2.7313076e-06 0.000114771065
-1.0183619e-06 1.3176251e-06 9.191119e-06 3.8037724e-05 -7.176352e-05 -6.378051e-05 4.532579e-07 -2.3261218e-06
1.8560697e-05 2.113012e-05 -3.8638398e-05 -2.718092e-05 -0.00016631713 2.4915056e-05 -0.00025994066 -2.3634853e-05
-6.491338e-06 -0.00027033186 2.4262748e-16 4.207615e-14 -1.8402194e-14 2.9835656e-15 2.6854046e-09 3.685832e-14
1.8639937e-14 5.2683774e-13 -1.4457556e-12 -4.6940027e-08 8.1104606e-10 -2.9012176e-07 -6.423679e-07 -1.5796091e-05
-2.6169698e-06 -4.404812e-06 -5.469107e-08 3.7919453e-06 -4.7429057e-05 -0.00016999456 0.00027026611 -0.0005616939
00000000: d882 ccb8 a9ce 9db7 1bf0 b7b8 6980 5fb8
00000010: 3756 3cb8 abf7 b239 cfdd 27b9 f70c 97b7
00000020: c044 3939 7574 62b8 de7b cdb8 f39b 98b8
00000030: 62ab 27b8 d909 fab7 5894 50b8 dd3e 9cb9
00000040: 2f96 c5b8 83b5 9038 275c 99b7 6d4c afb3
00000050: 9853 86b6 ede5 29b8 96ca 95b8 1194 eeb8
00000060: 1bd9 93b8 ce70 c3b8 0da6 81b7 d9db 9ab9
00000070: 0309 9eb8 3a42 abb8 8eb4 c739 6650 393a
00000080: 3c1d ee39 ed47 f1b8 32e5 0139 35c7 08b9
00000090: d6e1 80b8 723b 1937 a576 35b8 1f06 adb8
000000a0: e819 6136 b90c 5cb9 4fd1 7338 73cc fd37
000000b0: ad20 42b9 e905 0e37 6c4b b2b5 d4d6 98b7
000000c0: 8370 a4b7 2556 b938 13e1 9eb8 1039 ecb7
000000d0: dee4 1538 931a dcb7 adaf 2cb1 31dc 812a
000000e0: 04d2 9a28 1c8d d327 a752 18a8 9a26 bd2d
000000f0: 28f9 ef2e 256c bbab ef63 8aad 87b1 98b8
00000100: dcc0 7ab7 f4c9 b6b9 1a5f 50b9 0f2d e8b8
00000110: dac8 6438 747c 1ab9 eb10 8cb8 b6bd 10ba
00000120: 760b 96b6 8a05 38b5 db49 24b7 6bfd 0bb7
00000130: 8196 13b7 26c4 02b9 bc3c 94b7 e34b 34b6
00000140: 87d9 1039 e1a5 1639 1d72 4b38 10c9 47b9
00000150: f09f 5e39 c4ad e5b7 b68f 3db9 08df 8bb9
00000160: 5b7b 32b9 8749 44b9 e155 09a8 3d44 bba9
00000170: 0c21 f12d 5339 2a2e 8339 d2a9 f102 0429
00000180: ff06 99a8 bba0 14aa 9f39 f92b 3172 bf27
00000190: 566a 93b0 6ede 6ba8 d5ce 382e a89e 722b
000001a0: e249 69ac 6e57 3dab c43c 162d 1152 d529
000001b0: 3195 9db4 fe2e c8b6 1977 0ab5 0594 27b5
000001c0: 88c5 f737 06fd 2eb7 9d72 75b6 671e e8b4
000001d0: bf88 40b6 759a d3b3 ea3d cd37 937e e234
000001e0: 9b04 86b8 1118 c4b5 abe0 9ab7 f89b 4e38
000001f0: 12b1 f4b7 0936 0936 a8c7 8db9 c14b 51b9
00000200: 3774 e4b8 c8f3 b9b9 2401 d3b7 59ed 3b39
00000210: 2026 c3b8 0a10 55b9 9a74 f1b8 c9a4 59af
00000220: 5fbe 252d 363e 10a9 0f8b b4b0 c086 6daa
00000230: def6 20aa 3d56 0b2a 5581 64b1 aea4 652c
00000240: 940e 442c 4342 8cad b774 41aa e472 55b1
00000250: 3639 9c29 4eae 3faa 3abb 5eac 42a1 0b2c
00000260: 4dd8 2b2b ef03 5eb8 893b d1b5 1fff 69b8
00000270: 38a2 b1b7 b914 3937 7f0f a9b8 720d 8d38
00000280: 78fe 0639 f7ac 39b8 7af1 702e 6d84 9d2b
00000290: aaef 3b2f 421b a62c d56d 4ab1 5489 08ac
000002a0: c375 d02c b87e 07ad ebfa ab2c d927 6e2b
000002b0: 0753 8c2b 9ee3 142e b238 0a2d 1346 3ca9
000002c0: 883d eaad 2366 7baf 7a5a 79aa 22ff 96a7
000002d0: c6b7 48b7 0f0b 8f37 4cce 7038 62aa c238
000002e0: d228 0ab7 03a0 12ba 674d 1db8 e4b5 3fb7
000002f0: d246 5bb8 0479 edab d1e4 132c 52df 3b2f
00000300: b10b b9af 0b28 3c33 e29b a1ab f5dd 8cad
00000310: 7c67 9cac 5a3a 412d 9a2c b6b7 657f b5b5
00000320: 45a7 a6b8 4e24 8bb8 4534 00b8 4d72 8eb9
00000330: a1e2 d7b8 20af 10b8 9744 ecb9 9079 04b6
00000340: 6693 d236 a4c8 0db6 0ebb e7b7 fa35 2238
00000350: 3196 2bb8 10f7 5338 824b 37b6 3fb1 f038
00000360: a6ae 88b5 41d9 b035 8e33 1a37 b28a 1f38
00000370: bf7f 96b8 e7c1 85b8 4b57 f334 781a 1cb6
00000380: cbb2 9b37 9640 b137 aa0f 22b8 9502 e4b7
00000390: 6a65 2eb9 ad00 d137 a548 88b9 7643 c6b7
000003a0: 2bd0 d9b6 54bb 8db9 7fdd 8b25 807e 3d29
000003b0: 92c0 a5a8 12fd 5627 238a 3831 c0fe 2529
000003c0: c5e4 a728 a94a 142b d678 cbab 1b9b 49b3
000003d0: 4bf0 5e30 08c2 9bb4 306f 2cb5 d981 84b7
000003e0: 339f 2fb6 0ccd 93b6 78e5 6ab3 2079 7e36
000003f0: 90ee 46b8 9140 32b9 81b2 8d39 a43e 13ba

encoder_lin.0.bias f4 [64]
-0.0008879723 -0.016186723 -6.6861096e-05 -0.0019113055 -0.020131953 0.05908211 1.4621564e-09 0.045593325
-0.00567352 0.062038474 0.029405307 0.08204484 0.03091058 0.026296014 -0.0025560863 0.066959135
0.011916049 0.07109085 0.029909736 0.03938081 -0.011784146 0.09136445 -0.009411465 0.0070741544
0.024134474 0.024745386 -0.04083441 0.059721246 0.0783858 0.043073006 0.0028191141 -0.005074147
0.08170815 0.024814857 0.024973826 0.103669204 0.03577069 0.05952993 0.051847633 -0.019333567
0.04030843 0.013383976 2.7706294e-08 0.06924583 -2.3412064e-10 0.037233155 0.062063165 -1.7235556e-05
0.04430742 0.016317086 -3.3461227e-08 0.05777757 -0.0009540627 0.0046078768 0.09146206 -2.4446674e-05
0.06038385 -0.007973924 0.018404113 0.04082843 -0.017382309 -0.002038293 0.01965815 0.02446577
00000000: d0c6 68ba 059a 84bc c737 8cb8 c584 faba
00000010: c4eb a4bc 1500 723d 0ef5 c830 11c0 3a3d
00000020: efe8 b9bb 0e1c 7e3d 66e3 f03c 2007 a83d
00000030: 2f38 fd3c bd6a d73c 0384 27bb df21 893d
00000040: 883b 433c 1498 913d 4305 f53c c64d 213d
00000050: 4a12 41bc 491d bb3d 8c32 1abc 4fce e73b
00000060: a9b5 c53c d6b6 ca3c fb41 27bd 449e 743d
00000070: bc88 a03d 526d 303d e3c0 383b 0845 a6bb
00000080: 9a56 a73d 8748 cb3c e995 cc3c 8550 d43d
00000090: 4984 123d a8d5 733d 2f5e 543d 6e61 9ebc
000000a0: 741a 253d 7748 5b3c c9fe ed32 c2d0 8d3d
000000b0: 8db5 80af cb81 183d f235 7e3d 1395 90b7
000000c0: b27b 353d 69ab 853c 02b7 0fb3 2ca8 6c3d
000000d0: 101a 7aba acfd 963b 7650 bb3d d512 cdb7
000000e0: 0e55 773d 10a5 02bc 39c4 963c b63b 273d
000000f0: 5865 8ebc e294 05bb 210a a13c 706c c83c

encoder_lin.2.weight f4 [10, 64]
0.0026873474 -0.12467775 -0.0013217805 0.0015508668 0.040116537 -0.1489992 -0.00136635 0.049461372
0.14941995 -0.13546397 -0.03469956 -0.012665079 0.10236732 0.0017976131 0.077387944 -0.19320482
0.10518468 0.06901473 -0.01664228 0.12638801 0.047481056 0.051113795 0.016079385 0.06026124
-0.049231675 0.10050838 -0.032863945 -0.025627159 -0.015492818 0.06768585 0.065000825 -0.025627602
0.19917563 -0.13264573 0.13957451 0.1668859 -0.10526318 -0.058709193 -0.080673195 -0.045256987
0.14057554 -0.060792107 -2.8107934e-08 -0.076790914 9.4985744e-08 0.10166497 0.022555657 -2.4941477e-07
-0.03595312 0.036693797 -1.3123051e-10 -0.018865515 0.013890241 -0.059446204 0.16381781 -0.00011795256
0.113442406 -0.045289934 -0.042520903 0.14133957 -0.08278237 -0.043917224 -0.055263285 0.20987855
-0.0037448977 0.089163 -1.5175804e-07 2.0020404e-07 0.081180476 0.049834944 -1.48042045e-05 0.007978072
0.07263835 -0.09687642 -0.10612195 0.029992359 -0.023140484 0.0724637 0.10136607 -0.016874015
0.1153649 -0.1242959 0.015969051 0.15490991 -0.0030717214 -0.047933813 -0.0016773555 -0.003997565
0.0013586943 0.014589171 -0.011840435 0.024689645 -0.08968439 0.056090914 -0.0058174045 -0.0785917
0.19318944 0.0012494829 0.10492097 -0.04428069 -0.08476995 0.025378788 0.043032143 0.06263478
-0.005653416 -0.15909725 1.7032187e-08 -0.11230154 0.0032429295 -0.037046786 -0.01799631 0.0010613224
-0.08772237 -0.012829101 -9.5351286e-05 -0.16715366 0.0013928317 -0.039977524 0.08212598 1.4301355e-06
0.100891605 0.094985664 0.009040613 0.101764895 -0.14129195 -0.057215426 -0.1410398 -0.023578484
0.022188565 0.026044328 0.000101900696 0.0026518493 -0.07978385 -0.07604546 -0.0011397841 -0.043151688
-0.038525254 -0.15220453 -0.025045343 -0.11718463 0.04989367 0.06789622 -0.048165202 -0.17212886
-0.04815745 0.02761503 -0.15761407 0.017471325 0.03176263 -0.12325 -0.06689314 -0.010338293
0.02750149 0.0772261 -0.08044461 -0.0017044463 -0.10558037 -0.08955317 -0.15686627 0.090117924
0.0006913198 -0.07134548 0.030489782 0.05531806 -0.011185848 -0.093304195 -0.020552652 -0.031083873
0.00831665 -0.18292074 -0.0011926035 -0.14721265 7.155403e-06 0.018835334 0.038388766 -4.124137e-08
-0.06683247 0.040407445 -0.00045629812 -0.09569351 0.026989255 -0.08254187 0.047801178 -1.1044022e-05
0.031779107 -0.029888345 -0.04788174 -0.037007056 -0.0043201065 -0.030974485 -0.013880864 0.1684264
-0.042591143 -0.10296059 -2.6364472e-07 -1.2224325e-11 0.021516984 -0.07802188 5.5393764e-05 -0.065057255
0.1402492 0.06658919 -0.12538928 -0.061773553 -0.052083906 -0.043392878 0.13058133 0.038753085
0.14351183 -0.11860932 0.025622055 0.07149719 0.010453246 0.01868707 0.048918143 -0.0070089465
-0.02380106 -0.014085485 -0.06568612 0.019814739 -0.19756524 0.11674268 0.08668392 -0.10048903
0.092517726 -0.19546899 0.02610204 -0.16607192 -0.011544964 -0.13088742 -0.10276989 -0.031282715
0.013098971 -0.054830506 6.8434125e-10 -0.037159283 2.5567845e-06 -0.03096197 -0.037155125 7.474406e-05
-0.05091102 0.063190445 2.5478066e-06 -0.10925234 -0.025700286 0.041628703 0.04580313 4.3094083e-06
0.04756224 -0.20456876 -0.012005351 0.044911735 -0.15779085 -0.06600517 -0.07663862 0.047728483
00000000: 351e 303b 0c57 ffbd 983f adba 7446 cb3a
00000010: 3d51 243d 3f93 18be 1917 b3ba 0298 4a3d
00000020: 8b01 193e 11b7 0abe 2021 0ebd 3181 4fbc
00000030: f5a5 d13d e39d eb3a 927d 9e3d 7cd7 45be
00000040: 116b d73d 9857 8d3d 6455 88bc dc6b 013e
00000050: 7f7b 423d b35c 513d eab8 833c 7dd4 763d
00000060: 27a7 49bd 56d7 cd3d 589c 06bd 0cf0 d1bc
00000070: 97d5 7dbc e19e 8a3d 271f 853d faf0 d1bc
00000080: b2f4 4b3e 48d4 07be 9fec 0e3e 23e4 2a3e
00000090: 3994 d7bd 0d79 70bd fd37 a5bd 645f 39bd
000000a0: 09f3 0f3e 2501 79bd 0072 f1b2 8e44 9dbd
000000b0: f7fa cb33 b935 d03d a4c6 b83c 4ee7 85b4
000000c0: 9443 13bd 3c4c 163d 1b4a 10af da8b 9abc
000000d0: e593 633c dd7d 73bd dbbf 273e 4c5d f7b8
000000e0: 7e54 e83d f081 39bd 662a 2ebd 52bb 103e
000000f0: ce89 a9bd 8ce2 33bd c15b 62bd 67ea 563e
00000100: f56c 75bb 179b b63d eff2 22b4 abf7 5634
00000110: f341 a63d ba1f 4c3d 935f 78b7 76b6 023c
00000120: 6ac3 943d 2567 c6bd 7756 d9bd 89b2 f53c
00000130: 1d91 bdbc d967 943d 0499 cf3d 603b 8abc
00000140: 6f44 ec3d d98e febd 87d1 823c b4a0 1e3e
00000150: ef4e 49bb 3f56 44bd b6da dbba 01fe 82bb
00000160: 3716 b23a 6b07 6f3c 62fe 41bc f041 ca3c
00000170: 73ac b7bd 96bf 653d ed9f bebb aff4 a0bd
00000180: 74d3 453e b0c5 a33a cee0 d63d ab5f 35bd
00000190: de9b adbd 2de7 cf3c 7942 303d aa46 803d
000001a0: 4a40 b9bb 64ea 22be 2d4e 9232 5afe e5bd
000001b0: 5487 543b 5fbe 17bd ff6c 93bc 121c 8b3a
000001c0: c9a7 b3bd 2631 52bc 55f7 c7b8 542a 2bbe
000001d0: ad8f b63a 79bf 23bd aa31 a83d 15f3 bf35
000001e0: 42a0 ce3d d887 c23d 141f 143c 1d6a d03d
000001f0: d6ae 10be b95a 6abd bd6c 10be aa27 c1bc
00000200: cbc4 b53c ea5a d53c 85b3 d538 a6ca 2d3b
00000210: b765 a3bd b9bd 9bbd cf64 95ba d3bf 30bd
00000220: a8cc 1dbd 81db 1bbe e42b cdbc 7ffe efbd
00000230: 4e5d 4c3d 2c0d 8b3d e048 45bd 8c42 30be
00000240: bf40 45bd ea38 e23c 9565 21be 0620 8f3c
00000250: 8819 023d 7f6a fcbd 45ff 88bd f261 29bc
00000260: ce4a e13c b828 9e3d 25c0 a4bd ba67 dfba
00000270: 853a d8bd a767 b7bd 8da1 20be bf8f b83d
00000280: b039 353a 941d 92bd b5c5 f93c 3195 623d
00000290: d944 37bc 4516 bfbd 095e a8bc 9ba3 febc
000002a0: 8f42 083c 934f 3bbe 2251 9cba eabe 16be
000002b0: 7218 f036 8f4c 9a3c 8a3d 1d3d 5e21 31b3
000002c0: 76df 88bd 4782 253d 4c3b efb9 f5fa c3bd
000002d0: 9218 dd3c b60b a9bd 2bcb 433d b749 39b7
000002e0: cf2a 023d 67d8 f4bc a51f 44bd b694 17bd
000002f0: ae8f 8dbb 34be fdbc 906c 63bc f877 2c3e
00000300: 0d74 2ebd 00dd d2bd 0e8b 8db4 770d 57ad
00000310: 6344 b03c efc9 9fbd 9a56 6838 bd3c 85bd
00000320: 7c9d 0f3e ea5f 883d 0c66 00be 4406 7dbd
00000330: ef55 55bd bbbc 31bd 1db7 053e 8ebb 1e3d
00000340: c4f4 123e 71e9 f2bd 58e5 d13c 1e6d 923d
00000350: 1744 2b3c a015 993c 645e 483d 4eab e5bb
00000360: 71fa c2bc cec6 66bc 7286 86bd 8552 a23c
00000370: 8b4e 4abe c916 ef3d 5787 b13d 31cd cdbd
00000380: ef79 bd3d 0629 48be f2d3 d53c c20e 2abe
00000390: 1727 3dbc 5a07 06be 0579 d2bd 4e22 00bd
000003a0: 119d 563c f495 60bd 3c1c 3c30 5534 18bd
000003b0: 3995 2b36 f5a3 fdbc f92f 18bd e9bf 9c38
000003c0: 1388 50bd fe69 813d fcfa 2a36 b1bf dfbd
000003d0: 6889 d2bc dc82 2a3d 109c 3b3d 8999 9036
000003e0: a0d0 423d 797a 51be 17b2 44bc 5ef5 373d
000003f0: ed93 21be b82d 87bd b5f4 9cbd f17e 433d

encoder_lin.2.bias f4 [10]
0.017770205 -0.09194573 -0.032215364 0.009577076 0.054881323 -0.07656961 -0.054650646 0.11471723
-0.070329465 -0.13067423
00000000: d292 913c 0b4e bcbd 42f4 03bd 2be9 1c3c
00000010: 3dcb 603d 87d0 9cbd 5bd9 5fbd def0 ea3d
00000020: e508 90bd 77cf 05be

decoder_lin.0.weight f4 [64, 10]
-0.08967216 0.03395352 0.23164381 -0.18796512 0.24479973 -0.16010793 0.090763934 0.0035256082
-0.26173338 -0.10875456 -0.3527438 -0.3468201 -0.16445184 -0.12636594 -0.065574355 0.10520893
0.011846932 0.30364433 0.16239959 -0.09205841 -0.05851233 -0.05083802 -0.04526201 0.13285364
-0.006334194 0.25440454 0.054635353 0.099750124 -0.27460942 -0.31377128 0.07404671 0.14628752
-0.035475377 0.11967651 -0.30485007 -0.010999558 0.024971811 -0.08656502 -0.09345884 -0.044905126
0.16738375 0.23557125 -0.24002218 0.13563028 -0.26862308 0.048672307 0.25846046 0.06329202
0.14004216 -0.31471953 0.02085055 -0.19437139 0.029966203 0.082106456 0.2587075 -0.00918049
0.15641032 0.23835881 -0.09179675 -0.27262697 -0.041744694 0.055430077 -0.26635355 -0.21789165
0.21245006 -0.21980242 0.38336307 -0.18757252 0.20840894 -0.28573373 0.08083874 -0.057472527
0.09811832 0.06527806 0.30221325 -0.05653523 0.33689263 -0.06449815 -0.29590344 0.120642275
0.0062624225 0.022236401 0.04812829 0.06078329 0.12597993 0.04975326 0.015457655 0.048897125
0.10753355 0.21174784 0.039409053 -0.20269062 -0.03572059 -0.015095002 -0.27931482 -0.1201521
-0.13495202 -0.03296446 -0.1802037 0.12518227 0.14452444 -0.14793985 -0.20613883 -0.24032271
-0.20467244 0.019074341 0.022391237 -0.11816727 -0.0692725 -0.15873246 -0.4013415 -0.35490108
-0.11194103 -0.3146717 0.24612387 -0.16831896 -0.115838714 0.016382761 -0.3180269 0.15872721
0.17576586 0.033233147 -0.25890538 0.138777 -0.20364374 0.27333432 -0.0007289844 0.01906225
-0.28151894 0.004313038 -0.12548703 -0.07715401 -0.13667582 -0.088144585 0.044229966 0.077445574
0.26242846 0.036159392 0.13893875 -0.34638402 0.050160833 -0.06700907 -0.052294135 0.007389218
0.066304885 -0.043094255 0.35411346 -0.27578023 -0.21905716 -0.13464049 0.29209086 -0.06816638
0.04503207 0.05462612 0.22053143 0.19250925 -0.20091116 0.0367512 -0.31032324 -0.16014348
-0.055368993 0.06647749 0.14520273 0.028049417 -0.09333364 -0.18257864 0.06232365 -0.29248667
0.21776 -0.08588807 -0.036590636 -0.25450394 -0.3230254 -0.25540385 -0.22534432 -0.24213076
0.2278177 0.31749 -0.24044377 0.18711664 0.032243844 0.24386838 -0.26094446 0.024472676
0.12468556 -0.25080827 0.25178045 -0.028963666 0.1557235 -0.14335014 -0.21294832 0.16677944
0.052124668 0.25469947 0.042057097 0.17645247 -0.14821345 0.32108566 0.14184165 -0.3020247
-0.17860411 -0.21746789 -0.17242615 -0.049887832 0.33267346 -0.042543262 -0.05001407 0.07017961
0.02082592 -0.07567659 -0.13237585 -0.11052742 -0.029278772 -0.23046066 0.31279883 0.0050794166
0.27955353 -0.02875697 -0.055774968 -0.046556193 -0.19492826 0.09749177 -0.08721713 0.100386925
0.0097318385 0.2506806 -0.07062711 0.024647683 0.15033075 -0.01817646 0.029928265 -0.25306264
-0.17529376 -0.2161356 0.18957096 -0.14561814 0.20230855 -0.19057561 -0.31513238 -0.20202379
0.2092125 0.107921354 -0.22350723 0.048611924 -0.23678935 -0.1890118 -0.0657163 0.12410212
-0.01946389 -0.12481179 0.08693758 0.07663363 0.095803924 0.13457239 0.040697705 0.061188795
00000000: 0aa6 b7bd d912 0b3d 0934 6d3e ee79 40be
00000010: c8ac 7a3e 55f3 23be 71e2 b93d e40d 673b
00000020: eb01 86be b6ba debd d69a b4be 6792 b1be
00000030: 1066 28be 1366 01be d94b 86bd c877 d73d
00000040: a219 423c 4577 9b3e 144c 263e 1f89 bcbd
00000050: a0aa 6fbd 873b 50bd a864 39bd c90a 083e
00000060: 128f cfbb 5041 823e 52c9 5f3d cb49 cc3d
00000070: 9b99 8cbe a1a6 a0be cda5 973d 65cc 153e
00000080: a14e 11bd f518 f53d 4f15 9cbe 7d37 34bc
00000090: af91 cc3c 0049 b1bd 5967 bfbd 70ee 37bd
000000a0: a566 2b3e 9739 713e 60c8 75be aae2 0a3e
000000b0: f788 89be 9d5c 473d ee54 843e 3f9f 813d
000000c0: 3667 0f3e eb22 a1be c6ce aa3c 4b09 47be
000000d0: af7b f53c 6e27 a83d 4f75 843e c469 16bc
000000e0: 072a 203e 5514 743e efff bbbd c395 8bbe
000000f0: 7cfc 2abd a60a 633d 7e5f 88be fd1e 5fbe
00000100: 828c 593e e313 61be 2a48 c43e 0313 40be
00000110: 2769 553e b14b 92be c88e a53d 5068 6bbd
00000120: 42f2 c83d 81b0 853d b2bb 9a3e 7c91 67bd
00000130: 317d ac3e 9b17 84bd a880 97be 4c13 f73d
00000140: 0235 cd3b 1d29 b63c 2b22 453d e6f7 783d
00000150: e200 013e 13ca 4b3d 1b42 7d3c 5a48 483d
00000160: 8d3a dc3d 6dd4 583e 636b 213d 218e 4fbe
00000170: c14f 12bd 0751 77bc 5a02 8fbe 4e12 f6bd
00000180: dd30 0abe be05 07bd 5287 38be c82f 003e
00000190: 37fe 133e 8b7d 17be 0f16 53be 2817 76be
000001a0: a795 51be cb41 9c3c d46d b73c af01 f2bd
000001b0: bede 8dbd c38a 22be a27c cdbe 98b5 b5be
000001c0: 5741 e5bd a61c a1be e507 7c3e ce5b 2cbe
000001d0: d93c edbd 2435 863c 6cd4 a2be 6389 223e
000001e0: f7fb 333e 7b1f 083d 3f8f 84be 8f1b 0e3e
000001f0: fc87 50be 7af2 8b3e 5119 3fba 7028 9c3c
00000200: 4023 90be 6354 8d3b ac7f 00be ec02 9ebd
00000210: bff4 0bbe 2685 b4bd 7b2a 353d c99b 9e3d
00000220: 065d 863e df1b 143d f645 0e3e 3f59 b1be
00000230: 7275 4d3d 0d3c 89bd 6032 56bd 4121 f23b
00000240: dbca 873d 9a83 30bd 5c4e b53e 1133 8dbe
00000250: 8550 60be 32df 09be ef8c 953e d19a 8bbd
00000260: 8c73 383d a3bf 5f3d fed2 613e 2521 453e
00000270: a8bb 4dbe 6d88 163d b0e2 9ebe a7fc 23be
00000280: 99ca 62bd 5a25 883d 06b0 143e e4c7 e53c
00000290: b525 bfbd e5f5 3abe 1547 7f3d d0c0 95be
000002a0: 7afc 5e3e 16e6 afbd 10e0 15bd 574e 82be
000002b0: 9663 a5be 4bc4 82be a9c0 66be 20f1 77be
000002c0: 0b49 693e 0d8e a23e e436 76be 819b 3f3e
000002d0: 1f12 043d a2b8 793e 839a 85be ec7a c83c
000002e0: 255b ff3d f169 80be 5ee9 803e 3645 edbc
000002f0: fb75 1f3e 61ca 12be 200f 5abe 3bc8 2a3e
00000300: ad80 553d f867 823e 1044 2c3d f5af 343e
00000310: 44c5 17be 5765 a43e f03e 113e fba2 9abe
00000320: ffe3 36be e7af 5ebe 7b90 30be 2f57 4cbd
00000330: 2d54 aa3e d841 2ebd 8edb 4cbd 54ba 8f3d
00000340: 1f9b aa3c 54fc 9abd 898d 07be 335c e2bd
00000350: 09da efbc e1fd 6bbe 2b27 a03e 3c71 a63b
00000360: a421 8f3e bd93 ebbc 4b74 64bd b5b1 3ebd
00000370: 469b 47be c4a9 c73d e59e b2bd a997 cd3d
00000380: 4a72 1f3c 3559 803e f2a4 90bd f0e9 c93c
00000390: 4ef0 193e cde6 94bc 1f2c f53c 6d91 81be
000003a0: 3580 33be a752 5dbe e41e 423e ec1c 15be
000003b0: f929 4f3e 4126 43be 0859 a1be 53df 4ebe
000003c0: cd3b 563e df05 dd3d 14df 64be 4c1d 473d
000003d0: e878 72be 4f8c 41be 4496 86bd 4129 fe3d
000003e0: bc72 9fbc 539d ffbd 540c b23d 18f2 9c3d
000003f0: d934 c43d 58cd 093e a3b2 263d 1aa1 7a3d

decoder_lin.0.bias f4 [64]
0.31602535 0.11380359 0.2056446 -0.13923568 0.12032974 0.3356851 -0.03813982 0.16719925
0.14764147 0.072456 0.20168129 0.13315044 -0.24467087 -0.026128111 -0.07419738 0.1899406
0.021329064 -0.07083281 0.161105 0.045587644 -0.062432203 -0.118199654 -0.045842383 0.21204235
0.042217027 -0.030376442 -0.09533092 0.015816411 -0.008626985 0.31905353 -0.07477929 -0.03298978
-0.034017235 -0.101290315 0.29284775 -0.00056819926 -0.027550492 0.026275204 0.26382425 0.06056371
-0.24476014 -0.12793511 0.08908032 0.12461467 0.017351156 0.11891308 -0.12139405 0.1150777
0.121623404 -0.18566993 0.046636917 0.25161943 0.07993814 0.083258465 0.2108501 0.33753306
0.016235653 0.27111155 0.08326487 0.2539524 -0.06670005 -0.039441068 -0.11128532 0.2226108
00000000: 13ce a13e db11 e93d 7f94 523e cc93 0ebe
00000010: 706f f63d ebde ab3e 8038 1cbd 4836 2b3e
00000020: 532f 173e d063 943d 8a85 4e3e 9758 083e
00000030: 008b 7abe 9f0a d6bc ccf4 97bd ca7f 423e
00000040: 4aba ae3c cb10 91bd b6f8 243e 1cba 3a3d
00000050: e9b8 7fbd a912 f2bd 39c5 3bbd a121 593e
00000060: c3eb 2c3d 04d8 f8bc db3c c3bd 6b91 813c
00000070: 3358 0dbc fc5a a33e e225 99bd 4b20 07bd
00000080: a855 0bbd 4c71 cfbd 24f0 953e 35f3 14ba
00000090: 92b1 e1bc 193f d73c f913 873e a711 783d
000000a0: 67a2 7abe 6c01 03be be6f b63d fa35 ff3d
000000b0: 0324 8e3c b388 f33d 729d f8bd dbad eb3d
000000c0: b115 f93d 4220 3ebe 5a06 3f3d 43d4 803e
000000d0: 9cb6 a33d 6a83 aa3d 17e9 573e 22d1 ac3e
000000e0: a200 853c 22cf 8a3e c686 aa3d 0d06 823e
000000f0: 099a 88bd f58c 21bd 8fe9 e3bd 16f4 633e

decoder_lin.2.weight f4 [288, 64]
0.00036565735 0.04782856 0.058293022 0.03940615 0.011755213 0.019313905 0.012890014 0.021929253
1.4063538e-05 0.041398395 0.008765558 -0.014979724 0.045576043 0.017363051 0.01908785 -0.05598127
-0.026940713 -0.009121069 0.027906949 -0.012022759 -0.01450557 0.005462087 0.0031776475 0.004866509
0.025853654 0.024116648 -0.0009999624 -0.01935558 0.0023639267 -0.01279497 -0.022407612 0.007059751
-0.009706104 -0.050833646 0.002449911 0.0016762124 -0.014860569 0.0628314 0.017816855 -0.017469311
0.013298285 0.021466209 -0.024315812 -0.008394489 0.011836698 0.050079305 0.019369388 -0.014043329
0.011568464 -0.044602413 -0.036884915 0.013206172 0.032383982 -0.038652398 -0.038697697 -0.0011820409
0.056442842 0.005085143 -0.047186658 -0.03795816 -0.122167155 -0.038529765 -0.013951584 -0.04949344
-0.019079115 -0.004362087 -0.012250993 0.050855566 0.06645426 -0.04053611 -0.007423424 0.0068475353
-0.0018898814 -0.055228263 -0.05790217 -0.02411299 0.0009981174 -0.010936676 -0.064239025 -0.048226036
0.09419811 -0.03939414 0.022620903 0.027259829 0.008815276 -0.027771167 0.052695833 -0.07717273
0.050657503 0.054163415 0.031072995 0.050052255 0.0001728412 -0.021974253 -0.021964757 0.022954982
0.00023376901 0.04297762 -0.08934018 0.0027347277 0.020288829 0.050821096 0.007977749 0.04455972
-0.018397853 -0.0030217713 0.079159975 -0.029872095 0.075402685 -0.015418344 0.017690985 -0.009582067
0.023364311 -0.009939875 -0.02377827 0.013062225 0.056789465 -0.0033087684 0.028349677 -0.039845772
-0.054354656 0.06366032 -0.023760946 -0.07539947 -0.01982606 -0.03310868 -0.021207832 -0.039345857
0.05886282 0.07073002 0.05741273 -0.035709 0.039428726 0.017675625 0.0061272006 0.09987575
-0.0010164262 -0.078923896 0.01338405 0.07419787 0.058081508 0.104261935 -0.046668682 0.023231888
-0.12921077 -0.022128278 0.048037183 0.074254826 0.098048896 0.09773849 0.085026816 0.041828096
-0.027416678 0.10983328 -0.07547304 -0.058014065 1.6371941e-10 0.02091604 0.019615604 0.1314627
0.08613359 -0.026539916 0.1262764 -0.003480673 -0.043537878 0.09012576 0.032034878 -0.016553897
0.023065459 0.015312432 0.061017264 0.042987794 0.09527134 -0.007371549 -0.023840666 0.101326436
0.0023318175 0.046843708 -0.04880048 0.13595138 0.023269823 -0.015968457 0.052399494 0.041996334
-0.038410712 0.048116278 0.0052608033 -0.07152105 -0.0935417 -0.062293768 -0.048228927 0.12485772
-0.026470032 0.006310298 -0.0033535936 -0.0020187667 0.013457398 -0.036571685 -0.0032995772 0.02156715
7.324071e-05 0.0022625288 0.005556559 0.013748918 -0.02254273 -0.0047961674 -0.0024000052 -0.004582176
-1.6514983e-05 -0.0015853671 -0.0027518247 -0.00035590242 -0.0010784311 -0.0025688515 1.1983137e-10 -0.036442097
-0.0021392922 -0.0012140851 4.9238723e-05 -0.0015584106 1.17375626e-14 0.0063481913 0.021652466 0.0024203628
-0.033593215 0.003834283 -0.050810624 -6.6956193e-12 0.0018486362 -0.0016220327 -0.0030376567 -0.0012124234
-0.013981793 0.05455352 -0.001871074 0.0017011774 -0.0037063202 -0.00055823615 -0.0025735388 0.00347563
-0.0028274974 -0.0023636988 -0.0015735897 -0.0014513149 -0.001501102 -3.276841e-05 -0.021056209 -0.0014202839
0.00049711997 0.009911416 -0.0005597266 0.00029892975 6.356318e-05 -0.00025244855 -0.0059332284 0.032423865
00000000: b3b5 bf39 e1e7 433d aac4 6e3d 5868 213d
00000010: f098 403c 3238 9e3c a330 533c faa4 b33c
00000020: 70f2 6b37 5d91 293d 6a9d 0f3c 846d 75bc
00000030: f2ad 3a3d f53c 8e3c 1f5e 9c3c 9e4c 65bd
00000040: c5b2 dcbc 8970 15bc 1d9d e43c 1bfb 44bc
00000050: c5a8 6dbc 4ffb b23b 1440 503b 3d77 9f3b
00000060: 0bcb d33c 4790 c53c 2c11 83ba 988f 9ebc
00000070: 1cec 1a3b fea1 51bc 2b90 b7bc 7c55 e73b
00000080: 5a06 1fbc f136 50bd b08e 203b 5bb4 db3a
00000090: be79 73bc c0ad 803d a7f4 913c cd1b 8fbc
000000a0: 0de1 593c e7d9 af3c f431 c7bc 0a89 09bc
000000b0: b6ee 413c f51f 4d3d 8dac 9e3c fe15 66bc
000000c0: a889 3d3c 05b1 36bd a314 17bd b35e 583c
000000d0: 11a5 043d fa51 1ebd 7a81 1ebd b6ee 9aba
000000e0: 9c30 673d 45a1 a63b cc46 41bd 047a 1bbd
000000f0: c632 fabd 63d1 1dbd 2f95 64bc a2b9 4abd
00000100: ce4b 9cbc d7ef 8ebb 64b8 48bc ed4d 503d
00000110: 2c19 883d 3109 26bd 3240 f3bb 4a61 e03b
00000120: e6b5 f7ba 0837 62bd d32a 6dbd 9b88 c5bc
00000130: 43d3 823a be2f 33bc c08f 83bd aa88 45bd
00000140: f0ea c03d c05b 21bd 794f b93c 0150 df3c
00000150: f36d 103c 5c80 e3bc 96d7 573d bc0c 9ebd
00000160: 3e7e 4f3d 75da 5d3d cb8c fe3c 9803 4d3d
00000170: b53c 3539 5903 b4bc 6fef b3bc 160c bc3c
00000180: e41f 7539 4d09 303d fcf7 b6bd 1e39 333b
00000190: c234 a63c c829 503d 1bb5 023c 4184 363d
000001a0: 18b7 96bc e908 46bb a01e a23d 53b6 f4bc
000001b0: b96c 9a3d 399d 7cbc afec 903c 1afe 1cbc
000001c0: 8366 bf3c dcda 22bc a6ca c2bc f102 563c
000001d0: 129c 683d ecd7 58bb 953d e83c 5235 23bd
000001e0: fda2 5ebd 5860 823d 51a6 c2bc 0a6b 9abd
000001f0: 436a a2bc f89c 07bd 0cbc adbc 1f29 21bd
00000200: 241a 713d e7da 903d 9c29 6b3d 9a43 12bd
00000210: 0480 213d 79cc 903c afc6 c83b a88b cc3d
00000220: 9b39 85ba daa2 a1bd c648 5b3c 0ef5 973d
00000230: e0e6 6d3d 4887 d53d a927 3fbd cd50 be3c
00000240: d44f 04be 5d46 b5bc a3c2 443d ea12 983d
00000250: dccd c83d 1e2b c83d 8a22 ae3d f053 2b3d
00000260: f198 e0bc 45f0 e03d 9c91 9abd 28a0 6dbd
00000270: eb02 342f 1d58 ab3c e7b0 a03c 289e 063e
00000280: cf66 b03d 3d6a d9bc 9a4e 013e 011c 64bb
00000290: c654 32bd db93 b83d 0137 033d 0a9c 87bc
000002a0: c6f3 bc3c ffe0 7a3c 3ded 793d f813 303d
000002b0: 9f1d c33d 098d f1bb 804d c3bc 3c84 cf3d
000002c0: 68d1 183b 30df 3f3d 03e3 47bd d736 0b3e
000002d0: 5ba0 be3c 48d0 82bc daa0 563d 5904 2c3d
000002e0: 8d54 1dbd 9315 453d d162 ac3b a179 92bd
000002f0: ca92 bfbd c027 7fbd b28b 45bd 68b5 ff3d
00000300: aed7 d8bc 9ec6 ce3b f7c7 5bbb 494d 04bb
00000310: 6b7c 5c3c 31cc 15bd b83d 58bb 97ad b03c
00000320: cf98 9938 ef46 143b cc13 b63b 2443 613c
00000330: 88ab b8bc 2b29 9dbb 6849 1dbb 1426 96bb
00000340: a889 8ab7 18cc cfba f557 34bb 6a98 bab9
00000350: 255a 8dba 2d5a 28bb 88c1 032f 4f44 15bd
00000360: 5e33 0cbb f021 9fba ad85 4e38 9543 ccba
00000370: f471 5328 7d04 d03b 8360 b13c f39e 1e3b
00000380: 0a99 09bd 9848 7b3b cd1e 50bd c794 ebac
00000390: f04d f23a 639a d4ba 6c13 47bb 2eea 9eba
000003a0: e413 65bc 8373 5f3d d33e f5ba 0bfa de3a
000003b0: bce5 72bb 9856 12ba d1a8 28bb 65c7 633b
000003c0: 894d 39bb 49e8 1abb e940 ceba 0c3a beba
000003d0: a0c0 c4ba d070 09b8 127e acbc d228 baba
000003e0: 2851 023a 7e63 223c 9eba 12ba acb9 9c39
000003f0: 394d 8538 125b 84b9 876b c2bb e3ce 043d
